…
        min_scale: 0.3
        max_scale: 1
        min_aspect_ratio: 0.5
        max_aspect_ratio: 2
      }
      sample_constraint {
        min_jaccard_overlap: 0.9
      }
      max_sample: 1
      max_trials: 50
    }
    batch_sampler {
      sampler {
        min_scale: 0.3
        max_scale: 1
        min_aspect_ratio: 0.5
        max_aspect_ratio: 2
      }
      sample_constraint {
        max_jaccard_overlap: 1
      }
      max_sample: 1
      max_trials: 50
    }
    label_map_file: "data/deepv_car_person/labelmap_voc.prototxt"
  }
}
layer {
  name: "conv3_4_sum"
  type: "Convolution"
  bottom: "data"
  top: "conv3_4_sum"
  param {
    lr_mult: 1
    decay_mult: 1
  }
  param {
    lr_mult: 2
    decay_mult: 0
  }
  convolution_param {
    num_output: 512
    pad: 1
    kernel_size: 3
    stride: 2
    weight_filler {
      type: "xavier"
    }
    bias_filler {
      type: "constant"
      value: 0
    }
  }
}
layer {
  name: "conv3_4_sum_relu"
  type: "ReLU"
  bottom: "conv3_4_sum"
  top: "conv3_4_sum"
}
layer {
  name: "conv4_6_sum"
  type: "Convolution"
  bottom: "conv3_4_sum"
  top: "conv4_6_sum"
  param {
    lr_mult: 1
    decay_mult: 1
  }
  param {
    lr_mult: 2
    decay_mult: 0
  }
  convolution_param {
    num_output: 512
    pad: 1
    kernel_size: 3
    stride: 2
    weight_filler {
      type: "xavier"
    }
    bias_filler {
      type: "constant"
      value: 0
    }
  }
}
layer {
  name: "conv4_6_sum_relu"
  type: "ReLU"
  bottom: "conv4_6_sum"
  top: "conv4_6_sum"
}
layer {
  name: "conv6_1"
  type: "Convolution"
  bottom: "conv4_6_sum"
  top: "conv6_1"
  param {
    lr_mult: 1
    decay_mult: 1
  }
  param {
    lr_mult: 2
    decay_mult: 0
  }
  convolution_param {
    num_output: 256
    pad: 0
    kernel_size: 1
    stride: 1
    weight_filler {
      type: "xavier"
    }
    bias_filler {
      type: "constant"
      value: 0
    }
  }
}
layer {
  name: "conv6_1_relu"
  type: "ReLU"
  bottom: "conv6_1"
  top: "conv6_1"
}
layer {
  name: "conv6_2"
  type: "Convolution"
  bottom: "conv6_1"
  top: "conv6_2"
  param {
    lr_mult: 1
    decay_mult: 1
  }
  param {
    lr_mult: 2
    decay_mult: 0
  }
  convolution_param {
    num_output: 512
    pad: 1
    kernel_size: 3
    stride: 2
    weight_filler {
      type: "xavier"
    }
    bias_filler {
      type: "constant"
      value: 0
    }
  }
}
layer {
  name: "conv6_2_relu"
  type: "ReLU"
  bottom: "conv6_2"
  top: "conv6_2"
}
layer {
  name: "conv7_1"
  type: "Convolution"
  bottom: "conv6_2"
  top: "conv7_1"
  param {
    lr_mult: 1
    decay_mult: 1
  }
  param {
    lr_mult: 2
    decay_mult: 0
  }
  convolution_param {
    num_output: 128
    pad: 0
    kernel_size: 1
    stride: 1
    weight_filler {
      type: "xavier"
    }
    bias_filler {
      type: "constant"
      value: 0
    }
  }
}
layer {
  name: "conv7_1_relu"
  type: "ReLU"
  bottom: "conv7_1"
  top: "conv7_1"
}
layer {
  name: "conv7_2"
  type: "Convolution"
  bottom: "conv7_1"
  top: "conv7_2"
  param {
    lr_mult: 1
    decay_mult: 1
  }
  param {
    lr_mult: 2
    decay_mult: 0
  }
  convolution_param {
    num_output: 256
    pad: 1
    kernel_size: 3
    stride: 2
    weight_filler {
      type: "xavier"
    }
    bias_filler {
      type: "constant"
      value: 0
    }
  }
}
layer {
  name: "conv7_2_relu"
  type: "ReLU"
  bottom: "conv7_2"
  top: "conv7_2"
}
layer {
  name: "conv8_1"
  type: "Convolution"
  bottom: "conv7_2"
  top: "conv8_1"
  param {
    lr_mult: 1
    decay_mult: 1
  }
  param {
    lr_mult: 2
    decay_mult: 0
  }
  convolution_param {
    num_output: 128
    pad: 0
    kernel_size: 1
    stride: 1
    weight_filler {
      type: "xavier"
    }
    bias_filler {
      type: "constant"
      value: 0
    }
  }
}
layer {
  name: "conv8_1_relu"
  type: "ReLU"
  bottom: "conv8_1"
  top: "conv8_1"
}
layer {
  name: "conv8_2"
  type: "Convolution"
  bottom: "conv8_1"
  top: "conv8_2"
  param {
    lr_mult: 1
    decay_mult: 1
  }
  param {
    lr_mult: 2
    decay_mult: 0
  }
  convolution_param {
    num_output: 256
    pad: 1
    kernel_size: 3
    stride: 2
    weight_filler {
      type: "xavier"
    }
    bias_filler {
      type: "constant"
      value: 0
    }
  }
}
layer {
  name: "conv8_2_relu"
  type: "ReLU"
  bottom: "conv8_2"
  top: "conv8_2"
}
layer {
  name: "pool6"
  type: "Pooling"
  bottom: "conv8_2"
  top: "pool6"
  pooling_param {
    pool: AVE
    global_pooling: true
  }
}
layer {
  name: "conv3_4_sum_norm"
  type: "Normalize"
  bottom: "conv3_4_sum"
  top: "conv3_4_sum_norm"
  norm_param {
    across_spatial: false
    scale_filler {
      type: "constant"
      value: 20
    }
    channel_shared: false
  }
}
layer {
  name: "conv3_4_sum_norm_mbox_loc"
  type: "Convolution"
  bottom: "conv3_4_sum_norm"
  top: "conv3_4_sum_norm_mbox_loc"
  param {
    lr_mult: 1
    decay_mult: 1
  }
  param {
    lr_mult: 2
    decay_mult: 0
  }
  convolution_param {
    num_output: 12
    pad: 1
    kernel_size: 3
    stride: 1
    weight_filler {
      type: "xavier"
    }
    bias_filler {
      type: "constant"
      value: 0
    }
  }
}
layer {
  name: "conv3_4_sum_norm_mbox_loc_perm"
  type: "Permute"
  bottom: "conv3_4_sum_norm_mbox_loc"
  top: "conv3_4_sum_norm_mbox_loc_perm"
  permute_param {
    order: 0
    order: 2
    order: 3
    order: 1
  }
}
layer {
  name: "conv3_4_sum_norm_mbox_loc_flat"
  type: "Flatten"
  bottom: "conv3_4_sum_norm_mbox_loc_perm"
  top: "conv3_4_sum_norm_mbox_loc_flat"
  flatten_param {
    axis: 1
  }
}
layer {
  name: "conv3_4_sum_norm_mbox_conf"
  type: "Convolution"
  bottom: "conv3_4_sum_norm"
  top: "conv3_4_sum_norm_mbox_conf"
  param {
    lr_mult: 1
    decay_mult: 1
  }
  param {
    lr_mult: 2
    decay_mult: 0
  }
  convolution_param {
    num_output: 15
    pad: 1
    kernel_size: 3
    stride: 1
    weight_filler {
      type: "xavier"
    }
    bias_filler {
      type: "constant"
      value: 0
    }
  }
}
layer {
  name: "conv3_4_sum_norm_mbox_conf_perm"
  type: "Permute"
  bottom: "conv3_4_sum_norm_mbox_conf"
  top: "conv3_4_sum_norm_mbox_conf_perm"
  permute_param {
    order: 0
    order: 2
    order: 3
    order: 1
  }
}
layer {
  name: "conv3_4_sum_norm_mbox_conf_flat"
  type: "Flatten"
  bottom: "conv3_4_sum_norm_mbox_conf_perm"
  top: "conv3_4_sum_norm_mbox_conf_flat"
  flatten_param {
    axis: 1
  }
}
layer {
  name: "conv3_4_sum_norm_mbox_priorbox"
  type: "PriorBox"
  bottom: "conv3_4_sum_norm"
  bottom: "data"
  top: "conv3_4_sum_norm_mbox_priorbox"
  prior_box_param {
    min_size: 50
    aspect_ratio: 2
    flip: true
    clip: true
    variance: 0.1
    variance: 0.1
    variance: 0.2
    variance: 0.2
  }
}
layer {
  name: "conv4_6_sum_mbox_loc"
  type: "Convolution"
  bottom: "conv4_6_sum"
  top: "conv4_6_sum_mbox_loc"
  param {
    lr_mult: 1
    decay_mult: 1
  }
  param {
    lr_mult: 2
    decay_mult: 0
  }
  convolution_param {
    num_output: 24
    pad: 1
    kernel_size: 3
    stride: 1
    weight_filler {
      type: "xavier"
    }
    bias_filler {
      type: "constant"
      value: 0
    }
  }
}
layer {
  name: "conv4_6_sum_mbox_loc_perm"
  type: "Permute"
  bottom: "conv4_6_sum_mbox_loc"
  top: "conv4_6_sum_mbox_loc_perm"
  permute_param {
    order: 0
    order: 2
    order: 3
    order: 1
  }
}
layer {
  name: "conv4_6_sum_mbox_loc_flat"
  type: "Flatten"
  bottom: "conv4_6_sum_mbox_loc_perm"
  top: "conv4_6_sum_mbox_loc_flat"
  flatten_param {
    axis: 1
  }
}
layer {
  name: "conv4_6_sum_mbox_conf"
  type: "Convolution"
  bottom: "conv4_6_sum"
  top: "conv4_6_sum_mbox_conf"
  param {
    lr_mult: 1
    decay_mult: 1
  }
  param {
    lr_mult: 2
    decay_mult: 0
  }
  convolution_param {
    num_output: 30
    pad: 1
    kernel_size: 3
    stride: 1
    weight_filler {
      type: "xavier"
    }
    bias_filler {
      type: "constant"
      value: 0
    }
  }
}
layer {
  name: "conv4_6_sum_mbox_conf_perm"
  type: "Permute"
  bottom: "conv4_6_sum_mbox_conf"
  top: "conv4_6_sum_mbox_conf_perm"
  permute_param {
    order: 0
    order: 2
    order: 3
    order: 1
  }
}
layer {
  name: "conv4_6_sum_mbox_conf_flat"
  type: "Flatten"
  bottom: "conv4_6_sum_mbox_conf_perm"
  top: "conv4_6_sum_mbox_conf_flat"
  flatten_param {
    axis: 1
  }
}
layer {
  name: "conv4_6_sum_mbox_priorbox"
  type: "PriorBox"
  bottom: "conv4_6_sum"
  bottom: "data"
  top: "conv4_6_sum_mbox_priorbox"
  prior_box_param {
    min_size: 100
    max_size: 190
    aspect_ratio: 2
    aspect_ratio: 3
    flip: true
    clip: true
    variance: 0.1
    variance: 0.1
    variance: 0.2
    variance: 0.2
  }
}
layer {
  name: "conv6_2_mbox_loc"
  type: "Convolution"
  bottom: "conv6_2"
  top: "conv6_2_mbox_loc"
  param {
    lr_mult: 1
    decay_mult: 1
  }
  param {
    lr_mult: 2
    decay_mult: 0
  }
  convolution_param {
    num_output: 24
    pad: 1
    kernel_size: 3
    stride: 1
    weight_filler {
      type: "xavier"
    }
    bias_filler {
      type: "constant"
      value: 0
    }
  }
}
layer {
  name: "conv6_2_mbox_loc_perm"
  type: "Permute"
  bottom: "conv6_2_mbox_loc"
  top: "conv6_2_mbox_loc_perm"
  permute_param {
    order: 0
    order: 2
    order: 3
    order: 1
  }
}
layer {
  name: "conv6_2_mbox_loc_flat"
  type: "Flatten"
  bottom: "conv6_2_mbox_loc_perm"
  top: "conv6_2_mbox_loc_flat"
  flatten_param {
    axis: 1
  }
}
layer {
  name: "conv6_2_mbox_conf"
  type: "Convolution"
  bottom: "conv6_2"
  top: "conv6_2_mbox_conf"
  param {
    lr_mult: 1
    decay_mult: 1
  }
  param {
    lr_mult: 2
    decay_mult: 0
  }
  convolution_param {
    num_output: 30
    pad: 1
    kernel_size: 3
    stride: 1
    weight_filler {
      type: "xavier"
    }
    bias_filler {
      type: "constant"
      value: 0
    }
  }
}
layer {
  name: "conv6_2_mbox_conf_perm"
  type: "Permute"
  bottom: "conv6_2_mbox_conf"
  top: "conv6_2_mbox_conf_perm"
  permute_param {
    order: 0
    order: 2
    order: 3
    order: 1
  }
}
layer {
  name: "conv6_2_mbox_conf_flat"
  type: "Flatten"
  bottom: "conv6_2_mbox_conf_perm"
  top: "conv6_2_mbox_conf_flat"
  flatten_param {
    axis: 1
  }
}
layer {
  name: "conv6_2_mbox_priorbox"
  type: "PriorBox"
  bottom: "conv6_2"
  bottom: "data"
  top: "conv6_2_mbox_priorbox"
  prior_box_param {
    min_size: 190
    max_size: 280
    aspect_ratio: 2
    aspect_ratio: 3
    flip: true
    clip: true
    variance: 0.1
    variance: 0.1
    variance: 0.2
    variance: 0.2
  }
}
layer {
  name: "conv7_2_mbox_loc"
  type: "Convolution"
  bottom: "conv7_2"
  top: "conv7_2_mbox_loc"
  param {
    lr_mult: 1
    decay_mult: 1
  }
  param {
    lr_mult: 2
    decay_mult: 0
  }
  convolution_param {
    num_output: 24
    pad: 1
    kernel_size: 3
    stride: 1
    weight_filler {
      type: "xavier"
    }
    bias_filler {
      type: "constant"
      value: 0
    }
  }
}
layer {
  name: "conv7_2_mbox_loc_perm"
  type: "Permute"
  bottom: "conv7_2_mbox_loc"
  top: "conv7_2_mbox_loc_perm"
  permute_param {
    order: 0
    order: 2
    order: 3
    order: 1
  }
}
layer {
  name: "conv7_2_mbox_loc_flat"
  type: "Flatten"
  bottom: "conv7_2_mbox_loc_perm"
  top: "conv7_2_mbox_loc_flat"
  flatten_param {
    axis: 1
  }
}
layer {
  name: "conv7_2_mbox_conf"
  type: "Convolution"
  bottom: "conv7_2"
  top: "conv7_2_mbox_conf"
  param {
    lr_mult: 1
    decay_mult: 1
  }
  param {
    lr_mult: 2
    decay_mult: 0
  }
  convolution_param {
    num_output: 30
    pad: 1
    kernel_size: 3
    stride: 1
    weight_filler {
      type: "xavier"
    }
    bias_filler {
      type: "constant"
      value: 0
    }
  }
}
layer {
  name: "conv7_2_mbox_conf_perm"
  type: "Permute"
  bottom: "conv7_2_mbox_conf"
  top: "conv7_2_mbox_conf_perm"
  permute_param {
    order: 0
    order: 2
    order: 3
    order: 1
  }
}
layer {
  name: "conv7_2_mbox_conf_flat"
  type: "Flatten"
  bottom: "conv7_2_mbox_conf_perm"
  top: "conv7_2_mbox_conf_flat"
  flatten_param {
    axis: 1
  }
}
layer {
  name: "conv7_2_mbox_priorbox"
  type: "PriorBox"
  bottom: "conv7_2"
  bottom: "data"
  top: "conv7_2_mbox_priorbox"
  prior_box_param {
    min_size: 280
    max_size: 370
    aspect_ratio: 2
    aspect_ratio: 3
    flip: true
    clip: true
    variance: 0.1
    variance: 0.1
    variance: 0.2
    variance: 0.2
  }
}
layer {
  name: "conv8_2_mbox_loc"
  type: "Convolution"
  bottom: "conv8_2"
  top: "conv8_2_mbox_loc"
  param {
    lr_mult: 1
    decay_mult: 1
  }
  param {
    lr_mult: 2
    decay_mult: 0
  }
  convolution_param {
    num_output: 24
    pad: 1
    kernel_size: 3
    stride: 1
    weight_filler {
      type: "xavier"
    }
    bias_filler {
      type: "constant"
      value: 0
    }
  }
}
layer {
  name: "conv8_2_mbox_loc_perm"
  type: "Permute"
  bottom: "conv8_2_mbox_loc"
  top: "conv8_2_mbox_loc_perm"
  permute_param {
    order: 0
    order: 2
    order: 3
    order: 1
  }
}
layer {
  name: "conv8_2_mbox_loc_flat"
  type: "Flatten"
  bottom: "conv8_2_mbox_loc_perm"
  top: "conv8_2_mbox_loc_flat"
  flatten_param {
    axis: 1
  }
}
layer {
  name: "conv8_2_mbox_conf"
  type: "Convolution"
  bottom: "conv8_2"
  top: "conv8_2_mbox_conf"
  param {
    lr_mult: 1
    decay_mult: 1
  }
  param {
    lr_mult: 2
    decay_mult: 0
  }
  convolution_param {
    num_output: 30
    pad: 1
    kernel_size: 3
    stride: 1
    weight_filler {
      type: "xavier"
    }
    bias_filler {
      type: "constant"
      value: 0
    }
  }
}
layer {
  name: "conv8_2_mbox_conf_perm"
  type: "Permute"
  bottom: "conv8_2_mbox_conf"
  top: "conv8_2_mbox_conf_perm"
  permute_param {
    order: 0
    order: 2
    order: 3
    order: 1
  }
}
layer {
  name: "conv8_2_mbox_conf_flat"
  type: "Flatten"
  bottom: "conv8_2_mbox_conf_perm"
  top: "conv8_2_mbox_conf_flat"
  flatten_param {
    axis: 1
  }
}
layer {
  name: "conv8_2_mbox_priorbox"
  type: "PriorBox"
  bottom: "conv8_2"
  bottom: "data"
  top: "conv8_2_mbox_priorbox"
  prior_box_param {
    min_size: 370
    max_size: 460
    aspect_ratio: 2
    aspect_ratio: 3
    flip: true
    clip: true
    variance: 0.1
    variance: 0.1
    variance: 0.2
    variance: 0.2
  }
}
layer {
  name: "pool6_mbox_loc"
  type: "Convolution"
  bottom: "pool6"
  top: "pool6_mbox_loc"
  param {
    lr_mult: 1
    decay_mult: 1
  }
  param {
    lr_mult: 2
    decay_mult: 0
  }
  convolution_param {
    num_output: 24
    pad: 1
    kernel_size: 3
    stride: 1
    weight_filler {
      type: "xavier"
    }
    bias_filler {
      type: "constant"
      value: 0
    }
  }
}
layer {
  name: "pool6_mbox_loc_perm"
  type: "Permute"
  bottom: "pool6_mbox_loc"
  top: "pool6_mbox_loc_perm"
  permute_param {
    order: 0
    order: 2
    order: 3
    order: 1
  }
}
layer {
  name: "pool6_mbox_loc_flat"
  type: "Flatten"
  bottom: "pool6_mbox_loc_perm"
  top: "pool6_mbox_loc_flat"
  flatten_param {
    axis: 1
  }
}
layer {
  name: "pool6_mbox_conf"
  type: "Convolution"
  bottom: "pool6"
  top: "pool6_mbox_conf"
  param {
    lr_mult: 1
    decay_mult: 1
  }
  param {
    lr_mult: 2
    decay_mult: 0
  }
  convolution_param {
    num_output: 30
    pad: 1
    kernel_size: 3
    stride: 1
    weight_filler {
      type: "xavier"
    }
    bias_filler {
      type: "constant"
      value: 0
    }
  }
}
layer {
  name: "pool6_mbox_conf_perm"
  type: "Permute"
  bottom: "pool6_mbox_conf"
  top: "pool6_mbox_conf_perm"
  permute_param {
    order: 0
    order: 2
    order: 3
    order: 1
  }
}
layer {
  name: "pool6_mbox_conf_flat"
  type: "Flatten"
  bottom: "pool6_mbox_conf_perm"
  top: "pool6_mbox_conf_flat"
  flatten_param {
    axis: 1
  }
}
layer {
  name: "pool6_mbox_priorbox"
  type: "PriorBox"
  bottom: "pool6"
  bottom: "data"
  top: "pool6_mbox_priorbox"
  prior_box_param {
    min_size: 460
    max_size: 550
    aspect_ratio: 2
    aspect_ratio: 3
    flip: true
    clip: true
    variance: 0.1
    variance: 0.1
    variance: 0.2
    variance: 0.2
  }
}
layer {
  name: "mbox_loc"
  type: "Concat"
  bottom: "conv3_4_sum_norm_mbox_loc_flat"
  bottom: "conv4_6_sum_mbox_loc_flat"
  bottom: "conv6_2_mbox_loc_flat"
  bottom: "conv7_2_mbox_loc_flat"
  bottom: "conv8_2_mbox_loc_flat"
  bottom: "pool6_mbox_loc_flat"
  top: "mbox_loc"
  concat_param {
    axis: 1
  }
}
layer {
  name: "mbox_conf"
  type: "Concat"
  bottom: "conv3_4_sum_norm_mbox_conf_flat"
  bottom: "conv4_6_sum_mbox_conf_flat"
  bottom: "conv6_2_mbox_conf_flat"
  bottom: "conv7_2_mbox_conf_flat"
  bottom: "conv8_2_mbox_conf_flat"
  bottom: "pool6_mbox_conf_flat"
  top: "mbox_conf"
  concat_param {
    axis: 1
  }
}
layer {
  name: "mbox_priorbox"
  type: "Concat"
  bottom: "conv3_4_sum_norm_mbox_priorbox"
  bottom: "conv4_6_sum_mbox_priorbox"
  bottom: "conv6_2_mbox_priorbox"
  bottom: "conv7_2_mbox_priorbox"
  bottom: "conv8_2_mbox_priorbox"
  bottom: "pool6_mbox_priorbox"
  top: "mbox_priorbox"
  concat_param {
    axis: 2
  }
}
layer {
  name: "mbox_loss"
  type: "MultiBoxLoss"
  bottom: "mbox_loc"
  bottom: "mbox_conf"
  bottom: "mbox_priorbox"
  bottom: "label"
  top: "mbox_loss"
  include {
    phase: TRAIN
  }
  propagate_down: true
  propagate_down: true
  propagate_down: false
  propagate_down: false
  loss_param {
    normalization: VALID
  }
  multibox_loss_param {
    loc_loss_type: SMOOTH_L1
    conf_loss_type: SOFTMAX
    loc_weight: 1
    num_classes: 5
    share_location: true
    match_type: PER_PREDICTION
    overlap_threshold: 0.5
    use_prior_for_matching: true
    background_label_id: 0
    use_difficult_gt: true
    do_neg_mining: true
    neg_pos_ratio: 3
    neg_overlap: 0.5
    code_type: CENTER_SIZE
  }
}
I0519 19:07:04.686569 12393 layer_factory.hpp:77] Creating layer data
I0519 19:07:04.687567 12393 net.cpp:91] Creating Layer data
I0519 19:07:04.687650 12393 net.cpp:399] data -> data
I0519 19:07:04.687705 12393 net.cpp:399] data -> label
I0519 19:07:04.690152 12397 db_lmdb.cpp:35] Opened lmdb examples/VOC0712/VOC0712_trainval_lmdb
I0519 19:07:04.704537 12393 annotated_data_layer.cpp:52] output data size: 8,3,500,500
I0519 19:07:04.764701 12393 net.cpp:141] Setting up data
I0519 19:07:04.764755 12393 net.cpp:148] Top shape: 8 3 500 500 (6000000)
I0519 19:07:04.764763 12393 net.cpp:148] Top shape: 1 1 2 8 (16)
I0519 19:07:04.764770 12393 net.cpp:156] Memory required for data: 24000064
I0519 19:07:04.764786 12393 layer_factory.hpp:77] Creating layer data_data_0_split
I0519 19:07:04.764811 12393 net.cpp:91] Creating Layer data_data_0_split
I0519 19:07:04.764822 12393 net.cpp:425] data_data_0_split <- data
I0519 19:07:04.764839 12393 net.cpp:399] data_data_0_split -> data_data_0_split_0
I0519 19:07:04.764858 12393 net.cpp:399] data_data_0_split -> data_data_0_split_1
I0519 19:07:04.764866 12393 net.cpp:399] data_data_0_split -> data_data_0_split_2
I0519 19:07:04.764875 12393 net.cpp:399] data_data_0_split -> data_data_0_split_3
I0519 19:07:04.764888 12393 net.cpp:399] data_data_0_split -> data_data_0_split_4
I0519 19:07:04.764895 12393 net.cpp:399] data_data_0_split -> data_data_0_split_5
I0519 19:07:04.764904 12393 net.cpp:399] data_data_0_split -> data_data_0_split_6
I0519 19:07:04.765035 12393 net.cpp:141] Setting up data_data_0_split
I0519 19:07:04.765046 12393 net.cpp:148] Top shape: 8 3 500 500 (6000000)
I0519 19:07:04.765053 12393 net.cpp:148] Top shape: 8 3 500 500 (6000000)
I0519 19:07:04.765059 12393 net.cpp:148] Top shape: 8 3 500 500 (6000000)
I0519 19:07:04.765065 12393 net.cpp:148] Top shape: 8 3 500 500 (6000000)
I0519 19:07:04.765069 12393 net.cpp:148] Top shape: 8 3 500 500 (6000000)
I0519 19:07:04.765074 12393 net.cpp:148] Top shape: 8 3 500 500 (6000000)
I0519 19:07:04.765080 12393 net.cpp:148] Top shape: 8 3 500 500 (6000000)
I0519 19:07:04.765086 12393 net.cpp:156] Memory required for data: 192000064
I0519 19:07:04.765091 12393 layer_factory.hpp:77] Creating layer conv3_4_sum
I0519 19:07:04.765115 12393 net.cpp:91] Creating Layer conv3_4_sum
I0519 19:07:04.765122 12393 net.cpp:425] conv3_4_sum <- data_data_0_split_0
I0519 19:07:04.765131 12393 net.cpp:399] conv3_4_sum -> conv3_4_sum
I0519 19:07:04.799756 12398 blocking_queue.cpp:50] Waiting for data
I0519 19:07:05.029490 12393 net.cpp:141] Setting up conv3_4_sum
I0519 19:07:05.029542 12393 net.cpp:148] Top shape: 8 512 250 250 (256000000)
I0519 19:07:05.029549 12393 net.cpp:156] Memory required for data: 1216000064
I0519 19:07:05.029573 12393 layer_factory.hpp:77] Creating layer conv3_4_sum_relu
I0519 19:07:05.029589 12393 net.cpp:91] Creating Layer conv3_4_sum_relu
I0519 19:07:05.029603 12393 net.cpp:425] conv3_4_sum_relu <- conv3_4_sum
I0519 19:07:05.029619 12393 net.cpp:386] conv3_4_sum_relu -> conv3_4_sum (in-place)
I0519 19:07:05.030041 12393 net.cpp:141] Setting up conv3_4_sum_relu
I0519 19:07:05.030066 12393 net.cpp:148] Top shape: 8 512 250 250 (256000000)
I0519 19:07:05.030076 12393 net.cpp:156] Memory required for data: 2240000064
I0519 19:07:05.030110 12393 layer_factory.hpp:77] Creating layer conv3_4_sum_conv3_4_sum_relu_0_split
I0519 19:07:05.030135 12393 net.cpp:91] Creating Layer conv3_4_sum_conv3_4_sum_relu_0_split
I0519 19:07:05.030149 12393 net.cpp:425] conv3_4_sum_conv3_4_sum_relu_0_split <- conv3_4_sum
I0519 19:07:05.030164 12393 net.cpp:399] conv3_4_sum_conv3_4_sum_relu_0_split -> conv3_4_sum_conv3_4_sum_relu_0_split_0
I0519 19:07:05.030184 12393 net.cpp:399] conv3_4_sum_conv3_4_sum_relu_0_split -> conv3_4_sum_conv3_4_sum_relu_0_split_1
I0519 19:07:05.030254 12393 net.cpp:141] Setting up conv3_4_sum_conv3_4_sum_relu_0_split
I0519 19:07:05.030270 12393 net.cpp:148] Top shape: 8 512 250 250 (256000000)
I0519 19:07:05.030306 12393 net.cpp:148] Top shape: 8 512 250 250 (256000000)
I0519 19:07:05.030318 12393 net.cpp:156] Memory required for data: 4288000064
I0519 19:07:05.030345 12393 layer_factory.hpp:77] Creating layer conv4_6_sum
I0519 19:07:05.030395 12393 net.cpp:91] Creating Layer conv4_6_sum
I0519 19:07:05.030424 12393 net.cpp:425] conv4_6_sum <- conv3_4_sum_conv3_4_sum_relu_0_split_0
I0519 19:07:05.030460 12393 net.cpp:399] conv4_6_sum -> conv4_6_sum
I0519 19:07:05.055335 12393 net.cpp:141] Setting up conv4_6_sum
I0519 19:07:05.055385 12393 net.cpp:148] Top shape: 8 512 125 125 (64000000)
I0519 19:07:05.055392 12393 net.cpp:156] Memory required for data: 4544000064
I0519 19:07:05.055409 12393 layer_factory.hpp:77] Creating layer conv4_6_sum_relu
I0519 19:07:05.055423 12393 net.cpp:91] Creating Layer conv4_6_sum_relu
I0519 19:07:05.055434 12393 net.cpp:425] conv4_6_sum_relu <- conv4_6_sum
I0519 19:07:05.055450 12393 net.cpp:386] conv4_6_sum_relu -> conv4_6_sum (in-place)
I0519 19:07:05.055821 12393 net.cpp:141] Setting up conv4_6_sum_relu
I0519 19:07:05.055842 12393 net.cpp:148] Top shape: 8 512 125 125 (64000000)
I0519 19:07:05.055851 12393 net.cpp:156] Memory required for data: 4800000064
I0519 19:07:05.055860 12393 layer_factory.hpp:77] Creating layer conv4_6_sum_conv4_6_sum_relu_0_split
I0519 19:07:05.055896 12393 net.cpp:91] Creating Layer conv4_6_sum_conv4_6_sum_relu_0_split
I0519 19:07:05.055907 12393 net.cpp:425] conv4_6_sum_conv4_6_sum_relu_0_split <- conv4_6_sum
I0519 19:07:05.055920 12393 net.cpp:399] conv4_6_sum_conv4_6_sum_relu_0_split -> conv4_6_sum_conv4_6_sum_relu_0_split_0
I0519 19:07:05.055953 12393 net.cpp:399] conv4_6_sum_conv4_6_sum_relu_0_split -> conv4_6_sum_conv4_6_sum_relu_0_split_1
I0519 19:07:05.055968 12393 net.cpp:399] conv4_6_sum_conv4_6_sum_relu_0_split -> conv4_6_sum_conv4_6_sum_relu_0_split_2
I0519 19:07:05.056001 12393 net.cpp:399] conv4_6_sum_conv4_6_sum_relu_0_split -> conv4_6_sum_conv4_6_sum_relu_0_split_3
I0519 19:07:05.056093 12393 net.cpp:141] Setting up conv4_6_sum_conv4_6_sum_relu_0_split
I0519 19:07:05.056109 12393 net.cpp:148] Top shape: 8 512 125 125 (64000000)
I0519 19:07:05.056138 12393 net.cpp:148] Top shape: 8 512 125 125 (64000000)
I0519 19:07:05.056149 12393 net.cpp:148] Top shape: 8 512 125 125 (64000000)
I0519 19:07:05.056162 12393 net.cpp:148] Top shape: 8 512 125 125 (64000000)
I0519 19:07:05.056172 12393 net.cpp:156] Memory required for data: 5824000064
I0519 19:07:05.056180 12393 layer_factory.hpp:77] Creating layer conv6_1
I0519 19:07:05.056205 12393 net.cpp:91] Creating Layer conv6_1
I0519 19:07:05.056213 12393 net.cpp:425] conv6_1 <- conv4_6_sum_conv4_6_sum_relu_0_split_0
I0519 19:07:05.056231 12393 net.cpp:399] conv6_1 -> conv6_1
I0519 19:07:05.059061 12393 net.cpp:141] Setting up conv6_1
I0519 19:07:05.059082 12393 net.cpp:148] Top shape: 8 256 125 125 (32000000)
I0519 19:07:05.059092 12393 net.cpp:156] Memory required for data: 5952000064
I0519 19:07:05.059116 12393 layer_factory.hpp:77] Creating layer conv6_1_relu
I0519 19:07:05.059128 12393 net.cpp:91] Creating Layer conv6_1_relu
I0519 19:07:05.059133 12393 net.cpp:425] conv6_1_relu <- conv6_1
I0519 19:07:05.059139 12393 net.cpp:386] conv6_1_relu -> conv6_1 (in-place)
I0519 19:07:05.059350 12393 net.cpp:141] Setting up conv6_1_relu
I0519 19:07:05.059365 12393 net.cpp:148] Top shape: 8 256 125 125 (32000000)
I0519 19:07:05.059371 12393 net.cpp:156] Memory required for data: 6080000064
I0519 19:07:05.059379 12393 layer_factory.hpp:77] Creating layer conv6_2
I0519 19:07:05.059401 12393 net.cpp:91] Creating Layer conv6_2
I0519 19:07:05.059411 12393 net.cpp:425] conv6_2 <- conv6_1
I0519 19:07:05.059427 12393 net.cpp:399] conv6_2 -> conv6_2
I0519 19:07:05.072443 12393 net.cpp:141] Setting up conv6_2
I0519 19:07:05.072489 12393 net.cpp:148] Top shape: 8 512 63 63 (16257024)
I0519 19:07:05.072499 12393 net.cpp:156] Memory required for data: 6145028160
I0519 19:07:05.072513 12393 layer_factory.hpp:77] Creating layer conv6_2_relu
I0519 19:07:05.072540 12393 net.cpp:91] Creating Layer conv6_2_relu
I0519 19:07:05.072548 12393 net.cpp:425] conv6_2_relu <- conv6_2
I0519 19:07:05.072576 12393 net.cpp:386] conv6_2_relu -> conv6_2 (in-place)
I0519 19:07:05.072907 12393 net.cpp:141] Setting up conv6_2_relu
I0519 19:07:05.072924 12393 net.cpp:148] Top shape: 8 512 63 63 (16257024)
I0519 19:07:05.072929 12393 net.cpp:156] Memory required for data: 6210056256
I0519 19:07:05.072934 12393 layer_factory.hpp:77] Creating layer conv6_2_conv6_2_relu_0_split
I0519 19:07:05.072945 12393 net.cpp:91] Creating Layer conv6_2_conv6_2_relu_0_split
I0519 19:07:05.072950 12393 net.cpp:425] conv6_2_conv6_2_relu_0_split <- conv6_2
I0519 19:07:05.072959 12393 net.cpp:399] conv6_2_conv6_2_relu_0_split -> conv6_2_conv6_2_relu_0_split_0
I0519 19:07:05.072969 12393 net.cpp:399] conv6_2_conv6_2_relu_0_split -> conv6_2_conv6_2_relu_0_split_1
I0519 19:07:05.072978 12393 net.cpp:399] conv6_2_conv6_2_relu_0_split -> conv6_2_conv6_2_relu_0_split_2
I0519 19:07:05.072984 12393 net.cpp:399] conv6_2_conv6_2_relu_0_split -> conv6_2_conv6_2_relu_0_split_3
I0519 19:07:05.073060 12393 net.cpp:141] Setting up conv6_2_conv6_2_relu_0_split
I0519 19:07:05.073070 12393 net.cpp:148] Top shape: 8 512 63 63 (16257024)
I0519 19:07:05.073074 12393 net.cpp:148] Top shape: 8 512 63 63 (16257024)
I0519 19:07:05.073079 12393 net.cpp:148] Top shape: 8 512 63 63 (16257024)
I0519 19:07:05.073084 12393 net.cpp:148] Top shape: 8 512 63 63 (16257024)
I0519 19:07:05.073088 12393 net.cpp:156] Memory required for data: 6470168640
I0519 19:07:05.073092 12393 layer_factory.hpp:77] Creating layer conv7_1
I0519 19:07:05.073108 12393 net.cpp:91] Creating Layer conv7_1
I0519 19:07:05.073117 12393 net.cpp:425] conv7_1 <- conv6_2_conv6_2_relu_0_split_0
I0519 19:07:05.073133 12393 net.cpp:399] conv7_1 -> conv7_1
I0519 19:07:05.074802 12393 net.cpp:141] Setting up conv7_1
I0519 19:07:05.074821 12393 net.cpp:148] Top shape: 8 128 63 63 (4064256)
I0519 19:07:05.074826 12393 net.cpp:156] Memory required for data: 6486425664
I0519 19:07:05.074841 12393 layer_factory.hpp:77] Creating layer conv7_1_relu
I0519 19:07:05.074851 12393 net.cpp:91] Creating Layer conv7_1_relu
I0519 19:07:05.074856 12393 net.cpp:425] conv7_1_relu <- conv7_1
I0519 19:07:05.074863 12393 net.cpp:386] conv7_1_relu -> conv7_1 (in-place)
I0519 19:07:05.075179 12393 net.cpp:141] Setting up conv7_1_relu
I0519 19:07:05.075196 12393 net.cpp:148] Top shape: 8 128 63 63 (4064256)
I0519 19:07:05.075201 12393 net.cpp:156] Memory required for data: 6502682688
I0519 19:07:05.075204 12393 layer_factory.hpp:77] Creating layer conv7_2
I0519 19:07:05.075222 12393 net.cpp:91] Creating Layer conv7_2
I0519 19:07:05.075227 12393 net.cpp:425] conv7_2 <- conv7_1
I0519 19:07:05.075234 12393 net.cpp:399] conv7_2 -> conv7_2
I0519 19:07:05.079640 12393 net.cpp:141] Setting up conv7_2
I0519 19:07:05.079717 12393 net.cpp:148] Top shape: 8 256 32 32 (2097152)
I0519 19:07:05.079751 12393 net.cpp:156] Memory required for data: 6511071296
I0519 19:07:05.079792 12393 layer_factory.hpp:77] Creating layer conv7_2_relu
I0519 19:07:05.079835 12393 net.cpp:91] Creating Layer conv7_2_relu
I0519 19:07:05.079865 12393 net.cpp:425] conv7_2_relu <- conv7_2
I0519 19:07:05.079897 12393 net.cpp:386] conv7_2_relu -> conv7_2 (in-place)
I0519 19:07:05.080260 12393 net.cpp:141] Setting up conv7_2_relu
I0519 19:07:05.080310 12393 net.cpp:148] Top shape: 8 256 32 32 (2097152)
I0519 19:07:05.080338 12393 net.cpp:156] Memory required for data: 6519459904
I0519 19:07:05.080366 12393 layer_factory.hpp:77] Creating layer conv7_2_conv7_2_relu_0_split
I0519 19:07:05.080402 12393 net.cpp:91] Creating Layer conv7_2_conv7_2_relu_0_split
I0519 19:07:05.080431 12393 net.cpp:425] conv7_2_conv7_2_relu_0_split <- conv7_2
I0519 19:07:05.080462 12393 net.cpp:399] conv7_2_conv7_2_relu_0_split -> conv7_2_conv7_2_relu_0_split_0
I0519 19:07:05.080503 12393 net.cpp:399] conv7_2_conv7_2_relu_0_split -> conv7_2_conv7_2_relu_0_split_1
I0519 19:07:05.080541 12393 net.cpp:399] conv7_2_conv7_2_relu_0_split -> conv7_2_conv7_2_relu_0_split_2
I0519 19:07:05.080576 12393 net.cpp:399] conv7_2_conv7_2_relu_0_split -> conv7_2_conv7_2_relu_0_split_3
I0519 19:07:05.080746 12393 net.cpp:141] Setting up conv7_2_conv7_2_relu_0_split
I0519 19:07:05.080786 12393 net.cpp:148] Top shape: 8 256 32 32 (2097152)
I0519 19:07:05.080814 12393 net.cpp:148] Top shape: 8 256 32 32 (2097152)
I0519 19:07:05.080844 12393 net.cpp:148] Top shape: 8 256 32 32 (2097152)
I0519 19:07:05.080875 12393 net.cpp:148] Top shape: 8 256 32 32 (2097152)
I0519 19:07:05.080904 12393 net.cpp:156] Memory required for data: 6553014336
I0519 19:07:05.080930 12393 layer_factory.hpp:77] Creating layer conv8_1
I0519 19:07:05.080974 12393 net.cpp:91] Creating Layer conv8_1
I0519 19:07:05.081007 12393 net.cpp:425] conv8_1 <- conv7_2_conv7_2_relu_0_split_0
I0519 19:07:05.081044 12393 net.cpp:399] conv8_1 -> conv8_1
I0519 19:07:05.083196 12393 net.cpp:141] Setting up conv8_1
I0519 19:07:05.083266 12393 net.cpp:148] Top shape: 8 128 32 32 (1048576)
I0519 19:07:05.083295 12393 net.cpp:156] Memory required for data: 6557208640
I0519 19:07:05.083334 12393 layer_factory.hpp:77] Creating layer conv8_1_relu
I0519 19:07:05.083370 12393 net.cpp:91] Creating Layer conv8_1_relu
I0519 19:07:05.083398 12393 net.cpp:425] conv8_1_relu <- conv8_1
I0519 19:07:05.083432 12393 net.cpp:386] conv8_1_relu -> conv8_1 (in-place)
I0519 19:07:05.084004 12393 net.cpp:141] Setting up conv8_1_relu
I0519 19:07:05.084059 12393 net.cpp:148] Top shape: 8 128 32 32 (1048576)
I0519 19:07:05.084094 12393 net.cpp:156] Memory required for data: 6561402944
I0519 19:07:05.084126 12393 layer_factory.hpp:77] Creating layer conv8_2
I0519 19:07:05.084180 12393 net.cpp:91] Creating Layer conv8_2
I0519 19:07:05.084216 12393 net.cpp:425] conv8_2 <- conv8_1
I0519 19:07:05.084256 12393 net.cpp:399] conv8_2 -> conv8_2
I0519 19:07:05.089010 12393 net.cpp:141] Setting up conv8_2
I0519 19:07:05.089038 12393 net.cpp:148] Top shape: 8 256 16 16 (524288)
I0519 19:07:05.089046 12393 net.cpp:156] Memory required for data: 6563500096
I0519 19:07:05.089059 12393 layer_factory.hpp:77] Creating layer conv8_2_relu
I0519 19:07:05.089072 12393 net.cpp:91] Creating Layer conv8_2_relu
I0519 19:07:05.089078 12393 net.cpp:425] conv8_2_relu <- conv8_2
I0519 19:07:05.089084 12393 net.cpp:386] conv8_2_relu -> conv8_2 (in-place)
I0519 19:07:05.089422 12393 net.cpp:141] Setting up conv8_2_relu
I0519 19:07:05.089439 12393 net.cpp:148] Top shape: 8 256 16 16 (524288)
I0519 19:07:05.089443 12393 net.cpp:156] Memory required for data: 6565597248
I0519 19:07:05.089448 12393 layer_factory.hpp:77] Creating layer conv8_2_conv8_2_relu_0_split
I0519 19:07:05.089457 12393 net.cpp:91] Creating Layer conv8_2_conv8_2_relu_0_split
I0519 19:07:05.089462 12393 net.cpp:425] conv8_2_conv8_2_relu_0_split <- conv8_2
I0519 19:07:05.089470 12393 net.cpp:399] conv8_2_conv8_2_relu_0_split -> conv8_2_conv8_2_relu_0_split_0
I0519 19:07:05.089483 12393 net.cpp:399] conv8_2_conv8_2_relu_0_split -> conv8_2_conv8_2_relu_0_split_1
I0519 19:07:05.089498 12393 net.cpp:399] conv8_2_conv8_2_relu_0_split -> conv8_2_conv8_2_relu_0_split_2
I0519 19:07:05.089505 12393 net.cpp:399] conv8_2_conv8_2_relu_0_split -> conv8_2_conv8_2_relu_0_split_3
I0519 19:07:05.089579 12393 net.cpp:141] Setting up conv8_2_conv8_2_relu_0_split
I0519 19:07:05.089588 12393 net.cpp:148] Top shape: 8 256 16 16 (524288)
I0519 19:07:05.089594 12393 net.cpp:148] Top shape: 8 256 16 16 (524288)
I0519 19:07:05.089601 12393 net.cpp:148] Top shape: 8 256 16 16 (524288)
I0519 19:07:05.089607 12393 net.cpp:148] Top shape: 8 256 16 16 (524288)
I0519 19:07:05.089609 12393 net.cpp:156] Memory required for data: 6573985856
I0519 19:07:05.089614 12393 layer_factory.hpp:77] Creating layer pool6
I0519 19:07:05.089628 12393 net.cpp:91] Creating Layer pool6
I0519 19:07:05.089634 12393 net.cpp:425] pool6 <- conv8_2_conv8_2_relu_0_split_0
I0519 19:07:05.089642 12393 net.cpp:399] pool6 -> pool6
I0519 19:07:05.089895 12393 net.cpp:141] Setting up pool6
I0519 19:07:05.089908 12393 net.cpp:148] Top shape: 8 256 1 1 (2048)
I0519 19:07:05.089913 12393 net.cpp:156] Memory required for data: 6573994048
I0519 19:07:05.089917 12393 layer_factory.hpp:77] Creating layer pool6_pool6_0_split
I0519 19:07:05.089938 12393 net.cpp:91] Creating Layer pool6_pool6_0_split
I0519 19:07:05.089943 12393 net.cpp:425] pool6_pool6_0_split <- pool6
I0519 19:07:05.089949 12393 net.cpp:399] pool6_pool6_0_split -> pool6_pool6_0_split_0
I0519 19:07:05.089961 12393 net.cpp:399] pool6_pool6_0_split -> pool6_pool6_0_split_1
I0519 19:07:05.089969 12393 net.cpp:399] pool6_pool6_0_split -> pool6_pool6_0_split_2
I0519 19:07:05.090050 12393 net.cpp:141] Setting up pool6_pool6_0_split
I0519 19:07:05.090091 12393 net.cpp:148] Top shape: 8 256 1 1 (2048)
I0519 19:07:05.090134 12393 net.cpp:148] Top shape: 8 256 1 1 (2048)
I0519 19:07:05.090145 12393 net.cpp:148] Top shape: 8 256 1 1 (2048)
I0519 19:07:05.090150 12393 net.cpp:156] Memory required for data: 6574018624
I0519 19:07:05.090154 12393 layer_factory.hpp:77] Creating layer conv3_4_sum_norm
I0519 19:07:05.090165 12393 net.cpp:91] Creating Layer conv3_4_sum_norm
I0519 19:07:05.090170 12393 net.cpp:425] conv3_4_sum_norm <- conv3_4_sum_conv3_4_sum_relu_0_split_1
I0519 19:07:05.090178 12393 net.cpp:399] conv3_4_sum_norm -> conv3_4_sum_norm
I0519 19:07:05.090431 12393 net.cpp:141] Setting up conv3_4_sum_norm
I0519 19:07:05.090442 12393 net.cpp:148] Top shape: 8 512 250 250 (256000000)
I0519 19:07:05.090446 12393 net.cpp:156] Memory required for data: 7598018624
I0519 19:07:05.090458 12393 layer_factory.hpp:77] Creating layer conv3_4_sum_norm_conv3_4_sum_norm_0_split
I0519 19:07:05.090466 12393 net.cpp:91] Creating Layer conv3_4_sum_norm_conv3_4_sum_norm_0_split
I0519 19:07:05.090469 12393 net.cpp:425] conv3_4_sum_norm_conv3_4_sum_norm_0_split <- conv3_4_sum_norm
I0519 19:07:05.090476 12393 net.cpp:399] conv3_4_sum_norm_conv3_4_sum_norm_0_split -> conv3_4_sum_norm_conv3_4_sum_norm_0_split_0
I0519 19:07:05.090489 12393 net.cpp:399] conv3_4_sum_norm_conv3_4_sum_norm_0_split -> conv3_4_sum_norm_conv3_4_sum_norm_0_split_1
I0519 19:07:05.090497 12393 net.cpp:399] conv3_4_sum_norm_conv3_4_sum_norm_0_split -> conv3_4_sum_norm_conv3_4_sum_norm_0_split_2
I0519 19:07:05.090549 12393 net.cpp:141] Setting up conv3_4_sum_norm_conv3_4_sum_norm_0_split
I0519 19:07:05.090559 12393 net.cpp:148] Top shape: 8 512 250 250 (256000000)
I0519 19:07:05.090564 12393 net.cpp:148] Top shape: 8 512 250 250 (256000000)
I0519 19:07:05.090569 12393 net.cpp:148] Top shape: 8 512 250 250 (256000000)
I0519 19:07:05.090574 12393 net.cpp:156] Memory required for data: 10670018624
I0519 19:07:05.090579 12393 layer_factory.hpp:77] Creating layer conv3_4_sum_norm_mbox_loc
I0519 19:07:05.090592 12393 net.cpp:91] Creating Layer conv3_4_sum_norm_mbox_loc
I0519 19:07:05.090598 12393 net.cpp:425] conv3_4_sum_norm_mbox_loc <- conv3_4_sum_norm_conv3_4_sum_norm_0_split_0
I0519 19:07:05.090606 12393 net.cpp:399] conv3_4_sum_norm_mbox_loc -> conv3_4_sum_norm_mbox_loc
I0519 19:07:05.092799 12393 net.cpp:141] Setting up conv3_4_sum_norm_mbox_loc
I0519 19:07:05.092819 12393 net.cpp:148] Top shape: 8 12 250 250 (6000000)
I0519 19:07:05.092824 12393 net.cpp:156] Memory required for data: 10694018624
I0519 19:07:05.092833 12393 layer_factory.hpp:77] Creating layer conv3_4_sum_norm_mbox_loc_perm
I0519 19:07:05.092845 12393 net.cpp:91] Creating Layer conv3_4_sum_norm_mbox_loc_perm
I0519 19:07:05.092851 12393 net.cpp:425] conv3_4_sum_norm_mbox_loc_perm <- conv3_4_sum_norm_mbox_loc
I0519 19:07:05.092861 12393 net.cpp:399] conv3_4_sum_norm_mbox_loc_perm -> conv3_4_sum_norm_mbox_loc_perm
I0519 19:07:05.092988 12393 net.cpp:141] Setting up conv3_4_sum_norm_mbox_loc_perm
I0519 19:07:05.092999 12393 net.cpp:148] Top shape: 8 250 250 12 (6000000)
I0519 19:07:05.093006 12393 net.cpp:156] Memory required for data: 10718018624
I0519 19:07:05.093011 12393 layer_factory.hpp:77] Creating layer conv3_4_sum_norm_mbox_loc_flat
I0519 19:07:05.093025 12393 net.cpp:91] Creating Layer conv3_4_sum_norm_mbox_loc_flat
I0519 19:07:05.093031 12393 net.cpp:425] conv3_4_sum_norm_mbox_loc_flat <- conv3_4_sum_norm_mbox_loc_perm
I0519 19:07:05.093040 12393 net.cpp:399] conv3_4_sum_norm_mbox_loc_flat -> conv3_4_sum_norm_mbox_loc_flat
I0519 19:07:05.093087 12393 net.cpp:141] Setting up conv3_4_sum_norm_mbox_loc_flat
I0519 19:07:05.093101 12393 net.cpp:148] Top shape: 8 750000 (6000000)
I0519 19:07:05.093106 12393 net.cpp:156] Memory required for data: 10742018624
I0519 19:07:05.093111 12393 layer_factory.hpp:77] Creating layer conv3_4_sum_norm_mbox_conf
I0519 19:07:05.093132 12393 net.cpp:91] Creating Layer conv3_4_sum_norm_mbox_conf
I0519 19:07:05.093139 12393 net.cpp:425] conv3_4_sum_norm_mbox_conf <- conv3_4_sum_norm_conv3_4_sum_norm_0_split_1
I0519 19:07:05.093147 12393 net.cpp:399] conv3_4_sum_norm_mbox_conf -> conv3_4_sum_norm_mbox_conf
I0519 19:07:05.095002 12393 net.cpp:141] Setting up conv3_4_sum_norm_mbox_conf
I0519 19:07:05.095021 12393 net.cpp:148] Top shape: 8 15 250 250 (7500000)
I0519 19:07:05.095027 12393 net.cpp:156] Memory required for data: 10772018624
I0519 19:07:05.095036 12393 layer_factory.hpp:77] Creating layer conv3_4_sum_norm_mbox_conf_perm
I0519 19:07:05.095047 12393 net.cpp:91] Creating Layer conv3_4_sum_norm_mbox_conf_perm
I0519 19:07:05.095054 12393 net.cpp:425] conv3_4_sum_norm_mbox_conf_perm <- conv3_4_sum_norm_mbox_conf
I0519 19:07:05.095064 12393 net.cpp:399] conv3_4_sum_norm_mbox_conf_perm -> conv3_4_sum_norm_mbox_conf_perm
I0519 19:07:05.095186 12393 net.cpp:141] Setting up conv3_4_sum_norm_mbox_conf_perm
I0519 19:07:05.095196 12393 net.cpp:148] Top shape: 8 250 250 15 (7500000)
I0519 19:07:05.095201 12393 net.cpp:156] Memory required for data: 10802018624
I0519 19:07:05.095206 12393 layer_factory.hpp:77] Creating layer conv3_4_sum_norm_mbox_conf_flat
I0519 19:07:05.095222 12393 net.cpp:91] Creating Layer conv3_4_sum_norm_mbox_conf_flat
I0519 19:07:05.095228 12393 net.cpp:425] conv3_4_sum_norm_mbox_conf_flat <- conv3_4_sum_norm_mbox_conf_perm
I0519 19:07:05.095235 12393 net.cpp:399] conv3_4_sum_norm_mbox_conf_flat -> conv3_4_sum_norm_mbox_conf_flat
I0519 19:07:05.095266 12393 net.cpp:141] Setting up conv3_4_sum_norm_mbox_conf_flat
I0519 19:07:05.095274 12393 net.cpp:148] Top shape: 8 937500 (7500000)
I0519 19:07:05.095280 12393 net.cpp:156] Memory required for data: 10832018624
I0519 19:07:05.095285 12393 layer_factory.hpp:77] Creating layer conv3_4_sum_norm_mbox_priorbox
I0519 19:07:05.095299 12393 net.cpp:91] Creating Layer conv3_4_sum_norm_mbox_priorbox
I0519 19:07:05.095304 12393 net.cpp:425] conv3_4_sum_norm_mbox_priorbox <- conv3_4_sum_norm_conv3_4_sum_norm_0_split_2
I0519 19:07:05.095310 12393 net.cpp:425] conv3_4_sum_norm_mbox_priorbox <- data_data_0_split_1
I0519 19:07:05.095321 12393 net.cpp:399] conv3_4_sum_norm_mbox_priorbox -> conv3_4_sum_norm_mbox_priorbox
I0519 19:07:05.095366 12393 net.cpp:141] Setting up conv3_4_sum_norm_mbox_priorbox
I0519 19:07:05.095374 12393 net.cpp:148] Top shape: 1 2 750000 (1500000)
I0519 19:07:05.095379 12393 net.cpp:156] Memory required for data: 10838018624
I0519 19:07:05.095383 12393 layer_factory.hpp:77] Creating layer conv4_6_sum_mbox_loc
I0519 19:07:05.095397 12393 net.cpp:91] Creating Layer conv4_6_sum_mbox_loc
I0519 19:07:05.095404 12393 net.cpp:425] conv4_6_sum_mbox_loc <- conv4_6_sum_conv4_6_sum_relu_0_split_1
I0519 19:07:05.095414 12393 net.cpp:399] conv4_6_sum_mbox_loc -> conv4_6_sum_mbox_loc
I0519 19:07:05.098021 12393 net.cpp:141] Setting up conv4_6_sum_mbox_loc
I0519 19:07:05.098042 12393 net.cpp:148] Top shape: 8 24 125 125 (3000000)
I0519 19:07:05.098049 12393 net.cpp:156] Memory required for data: 10850018624
I0519 19:07:05.098057 12393 layer_factory.hpp:77] Creating layer conv4_6_sum_mbox_loc_perm
I0519 19:07:05.098067 12393 net.cpp:91] Creating Layer conv4_6_sum_mbox_loc_perm
I0519 19:07:05.098074 12393 net.cpp:425] conv4_6_sum_mbox_loc_perm <- conv4_6_sum_mbox_loc
I0519 19:07:05.098084 12393 net.cpp:399] conv4_6_sum_mbox_loc_perm -> conv4_6_sum_mbox_loc_perm
I0519 19:07:05.098208 12393 net.cpp:141] Setting up conv4_6_sum_mbox_loc_perm
I0519 19:07:05.098218 12393 net.cpp:148] Top shape: 8 125 125 24 (3000000)
I0519 19:07:05.098222 12393 net.cpp:156] Memory required for data: 10862018624
I0519 19:07:05.098229 12393 layer_factory.hpp:77] Creating layer conv4_6_sum_mbox_loc_flat
I0519 19:07:05.098251 12393 net.cpp:91] Creating Layer conv4_6_sum_mbox_loc_flat
I0519 19:07:05.098258 12393 net.cpp:425] conv4_6_sum_mbox_loc_flat <- conv4_6_sum_mbox_loc_perm
I0519 19:07:05.098263 12393 net.cpp:399] conv4_6_sum_mbox_loc_flat -> conv4_6_sum_mbox_loc_flat
I0519 19:07:05.098299 12393 net.cpp:141] Setting up conv4_6_sum_mbox_loc_flat
I0519 19:07:05.098307 12393 net.cpp:148] Top shape: 8 375000 (3000000)
I0519 19:07:05.098314 12393 net.cpp:156] Memory required for data: 10874018624
I0519 19:07:05.098318 12393 layer_factory.hpp:77] Creating layer conv4_6_sum_mbox_conf
I0519 19:07:05.098331 12393 net.cpp:91] Creating Layer conv4_6_sum_mbox_conf
I0519 19:07:05.098337 12393 net.cpp:425] conv4_6_sum_mbox_conf <- conv4_6_sum_conv4_6_sum_relu_0_split_2
I0519 19:07:05.098348 12393 net.cpp:399] conv4_6_sum_mbox_conf -> conv4_6_sum_mbox_conf
I0519 19:07:05.100778 12393 net.cpp:141] Setting up conv4_6_sum_mbox_conf
I0519 19:07:05.100798 12393 net.cpp:148] Top shape: 8 30 125 125 (3750000)
I0519 19:07:05.100803 12393 net.cpp:156] Memory required for data: 10889018624
I0519 19:07:05.100812 12393 layer_factory.hpp:77] Creating layer conv4_6_sum_mbox_conf_perm
I0519 19:07:05.100826 12393 net.cpp:91] Creating Layer conv4_6_sum_mbox_conf_perm
I0519 19:07:05.100831 12393 net.cpp:425] conv4_6_sum_mbox_conf_perm <- conv4_6_sum_mbox_conf
I0519 19:07:05.100837 12393 net.cpp:399] conv4_6_sum_mbox_conf_perm -> conv4_6_sum_mbox_conf_perm
I0519 19:07:05.100965 12393 net.cpp:141] Setting up conv4_6_sum_mbox_conf_perm
I0519 19:07:05.100975 12393 net.cpp:148] Top shape: 8 125 125 30 (3750000)
I0519 19:07:05.100980 12393 net.cpp:156] Memory required for data: 10904018624
I0519 19:07:05.100986 12393 layer_factory.hpp:77] Creating layer conv4_6_sum_mbox_conf_flat
I0519 19:07:05.100992 12393 net.cpp:91] Creating Layer conv4_6_sum_mbox_conf_flat
I0519 19:07:05.100997 12393 net.cpp:425] conv4_6_sum_mbox_conf_flat <- conv4_6_sum_mbox_conf_perm
I0519 19:07:05.101011 12393 net.cpp:399] conv4_6_sum_mbox_conf_flat -> conv4_6_sum_mbox_conf_flat
I0519 19:07:05.101042 12393 net.cpp:141] Setting up conv4_6_sum_mbox_conf_flat
I0519 19:07:05.101052 12393 net.cpp:148] Top shape: 8 468750 (3750000)
I0519 19:07:05.101057 12393 net.cpp:156] Memory required for data: 10919018624
I0519 19:07:05.101060 12393 layer_factory.hpp:77] Creating layer conv4_6_sum_mbox_priorbox
I0519 19:07:05.101068 12393 net.cpp:91] Creating Layer conv4_6_sum_mbox_priorbox
I0519 19:07:05.101074 12393 net.cpp:425] conv4_6_sum_mbox_priorbox <- conv4_6_sum_conv4_6_sum_relu_0_split_3
I0519 19:07:05.101080 12393 net.cpp:425] conv4_6_sum_mbox_priorbox <- data_data_0_split_2
I0519 19:07:05.101090 12393 net.cpp:399] conv4_6_sum_mbox_priorbox -> conv4_6_sum_mbox_priorbox
I0519 19:07:05.101122 12393 net.cpp:141] Setting up conv4_6_sum_mbox_priorbox
I0519 19:07:05.101135 12393 net.cpp:148] Top shape: 1 2 375000 (750000)
I0519 19:07:05.101140 12393 net.cpp:156] Memory required for data: 10922018624
I0519 19:07:05.101145 12393 layer_factory.hpp:77] Creating layer conv6_2_mbox_loc
I0519 19:07:05.101158 12393 net.cpp:91] Creating Layer conv6_2_mbox_loc
I0519 19:07:05.101164 12393 net.cpp:425] conv6_2_mbox_loc <- conv6_2_conv6_2_relu_0_split_1
I0519 19:07:05.101172 12393 net.cpp:399] conv6_2_mbox_loc -> conv6_2_mbox_loc
I0519 19:07:05.103624 12393 net.cpp:141] Setting up conv6_2_mbox_loc
I0519 19:07:05.103643 12393 net.cpp:148] Top shape: 8 24 63 63 (762048)
I0519 19:07:05.103651 12393 net.cpp:156] Memory required for data: 10925066816
I0519 19:07:05.103658 12393 layer_factory.hpp:77] Creating layer conv6_2_mbox_loc_perm
I0519 19:07:05.103670 12393 net.cpp:91] Creating Layer conv6_2_mbox_loc_perm
I0519 19:07:05.103677 12393 net.cpp:425] conv6_2_mbox_loc_perm <- conv6_2_mbox_loc
I0519 19:07:05.103689 12393 net.cpp:399] conv6_2_mbox_loc_perm -> conv6_2_mbox_loc_perm
I0519 19:07:05.103811 12393 net.cpp:141] Setting up conv6_2_mbox_loc_perm
I0519 19:07:05.103823 12393 net.cpp:148] Top shape: 8 63 63 24 (762048)
I0519 19:07:05.103827 12393 net.cpp:156] Memory required for data: 10928115008
I0519 19:07:05.103845 12393 layer_factory.hpp:77] Creating layer conv6_2_mbox_loc_flat
I0519 19:07:05.103853 12393 net.cpp:91] Creating Layer conv6_2_mbox_loc_flat
I0519 19:07:05.103858 12393 net.cpp:425] conv6_2_mbox_loc_flat <- conv6_2_mbox_loc_perm
I0519 19:07:05.103865 12393 net.cpp:399] conv6_2_mbox_loc_flat -> conv6_2_mbox_loc_flat
I0519 19:07:05.103900 12393 net.cpp:141] Setting up conv6_2_mbox_loc_flat
I0519 19:07:05.103909 12393 net.cpp:148] Top shape: 8 95256 (762048)
I0519 19:07:05.103914 12393 net.cpp:156] Memory required for data: 10931163200
I0519 19:07:05.103919 12393 layer_factory.hpp:77] Creating layer conv6_2_mbox_conf
I0519 19:07:05.103934 12393 net.cpp:91] Creating Layer conv6_2_mbox_conf
I0519 19:07:05.103940 12393 net.cpp:425] conv6_2_mbox_conf <- conv6_2_conv6_2_relu_0_split_2
I0519 19:07:05.103950 12393 net.cpp:399] conv6_2_mbox_conf -> conv6_2_mbox_conf
I0519 19:07:05.106189 12393 net.cpp:141] Setting up conv6_2_mbox_conf
I0519 19:07:05.106209 12393 net.cpp:148] Top shape: 8 30 63 63 (952560)
I0519 19:07:05.106215 12393 net.cpp:156] Memory required for data: 10934973440
I0519 19:07:05.106223 12393 layer_factory.hpp:77] Creating layer conv6_2_mbox_conf_perm
I0519 19:07:05.106233 12393 net.cpp:91] Creating Layer conv6_2_mbox_conf_perm
I0519 19:07:05.106240 12393 net.cpp:425] conv6_2_mbox_conf_perm <- conv6_2_mbox_conf
I0519 19:07:05.106251 12393 net.cpp:399] conv6_2_mbox_conf_perm -> conv6_2_mbox_conf_perm
I0519 19:07:05.106381 12393 net.cpp:141] Setting up conv6_2_mbox_conf_perm
I0519 19:07:05.106391 12393 net.cpp:148] Top shape: 8 63 63 30 (952560)
I0519 19:07:05.106395 12393 net.cpp:156] Memory required for data: 10938783680
I0519 19:07:05.106401 12393 layer_factory.hpp:77] Creating layer conv6_2_mbox_conf_flat
I0519 19:07:05.106413 12393 net.cpp:91] Creating Layer conv6_2_mbox_conf_flat
I0519 19:07:05.106420 12393 net.cpp:425] conv6_2_mbox_conf_flat <- conv6_2_mbox_conf_perm
I0519 19:07:05.106426 12393 net.cpp:399] conv6_2_mbox_conf_flat -> conv6_2_mbox_conf_flat
I0519 19:07:05.106458 12393 net.cpp:141] Setting up conv6_2_mbox_conf_flat
I0519 19:07:05.106467 12393 net.cpp:148] Top shape: 8 119070 (952560)
I0519 19:07:05.106472 12393 net.cpp:156] Memory required for data: 10942593920
I0519 19:07:05.106477 12393 layer_factory.hpp:77] Creating layer conv6_2_mbox_priorbox
I0519 19:07:05.106483 12393 net.cpp:91] Creating Layer conv6_2_mbox_priorbox
I0519 19:07:05.106489 12393 net.cpp:425] conv6_2_mbox_priorbox <- conv6_2_conv6_2_relu_0_split_3
I0519 19:07:05.106495 12393 net.cpp:425] conv6_2_mbox_priorbox <- data_data_0_split_3
I0519 19:07:05.106505 12393 net.cpp:399] conv6_2_mbox_priorbox -> conv6_2_mbox_priorbox
I0519 19:07:05.106540 12393 net.cpp:141] Setting up conv6_2_mbox_priorbox
I0519 19:07:05.106549 12393 net.cpp:148] Top shape: 1 2 95256 (190512)
I0519 19:07:05.106554 12393 net.cpp:156] Memory required for data: 10943355968
I0519 19:07:05.106559 12393 layer_factory.hpp:77] Creating layer conv7_2_mbox_loc
I0519 19:07:05.106572 12393 net.cpp:91] Creating Layer conv7_2_mbox_loc
I0519 19:07:05.106580 12393 net.cpp:425] conv7_2_mbox_loc <- conv7_2_conv7_2_relu_0_split_1
I0519 19:07:05.106588 12393 net.cpp:399] conv7_2_mbox_loc -> conv7_2_mbox_loc
I0519 19:07:05.109259 12393 net.cpp:141] Setting up conv7_2_mbox_loc
I0519 19:07:05.109280 12393 net.cpp:148] Top shape: 8 24 32 32 (196608)
I0519 19:07:05.109287 12393 net.cpp:156] Memory required for data: 10944142400
I0519 19:07:05.109295 12393 layer_factory.hpp:77] Creating layer conv7_2_mbox_loc_perm
I0519 19:07:05.109307 12393 net.cpp:91] Creating Layer conv7_2_mbox_loc_perm
I0519 19:07:05.109313 12393 net.cpp:425] conv7_2_mbox_loc_perm <- conv7_2_mbox_loc
I0519 19:07:05.109323 12393 net.cpp:399] conv7_2_mbox_loc_perm -> conv7_2_mbox_loc_perm
I0519 19:07:05.109447 12393 net.cpp:141] Setting up conv7_2_mbox_loc_perm
I0519 19:07:05.109457 12393 net.cpp:148] Top shape: 8 32 32 24 (196608)
I0519 19:07:05.109462 12393 net.cpp:156] Memory required for data: 10944928832
I0519 19:07:05.109467 12393 layer_factory.hpp:77] Creating layer conv7_2_mbox_loc_flat
I0519 19:07:05.109490 12393 net.cpp:91] Creating Layer conv7_2_mbox_loc_flat
I0519 19:07:05.109498 12393 net.cpp:425] conv7_2_mbox_loc_flat <- conv7_2_mbox_loc_perm
I0519 19:07:05.109504 12393 net.cpp:399] conv7_2_mbox_loc_flat -> conv7_2_mbox_loc_flat
I0519 19:07:05.109539 12393 net.cpp:141] Setting up conv7_2_mbox_loc_flat
I0519 19:07:05.109547 12393 net.cpp:148] Top shape: 8 24576 (196608)
I0519 19:07:05.109552 12393 net.cpp:156] Memory required for data: 10945715264
I0519 19:07:05.109557 12393 layer_factory.hpp:77] Creating layer conv7_2_mbox_conf
I0519 19:07:05.109572 12393 net.cpp:91] Creating Layer conv7_2_mbox_conf
I0519 19:07:05.109580 12393 net.cpp:425] conv7_2_mbox_conf <- conv7_2_conv7_2_relu_0_split_2
I0519 19:07:05.109589 12393 net.cpp:399] conv7_2_mbox_conf -> conv7_2_mbox_conf
I0519 19:07:05.112805 12393 net.cpp:141] Setting up conv7_2_mbox_conf
I0519 19:07:05.112828 12393 net.cpp:148] Top shape: 8 30 32 32 (245760)
I0519 19:07:05.112835 12393 net.cpp:156] Memory required for data: 10946698304
I0519 19:07:05.112850 12393 layer_factory.hpp:77] Creating layer conv7_2_mbox_conf_perm
I0519 19:07:05.112861 12393 net.cpp:91] Creating Layer conv7_2_mbox_conf_perm
I0519 19:07:05.112867 12393 net.cpp:425] conv7_2_mbox_conf_perm <- conv7_2_mbox_conf
I0519 19:07:05.112875 12393 net.cpp:399] conv7_2_mbox_conf_perm -> conv7_2_mbox_conf_perm
I0519 19:07:05.113003 12393 net.cpp:141] Setting up conv7_2_mbox_conf_perm
I0519 19:07:05.113013 12393 net.cpp:148] Top shape: 8 32 32 30 (245760)
I0519 19:07:05.113018 12393 net.cpp:156] Memory required for data: 10947681344
I0519 19:07:05.113021 12393 layer_factory.hpp:77] Creating layer conv7_2_mbox_conf_flat
I0519 19:07:05.113032 12393 net.cpp:91] Creating Layer conv7_2_mbox_conf_flat
I0519 19:07:05.113039 12393 net.cpp:425] conv7_2_mbox_conf_flat <- conv7_2_mbox_conf_perm
I0519 19:07:05.113044 12393 net.cpp:399] conv7_2_mbox_conf_flat -> conv7_2_mbox_conf_flat
I0519 19:07:05.113076 12393 net.cpp:141] Setting up conv7_2_mbox_conf_flat
I0519 19:07:05.113085 12393 net.cpp:148] Top shape: 8 30720 (245760)
I0519 19:07:05.113090 12393 net.cpp:156] Memory required for data: 10948664384
I0519 19:07:05.113095 12393 layer_factory.hpp:77] Creating layer conv7_2_mbox_priorbox
I0519 19:07:05.113103 12393 net.cpp:91] Creating Layer conv7_2_mbox_priorbox
I0519 19:07:05.113109 12393 net.cpp:425] conv7_2_mbox_priorbox <- conv7_2_conv7_2_relu_0_split_3
I0519 19:07:05.113116 12393 net.cpp:425] conv7_2_mbox_priorbox <- data_data_0_split_4
I0519 19:07:05.113126 12393 net.cpp:399] conv7_2_mbox_priorbox -> conv7_2_mbox_priorbox
I0519 19:07:05.113158 12393 net.cpp:141] Setting up conv7_2_mbox_priorbox
I0519 19:07:05.113168 12393 net.cpp:148] Top shape: 1 2 24576 (49152)
I0519 19:07:05.113173 12393 net.cpp:156] Memory required for data: 10948860992
I0519 19:07:05.113176 12393 layer_factory.hpp:77] Creating layer conv8_2_mbox_loc
I0519 19:07:05.113191 12393 net.cpp:91] Creating Layer conv8_2_mbox_loc
I0519 19:07:05.113198 12393 net.cpp:425] conv8_2_mbox_loc <- conv8_2_conv8_2_relu_0_split_1
I0519 19:07:05.113206 12393 net.cpp:399] conv8_2_mbox_loc -> conv8_2_mbox_loc
I0519 19:07:05.116335 12393 net.cpp:141] Setting up conv8_2_mbox_loc
I0519 19:07:05.116356 12393 net.cpp:148] Top shape: 8 24 16 16 (49152)
I0519 19:07:05.116361 12393 net.cpp:156] Memory required for data: 10949057600
I0519 19:07:05.116370 12393 layer_factory.hpp:77] Creating layer conv8_2_mbox_loc_perm
I0519 19:07:05.116379 12393 net.cpp:91] Creating Layer conv8_2_mbox_loc_perm
I0519 19:07:05.116384 12393 net.cpp:425] conv8_2_mbox_loc_perm <- conv8_2_mbox_loc
I0519 19:07:05.116394 12393 net.cpp:399] conv8_2_mbox_loc_perm -> conv8_2_mbox_loc_perm
I0519 19:07:05.116523 12393 net.cpp:141] Setting up conv8_2_mbox_loc_perm
I0519 19:07:05.116533 12393 net.cpp:148] Top shape: 8 16 16 24 (49152)
I0519 19:07:05.116539 12393 net.cpp:156] Memory required for data: 10949254208
I0519 19:07:05.116544 12393 layer_factory.hpp:77] Creating layer conv8_2_mbox_loc_flat
I0519 19:07:05.116550 12393 net.cpp:91] Creating Layer conv8_2_mbox_loc_flat
I0519 19:07:05.116569 12393 net.cpp:425] conv8_2_mbox_loc_flat <- conv8_2_mbox_loc_perm
I0519 19:07:05.116580 12393 net.cpp:399] conv8_2_mbox_loc_flat -> conv8_2_mbox_loc_flat
I0519 19:07:05.116616 12393 net.cpp:141] Setting up conv8_2_mbox_loc_flat
I0519 19:07:05.116626 12393 net.cpp:148] Top shape: 8 6144 (49152)
I0519 19:07:05.116631 12393 net.cpp:156] Memory required for data: 10949450816
I0519 19:07:05.116634 12393 layer_factory.hpp:77] Creating layer conv8_2_mbox_conf
I0519 19:07:05.116649 12393 net.cpp:91] Creating Layer conv8_2_mbox_conf
I0519 19:07:05.116657 12393 net.cpp:425] conv8_2_mbox_conf <- conv8_2_conv8_2_relu_0_split_2
I0519 19:07:05.116667 12393 net.cpp:399] conv8_2_mbox_conf -> conv8_2_mbox_conf
I0519 19:07:05.122597 12393 net.cpp:141] Setting up conv8_2_mbox_conf
I0519 19:07:05.122617 12393 net.cpp:148] Top shape: 8 30 16 16 (61440)
I0519 19:07:05.122623 12393 net.cpp:156] Memory required for data: 10949696576
I0519 19:07:05.122632 12393 layer_factory.hpp:77] Creating layer conv8_2_mbox_conf_perm
I0519 19:07:05.122644 12393 net.cpp:91] Creating Layer conv8_2_mbox_conf_perm
I0519 19:07:05.122653 12393 net.cpp:425] conv8_2_mbox_conf_perm <- conv8_2_mbox_conf
I0519 19:07:05.122660 12393 net.cpp:399] conv8_2_mbox_conf_perm -> conv8_2_mbox_conf_perm
I0519 19:07:05.122783 12393 net.cpp:141] Setting up conv8_2_mbox_conf_perm
I0519 19:07:05.122794 12393 net.cpp:148] Top shape: 8 16 16 30 (61440)
I0519 19:07:05.122799 12393 net.cpp:156] Memory required for data: 10949942336
I0519 19:07:05.122804 12393 layer_factory.hpp:77] Creating layer conv8_2_mbox_conf_flat
I0519 19:07:05.122813 12393 net.cpp:91] Creating Layer conv8_2_mbox_conf_flat
I0519 19:07:05.122819 12393 net.cpp:425] conv8_2_mbox_conf_flat <- conv8_2_mbox_conf_perm
I0519 19:07:05.122828 12393 net.cpp:399] conv8_2_mbox_conf_flat -> conv8_2_mbox_conf_flat
I0519 19:07:05.122859 12393 net.cpp:141] Setting up conv8_2_mbox_conf_flat
I0519 19:07:05.122867 12393 net.cpp:148] Top shape: 8 7680 (61440)
I0519 19:07:05.122871 12393 net.cpp:156] Memory required for data: 10950188096
I0519 19:07:05.122877 12393 layer_factory.hpp:77] Creating layer conv8_2_mbox_priorbox
I0519 19:07:05.122889 12393 net.cpp:91] Creating Layer conv8_2_mbox_priorbox
I0519 19:07:05.122895 12393 net.cpp:425] conv8_2_mbox_priorbox <- conv8_2_conv8_2_relu_0_split_3
I0519 19:07:05.122901 12393 net.cpp:425] conv8_2_mbox_priorbox <- data_data_0_split_5
I0519 19:07:05.122910 12393 net.cpp:399] conv8_2_mbox_priorbox -> conv8_2_mbox_priorbox
I0519 19:07:05.122946 12393 net.cpp:141] Setting up conv8_2_mbox_priorbox
I0519 19:07:05.122953 12393 net.cpp:148] Top shape: 1 2 6144 (12288)
I0519 19:07:05.122959 12393 net.cpp:156] Memory required for data: 10950237248
I0519 19:07:05.122963 12393 layer_factory.hpp:77] Creating layer pool6_mbox_loc
I0519 19:07:05.122977 12393 net.cpp:91] Creating Layer pool6_mbox_loc
I0519 19:07:05.122983 12393 net.cpp:425] pool6_mbox_loc <- pool6_pool6_0_split_0
I0519 19:07:05.122993 12393 net.cpp:399] pool6_mbox_loc -> pool6_mbox_loc
I0519 19:07:05.128726 12393 net.cpp:141] Setting up pool6_mbox_loc
I0519 19:07:05.128744 12393 net.cpp:148] Top shape: 8 24 1 1 (192)
I0519 19:07:05.128752 12393 net.cpp:156] Memory required for data: 10950238016
I0519 19:07:05.128760 12393 layer_factory.hpp:77] Creating layer pool6_mbox_loc_perm
I0519 19:07:05.128770 12393 net.cpp:91] Creating Layer pool6_mbox_loc_perm
I0519 19:07:05.128777 12393 net.cpp:425] pool6_mbox_loc_perm <- pool6_mbox_loc
I0519 19:07:05.128783 12393 net.cpp:399] pool6_mbox_loc_perm -> pool6_mbox_loc_perm
I0519 19:07:05.128912 12393 net.cpp:141] Setting up pool6_mbox_loc_perm
I0519 19:07:05.128923 12393 net.cpp:148] Top shape: 8 1 1 24 (192)
I0519 19:07:05.128927 12393 net.cpp:156] Memory required for data: 10950238784
I0519 19:07:05.128931 12393 layer_factory.hpp:77] Creating layer pool6_mbox_loc_flat
I0519 19:07:05.128949 12393 net.cpp:91] Creating Layer pool6_mbox_loc_flat
I0519 19:07:05.128955 12393 net.cpp:425] pool6_mbox_loc_flat <- pool6_mbox_loc_perm
I0519 19:07:05.128962 12393 net.cpp:399] pool6_mbox_loc_flat -> pool6_mbox_loc_flat
I0519 19:07:05.129012 12393 net.cpp:141] Setting up pool6_mbox_loc_flat
I0519 19:07:05.129022 12393 net.cpp:148] Top shape: 8 24 (192)
I0519 19:07:05.129027 12393 net.cpp:156] Memory required for data: 10950239552
I0519 19:07:05.129034 12393 layer_factory.hpp:77] Creating layer pool6_mbox_conf
I0519 19:07:05.129048 12393 net.cpp:91] Creating Layer pool6_mbox_conf
I0519 19:07:05.129065 12393 net.cpp:425] pool6_mbox_conf <- pool6_pool6_0_split_1
I0519 19:07:05.129072 12393 net.cpp:399] pool6_mbox_conf -> pool6_mbox_conf
I0519 19:07:05.132459 12393 net.cpp:141] Setting up pool6_mbox_conf
I0519 19:07:05.132477 12393 net.cpp:148] Top shape: 8 30 1 1 (240)
I0519 19:07:05.132483 12393 net.cpp:156] Memory required for data: 10950240512
I0519 19:07:05.132490 12393 layer_factory.hpp:77] Creating layer pool6_mbox_conf_perm
I0519 19:07:05.132501 12393 net.cpp:91] Creating Layer pool6_mbox_conf_perm
I0519 19:07:05.132508 12393 net.cpp:425] pool6_mbox_conf_perm <- pool6_mbox_conf
I0519 19:07:05.132516 12393 net.cpp:399] pool6_mbox_conf_perm -> pool6_mbox_conf_perm
I0519 19:07:05.132643 12393 net.cpp:141] Setting up pool6_mbox_conf_perm
I0519 19:07:05.132654 12393 net.cpp:148] Top shape: 8 1 1 30 (240)
I0519 19:07:05.132660 12393 net.cpp:156] Memory required for data: 10950241472
I0519 19:07:05.132664 12393 layer_factory.hpp:77] Creating layer pool6_mbox_conf_flat
I0519 19:07:05.132673 12393 net.cpp:91] Creating Layer pool6_mbox_conf_flat
I0519 19:07:05.132681 12393 net.cpp:425] pool6_mbox_conf_flat <- pool6_mbox_conf_perm
I0519 19:07:05.132725 12393 net.cpp:399] pool6_mbox_conf_flat -> pool6_mbox_conf_flat
I0519 19:07:05.132798 12393 net.cpp:141] Setting up pool6_mbox_conf_flat
I0519 19:07:05.132832 12393 net.cpp:148] Top shape: 8 30 (240)
I0519 19:07:05.132865 12393 net.cpp:156] Memory required for data: 10950242432
I0519 19:07:05.132877 12393 layer_factory.hpp:77] Creating layer pool6_mbox_priorbox
I0519 19:07:05.132886 12393 net.cpp:91] Creating Layer pool6_mbox_priorbox
I0519 19:07:05.132894 12393 net.cpp:425] pool6_mbox_priorbox <- pool6_pool6_0_split_2
I0519 19:07:05.132904 12393 net.cpp:425] pool6_mbox_priorbox <- data_data_0_split_6
I0519 19:07:05.132910 12393 net.cpp:399] pool6_mbox_priorbox -> pool6_mbox_priorbox
I0519 19:07:05.132959 12393 net.cpp:141] Setting up pool6_mbox_priorbox
I0519 19:07:05.132969 12393 net.cpp:148] Top shape: 1 2 24 (48)
I0519 19:07:05.132975 12393 net.cpp:156] Memory required for data: 10950242624
I0519 19:07:05.132980 12393 layer_factory.hpp:77] Creating layer mbox_loc
I0519 19:07:05.132997 12393 net.cpp:91] Creating Layer mbox_loc
I0519 19:07:05.133004 12393 net.cpp:425] mbox_loc <- conv3_4_sum_norm_mbox_loc_flat
I0519 19:07:05.133010 12393 net.cpp:425] mbox_loc <- conv4_6_sum_mbox_loc_flat
I0519 19:07:05.133018 12393 net.cpp:425] mbox_loc <- conv6_2_mbox_loc_flat
I0519 19:07:05.133023 12393 net.cpp:425] mbox_loc <- conv7_2_mbox_loc_flat
I0519 19:07:05.133029 12393 net.cpp:425] mbox_loc <- conv8_2_mbox_loc_flat
I0519 19:07:05.133034 12393 net.cpp:425] mbox_loc <- pool6_mbox_loc_flat
I0519 19:07:05.133043 12393 net.cpp:399] mbox_loc -> mbox_loc
I0519 19:07:05.133085 12393 net.cpp:141] Setting up mbox_loc
I0519 19:07:05.133095 12393 net.cpp:148] Top shape: 8 1251000 (10008000)
I0519 19:07:05.133098 12393 net.cpp:156] Memory required for data: 10990274624
I0519 19:07:05.133105 12393 layer_factory.hpp:77] Creating layer mbox_conf
I0519 19:07:05.133114 12393 net.cpp:91] Creating Layer mbox_conf
I0519 19:07:05.133121 12393 net.cpp:425] mbox_conf <- conv3_4_sum_norm_mbox_conf_flat
I0519 19:07:05.133127 12393 net.cpp:425] mbox_conf <- conv4_6_sum_mbox_conf_flat
I0519 19:07:05.133136 12393 net.cpp:425] mbox_conf <- conv6_2_mbox_conf_flat
I0519 19:07:05.133141 12393 net.cpp:425] mbox_conf <- conv7_2_mbox_conf_flat
I0519 19:07:05.133146 12393 net.cpp:425] mbox_conf <- conv8_2_mbox_conf_flat
I0519 19:07:05.133152 12393 net.cpp:425] mbox_conf <- pool6_mbox_conf_flat
I0519 19:07:05.133157 12393 net.cpp:399] mbox_conf -> mbox_conf
I0519 19:07:05.133189 12393 net.cpp:141] Setting up mbox_conf
I0519 19:07:05.133210 12393 net.cpp:148] Top shape: 8 1563750 (12510000)
I0519 19:07:05.133218 12393 net.cpp:156] Memory required for data: 11040314624
I0519 19:07:05.133221 12393 layer_factory.hpp:77] Creating layer mbox_priorbox
I0519 19:07:05.133227 12393 net.cpp:91] Creating Layer mbox_priorbox
I0519 19:07:05.133234 12393 net.cpp:425] mbox_priorbox <- conv3_4_sum_norm_mbox_priorbox
I0519 19:07:05.133240 12393 net.cpp:425] mbox_priorbox <- conv4_6_sum_mbox_priorbox
I0519 19:07:05.133245 12393 net.cpp:425] mbox_priorbox <- conv6_2_mbox_priorbox
I0519 19:07:05.133251 12393 net.cpp:425] mbox_priorbox <- conv7_2_mbox_priorbox
I0519 19:07:05.133256 12393 net.cpp:425] mbox_priorbox <- conv8_2_mbox_priorbox
I0519 19:07:05.133262 12393 net.cpp:425] mbox_priorbox <- pool6_mbox_priorbox
I0519 19:07:05.133273 12393 net.cpp:399] mbox_priorbox -> mbox_priorbox
I0519 19:07:05.133308 12393 net.cpp:141] Setting up mbox_priorbox
I0519 19:07:05.133316 12393 net.cpp:148] Top shape: 1 2 1251000 (2502000)
I0519 19:07:05.133322 12393 net.cpp:156] Memory required for data: 11050322624
I0519 19:07:05.133325 12393 layer_factory.hpp:77] Creating layer mbox_loss
I0519 19:07:05.133339 12393 net.cpp:91] Creating Layer mbox_loss
I0519 19:07:05.133347 12393 net.cpp:425] mbox_loss <- mbox_loc
I0519 19:07:05.133352 12393 net.cpp:425] mbox_loss <- mbox_conf
I0519 19:07:05.133358 12393 net.cpp:425] mbox_loss <- mbox_priorbox
…
  phase: TEST
}
layer {
  name: "data"
  type: "AnnotatedData"
  top: "data"
  top: "label"
  include {
    phase: TEST
  }
  transform_param {
    mean_value: 104
    mean_value: 117
    mean_value: 123
    resize_param {
      prob: 1
      resize_mode: WARP
      height: 500
      width: 500
      interp_mode: LINEAR
    }
  }
  data_param {
    source: "examples/VOC0712/VOC0712_test_lmdb"
    batch_size: 1
    backend: LMDB
  }
  annotated_data_param {
    batch_sampler {
    }
    label_map_file: "data/deepv_car_person/labelmap_voc.prototxt"
  }
}
layer {
  name: "conv3_4_sum"
  type: "Convolution"
  bottom: "data"
  top: "conv3_4_sum"
  param {
    lr_mult: 1
    decay_mult: 1
  }
  param {
    lr_mult: 2
    decay_mult: 0
  }
  convolution_param {
    num_output: 512
    pad: 1
    kernel_size: 3
    stride: 2
    weight_filler {
      type: "xavier"
    }
    bias_filler {
      type: "constant"
      value: 0
    }
  }
}
layer {
  name: "conv3_4_sum_relu"
  type: "ReLU"
  bottom: "conv3_4_sum"
  top: "conv3_4_sum"
}
layer {
  name: "conv4_6_sum"
  type: "Convolution"
  bottom: "conv3_4_sum"
  top: "conv4_6_sum"
  param {
    lr_mult: 1
    decay_mult: 1
  }
  param {
    lr_mult: 2
    decay_mult: 0
  }
  convolution_param {
    num_output: 512
    pad: 1
    kernel_size: 3
    stride: 2
    weight_filler {
      type: "xavier"
    }
    bias_filler {
      type: "constant"
      value: 0
    }
  }
}
layer {
  name: "conv4_6_sum_relu"
  type: "ReLU"
  bottom: "conv4_6_sum"
  top: "conv4_6_sum"
}
layer {
  name: "conv6_1"
  type: "Convolution"
  bottom: "conv4_6_sum"
  top: "conv6_1"
  param {
    lr_mult: 1
    decay_mult: 1
  }
  param {
    lr_mult: 2
    decay_mult: 0
  }
  convolution_param {
    num_output: 256
    pad: 0
    kernel_size: 1
    stride: 1
    weight_filler {
      type: "xavier"
    }
    bias_filler {
      type: "constant"
      value: 0
    }
  }
}
layer {
  name: "conv6_1_relu"
  type: "ReLU"
  bottom: "conv6_1"
  top: "conv6_1"
}
layer {
  name: "conv6_2"
  type: "Convolution"
  bottom: "conv6_1"
  top: "conv6_2"
  param {
    lr_mult: 1
    decay_mult: 1
  }
  param {
    lr_mult: 2
    decay_mult: 0
  }
  convolution_param {
    num_output: 512
    pad: 1
    kernel_size: 3
    stride: 2
    weight_filler {
      type: "xavier"
    }
    bias_filler {
      type: "constant"
      value: 0
    }
  }
}
layer {
  name: "conv6_2_relu"
  type: "ReLU"
  bottom: "conv6_2"
  top: "conv6_2"
}
layer {
  name: "conv7_1"
  type: "Convolution"
  bottom: "conv6_2"
  top: "conv7_1"
  param {
    lr_mult: 1
    decay_mult: 1
  }
  param {
    lr_mult: 2
    decay_mult: 0
  }
  convolution_param {
    num_output: 128
    pad: 0
    kernel_size: 1
    stride: 1
    weight_filler {
      type: "xavier"
    }
    bias_filler {
      type: "constant"
      value: 0
    }
  }
}
layer {
  name: "conv7_1_relu"
  type: "ReLU"
  bottom: "conv7_1"
  top: "conv7_1"
}
layer {
  name: "conv7_2"
  type: "Convolution"
  bottom: "conv7_1"
  top: "conv7_2"
  param {
    lr_mult: 1
    decay_mult: 1
  }
  param {
    lr_mult: 2
    decay_mult: 0
  }
  convolution_param {
    num_output: 256
    pad: 1
    kernel_size: 3
    stride: 2
    weight_filler {
      type: "xavier"
    }
    bias_filler {
      type: "constant"
      value: 0
    }
  }
}
layer {
  name: "conv7_2_relu"
  type: "ReLU"
  bottom: "conv7_2"
  top: "conv7_2"
}
layer {
  name: "conv8_1"
  type: "Convolution"
  bottom: "conv7_2"
  top: "conv8_1"
  param {
    lr_mult: 1
    decay_mult: 1
  }
  param {
    lr_mult: 2
    decay_mult: 0
  }
  convolution_param {
    num_output: 128
    pad: 0
    kernel_size: 1
    stride: 1
    weight_filler {
      type: "xavier"
    }
    bias_filler {
      type: "constant"
      value: 0
    }
  }
}
layer {
  name: "conv8_1_relu"
  type: "ReLU"
  bottom: "conv8_1"
  top: "conv8_1"
}
layer {
  name: "conv8_2"
  type: "Convolution"
  bottom: "conv8_1"
  top: "conv8_2"
  param {
    lr_mult: 1
    decay_mult: 1
  }
  param {
    lr_mult: 2
    decay_mult: 0
  }
  convolution_param {
    num_output: 256
    pad: 1
    kernel_size: 3
    stride: 2
    weight_filler {
      type: "xavier"
    }
    bias_filler {
      type: "constant"
      value: 0
    }
  }
}
layer {
  name: "conv8_2_relu"
  type: "ReLU"
  bottom: "conv8_2"
  top: "conv8_2"
}
layer {
  name: "pool6"
  type: "Pooling"
  bottom: "conv8_2"
  top: "pool6"
  pooling_param {
    pool: AVE
    global_pooling: true
  }
}
layer {
  name: "conv3_4_sum_norm"
  type: "Normalize"
  bottom: "conv3_4_sum"
  top: "conv3_4_sum_norm"
  norm_param {
    across_spatial: false
    scale_filler {
      type: "constant"
      value: 20
    }
    channel_shared: false
  }
}
layer {
  name: "conv3_4_sum_norm_mbox_loc"
  type: "Convolution"
  bottom: "conv3_4_sum_norm"
  top: "conv3_4_sum_norm_mbox_loc"
  param {
    lr_mult: 1
    decay_mult: 1
  }
  param {
    lr_mult: 2
    decay_mult: 0
  }
  convolution_param {
    num_output: 12
    pad: 1
    kernel_size: 3
    stride: 1
    weight_filler {
      type: "xavier"
    }
    bias_filler {
      type: "constant"
      value: 0
    }
  }
}
layer {
  name: "conv3_4_sum_norm_mbox_loc_perm"
  type: "Permute"
  bottom: "conv3_4_sum_norm_mbox_loc"
  top: "conv3_4_sum_norm_mbox_loc_perm"
  permute_param {
    order: 0
    order: 2
    order: 3
    order: 1
  }
}
layer {
  name: "conv3_4_sum_norm_mbox_loc_flat"
  type: "Flatten"
  bottom: "conv3_4_sum_norm_mbox_loc_perm"
  top: "conv3_4_sum_norm_mbox_loc_flat"
  flatten_param {
    axis: 1
  }
}
layer {
  name: "conv3_4_sum_norm_mbox_conf"
  type: "Convolution"
  bottom: "conv3_4_sum_norm"
  top: "conv3_4_sum_norm_mbox_conf"
  param {
    lr_mult: 1
    decay_mult: 1
  }
  param {
    lr_mult: 2
    decay_mult: 0
  }
  convolution_param {
    num_output: 15
    pad: 1
    kernel_size: 3
    stride: 1
    weight_filler {
      type: "xavier"
    }
    bias_filler {
      type: "constant"
      value: 0
    }
  }
}
layer {
  name: "conv3_4_sum_norm_mbox_conf_perm"
  type: "Permute"
  bottom: "conv3_4_sum_norm_mbox_conf"
  top: "conv3_4_sum_norm_mbox_conf_perm"
  permute_param {
    order: 0
    order: 2
    order: 3
    order: 1
  }
}
layer {
  name: "conv3_4_sum_norm_mbox_conf_flat"
  type: "Flatten"
  bottom: "conv3_4_sum_norm_mbox_conf_perm"
  top: "conv3_4_sum_norm_mbox_conf_flat"
  flatten_param {
    axis: 1
  }
}
layer {
  name: "conv3_4_sum_norm_mbox_priorbox"
  type: "PriorBox"
  bottom: "conv3_4_sum_norm"
  bottom: "data"
  top: "conv3_4_sum_norm_mbox_priorbox"
  prior_box_param {
    min_size: 50
    aspect_ratio: 2
    flip: true
    clip: true
    variance: 0.1
    variance: 0.1
    variance: 0.2
    variance: 0.2
  }
}
layer {
  name: "conv4_6_sum_mbox_loc"
  type: "Convolution"
  bottom: "conv4_6_sum"
  top: "conv4_6_sum_mbox_loc"
  param {
    lr_mult: 1
    decay_mult: 1
  }
  param {
    lr_mult: 2
    decay_mult: 0
  }
  convolution_param {
    num_output: 24
    pad: 1
    kernel_size: 3
    stride: 1
    weight_filler {
      type: "xavier"
    }
    bias_filler {
      type: "constant"
      value: 0
    }
  }
}
layer {
  name: "conv4_6_sum_mbox_loc_perm"
  type: "Permute"
  bottom: "conv4_6_sum_mbox_loc"
  top: "conv4_6_sum_mbox_loc_perm"
  permute_param {
    order: 0
    order: 2
    order: 3
    order: 1
  }
}
layer {
  name: "conv4_6_sum_mbox_loc_flat"
  type: "Flatten"
  bottom: "conv4_6_sum_mbox_loc_perm"
  top: "conv4_6_sum_mbox_loc_flat"
  flatten_param {
    axis: 1
  }
}
layer {
  name: "conv4_6_sum_mbox_conf"
  type: "Convolution"
  bottom: "conv4_6_sum"
  top: "conv4_6_sum_mbox_conf"
  param {
    lr_mult: 1
    decay_mult: 1
  }
  param {
    lr_mult: 2
    decay_mult: 0
  }
  convolution_param {
    num_output: 30
    pad: 1
    kernel_size: 3
    stride: 1
    weight_filler {
      type: "xavier"
    }
    bias_filler {
      type: "constant"
      value: 0
    }
  }
}
layer {
  name: "conv4_6_sum_mbox_conf_perm"
  type: "Permute"
  bottom: "conv4_6_sum_mbox_conf"
  top: "conv4_6_sum_mbox_conf_perm"
  permute_param {
    order: 0
    order: 2
    order: 3
    order: 1
  }
}
layer {
  name: "conv4_6_sum_mbox_conf_flat"
  type: "Flatten"
  bottom: "conv4_6_sum_mbox_conf_perm"
  top: "conv4_6_sum_mbox_conf_flat"
  flatten_param {
    axis: 1
  }
}
layer {
  name: "conv4_6_sum_mbox_priorbox"
  type: "PriorBox"
  bottom: "conv4_6_sum"
  bottom: "data"
  top: "conv4_6_sum_mbox_priorbox"
  prior_box_param {
    min_size: 100
    max_size: 190
    aspect_ratio: 2
    aspect_ratio: 3
    flip: true
    clip: true
    variance: 0.1
    variance: 0.1
    variance: 0.2
    variance: 0.2
  }
}
layer {
  name: "conv6_2_mbox_loc"
  type: "Convolution"
  bottom: "conv6_2"
  top: "conv6_2_mbox_loc"
  param {
    lr_mult: 1
    decay_mult: 1
  }
  param {
    lr_mult: 2
    decay_mult: 0
  }
  convolution_param {
    num_output: 24
    pad: 1
    kernel_size: 3
    stride: 1
    weight_filler {
      type: "xavier"
    }
    bias_filler {
      type: "constant"
      value: 0
    }
  }
}
layer {
  name: "conv6_2_mbox_loc_perm"
  type: "Permute"
  bottom: "conv6_2_mbox_loc"
  top: "conv6_2_mbox_loc_perm"
  permute_param {
    order: 0
    order: 2
    order: 3
    order: 1
  }
}
layer {
  name: "conv6_2_mbox_loc_flat"
  type: "Flatten"
  bottom: "conv6_2_mbox_loc_perm"
  top: "conv6_2_mbox_loc_flat"
  flatten_param {
    axis: 1
  }
}
layer {
  name: "conv6_2_mbox_conf"
  type: "Convolution"
  bottom: "conv6_2"
  top: "conv6_2_mbox_conf"
  param {
    lr_mult: 1
    decay_mult: 1
  }
  param {
    lr_mult: 2
    decay_mult: 0
  }
  convolution_param {
    num_output: 30
    pad: 1
    kernel_size: 3
    stride: 1
    weight_filler {
      type: "xavier"
    }
    bias_filler {
      type: "constant"
      value: 0
    }
  }
}
layer {
  name: "conv6_2_mbox_conf_perm"
  type: "Permute"
  bottom: "conv6_2_mbox_conf"
  top: "conv6_2_mbox_conf_perm"
  permute_param {
    order: 0
    order: 2
    order: 3
    order: 1
  }
}
layer {
  name: "conv6_2_mbox_conf_flat"
  type: "Flatten"
  bottom: "conv6_2_mbox_conf_perm"
  top: "conv6_2_mbox_conf_flat"
  flatten_param {
    axis: 1
  }
}
layer {
  name: "conv6_2_mbox_priorbox"
  type: "PriorBox"
  bottom: "conv6_2"
  bottom: "data"
  top: "conv6_2_mbox_priorbox"
  prior_box_param {
    min_size: 190
    max_size: 280
    aspect_ratio: 2
    aspect_ratio: 3
    flip: true
    clip: true
    variance: 0.1
    variance: 0.1
    variance: 0.2
    variance: 0.2
  }
}
layer {
  name: "conv7_2_mbox_loc"
  type: "Convolution"
  bottom: "conv7_2"
  top: "conv7_2_mbox_loc"
  param {
    lr_mult: 1
    decay_mult: 1
  }
  param {
    lr_mult: 2
    decay_mult: 0
  }
  convolution_param {
    num_output: 24
    pad: 1
    kernel_size: 3
    stride: 1
    weight_filler {
      type: "xavier"
    }
    bias_filler {
      type: "constant"
      value: 0
    }
  }
}
layer {
  name: "conv7_2_mbox_loc_perm"
  type: "Permute"
  bottom: "conv7_2_mbox_loc"
  top: "conv7_2_mbox_loc_perm"
  permute_param {
    order: 0
    order: 2
    order: 3
    order: 1
  }
}
layer {
  name: "conv7_2_mbox_loc_flat"
  type: "Flatten"
  bottom: "conv7_2_mbox_loc_perm"
  top: "conv7_2_mbox_loc_flat"
  flatten_param {
    axis: 1
  }
}
layer {
  name: "conv7_2_mbox_conf"
  type: "Convolution"
  bottom: "conv7_2"
  top: "conv7_2_mbox_conf"
  param {
    lr_mult: 1
    decay_mult: 1
  }
  param {
    lr_mult: 2
    decay_mult: 0
  }
  convolution_param {
    num_output: 30
    pad: 1
    kernel_size: 3
    stride: 1
    weight_filler {
      type: "xavier"
    }
    bias_filler {
      type: "constant"
      value: 0
    }
  }
}
layer {
  name: "conv7_2_mbox_conf_perm"
  type: "Permute"
  bottom: "conv7_2_mbox_conf"
  top: "conv7_2_mbox_conf_perm"
  permute_param {
    order: 0
    order: 2
    order: 3
    order: 1
  }
}
layer {
  name: "conv7_2_mbox_conf_flat"
  type: "Flatten"
  bottom: "conv7_2_mbox_conf_perm"
  top: "conv7_2_mbox_conf_flat"
  flatten_param {
    axis: 1
  }
}
layer {
  name: "conv7_2_mbox_priorbox"
  type: "PriorBox"
  bottom: "conv7_2"
  bottom: "data"
  top: "conv7_2_mbox_priorbox"
  prior_box_param {
    min_size: 280
    max_size: 370
    aspect_ratio: 2
    aspect_ratio: 3
    flip: true
    clip: true
    variance: 0.1
    variance: 0.1
    variance: 0.2
    variance: 0.2
  }
}
layer {
  name: "conv8_2_mbox_loc"
  type: "Convolution"
  bottom: "conv8_2"
  top: "conv8_2_mbox_loc"
  param {
    lr_mult: 1
    decay_mult: 1
  }
  param {
    lr_mult: 2
    decay_mult: 0
  }
  convolution_param {
    num_output: 24
    pad: 1
    kernel_size: 3
    stride: 1
    weight_filler {
      type: "xavier"
    }
    bias_filler {
      type: "constant"
      value: 0
    }
  }
}
layer {
  name: "conv8_2_mbox_loc_perm"
  type: "Permute"
  bottom: "conv8_2_mbox_loc"
  top: "conv8_2_mbox_loc_perm"
  permute_param {
    order: 0
    order: 2
    order: 3
    order: 1
  }
}
layer {
  name: "conv8_2_mbox_loc_flat"
  type: "Flatten"
  bottom: "conv8_2_mbox_loc_perm"
  top: "conv8_2_mbox_loc_flat"
  flatten_param {
    axis: 1
  }
}
layer {
  name: "conv8_2_mbox_conf"
  type: "Convolution"
  bottom: "conv8_2"
  top: "conv8_2_mbox_conf"
  param {
    lr_mult: 1
    decay_mult: 1
  }
  param {
    lr_mult: 2
    decay_mult: 0
  }
  convolution_param {
    num_output: 30
    pad: 1
    kernel_size: 3
    stride: 1
    weight_filler {
      type: "xavier"
    }
    bias_filler {
      type: "constant"
      value: 0
    }
  }
}
layer {
  name: "conv8_2_mbox_conf_perm"
  type: "Permute"
  bottom: "conv8_2_mbox_conf"
  top: "conv8_2_mbox_conf_perm"
  permute_param {
    order: 0
    order: 2
    order: 3
    order: 1
  }
}
layer {
  name: "conv8_2_mbox_conf_flat"
  type: "Flatten"
  bottom: "conv8_2_mbox_conf_perm"
  top: "conv8_2_mbox_conf_flat"
  flatten_param {
    axis: 1
  }
}
layer {
  name: "conv8_2_mbox_priorbox"
  type: "PriorBox"
  bottom: "conv8_2"
  bottom: "data"
  top: "conv8_2_mbox_priorbox"
  prior_box_param {
    min_size: 370
    max_size: 460
    aspect_ratio: 2
    aspect_ratio: 3
    flip: true
    clip: true
    variance: 0.1
    variance: 0.1
    variance: 0.2
    variance: 0.2
  }
}
layer {
  name: "pool6_mbox_loc"
  type: "Convolution"
  bottom: "pool6"
  top: "pool6_mbox_loc"
  param {
    lr_mult: 1
    decay_mult: 1
  }
  param {
    lr_mult: 2
    decay_mult: 0
  }
  convolution_param {
    num_output: 24
    pad: 1
    kernel_size: 3
    stride: 1
    weight_filler {
      type: "xavier"
    }
    bias_filler {
      type: "constant"
      value: 0
    }
  }
}
layer {
  name: "pool6_mbox_loc_perm"
  type: "Permute"
  bottom: "pool6_mbox_loc"
  top: "pool6_mbox_loc_perm"
  permute_param {
    order: 0
    order: 2
    order: 3
    order: 1
  }
}
layer {
  name: "pool6_mbox_loc_flat"
  type: "Flatten"
  bottom: "pool6_mbox_loc_perm"
  top: "pool6_mbox_loc_flat"
  flatten_param {
    axis: 1
  }
}
layer {
  name: "pool6_mbox_conf"
  type: "Convolution"
  bottom: "pool6"
  top: "pool6_mbox_conf"
  param {
    lr_mult: 1
    decay_mult: 1
  }
  param {
    lr_mult: 2
    decay_mult: 0
  }
  convolution_param {
    num_output: 30
    pad: 1
    kernel_size: 3
    stride: 1
    weight_filler {
      type: "xavier"
    }
    bias_filler {
      type: "constant"
      value: 0
    }
  }
}
layer {
  name: "pool6_mbox_conf_perm"
  type: "Permute"
  bottom: "pool6_mbox_conf"
  top: "pool6_mbox_conf_perm"
  permute_param {
    order: 0
    order: 2
    order: 3
    order: 1
  }
}
layer {
  name: "pool6_mbox_conf_flat"
  type: "Flatten"
  bottom: "pool6_mbox_conf_perm"
  top: "pool6_mbox_conf_flat"
  flatten_param {
    axis: 1
  }
}
layer {
  name: "pool6_mbox_priorbox"
  type: "PriorBox"
  bottom: "pool6"
  bottom: "data"
  top: "pool6_mbox_priorbox"
  prior_box_param {
    min_size: 460
    max_size: 550
    aspect_ratio: 2
    aspect_ratio: 3
    flip: true
    clip: true
    variance: 0.1
    variance: 0.1
    variance: 0.2
    variance: 0.2
  }
}
layer {
  name: "mbox_loc"
  type: "Concat"
  bottom: "conv3_4_sum_norm_mbox_loc_flat"
  bottom: "conv4_6_sum_mbox_loc_flat"
  bottom: "conv6_2_mbox_loc_flat"
  bottom: "conv7_2_mbox_loc_flat"
  bottom: "conv8_2_mbox_loc_flat"
  bottom: "pool6_mbox_loc_flat"
  top: "mbox_loc"
  concat_param {
    axis: 1
  }
}
layer {
  name: "mbox_conf"
  type: "Concat"
  bottom: "conv3_4_sum_norm_mbox_conf_flat"
  bottom: "conv4_6_sum_mbox_conf_flat"
  bottom: "conv6_2_mbox_conf_flat"
  bottom: "conv7_2_mbox_conf_flat"
  bottom: "conv8_2_mbox_conf_flat"
  bottom: "pool6_mbox_conf_flat"
  top: "mbox_conf"
  concat_param {
    axis: 1
  }
}
layer {
  name: "mbox_priorbox"
  type: "Concat"
  bottom: "conv3_4_sum_norm_mbox_priorbox"
  bottom: "conv4_6_sum_mbox_priorbox"
  bottom: "conv6_2_mbox_priorbox"
  bottom: "conv7_2_mbox_priorbox"
  bottom: "conv8_2_mbox_priorbox"
  bottom: "pool6_mbox_priorbox"
  top: "mbox_priorbox"
  concat_param {
    axis: 2
  }
}
layer {
  name: "mbox_conf_reshape"
  type: "Reshape"
  bottom: "mbox_conf"
  top: "mbox_conf_reshape"
  reshape_param {
    shape {
      dim: 0
      dim: -1
      dim: 5
    }
  }
}
layer {
  name: "mbox_conf_softmax"
  type: "Softmax"
  bottom: "mbox_conf_reshape"
  top: "mbox_conf_softmax"
  softmax_param {
    axis: 2
  }
}
layer {
  name: "mbox_conf_flatten"
  type: "Flatten"
  bottom: "mbox_conf_softmax"
  top: "mbox_conf_flatten"
  flatten_param {
    axis: 1
  }
}
layer {
  name: "detection_out"
  type: "DetectionOutput"
  bottom: "mbox_loc"
  bottom: "mbox_conf_flatten"
  bottom: "mbox_priorbox"
  top: "detection_out"
  include {
    phase: TEST
  }
  detection_output_param {
    num_classes: 5
    share_location: true
    background_label_id: 0
    nms_param {
      nms_threshold: 0.45
      top_k: 400
    }
    save_output_param {
      output_directory: "/home/zdb/data/VOCdevkit/results/VOC2007/SSD_500x500/Main"
      output_name_prefix: "comp4_det_test_"
      output_format: "VOC"
      label_map_file: "data/deepv_car_person/labelmap_voc.prototxt"
      name_size_file: "data/deepv_car_person/test_name_size.txt"
      num_test_image: 4952
    }
    code_type: CENTER_SIZE
    keep_top_k: 200
    confidence_threshold: 0.01
  }
}
layer {
  name: "detection_eval"
  type: "DetectionEvaluate"
  bottom: "detection_out"
  bottom: "label"
  top: "detection_eval"
  include {
    phase: TEST
  }
  detection_evaluate_param {
    num_classes: 5
    background_label_id: 0
    overlap_threshold: 0.5
    evaluate_difficult_gt: false
    name_size_file: "data/deepv_car_person/test_name_size.txt"
  }
}
I0519 19:07:05.138190 12393 layer_factory.hpp:77] Creating layer data
I0519 19:07:05.138279 12393 net.cpp:91] Creating Layer data
I0519 19:07:05.138316 12393 net.cpp:399] data -> data
I0519 19:07:05.138336 12393 net.cpp:399] data -> label
I0519 19:07:05.139544 12422 db_lmdb.cpp:35] Opened lmdb examples/VOC0712/VOC0712_test_lmdb
I0519 19:07:05.142326 12393 annotated_data_layer.cpp:52] output data size: 1,3,500,500
I0519 19:07:05.150049 12393 net.cpp:141] Setting up data
I0519 19:07:05.150075 12393 net.cpp:148] Top shape: 1 3 500 500 (750000)
I0519 19:07:05.150082 12393 net.cpp:148] Top shape: 1 1 2 8 (16)
I0519 19:07:05.150085 12393 net.cpp:156] Memory required for data: 3000064
I0519 19:07:05.150091 12393 layer_factory.hpp:77] Creating layer data_data_0_split
I0519 19:07:05.150106 12393 net.cpp:91] Creating Layer data_data_0_split
I0519 19:07:05.150116 12393 net.cpp:425] data_data_0_split <- data
I0519 19:07:05.150125 12393 net.cpp:399] data_data_0_split -> data_data_0_split_0
I0519 19:07:05.150135 12393 net.cpp:399] data_data_0_split -> data_data_0_split_1
I0519 19:07:05.150143 12393 net.cpp:399] data_data_0_split -> data_data_0_split_2
I0519 19:07:05.150169 12393 net.cpp:399] data_data_0_split -> data_data_0_split_3
I0519 19:07:05.150178 12393 net.cpp:399] data_data_0_split -> data_data_0_split_4
I0519 19:07:05.150187 12393 net.cpp:399] data_data_0_split -> data_data_0_split_5
I0519 19:07:05.150193 12393 net.cpp:399] data_data_0_split -> data_data_0_split_6
I0519 19:07:05.150424 12393 net.cpp:141] Setting up data_data_0_split
I0519 19:07:05.150436 12393 net.cpp:148] Top shape: 1 3 500 500 (750000)
I0519 19:07:05.150444 12393 net.cpp:148] Top shape: 1 3 500 500 (750000)
I0519 19:07:05.150449 12393 net.cpp:148] Top shape: 1 3 500 500 (750000)
I0519 19:07:05.150455 12393 net.cpp:148] Top shape: 1 3 500 500 (750000)
I0519 19:07:05.150460 12393 net.cpp:148] Top shape: 1 3 500 500 (750000)
I0519 19:07:05.150467 12393 net.cpp:148] Top shape: 1 3 500 500 (750000)
I0519 19:07:05.150475 12393 net.cpp:148] Top shape: 1 3 500 500 (750000)
I0519 19:07:05.150478 12393 net.cpp:156] Memory required for data: 24000064
I0519 19:07:05.150482 12393 layer_factory.hpp:77] Creating layer conv3_4_sum
I0519 19:07:05.150499 12393 net.cpp:91] Creating Layer conv3_4_sum
I0519 19:07:05.150506 12393 net.cpp:425] conv3_4_sum <- data_data_0_split_0
I0519 19:07:05.150513 12393 net.cpp:399] conv3_4_sum -> conv3_4_sum
I0519 19:07:05.154340 12393 net.cpp:141] Setting up conv3_4_sum
I0519 19:07:05.154361 12393 net.cpp:148] Top shape: 1 512 250 250 (32000000)
I0519 19:07:05.154366 12393 net.cpp:156] Memory required for data: 152000064
I0519 19:07:05.154379 12393 layer_factory.hpp:77] Creating layer conv3_4_sum_relu
I0519 19:07:05.154389 12393 net.cpp:91] Creating Layer conv3_4_sum_relu
I0519 19:07:05.154394 12393 net.cpp:425] conv3_4_sum_relu <- conv3_4_sum
I0519 19:07:05.154400 12393 net.cpp:386] conv3_4_sum_relu -> conv3_4_sum (in-place)
I0519 19:07:05.155225 12393 net.cpp:141] Setting up conv3_4_sum_relu
I0519 19:07:05.155242 12393 net.cpp:148] Top shape: 1 512 250 250 (32000000)
I0519 19:07:05.155246 12393 net.cpp:156] Memory required for data: 280000064
I0519 19:07:05.155251 12393 layer_factory.hpp:77] Creating layer conv3_4_sum_conv3_4_sum_relu_0_split
I0519 19:07:05.155261 12393 net.cpp:91] Creating Layer conv3_4_sum_conv3_4_sum_relu_0_split
I0519 19:07:05.155264 12393 net.cpp:425] conv3_4_sum_conv3_4_sum_relu_0_split <- conv3_4_sum
I0519 19:07:05.155272 12393 net.cpp:399] conv3_4_sum_conv3_4_sum_relu_0_split -> conv3_4_sum_conv3_4_sum_relu_0_split_0
I0519 19:07:05.155280 12393 net.cpp:399] conv3_4_sum_conv3_4_sum_relu_0_split -> conv3_4_sum_conv3_4_sum_relu_0_split_1
I0519 19:07:05.155336 12393 net.cpp:141] Setting up conv3_4_sum_conv3_4_sum_relu_0_split
I0519 19:07:05.155346 12393 net.cpp:148] Top shape: 1 512 250 250 (32000000)
I0519 19:07:05.155351 12393 net.cpp:148] Top shape: 1 512 250 250 (32000000)
I0519 19:07:05.155355 12393 net.cpp:156] Memory required for data: 536000064
I0519 19:07:05.155359 12393 layer_factory.hpp:77] Creating layer conv4_6_sum
I0519 19:07:05.155370 12393 net.cpp:91] Creating Layer conv4_6_sum
I0519 19:07:05.155377 12393 net.cpp:425] conv4_6_sum <- conv3_4_sum_conv3_4_sum_relu_0_split_0
I0519 19:07:05.155385 12393 net.cpp:399] conv4_6_sum -> conv4_6_sum
I0519 19:07:05.179612 12393 net.cpp:141] Setting up conv4_6_sum
I0519 19:07:05.179642 12393 net.cpp:148] Top shape: 1 512 125 125 (8000000)
I0519 19:07:05.179648 12393 net.cpp:156] Memory required for data: 568000064
I0519 19:07:05.179663 12393 layer_factory.hpp:77] Creating layer conv4_6_sum_relu
I0519 19:07:05.179674 12393 net.cpp:91] Creating Layer conv4_6_sum_relu
I0519 19:07:05.179680 12393 net.cpp:425] conv4_6_sum_relu <- conv4_6_sum
I0519 19:07:05.179697 12393 net.cpp:386] conv4_6_sum_relu -> conv4_6_sum (in-place)
I0519 19:07:05.179966 12393 net.cpp:141] Setting up conv4_6_sum_relu
I0519 19:07:05.179981 12393 net.cpp:148] Top shape: 1 512 125 125 (8000000)
I0519 19:07:05.179986 12393 net.cpp:156] Memory required for data: 600000064
I0519 19:07:05.179991 12393 layer_factory.hpp:77] Creating layer conv4_6_sum_conv4_6_sum_relu_0_split
I0519 19:07:05.180017 12393 net.cpp:91] Creating Layer conv4_6_sum_conv4_6_sum_relu_0_split
I0519 19:07:05.180022 12393 net.cpp:425] conv4_6_sum_conv4_6_sum_relu_0_split <- conv4_6_sum
I0519 19:07:05.180032 12393 net.cpp:399] conv4_6_sum_conv4_6_sum_relu_0_split -> conv4_6_sum_conv4_6_sum_relu_0_split_0
I0519 19:07:05.180040 12393 net.cpp:399] conv4_6_sum_conv4_6_sum_relu_0_split -> conv4_6_sum_conv4_6_sum_relu_0_split_1
I0519 19:07:05.180049 12393 net.cpp:399] conv4_6_sum_conv4_6_sum_relu_0_split -> conv4_6_sum_conv4_6_sum_relu_0_split_2
I0519 19:07:05.180058 12393 net.cpp:399] conv4_6_sum_conv4_6_sum_relu_0_split -> conv4_6_sum_conv4_6_sum_relu_0_split_3
I0519 19:07:05.180148 12393 net.cpp:141] Setting up conv4_6_sum_conv4_6_sum_relu_0_split
I0519 19:07:05.180158 12393 net.cpp:148] Top shape: 1 512 125 125 (8000000)
I0519 19:07:05.180163 12393 net.cpp:148] Top shape: 1 512 125 125 (8000000)
I0519 19:07:05.180171 12393 net.cpp:148] Top shape: 1 512 125 125 (8000000)
I0519 19:07:05.180176 12393 net.cpp:148] Top shape: 1 512 125 125 (8000000)
I0519 19:07:05.180179 12393 net.cpp:156] Memory required for data: 728000064
I0519 19:07:05.180183 12393 layer_factory.hpp:77] Creating layer conv6_1
I0519 19:07:05.180199 12393 net.cpp:91] Creating Layer conv6_1
I0519 19:07:05.180207 12393 net.cpp:425] conv6_1 <- conv4_6_sum_conv4_6_sum_relu_0_split_0
I0519 19:07:05.180215 12393 net.cpp:399] conv6_1 -> conv6_1
I0519 19:07:05.186925 12393 net.cpp:141] Setting up conv6_1
I0519 19:07:05.186960 12393 net.cpp:148] Top shape: 1 256 125 125 (4000000)
I0519 19:07:05.186965 12393 net.cpp:156] Memory required for data: 744000064
I0519 19:07:05.186981 12393 layer_factory.hpp:77] Creating layer conv6_1_relu
I0519 19:07:05.186992 12393 net.cpp:91] Creating Layer conv6_1_relu
I0519 19:07:05.186998 12393 net.cpp:425] conv6_1_relu <- conv6_1
I0519 19:07:05.187006 12393 net.cpp:386] conv6_1_relu -> conv6_1 (in-place)
I0519 19:07:05.187638 12393 net.cpp:141] Setting up conv6_1_relu
I0519 19:07:05.187657 12393 net.cpp:148] Top shape: 1 256 125 125 (4000000)
I0519 19:07:05.187661 12393 net.cpp:156] Memory required for data: 760000064
I0519 19:07:05.187666 12393 layer_factory.hpp:77] Creating layer conv6_2
I0519 19:07:05.187680 12393 net.cpp:91] Creating Layer conv6_2
I0519 19:07:05.187685 12393 net.cpp:425] conv6_2 <- conv6_1
I0519 19:07:05.187697 12393 net.cpp:399] conv6_2 -> conv6_2
I0519 19:07:05.201503 12393 net.cpp:141] Setting up conv6_2
I0519 19:07:05.201536 12393 net.cpp:148] Top shape: 1 512 63 63 (2032128)
I0519 19:07:05.201542 12393 net.cpp:156] Memory required for data: 768128576
I0519 19:07:05.201551 12393 layer_factory.hpp:77] Creating layer conv6_2_relu
I0519 19:07:05.201561 12393 net.cpp:91] Creating Layer conv6_2_relu
I0519 19:07:05.201567 12393 net.cpp:425] conv6_2_relu <- conv6_2
I0519 19:07:05.201577 12393 net.cpp:386] conv6_2_relu -> conv6_2 (in-place)
I0519 19:07:05.202546 12393 net.cpp:141] Setting up conv6_2_relu
I0519 19:07:05.202567 12393 net.cpp:148] Top shape: 1 512 63 63 (2032128)
I0519 19:07:05.202575 12393 net.cpp:156] Memory required for data: 776257088
I0519 19:07:05.202584 12393 layer_factory.hpp:77] Creating layer conv6_2_conv6_2_relu_0_split
I0519 19:07:05.202605 12393 net.cpp:91] Creating Layer conv6_2_conv6_2_relu_0_split
I0519 19:07:05.202611 12393 net.cpp:425] conv6_2_conv6_2_relu_0_split <- conv6_2
I0519 19:07:05.202620 12393 net.cpp:399] conv6_2_conv6_2_relu_0_split -> conv6_2_conv6_2_relu_0_split_0
I0519 19:07:05.202628 12393 net.cpp:399] conv6_2_conv6_2_relu_0_split -> conv6_2_conv6_2_relu_0_split_1
I0519 19:07:05.202636 12393 net.cpp:399] conv6_2_conv6_2_relu_0_split -> conv6_2_conv6_2_relu_0_split_2
I0519 19:07:05.202646 12393 net.cpp:399] conv6_2_conv6_2_relu_0_split -> conv6_2_conv6_2_relu_0_split_3
I0519 19:07:05.202738 12393 net.cpp:141] Setting up conv6_2_conv6_2_relu_0_split
I0519 19:07:05.202745 12393 net.cpp:148] Top shape: 1 512 63 63 (2032128)
I0519 19:07:05.202751 12393 net.cpp:148] Top shape: 1 512 63 63 (2032128)
I0519 19:07:05.202756 12393 net.cpp:148] Top shape: 1 512 63 63 (2032128)
I0519 19:07:05.202761 12393 net.cpp:148] Top shape: 1 512 63 63 (2032128)
I0519 19:07:05.202783 12393 net.cpp:156] Memory required for data: 808771136
I0519 19:07:05.202788 12393 layer_factory.hpp:77] Creating layer conv7_1
I0519 19:07:05.202805 12393 net.cpp:91] Creating Layer conv7_1
I0519 19:07:05.202810 12393 net.cpp:425] conv7_1 <- conv6_2_conv6_2_relu_0_split_0
I0519 19:07:05.202818 12393 net.cpp:399] conv7_1 -> conv7_1
I0519 19:07:05.208215 12393 net.cpp:141] Setting up conv7_1
I0519 19:07:05.208235 12393 net.cpp:148] Top shape: 1 128 63 63 (508032)
I0519 19:07:05.208240 12393 net.cpp:156] Memory required for data: 810803264
I0519 19:07:05.208252 12393 layer_factory.hpp:77] Creating layer conv7_1_relu
I0519 19:07:05.208261 12393 net.cpp:91] Creating Layer conv7_1_relu
I0519 19:07:05.208266 12393 net.cpp:425] conv7_1_relu <- conv7_1
I0519 19:07:05.208273 12393 net.cpp:386] conv7_1_relu -> conv7_1 (in-place)
I0519 19:07:05.208535 12393 net.cpp:141] Setting up conv7_1_relu
I0519 19:07:05.208550 12393 net.cpp:148] Top shape: 1 128 63 63 (508032)
I0519 19:07:05.208555 12393 net.cpp:156] Memory required for data: 812835392
I0519 19:07:05.208560 12393 layer_factory.hpp:77] Creating layer conv7_2
I0519 19:07:05.208573 12393 net.cpp:91] Creating Layer conv7_2
I0519 19:07:05.208580 12393 net.cpp:425] conv7_2 <- conv7_1
I0519 19:07:05.208590 12393 net.cpp:399] conv7_2 -> conv7_2
I0519 19:07:05.213862 12393 net.cpp:141] Setting up conv7_2
I0519 19:07:05.213886 12393 net.cpp:148] Top shape: 1 256 32 32 (262144)
I0519 19:07:05.213891 12393 net.cpp:156] Memory required for data: 813883968
I0519 19:07:05.213899 12393 layer_factory.hpp:77] Creating layer conv7_2_relu
I0519 19:07:05.213913 12393 net.cpp:91] Creating Layer conv7_2_relu
I0519 19:07:05.213919 12393 net.cpp:425] conv7_2_relu <- conv7_2
I0519 19:07:05.213927 12393 net.cpp:386] conv7_2_relu -> conv7_2 (in-place)
I0519 19:07:05.214864 12393 net.cpp:141] Setting up conv7_2_relu
I0519 19:07:05.214882 12393 net.cpp:148] Top shape: 1 256 32 32 (262144)
I0519 19:07:05.214886 12393 net.cpp:156] Memory required for data: 814932544
I0519 19:07:05.214891 12393 layer_factory.hpp:77] Creating layer conv7_2_conv7_2_relu_0_split
I0519 19:07:05.214900 12393 net.cpp:91] Creating Layer conv7_2_conv7_2_relu_0_split
I0519 19:07:05.214903 12393 net.cpp:425] conv7_2_conv7_2_relu_0_split <- conv7_2
I0519 19:07:05.214913 12393 net.cpp:399] conv7_2_conv7_2_relu_0_split -> conv7_2_conv7_2_relu_0_split_0
I0519 19:07:05.214922 12393 net.cpp:399] conv7_2_conv7_2_relu_0_split -> conv7_2_conv7_2_relu_0_split_1
I0519 19:07:05.214931 12393 net.cpp:399] conv7_2_conv7_2_relu_0_split -> conv7_2_conv7_2_relu_0_split_2
I0519 19:07:05.214937 12393 net.cpp:399] conv7_2_conv7_2_relu_0_split -> conv7_2_conv7_2_relu_0_split_3
I0519 19:07:05.215029 12393 net.cpp:141] Setting up conv7_2_conv7_2_relu_0_split
I0519 19:07:05.215040 12393 net.cpp:148] Top shape: 1 256 32 32 (262144)
I0519 19:07:05.215045 12393 net.cpp:148] Top shape: 1 256 32 32 (262144)
I0519 19:07:05.215050 12393 net.cpp:148] Top shape: 1 256 32 32 (262144)
I0519 19:07:05.215054 12393 net.cpp:148] Top shape: 1 256 32 32 (262144)
I0519 19:07:05.215059 12393 net.cpp:156] Memory required for data: 819126848
I0519 19:07:05.215062 12393 layer_factory.hpp:77] Creating layer conv8_1
I0519 19:07:05.215076 12393 net.cpp:91] Creating Layer conv8_1
I0519 19:07:05.215081 12393 net.cpp:425] conv8_1 <- conv7_2_conv7_2_relu_0_split_0
I0519 19:07:05.215091 12393 net.cpp:399] conv8_1 -> conv8_1
I0519 19:07:05.219246 12393 net.cpp:141] Setting up conv8_1
I0519 19:07:05.219265 12393 net.cpp:148] Top shape: 1 128 32 32 (131072)
I0519 19:07:05.219270 12393 net.cpp:156] Memory required for data: 819651136
I0519 19:07:05.219280 12393 layer_factory.hpp:77] Creating layer conv8_1_relu
I0519 19:07:05.219288 12393 net.cpp:91] Creating Layer conv8_1_relu
I0519 19:07:05.219295 12393 net.cpp:425] conv8_1_relu <- conv8_1
I0519 19:07:05.219301 12393 net.cpp:386] conv8_1_relu -> conv8_1 (in-place)
I0519 19:07:05.220433 12393 net.cpp:141] Setting up conv8_1_relu
I0519 19:07:05.220454 12393 net.cpp:148] Top shape: 1 128 32 32 (131072)
I0519 19:07:05.220476 12393 net.cpp:156] Memory required for data: 820175424
I0519 19:07:05.220482 12393 layer_factory.hpp:77] Creating layer conv8_2
I0519 19:07:05.220497 12393 net.cpp:91] Creating Layer conv8_2
I0519 19:07:05.220504 12393 net.cpp:425] conv8_2 <- conv8_1
I0519 19:07:05.220511 12393 net.cpp:399] conv8_2 -> conv8_2
I0519 19:07:05.226824 12393 net.cpp:141] Setting up conv8_2
I0519 19:07:05.226848 12393 net.cpp:148] Top shape: 1 256 16 16 (65536)
I0519 19:07:05.226855 12393 net.cpp:156] Memory required for data: 820437568
I0519 19:07:05.226862 12393 layer_factory.hpp:77] Creating layer conv8_2_relu
I0519 19:07:05.226873 12393 net.cpp:91] Creating Layer conv8_2_relu
I0519 19:07:05.226879 12393 net.cpp:425] conv8_2_relu <- conv8_2
I0519 19:07:05.226888 12393 net.cpp:386] conv8_2_relu -> conv8_2 (in-place)
I0519 19:07:05.227367 12393 net.cpp:141] Setting up conv8_2_relu
I0519 19:07:05.227382 12393 net.cpp:148] Top shape: 1 256 16 16 (65536)
I0519 19:07:05.227387 12393 net.cpp:156] Memory required for data: 820699712
I0519 19:07:05.227391 12393 layer_factory.hpp:77] Creating layer conv8_2_conv8_2_relu_0_split
I0519 19:07:05.227399 12393 net.cpp:91] Creating Layer conv8_2_conv8_2_relu_0_split
I0519 19:07:05.227403 12393 net.cpp:425] conv8_2_conv8_2_relu_0_split <- conv8_2
I0519 19:07:05.227412 12393 net.cpp:399] conv8_2_conv8_2_relu_0_split -> conv8_2_conv8_2_relu_0_split_0
I0519 19:07:05.227421 12393 net.cpp:399] conv8_2_conv8_2_relu_0_split -> conv8_2_conv8_2_relu_0_split_1
I0519 19:07:05.227437 12393 net.cpp:399] conv8_2_conv8_2_relu_0_split -> conv8_2_conv8_2_relu_0_split_2
I0519 19:07:05.227443 12393 net.cpp:399] conv8_2_conv8_2_relu_0_split -> conv8_2_conv8_2_relu_0_split_3
I0519 19:07:05.227529 12393 net.cpp:141] Setting up conv8_2_conv8_2_relu_0_split
I0519 19:07:05.227538 12393 net.cpp:148] Top shape: 1 256 16 16 (65536)
I0519 19:07:05.227545 12393 net.cpp:148] Top shape: 1 256 16 16 (65536)
I0519 19:07:05.227550 12393 net.cpp:148] Top shape: 1 256 16 16 (65536)
I0519 19:07:05.227555 12393 net.cpp:148] Top shape: 1 256 16 16 (65536)
I0519 19:07:05.227558 12393 net.cpp:156] Memory required for data: 821748288
I0519 19:07:05.227563 12393 layer_factory.hpp:77] Creating layer pool6
I0519 19:07:05.227573 12393 net.cpp:91] Creating Layer pool6
I0519 19:07:05.227578 12393 net.cpp:425] pool6 <- conv8_2_conv8_2_relu_0_split_0
I0519 19:07:05.227586 12393 net.cpp:399] pool6 -> pool6
I0519 19:07:05.228757 12393 net.cpp:141] Setting up pool6
I0519 19:07:05.228780 12393 net.cpp:148] Top shape: 1 256 1 1 (256)
I0519 19:07:05.228787 12393 net.cpp:156] Memory required for data: 821749312
I0519 19:07:05.228796 12393 layer_factory.hpp:77] Creating layer pool6_pool6_0_split
I0519 19:07:05.228814 12393 net.cpp:91] Creating Layer pool6_pool6_0_split
I0519 19:07:05.228822 12393 net.cpp:425] pool6_pool6_0_split <- pool6
I0519 19:07:05.228829 12393 net.cpp:399] pool6_pool6_0_split -> pool6_pool6_0_split_0
I0519 19:07:05.228840 12393 net.cpp:399] pool6_pool6_0_split -> pool6_pool6_0_split_1
I0519 19:07:05.228848 12393 net.cpp:399] pool6_pool6_0_split -> pool6_pool6_0_split_2
I0519 19:07:05.228924 12393 net.cpp:141] Setting up pool6_pool6_0_split
I0519 19:07:05.228934 12393 net.cpp:148] Top shape: 1 256 1 1 (256)
I0519 19:07:05.228940 12393 net.cpp:148] Top shape: 1 256 1 1 (256)
I0519 19:07:05.228943 12393 net.cpp:148] Top shape: 1 256 1 1 (256)
I0519 19:07:05.228947 12393 net.cpp:156] Memory required for data: 821752384
I0519 19:07:05.228951 12393 layer_factory.hpp:77] Creating layer conv3_4_sum_norm
I0519 19:07:05.228963 12393 net.cpp:91] Creating Layer conv3_4_sum_norm
I0519 19:07:05.228968 12393 net.cpp:425] conv3_4_sum_norm <- conv3_4_sum_conv3_4_sum_relu_0_split_1
I0519 19:07:05.228976 12393 net.cpp:399] conv3_4_sum_norm -> conv3_4_sum_norm
I0519 19:07:05.229831 12393 net.cpp:141] Setting up conv3_4_sum_norm
I0519 19:07:05.229848 12393 net.cpp:148] Top shape: 1 512 250 250 (32000000)
I0519 19:07:05.229852 12393 net.cpp:156] Memory required for data: 949752384
I0519 19:07:05.229866 12393 layer_factory.hpp:77] Creating layer conv3_4_sum_norm_conv3_4_sum_norm_0_split
I0519 19:07:05.229889 12393 net.cpp:91] Creating Layer conv3_4_sum_norm_conv3_4_sum_norm_0_split
I0519 19:07:05.229895 12393 net.cpp:425] conv3_4_sum_norm_conv3_4_sum_norm_0_split <- conv3_4_sum_norm
I0519 19:07:05.229902 12393 net.cpp:399] conv3_4_sum_norm_conv3_4_sum_norm_0_split -> conv3_4_sum_norm_conv3_4_sum_norm_0_split_0
I0519 19:07:05.229910 12393 net.cpp:399] conv3_4_sum_norm_conv3_4_sum_norm_0_split -> conv3_4_sum_norm_conv3_4_sum_norm_0_split_1
I0519 19:07:05.229918 12393 net.cpp:399] conv3_4_sum_norm_conv3_4_sum_norm_0_split -> conv3_4_sum_norm_conv3_4_sum_norm_0_split_2
I0519 19:07:05.229987 12393 net.cpp:141] Setting up conv3_4_sum_norm_conv3_4_sum_norm_0_split
I0519 19:07:05.230000 12393 net.cpp:148] Top shape: 1 512 250 250 (32000000)
I0519 19:07:05.230005 12393 net.cpp:148] Top shape: 1 512 250 250 (32000000)
I0519 19:07:05.230010 12393 net.cpp:148] Top shape: 1 512 250 250 (32000000)
I0519 19:07:05.230015 12393 net.cpp:156] Memory required for data: 1333752384
I0519 19:07:05.230018 12393 layer_factory.hpp:77] Creating layer conv3_4_sum_norm_mbox_loc
I0519 19:07:05.230031 12393 net.cpp:91] Creating Layer conv3_4_sum_norm_mbox_loc
I0519 19:07:05.230036 12393 net.cpp:425] conv3_4_sum_norm_mbox_loc <- conv3_4_sum_norm_conv3_4_sum_norm_0_split_0
I0519 19:07:05.230046 12393 net.cpp:399] conv3_4_sum_norm_mbox_loc -> conv3_4_sum_norm_mbox_loc
I0519 19:07:05.232633 12393 net.cpp:141] Setting up conv3_4_sum_norm_mbox_loc
I0519 19:07:05.232653 12393 net.cpp:148] Top shape: 1 12 250 250 (750000)
I0519 19:07:05.232658 12393 net.cpp:156] Memory required for data: 1336752384
I0519 19:07:05.232666 12393 layer_factory.hpp:77] Creating layer conv3_4_sum_norm_mbox_loc_perm
I0519 19:07:05.232679 12393 net.cpp:91] Creating Layer conv3_4_sum_norm_mbox_loc_perm
I0519 19:07:05.232686 12393 net.cpp:425] conv3_4_sum_norm_mbox_loc_perm <- conv3_4_sum_norm_mbox_loc
I0519 19:07:05.232694 12393 net.cpp:399] conv3_4_sum_norm_mbox_loc_perm -> conv3_4_sum_norm_mbox_loc_perm
I0519 19:07:05.232838 12393 net.cpp:141] Setting up conv3_4_sum_norm_mbox_loc_perm
I0519 19:07:05.232849 12393 net.cpp:148] Top shape: 1 250 250 12 (750000)
I0519 19:07:05.232853 12393 net.cpp:156] Memory required for data: 1339752384
I0519 19:07:05.232857 12393 layer_factory.hpp:77] Creating layer conv3_4_sum_norm_mbox_loc_flat
I0519 19:07:05.232868 12393 net.cpp:91] Creating Layer conv3_4_sum_norm_mbox_loc_flat
I0519 19:07:05.232873 12393 net.cpp:425] conv3_4_sum_norm_mbox_loc_flat <- conv3_4_sum_norm_mbox_loc_perm
I0519 19:07:05.232879 12393 net.cpp:399] conv3_4_sum_norm_mbox_loc_flat -> conv3_4_sum_norm_mbox_loc_flat
I0519 19:07:05.232914 12393 net.cpp:141] Setting up conv3_4_sum_norm_mbox_loc_flat
I0519 19:07:05.232921 12393 net.cpp:148] Top shape: 1 750000 (750000)
I0519 19:07:05.232925 12393 net.cpp:156] Memory required for data: 1342752384
I0519 19:07:05.232929 12393 layer_factory.hpp:77] Creating layer conv3_4_sum_norm_mbox_conf
I0519 19:07:05.232941 12393 net.cpp:91] Creating Layer conv3_4_sum_norm_mbox_conf
I0519 19:07:05.232946 12393 net.cpp:425] conv3_4_sum_norm_mbox_conf <- conv3_4_sum_norm_conv3_4_sum_norm_0_split_1
I0519 19:07:05.232956 12393 net.cpp:399] conv3_4_sum_norm_mbox_conf -> conv3_4_sum_norm_mbox_conf
I0519 19:07:05.236202 12393 net.cpp:141] Setting up conv3_4_sum_norm_mbox_conf
I0519 19:07:05.236220 12393 net.cpp:148] Top shape: 1 15 250 250 (937500)
I0519 19:07:05.236227 12393 net.cpp:156] Memory required for data: 1346502384
I0519 19:07:05.236235 12393 layer_factory.hpp:77] Creating layer conv3_4_sum_norm_mbox_conf_perm
I0519 19:07:05.236244 12393 net.cpp:91] Creating Layer conv3_4_sum_norm_mbox_conf_perm
I0519 19:07:05.236249 12393 net.cpp:425] conv3_4_sum_norm_mbox_conf_perm <- conv3_4_sum_norm_mbox_conf
I0519 19:07:05.236258 12393 net.cpp:399] conv3_4_sum_norm_mbox_conf_perm -> conv3_4_sum_norm_mbox_conf_perm
I0519 19:07:05.236402 12393 net.cpp:141] Setting up conv3_4_sum_norm_mbox_conf_perm
I0519 19:07:05.236414 12393 net.cpp:148] Top shape: 1 250 250 15 (937500)
I0519 19:07:05.236430 12393 net.cpp:156] Memory required for data: 1350252384
I0519 19:07:05.236435 12393 layer_factory.hpp:77] Creating layer conv3_4_sum_norm_mbox_conf_flat
I0519 19:07:05.236450 12393 net.cpp:91] Creating Layer conv3_4_sum_norm_mbox_conf_flat
I0519 19:07:05.236455 12393 net.cpp:425] conv3_4_sum_norm_mbox_conf_flat <- conv3_4_sum_norm_mbox_conf_perm
I0519 19:07:05.236464 12393 net.cpp:399] conv3_4_sum_norm_mbox_conf_flat -> conv3_4_sum_norm_mbox_conf_flat
I0519 19:07:05.236500 12393 net.cpp:141] Setting up conv3_4_sum_norm_mbox_conf_flat
I0519 19:07:05.236506 12393 net.cpp:148] Top shape: 1 937500 (937500)
I0519 19:07:05.236510 12393 net.cpp:156] Memory required for data: 1354002384
I0519 19:07:05.236515 12393 layer_factory.hpp:77] Creating layer conv3_4_sum_norm_mbox_priorbox
I0519 19:07:05.236526 12393 net.cpp:91] Creating Layer conv3_4_sum_norm_mbox_priorbox
I0519 19:07:05.236531 12393 net.cpp:425] conv3_4_sum_norm_mbox_priorbox <- conv3_4_sum_norm_conv3_4_sum_norm_0_split_2
I0519 19:07:05.236536 12393 net.cpp:425] conv3_4_sum_norm_mbox_priorbox <- data_data_0_split_1
I0519 19:07:05.236543 12393 net.cpp:399] conv3_4_sum_norm_mbox_priorbox -> conv3_4_sum_norm_mbox_priorbox
I0519 19:07:05.236582 12393 net.cpp:141] Setting up conv3_4_sum_norm_mbox_priorbox
I0519 19:07:05.236589 12393 net.cpp:148] Top shape: 1 2 750000 (1500000)
I0519 19:07:05.236593 12393 net.cpp:156] Memory required for data: 1360002384
I0519 19:07:05.236596 12393 layer_factory.hpp:77] Creating layer conv4_6_sum_mbox_loc
I0519 19:07:05.236609 12393 net.cpp:91] Creating Layer conv4_6_sum_mbox_loc
I0519 19:07:05.236614 12393 net.cpp:425] conv4_6_sum_mbox_loc <- conv4_6_sum_conv4_6_sum_relu_0_split_1
I0519 19:07:05.236624 12393 net.cpp:399] conv4_6_sum_mbox_loc -> conv4_6_sum_mbox_loc
I0519 19:07:05.240972 12393 net.cpp:141] Setting up conv4_6_sum_mbox_loc
I0519 19:07:05.240993 12393 net.cpp:148] Top shape: 1 24 125 125 (375000)
I0519 19:07:05.240999 12393 net.cpp:156] Memory required for data: 1361502384
I0519 19:07:05.241008 12393 layer_factory.hpp:77] Creating layer conv4_6_sum_mbox_loc_perm
I0519 19:07:05.241019 12393 net.cpp:91] Creating Layer conv4_6_sum_mbox_loc_perm
I0519 19:07:05.241024 12393 net.cpp:425] conv4_6_sum_mbox_loc_perm <- conv4_6_sum_mbox_loc
I0519 19:07:05.241034 12393 net.cpp:399] conv4_6_sum_mbox_loc_perm -> conv4_6_sum_mbox_loc_perm
I0519 19:07:05.241178 12393 net.cpp:141] Setting up conv4_6_sum_mbox_loc_perm
I0519 19:07:05.241191 12393 net.cpp:148] Top shape: 1 125 125 24 (375000)
I0519 19:07:05.241196 12393 net.cpp:156] Memory required for data: 1363002384
I0519 19:07:05.241200 12393 layer_factory.hpp:77] Creating layer conv4_6_sum_mbox_loc_flat
I0519 19:07:05.241206 12393 net.cpp:91] Creating Layer conv4_6_sum_mbox_loc_flat
I0519 19:07:05.241211 12393 net.cpp:425] conv4_6_sum_mbox_loc_flat <- conv4_6_sum_mbox_loc_perm
I0519 19:07:05.241217 12393 net.cpp:399] conv4_6_sum_mbox_loc_flat -> conv4_6_sum_mbox_loc_flat
I0519 19:07:05.241251 12393 net.cpp:141] Setting up conv4_6_sum_mbox_loc_flat
I0519 19:07:05.241260 12393 net.cpp:148] Top shape: 1 375000 (375000)
I0519 19:07:05.241263 12393 net.cpp:156] Memory required for data: 1364502384
I0519 19:07:05.241267 12393 layer_factory.hpp:77] Creating layer conv4_6_sum_mbox_conf
I0519 19:07:05.241279 12393 net.cpp:91] Creating Layer conv4_6_sum_mbox_conf
I0519 19:07:05.241284 12393 net.cpp:425] conv4_6_sum_mbox_conf <- conv4_6_sum_conv4_6_sum_relu_0_split_2
I0519 19:07:05.241296 12393 net.cpp:399] conv4_6_sum_mbox_conf -> conv4_6_sum_mbox_conf
I0519 19:07:05.245177 12393 net.cpp:141] Setting up conv4_6_sum_mbox_conf
I0519 19:07:05.245199 12393 net.cpp:148] Top shape: 1 30 125 125 (468750)
I0519 19:07:05.245208 12393 net.cpp:156] Memory required for data: 1366377384
I0519 19:07:05.245223 12393 layer_factory.hpp:77] Creating layer conv4_6_sum_mbox_conf_perm
I0519 19:07:05.245241 12393 net.cpp:91] Creating Layer conv4_6_sum_mbox_conf_perm
I0519 19:07:05.245254 12393 net.cpp:425] conv4_6_sum_mbox_conf_perm <- conv4_6_sum_mbox_conf
I0519 19:07:05.245275 12393 net.cpp:399] conv4_6_sum_mbox_conf_perm -> conv4_6_sum_mbox_conf_perm
I0519 19:07:05.245455 12393 net.cpp:141] Setting up conv4_6_sum_mbox_conf_perm
I0519 19:07:05.245472 12393 net.cpp:148] Top shape: 1 125 125 30 (468750)
I0519 19:07:05.245481 12393 net.cpp:156] Memory required for data: 1368252384
I0519 19:07:05.245491 12393 layer_factory.hpp:77] Creating layer conv4_6_sum_mbox_conf_flat
I0519 19:07:05.245504 12393 net.cpp:91] Creating Layer conv4_6_sum_mbox_conf_flat
I0519 19:07:05.245515 12393 net.cpp:425] conv4_6_sum_mbox_conf_flat <- conv4_6_sum_mbox_conf_perm
I0519 19:07:05.245534 12393 net.cpp:399] conv4_6_sum_mbox_conf_flat -> conv4_6_sum_mbox_conf_flat
I0519 19:07:05.245581 12393 net.cpp:141] Setting up conv4_6_sum_mbox_conf_flat
I0519 19:07:05.245595 12393 net.cpp:148] Top shape: 1 468750 (468750)
I0519 19:07:05.245602 12393 net.cpp:156] Memory required for data: 1370127384
I0519 19:07:05.245612 12393 layer_factory.hpp:77] Creating layer conv4_6_sum_mbox_priorbox
I0519 19:07:05.245631 12393 net.cpp:91] Creating Layer conv4_6_sum_mbox_priorbox
I0519 19:07:05.245641 12393 net.cpp:425] conv4_6_sum_mbox_priorbox <- conv4_6_sum_conv4_6_sum_relu_0_split_3
I0519 19:07:05.245652 12393 net.cpp:425] conv4_6_sum_mbox_priorbox <- data_data_0_split_2
I0519 19:07:05.245669 12393 net.cpp:399] conv4_6_sum_mbox_priorbox -> conv4_6_sum_mbox_priorbox
I0519 19:07:05.245719 12393 net.cpp:141] Setting up conv4_6_sum_mbox_priorbox
I0519 19:07:05.245733 12393 net.cpp:148] Top shape: 1 2 375000 (750000)
I0519 19:07:05.245740 12393 net.cpp:156] Memory required for data: 1373127384
I0519 19:07:05.245749 12393 layer_factory.hpp:77] Creating layer conv6_2_mbox_loc
I0519 19:07:05.245777 12393 net.cpp:91] Creating Layer conv6_2_mbox_loc
I0519 19:07:05.245787 12393 net.cpp:425] conv6_2_mbox_loc <- conv6_2_conv6_2_relu_0_split_1
I0519 19:07:05.245801 12393 net.cpp:399] conv6_2_mbox_loc -> conv6_2_mbox_loc
I0519 19:07:05.248983 12393 net.cpp:141] Setting up conv6_2_mbox_loc
I0519 19:07:05.249009 12393 net.cpp:148] Top shape: 1 24 63 63 (95256)
I0519 19:07:05.249018 12393 net.cpp:156] Memory required for data: 1373508408
I0519 19:07:05.249032 12393 layer_factory.hpp:77] Creating layer conv6_2_mbox_loc_perm
I0519 19:07:05.249049 12393 net.cpp:91] Creating Layer conv6_2_mbox_loc_perm
I0519 19:07:05.249061 12393 net.cpp:425] conv6_2_mbox_loc_perm <- conv6_2_mbox_loc
I0519 19:07:05.249080 12393 net.cpp:399] conv6_2_mbox_loc_perm -> conv6_2_mbox_loc_perm
I0519 19:07:05.249245 12393 net.cpp:141] Setting up conv6_2_mbox_loc_perm
I0519 19:07:05.249260 12393 net.cpp:148] Top shape: 1 63 63 24 (95256)
I0519 19:07:05.249269 12393 net.cpp:156] Memory required for data: 1373889432
I0519 19:07:05.249279 12393 layer_factory.hpp:77] Creating layer conv6_2_mbox_loc_flat
I0519 19:07:05.249296 12393 net.cpp:91] Creating Layer conv6_2_mbox_loc_flat
I0519 19:07:05.249306 12393 net.cpp:425] conv6_2_mbox_loc_flat <- conv6_2_mbox_loc_perm
I0519 19:07:05.249321 12393 net.cpp:399] conv6_2_mbox_loc_flat -> conv6_2_mbox_loc_flat
I0519 19:07:05.249372 12393 net.cpp:141] Setting up conv6_2_mbox_loc_flat
I0519 19:07:05.249384 12393 net.cpp:148] Top shape: 1 95256 (95256)
I0519 19:07:05.249392 12393 net.cpp:156] Memory required for data: 1374270456
I0519 19:07:05.249402 12393 layer_factory.hpp:77] Creating layer conv6_2_mbox_conf
I0519 19:07:05.249425 12393 net.cpp:91] Creating Layer conv6_2_mbox_conf
I0519 19:07:05.249436 12393 net.cpp:425] conv6_2_mbox_conf <- conv6_2_conv6_2_relu_0_split_2
I0519 19:07:05.249454 12393 net.cpp:399] conv6_2_mbox_conf -> conv6_2_mbox_conf
I0519 19:07:05.252130 12393 net.cpp:141] Setting up conv6_2_mbox_conf
I0519 19:07:05.252152 12393 net.cpp:148] Top shape: 1 30 63 63 (119070)
I0519 19:07:05.252161 12393 net.cpp:156] Memory required for data: 1374746736
I0519 19:07:05.252180 12393 layer_factory.hpp:77] Creating layer conv6_2_mbox_conf_perm
I0519 19:07:05.252197 12393 net.cpp:91] Creating Layer conv6_2_mbox_conf_perm
I0519 19:07:05.252209 12393 net.cpp:425] conv6_2_mbox_conf_perm <- conv6_2_mbox_conf
I0519 19:07:05.252228 12393 net.cpp:399] conv6_2_mbox_conf_perm -> conv6_2_mbox_conf_perm
I0519 19:07:05.252403 12393 net.cpp:141] Setting up conv6_2_mbox_conf_perm
I0519 19:07:05.252416 12393 net.cpp:148] Top shape: 1 63 63 30 (119070)
I0519 19:07:05.252420 12393 net.cpp:156] Memory required for data: 1375223016
I0519 19:07:05.252429 12393 layer_factory.hpp:77] Creating layer conv6_2_mbox_conf_flat
I0519 19:07:05.252440 12393 net.cpp:91] Creating Layer conv6_2_mbox_conf_flat
I0519 19:07:05.252449 12393 net.cpp:425] conv6_2_mbox_conf_flat <- conv6_2_mbox_conf_perm
I0519 19:07:05.252462 12393 net.cpp:399] conv6_2_mbox_conf_flat -> conv6_2_mbox_conf_flat
I0519 19:07:05.252504 12393 net.cpp:141] Setting up conv6_2_mbox_conf_flat
I0519 19:07:05.252514 12393 net.cpp:148] Top shape: 1 119070 (119070)
I0519 19:07:05.252518 12393 net.cpp:156] Memory required for data: 1375699296
I0519 19:07:05.252522 12393 layer_factory.hpp:77] Creating layer conv6_2_mbox_priorbox
I0519 19:07:05.252534 12393 net.cpp:91] Creating Layer conv6_2_mbox_priorbox
I0519 19:07:05.252540 12393 net.cpp:425] conv6_2_mbox_priorbox <- conv6_2_conv6_2_relu_0_split_3
I0519 19:07:05.252547 12393 net.cpp:425] conv6_2_mbox_priorbox <- data_data_0_split_3
I0519 19:07:05.252558 12393 net.cpp:399] conv6_2_mbox_priorbox -> conv6_2_mbox_priorbox
I0519 19:07:05.252609 12393 net.cpp:141] Setting up conv6_2_mbox_priorbox
I0519 19:07:05.252624 12393 net.cpp:148] Top shape: 1 2 95256 (190512)
I0519 19:07:05.252631 12393 net.cpp:156] Memory required for data: 1376461344
I0519 19:07:05.252641 12393 layer_factory.hpp:77] Creating layer conv7_2_mbox_loc
I0519 19:07:05.252657 12393 net.cpp:91] Creating Layer conv7_2_mbox_loc
I0519 19:07:05.252663 12393 net.cpp:425] conv7_2_mbox_loc <- conv7_2_conv7_2_relu_0_split_1
I0519 19:07:05.252674 12393 net.cpp:399] conv7_2_mbox_loc -> conv7_2_mbox_loc
I0519 19:07:05.254899 12393 net.cpp:141] Setting up conv7_2_mbox_loc
I0519 19:07:05.254920 12393 net.cpp:148] Top shape: 1 24 32 32 (24576)
I0519 19:07:05.254925 12393 net.cpp:156] Memory required for data: 1376559648
I0519 19:07:05.254932 12393 layer_factory.hpp:77] Creating layer conv7_2_mbox_loc_perm
I0519 19:07:05.254941 12393 net.cpp:91] Creating Layer conv7_2_mbox_loc_perm
I0519 19:07:05.254946 12393 net.cpp:425] conv7_2_mbox_loc_perm <- conv7_2_mbox_loc
I0519 19:07:05.254956 12393 net.cpp:399] conv7_2_mbox_loc_perm -> conv7_2_mbox_loc_perm
I0519 19:07:05.255107 12393 net.cpp:141] Setting up conv7_2_mbox_loc_perm
I0519 19:07:05.255118 12393 net.cpp:148] Top shape: 1 32 32 24 (24576)
I0519 19:07:05.255123 12393 net.cpp:156] Memory required for data: 1376657952
I0519 19:07:05.255127 12393 layer_factory.hpp:77] Creating layer conv7_2_mbox_loc_flat
I0519 19:07:05.255136 12393 net.cpp:91] Creating Layer conv7_2_mbox_loc_flat
I0519 19:07:05.255143 12393 net.cpp:425] conv7_2_mbox_loc_flat <- conv7_2_mbox_loc_perm
I0519 19:07:05.255157 12393 net.cpp:399] conv7_2_mbox_loc_flat -> conv7_2_mbox_loc_flat
I0519 19:07:05.255205 12393 net.cpp:141] Setting up conv7_2_mbox_loc_flat
I0519 19:07:05.255219 12393 net.cpp:148] Top shape: 1 24576 (24576)
I0519 19:07:05.255228 12393 net.cpp:156] Memory required for data: 1376756256
I0519 19:07:05.255237 12393 layer_factory.hpp:77] Creating layer conv7_2_mbox_conf
I0519 19:07:05.255256 12393 net.cpp:91] Creating Layer conv7_2_mbox_conf
I0519 19:07:05.255264 12393 net.cpp:425] conv7_2_mbox_conf <- conv7_2_conv7_2_relu_0_split_2
I0519 19:07:05.255271 12393 net.cpp:399] conv7_2_mbox_conf -> conv7_2_mbox_conf
I0519 19:07:05.257679 12393 net.cpp:141] Setting up conv7_2_mbox_conf
I0519 19:07:05.257699 12393 net.cpp:148] Top shape: 1 30 32 32 (30720)
I0519 19:07:05.257704 12393 net.cpp:156] Memory required for data: 1376879136
I0519 19:07:05.257722 12393 layer_factory.hpp:77] Creating layer conv7_2_mbox_conf_perm
I0519 19:07:05.257733 12393 net.cpp:91] Creating Layer conv7_2_mbox_conf_perm
I0519 19:07:05.257738 12393 net.cpp:425] conv7_2_mbox_conf_perm <- conv7_2_mbox_conf
I0519 19:07:05.257746 12393 net.cpp:399] conv7_2_mbox_conf_perm -> conv7_2_mbox_conf_perm
I0519 19:07:05.257899 12393 net.cpp:141] Setting up conv7_2_mbox_conf_perm
I0519 19:07:05.257930 12393 net.cpp:148] Top shape: 1 32 32 30 (30720)
I0519 19:07:05.257935 12393 net.cpp:156] Memory required for data: 1377002016
I0519 19:07:05.257938 12393 layer_factory.hpp:77] Creating layer conv7_2_mbox_conf_flat
I0519 19:07:05.257946 12393 net.cpp:91] Creating Layer conv7_2_mbox_conf_flat
I0519 19:07:05.257954 12393 net.cpp:425] conv7_2_mbox_conf_flat <- conv7_2_mbox_conf_perm
I0519 19:07:05.257969 12393 net.cpp:399] conv7_2_mbox_conf_flat -> conv7_2_mbox_conf_flat
I0519 19:07:05.258019 12393 net.cpp:141] Setting up conv7_2_mbox_conf_flat
I0519 19:07:05.258039 12393 net.cpp:148] Top shape: 1 30720 (30720)
I0519 19:07:05.258050 12393 net.cpp:156] Memory required for data: 1377124896
I0519 19:07:05.258057 12393 layer_factory.hpp:77] Creating layer conv7_2_mbox_priorbox
I0519 19:07:05.258066 12393 net.cpp:91] Creating Layer conv7_2_mbox_priorbox
I0519 19:07:05.258074 12393 net.cpp:425] conv7_2_mbox_priorbox <- conv7_2_conv7_2_relu_0_split_3
I0519 19:07:05.258085 12393 net.cpp:425] conv7_2_mbox_priorbox <- data_data_0_split_4
I0519 19:07:05.258098 12393 net.cpp:399] conv7_2_mbox_priorbox -> conv7_2_mbox_priorbox
I0519 19:07:05.258153 12393 net.cpp:141] Setting up conv7_2_mbox_priorbox
I0519 19:07:05.258167 12393 net.cpp:148] Top shape: 1 2 24576 (49152)
I0519 19:07:05.258174 12393 net.cpp:156] Memory required for data: 1377321504
I0519 19:07:05.258184 12393 layer_factory.hpp:77] Creating layer conv8_2_mbox_loc
I0519 19:07:05.258204 12393 net.cpp:91] Creating Layer conv8_2_mbox_loc
I0519 19:07:05.258213 12393 net.cpp:425] conv8_2_mbox_loc <- conv8_2_conv8_2_relu_0_split_1
I0519 19:07:05.258224 12393 net.cpp:399] conv8_2_mbox_loc -> conv8_2_mbox_loc
I0519 19:07:05.259954 12393 net.cpp:141] Setting up conv8_2_mbox_loc
I0519 19:07:05.259973 12393 net.cpp:148] Top shape: 1 24 16 16 (6144)
I0519 19:07:05.259977 12393 net.cpp:156] Memory required for data: 1377346080
I0519 19:07:05.259985 12393 layer_factory.hpp:77] Creating layer conv8_2_mbox_loc_perm
I0519 19:07:05.259996 12393 net.cpp:91] Creating Layer conv8_2_mbox_loc_perm
I0519 19:07:05.260002 12393 net.cpp:425] conv8_2_mbox_loc_perm <- conv8_2_mbox_loc
I0519 19:07:05.260010 12393 net.cpp:399] conv8_2_mbox_loc_perm -> conv8_2_mbox_loc_perm
I0519 19:07:05.260150 12393 net.cpp:141] Setting up conv8_2_mbox_loc_perm
I0519 19:07:05.260160 12393 net.cpp:148] Top shape: 1 16 16 24 (6144)
I0519 19:07:05.260164 12393 net.cpp:156] Memory required for data: 1377370656
I0519 19:07:05.260169 12393 layer_factory.hpp:77] Creating layer conv8_2_mbox_loc_flat
I0519 19:07:05.260176 12393 net.cpp:91] Creating Layer conv8_2_mbox_loc_flat
I0519 19:07:05.260184 12393 net.cpp:425] conv8_2_mbox_loc_flat <- conv8_2_mbox_loc_perm
I0519 19:07:05.260191 12393 net.cpp:399] conv8_2_mbox_loc_flat -> conv8_2_mbox_loc_flat
I0519 19:07:05.260227 12393 net.cpp:141] Setting up conv8_2_mbox_loc_flat
I0519 19:07:05.260236 12393 net.cpp:148] Top shape: 1 6144 (6144)
I0519 19:07:05.260241 12393 net.cpp:156] Memory required for data: 1377395232
I0519 19:07:05.260244 12393 layer_factory.hpp:77] Creating layer conv8_2_mbox_conf
I0519 19:07:05.260260 12393 net.cpp:91] Creating Layer conv8_2_mbox_conf
I0519 19:07:05.260267 12393 net.cpp:425] conv8_2_mbox_conf <- conv8_2_conv8_2_relu_0_split_2
I0519 19:07:05.260274 12393 net.cpp:399] conv8_2_mbox_conf -> conv8_2_mbox_conf
I0519 19:07:05.262205 12393 net.cpp:141] Setting up conv8_2_mbox_conf
I0519 19:07:05.262224 12393 net.cpp:148] Top shape: 1 30 16 16 (7680)
I0519 19:07:05.262230 12393 net.cpp:156] Memory required for data: 1377425952
I0519 19:07:05.262238 12393 layer_factory.hpp:77] Creating layer conv8_2_mbox_conf_perm
I0519 19:07:05.262249 12393 net.cpp:91] Creating Layer conv8_2_mbox_conf_perm
I0519 19:07:05.262254 12393 net.cpp:425] conv8_2_mbox_conf_perm <- conv8_2_mbox_conf
I0519 19:07:05.262262 12393 net.cpp:399] conv8_2_mbox_conf_perm -> conv8_2_mbox_conf_perm
I0519 19:07:05.262403 12393 net.cpp:141] Setting up conv8_2_mbox_conf_perm
I0519 19:07:05.262413 12393 net.cpp:148] Top shape: 1 16 16 30 (7680)
I0519 19:07:05.262418 12393 net.cpp:156] Memory required for data: 1377456672
I0519 19:07:05.262434 12393 layer_factory.hpp:77] Creating layer conv8_2_mbox_conf_flat
I0519 19:07:05.262441 12393 net.cpp:91] Creating Layer conv8_2_mbox_conf_flat
I0519 19:07:05.262446 12393 net.cpp:425] conv8_2_mbox_conf_flat <- conv8_2_mbox_conf_perm
I0519 19:07:05.262454 12393 net.cpp:399] conv8_2_mbox_conf_flat -> conv8_2_mbox_conf_flat
I0519 19:07:05.262492 12393 net.cpp:141] Setting up conv8_2_mbox_conf_flat
I0519 19:07:05.262502 12393 net.cpp:148] Top shape: 1 7680 (7680)
I0519 19:07:05.262506 12393 net.cpp:156] Memory required for data: 1377487392
I0519 19:07:05.262511 12393 layer_factory.hpp:77] Creating layer conv8_2_mbox_priorbox
I0519 19:07:05.262521 12393 net.cpp:91] Creating Layer conv8_2_mbox_priorbox
I0519 19:07:05.262526 12393 net.cpp:425] conv8_2_mbox_priorbox <- conv8_2_conv8_2_relu_0_split_3
I0519 19:07:05.262531 12393 net.cpp:425] conv8_2_mbox_priorbox <- data_data_0_split_5
I0519 19:07:05.262538 12393 net.cpp:399] conv8_2_mbox_priorbox -> conv8_2_mbox_priorbox
I0519 19:07:05.262578 12393 net.cpp:141] Setting up conv8_2_mbox_priorbox
I0519 19:07:05.262586 12393 net.cpp:148] Top shape: 1 2 6144 (12288)
I0519 19:07:05.262590 12393 net.cpp:156] Memory required for data: 1377536544
I0519 19:07:05.262594 12393 layer_factory.hpp:77] Creating layer pool6_mbox_loc
I0519 19:07:05.262608 12393 net.cpp:91] Creating Layer pool6_mbox_loc
I0519 19:07:05.262616 12393 net.cpp:425] pool6_mbox_loc <- pool6_pool6_0_split_0
I0519 19:07:05.262634 12393 net.cpp:399] pool6_mbox_loc -> pool6_mbox_loc
I0519 19:07:05.264464 12393 net.cpp:141] Setting up pool6_mbox_loc
I0519 19:07:05.264483 12393 net.cpp:148] Top shape: 1 24 1 1 (24)
I0519 19:07:05.264488 12393 net.cpp:156] Memory required for data: 1377536640
I0519 19:07:05.264497 12393 layer_factory.hpp:77] Creating layer pool6_mbox_loc_perm
I0519 19:07:05.264505 12393 net.cpp:91] Creating Layer pool6_mbox_loc_perm
I0519 19:07:05.264510 12393 net.cpp:425] pool6_mbox_loc_perm <- pool6_mbox_loc
I0519 19:07:05.264520 12393 net.cpp:399] pool6_mbox_loc_perm -> pool6_mbox_loc_perm
I0519 19:07:05.264667 12393 net.cpp:141] Setting up pool6_mbox_loc_perm
I0519 19:07:05.264678 12393 net.cpp:148] Top shape: 1 1 1 24 (24)
I0519 19:07:05.264683 12393 net.cpp:156] Memory required for data: 1377536736
I0519 19:07:05.264686 12393 layer_factory.hpp:77] Creating layer pool6_mbox_loc_flat
I0519 19:07:05.264706 12393 net.cpp:91] Creating Layer pool6_mbox_loc_flat
I0519 19:07:05.264714 12393 net.cpp:425] pool6_mbox_loc_flat <- pool6_mbox_loc_perm
I0519 19:07:05.264720 12393 net.cpp:399] pool6_mbox_loc_flat -> pool6_mbox_loc_flat
I0519 19:07:05.264758 12393 net.cpp:141] Setting up pool6_mbox_loc_flat
I0519 19:07:05.264770 12393 net.cpp:148] Top shape: 1 24 (24)
I0519 19:07:05.264773 12393 net.cpp:156] Memory required for data: 1377536832
I0519 19:07:05.264778 12393 layer_factory.hpp:77] Creating layer pool6_mbox_conf
I0519 19:07:05.264791 12393 net.cpp:91] Creating Layer pool6_mbox_conf
I0519 19:07:05.264799 12393 net.cpp:425] pool6_mbox_conf <- pool6_pool6_0_split_1
I0519 19:07:05.264808 12393 net.cpp:399] pool6_mbox_conf -> pool6_mbox_conf
I0519 19:07:05.266607 12393 net.cpp:141] Setting up pool6_mbox_conf
I0519 19:07:05.266624 12393 net.cpp:148] Top shape: 1 30 1 1 (30)
I0519 19:07:05.266629 12393 net.cpp:156] Memory required for data: 1377536952
I0519 19:07:05.266638 12393 layer_factory.hpp:77] Creating layer pool6_mbox_conf_perm
I0519 19:07:05.266649 12393 net.cpp:91] Creating Layer pool6_mbox_conf_perm
I0519 19:07:05.266654 12393 net.cpp:425] pool6_mbox_conf_perm <- pool6_mbox_conf
I0519 19:07:05.266661 12393 net.cpp:399] pool6_mbox_conf_perm -> pool6_mbox_conf_perm
I0519 19:07:05.266808 12393 net.cpp:141] Setting up pool6_mbox_conf_perm
I0519 19:07:05.266819 12393 net.cpp:148] Top shape: 1 1 1 30 (30)
I0519 19:07:05.266824 12393 net.cpp:156] Memory required for data: 1377537072
I0519 19:07:05.266827 12393 layer_factory.hpp:77] Creating layer pool6_mbox_conf_flat
I0519 19:07:05.266834 12393 net.cpp:91] Creating Layer pool6_mbox_conf_flat
I0519 19:07:05.266852 12393 net.cpp:425] pool6_mbox_conf_flat <- pool6_mbox_conf_perm
I0519 19:07:05.266862 12393 net.cpp:399] pool6_mbox_conf_flat -> pool6_mbox_conf_flat
I0519 19:07:05.266901 12393 net.cpp:141] Setting up pool6_mbox_conf_flat
I0519 19:07:05.266912 12393 net.cpp:148] Top shape: 1 30 (30)
I0519 19:07:05.266919 12393 net.cpp:156] Memory required for data: 1377537192
I0519 19:07:05.266923 12393 layer_factory.hpp:77] Creating layer pool6_mbox_priorbox
I0519 19:07:05.266932 12393 net.cpp:91] Creating Layer pool6_mbox_priorbox
I0519 19:07:05.266935 12393 net.cpp:425] pool6_mbox_priorbox <- pool6_pool6_0_split_2
I0519 19:07:05.266942 12393 net.cpp:425] pool6_mbox_priorbox <- data_data_0_split_6
I0519 19:07:05.266947 12393 net.cpp:399] pool6_mbox_priorbox -> pool6_mbox_priorbox
I0519 19:07:05.266989 12393 net.cpp:141] Setting up pool6_mbox_priorbox
I0519 19:07:05.266999 12393 net.cpp:148] Top shape: 1 2 24 (48)
I0519 19:07:05.267004 12393 net.cpp:156] Memory required for data: 1377537384
I0519 19:07:05.267007 12393 layer_factory.hpp:77] Creating layer mbox_loc
I0519 19:07:05.267017 12393 net.cpp:91] Creating Layer mbox_loc
I0519 19:07:05.267024 12393 net.cpp:425] mbox_loc <- conv3_4_sum_norm_mbox_loc_flat
I0519 19:07:05.267030 12393 net.cpp:425] mbox_loc <- conv4_6_sum_mbox_loc_flat
I0519 19:07:05.267038 12393 net.cpp:425] mbox_loc <- conv6_2_mbox_loc_flat
I0519 19:07:05.267045 12393 net.cpp:425] mbox_loc <- conv7_2_mbox_loc_flat
I0519 19:07:05.267050 12393 net.cpp:425] mbox_loc <- conv8_2_mbox_loc_flat
I0519 19:07:05.267055 12393 net.cpp:425] mbox_loc <- pool6_mbox_loc_flat
I0519 19:07:05.267060 12393 net.cpp:399] mbox_loc -> mbox_loc
I0519 19:07:05.267102 12393 net.cpp:141] Setting up mbox_loc
I0519 19:07:05.267112 12393 net.cpp:148] Top shape: 1 1251000 (1251000)
I0519 19:07:05.267115 12393 net.cpp:156] Memory required for data: 1382541384
I0519 19:07:05.267119 12393 layer_factory.hpp:77] Creating layer mbox_conf
I0519 19:07:05.267127 12393 net.cpp:91] Creating Layer mbox_conf
I0519 19:07:05.267133 12393 net.cpp:425] mbox_conf <- conv3_4_sum_norm_mbox_conf_flat
I0519 19:07:05.267138 12393 net.cpp:425] mbox_conf <- conv4_6_sum_mbox_conf_flat
I0519 19:07:05.267148 12393 net.cpp:425] mbox_conf <- conv6_2_mbox_conf_flat
I0519 19:07:05.267153 12393 net.cpp:425] mbox_conf <- conv7_2_mbox_conf_flat
I0519 19:07:05.267158 12393 net.cpp:425] mbox_conf <- conv8_2_mbox_conf_flat
I0519 19:07:05.267163 12393 net.cpp:425] mbox_conf <- pool6_mbox_conf_flat
I0519 19:07:05.267169 12393 net.cpp:399] mbox_conf -> mbox_conf
I0519 19:07:05.267206 12393 net.cpp:141] Setting up mbox_conf
I0519 19:07:05.267215 12393 net.cpp:148] Top shape: 1 1563750 (1563750)
I0519 19:07:05.267218 12393 net.cpp:156] Memory required for data: 1388796384
I0519 19:07:05.267222 12393 layer_factory.hpp:77] Creating layer mbox_priorbox
I0519 19:07:05.267231 12393 net.cpp:91] Creating Layer mbox_priorbox
I0519 19:07:05.267237 12393 net.cpp:425] mbox_priorbox <- conv3_4_sum_norm_mbox_priorbox
I0519 19:07:05.267243 12393 net.cpp:425] mbox_priorbox <- conv4_6_sum_mbox_priorbox
I0519 19:07:05.267248 12393 net.cpp:425] mbox_priorbox <- conv6_2_mbox_priorbox
I0519 19:07:05.267256 12393 net.cpp:425] mbox_priorbox <- conv7_2_mbox_priorbox
I0519 19:07:05.267261 12393 net.cpp:425] mbox_priorbox <- conv8_2_mbox_priorbox
I0519 19:07:05.267264 12393 net.cpp:425] mbox_priorbox <- pool6_mbox_priorbox
I0519 19:07:05.267271 12393 net.cpp:399] mbox_priorbox -> mbox_priorbox
I0519 19:07:05.267307 12393 net.cpp:141] Setting up mbox_priorbox
I0519 19:07:05.267314 12393 net.cpp:148] Top shape: 1 2 1251000 (2502000)
I0519 19:07:05.267318 12393 net.cpp:156] Memory required for data: 1398804384
I0519 19:07:05.267323 12393 layer_factory.hpp:77] Creating layer mbox_conf_reshape
I0519 19:07:05.267334 12393 net.cpp:91] Creating Layer mbox_conf_reshape
I0519 19:07:05.267340 12393 net.cpp:425] mbox_conf_reshape <- mbox_conf
I0519 19:07:05.267346 12393 net.cpp:399] mbox_conf_reshape -> mbox_conf_reshape
I0519 19:07:05.267392 12393 net.cpp:141] Setting up mbox_conf_reshape
I0519 19:07:05.267411 12393 net.cpp:148] Top shape: 1 312750 5 (1563750)
I0519 19:07:05.267416 12393 net.cpp:156] Memory required for data: 1405059384
I0519 19:07:05.267421 12393 layer_factory.hpp:77] Creating layer mbox_conf_softmax
I0519 19:07:05.267429 12393 net.cpp:91] Creating Layer mbox_conf_softmax
I0519 19:07:05.267436 12393 net.cpp:425] mbox_conf_softmax <- mbox_conf_reshape
I0519 19:07:05.267443 12393 net.cpp:399] mbox_conf_softmax -> mbox_conf_softmax
I0519 19:07:05.267895 12393 net.cpp:141] Setting up mbox_conf_softmax
I0519 19:07:05.267912 12393 net.cpp:148] Top shape: 1 312750 5 (1563750)
I0519 19:07:05.267917 12393 net.cpp:156] Memory required for data: 1411314384
I0519 19:07:05.267925 12393 layer_factory.hpp:77] Creating layer mbox_conf_flatten
I0519 19:07:05.267932 12393 net.cpp:91] Creating Layer mbox_conf_flatten
I0519 19:07:05.267940 12393 net.cpp:425] mbox_conf_flatten <- mbox_conf_softmax
I0519 19:07:05.267946 12393 net.cpp:399] mbox_conf_flatten -> mbox_conf_flatten
I0519 19:07:05.268003 12393 net.cpp:141] Setting up mbox_conf_flatten
I0519 19:07:05.268018 12393 net.cpp:148] Top shape: 1 1563750 (1563750)
I0519 19:07:05.268033 12393 net.cpp:156] Memory required for data: 1417569384
I0519 19:07:05.268043 12393 layer_factory.hpp:77] Creating layer detection_out
I0519 19:07:05.268062 12393 net.cpp:91] Creating Layer detection_out
I0519 19:07:05.268072 12393 net.cpp:425] detection_out <- mbox_loc
I0519 19:07:05.268084 12393 net.cpp:425] detection_out <- mbox_conf_flatten
I0519 19:07:05.268095 12393 net.cpp:425] detection_out <- mbox_priorbox
…
