…
        min_scale: 0.3
        max_scale: 1
        min_aspect_ratio: 0.5
        max_aspect_ratio: 2
      }
      sample_constraint {
        min_jaccard_overlap: 0.9
      }
      max_sample: 1
      max_trials: 50
    }
    batch_sampler {
      sampler {
        min_scale: 0.3
        max_scale: 1
        min_aspect_ratio: 0.5
        max_aspect_ratio: 2
      }
      sample_constraint {
        max_jaccard_overlap: 1
      }
      max_sample: 1
      max_trials: 50
    }
    label_map_file: "data/deepv_car_person/labelmap_voc.prototxt"
  }
}
layer {
  name: "conv1_1"
  type: "Convolution"
  bottom: "data"
  top: "conv1_1"
  param {
    lr_mult: 0
    decay_mult: 0
  }
  param {
    lr_mult: 0
    decay_mult: 0
  }
  convolution_param {
    num_output: 64
    pad: 1
    kernel_size: 3
    weight_filler {
      type: "xavier"
    }
    bias_filler {
      type: "constant"
      value: 0
    }
  }
}
layer {
  name: "relu1_1"
  type: "ReLU"
  bottom: "conv1_1"
  top: "conv1_1"
}
layer {
  name: "conv1_2"
  type: "Convolution"
  bottom: "conv1_1"
  top: "conv1_2"
  param {
    lr_mult: 0
    decay_mult: 0
  }
  param {
    lr_mult: 0
    decay_mult: 0
  }
  convolution_param {
    num_output: 64
    pad: 1
    kernel_size: 3
    weight_filler {
      type: "xavier"
    }
    bias_filler {
      type: "constant"
      value: 0
    }
  }
}
layer {
  name: "relu1_2"
  type: "ReLU"
  bottom: "conv1_2"
  top: "conv1_2"
}
layer {
  name: "pool1"
  type: "Pooling"
  bottom: "conv1_2"
  top: "pool1"
  pooling_param {
    pool: MAX
    kernel_size: 2
    stride: 2
  }
}
layer {
  name: "conv2_1"
  type: "Convolution"
  bottom: "pool1"
  top: "conv2_1"
  param {
    lr_mult: 0
    decay_mult: 0
  }
  param {
    lr_mult: 0
    decay_mult: 0
  }
  convolution_param {
    num_output: 128
    pad: 1
    kernel_size: 3
    weight_filler {
      type: "xavier"
    }
    bias_filler {
      type: "constant"
      value: 0
    }
  }
}
layer {
  name: "relu2_1"
  type: "ReLU"
  bottom: "conv2_1"
  top: "conv2_1"
}
layer {
  name: "conv2_2"
  type: "Convolution"
  bottom: "conv2_1"
  top: "conv2_2"
  param {
    lr_mult: 0
    decay_mult: 0
  }
  param {
    lr_mult: 0
    decay_mult: 0
  }
  convolution_param {
    num_output: 128
    pad: 1
    kernel_size: 3
    weight_filler {
      type: "xavier"
    }
    bias_filler {
      type: "constant"
      value: 0
    }
  }
}
layer {
  name: "relu2_2"
  type: "ReLU"
  bottom: "conv2_2"
  top: "conv2_2"
}
layer {
  name: "pool2"
  type: "Pooling"
  bottom: "conv2_2"
  top: "pool2"
  pooling_param {
    pool: MAX
    kernel_size: 2
    stride: 2
  }
}
layer {
  name: "conv3_1"
  type: "Convolution"
  bottom: "pool2"
  top: "conv3_1"
  param {
    lr_mult: 1
    decay_mult: 1
  }
  param {
    lr_mult: 2
    decay_mult: 0
  }
  convolution_param {
    num_output: 256
    pad: 1
    kernel_size: 3
    weight_filler {
      type: "xavier"
    }
    bias_filler {
      type: "constant"
      value: 0
    }
  }
}
layer {
  name: "relu3_1"
  type: "ReLU"
  bottom: "conv3_1"
  top: "conv3_1"
}
layer {
  name: "conv3_2"
  type: "Convolution"
  bottom: "conv3_1"
  top: "conv3_2"
  param {
    lr_mult: 1
    decay_mult: 1
  }
  param {
    lr_mult: 2
    decay_mult: 0
  }
  convolution_param {
    num_output: 256
    pad: 1
    kernel_size: 3
    weight_filler {
      type: "xavier"
    }
    bias_filler {
      type: "constant"
      value: 0
    }
  }
}
layer {
  name: "relu3_2"
  type: "ReLU"
  bottom: "conv3_2"
  top: "conv3_2"
}
layer {
  name: "conv3_3"
  type: "Convolution"
  bottom: "conv3_2"
  top: "conv3_3"
  param {
    lr_mult: 1
    decay_mult: 1
  }
  param {
    lr_mult: 2
    decay_mult: 0
  }
  convolution_param {
    num_output: 256
    pad: 1
    kernel_size: 3
    weight_filler {
      type: "xavier"
    }
    bias_filler {
      type: "constant"
      value: 0
    }
  }
}
layer {
  name: "relu3_3"
  type: "ReLU"
  bottom: "conv3_3"
  top: "conv3_3"
}
layer {
  name: "pool3"
  type: "Pooling"
  bottom: "conv3_3"
  top: "pool3"
  pooling_param {
    pool: MAX
    kernel_size: 2
    stride: 2
  }
}
layer {
  name: "conv4_1"
  type: "Convolution"
  bottom: "pool3"
  top: "conv4_1"
  param {
    lr_mult: 1
    decay_mult: 1
  }
  param {
    lr_mult: 2
    decay_mult: 0
  }
  convolution_param {
    num_output: 512
    pad: 1
    kernel_size: 3
    weight_filler {
      type: "xavier"
    }
    bias_filler {
      type: "constant"
      value: 0
    }
  }
}
layer {
  name: "relu4_1"
  type: "ReLU"
  bottom: "conv4_1"
  top: "conv4_1"
}
layer {
  name: "conv4_2"
  type: "Convolution"
  bottom: "conv4_1"
  top: "conv4_2"
  param {
    lr_mult: 1
    decay_mult: 1
  }
  param {
    lr_mult: 2
    decay_mult: 0
  }
  convolution_param {
    num_output: 512
    pad: 1
    kernel_size: 3
    weight_filler {
      type: "xavier"
    }
    bias_filler {
      type: "constant"
      value: 0
    }
  }
}
layer {
  name: "relu4_2"
  type: "ReLU"
  bottom: "conv4_2"
  top: "conv4_2"
}
layer {
  name: "conv4_3"
  type: "Convolution"
  bottom: "conv4_2"
  top: "conv4_3"
  param {
    lr_mult: 1
    decay_mult: 1
  }
  param {
    lr_mult: 2
    decay_mult: 0
  }
  convolution_param {
    num_output: 512
    pad: 1
    kernel_size: 3
    weight_filler {
      type: "xavier"
    }
    bias_filler {
      type: "constant"
      value: 0
    }
  }
}
layer {
  name: "relu4_3"
  type: "ReLU"
  bottom: "conv4_3"
  top: "conv4_3"
}
layer {
  name: "pool4"
  type: "Pooling"
  bottom: "conv4_3"
  top: "pool4"
  pooling_param {
    pool: MAX
    kernel_size: 2
    stride: 2
  }
}
layer {
  name: "conv5_1"
  type: "Convolution"
  bottom: "pool4"
  top: "conv5_1"
  param {
    lr_mult: 1
    decay_mult: 1
  }
  param {
    lr_mult: 2
    decay_mult: 0
  }
  convolution_param {
    num_output: 512
    pad: 1
    kernel_size: 3
    weight_filler {
      type: "xavier"
    }
    bias_filler {
      type: "constant"
      value: 0
    }
  }
}
layer {
  name: "relu5_1"
  type: "ReLU"
  bottom: "conv5_1"
  top: "conv5_1"
}
layer {
  name: "conv5_2"
  type: "Convolution"
  bottom: "conv5_1"
  top: "conv5_2"
  param {
    lr_mult: 1
    decay_mult: 1
  }
  param {
    lr_mult: 2
    decay_mult: 0
  }
  convolution_param {
    num_output: 512
    pad: 1
    kernel_size: 3
    weight_filler {
      type: "xavier"
    }
    bias_filler {
      type: "constant"
      value: 0
    }
  }
}
layer {
  name: "relu5_2"
  type: "ReLU"
  bottom: "conv5_2"
  top: "conv5_2"
}
layer {
  name: "conv5_3"
  type: "Convolution"
  bottom: "conv5_2"
  top: "conv5_3"
  param {
    lr_mult: 1
    decay_mult: 1
  }
  param {
    lr_mult: 2
    decay_mult: 0
  }
  convolution_param {
    num_output: 512
    pad: 1
    kernel_size: 3
    weight_filler {
      type: "xavier"
    }
    bias_filler {
      type: "constant"
      value: 0
    }
  }
}
layer {
  name: "relu5_3"
  type: "ReLU"
  bottom: "conv5_3"
  top: "conv5_3"
}
layer {
  name: "pool5"
  type: "Pooling"
  bottom: "conv5_3"
  top: "pool5"
  pooling_param {
    pool: MAX
    kernel_size: 3
    stride: 1
    pad: 1
  }
}
layer {
  name: "fc6"
  type: "Convolution"
  bottom: "pool5"
  top: "fc6"
  param {
    lr_mult: 1
    decay_mult: 1
  }
  param {
    lr_mult: 2
    decay_mult: 0
  }
  convolution_param {
    num_output: 1024
    pad: 6
    kernel_size: 3
    weight_filler {
      type: "xavier"
    }
    bias_filler {
      type: "constant"
      value: 0
    }
    dilation: 6
  }
}
layer {
  name: "relu6"
  type: "ReLU"
  bottom: "fc6"
  top: "fc6"
}
layer {
  name: "fc7"
  type: "Convolution"
  bottom: "fc6"
  top: "fc7"
  param {
    lr_mult: 1
    decay_mult: 1
  }
  param {
    lr_mult: 2
    decay_mult: 0
  }
  convolution_param {
    num_output: 1024
    kernel_size: 1
    weight_filler {
      type: "xavier"
    }
    bias_filler {
      type: "constant"
      value: 0
    }
  }
}
layer {
  name: "relu7"
  type: "ReLU"
  bottom: "fc7"
  top: "fc7"
}
layer {
  name: "conv6_1"
  type: "Convolution"
  bottom: "fc7"
  top: "conv6_1"
  param {
    lr_mult: 1
    decay_mult: 1
  }
  param {
    lr_mult: 2
    decay_mult: 0
  }
  convolution_param {
    num_output: 256
    pad: 0
    kernel_size: 1
    stride: 1
    weight_filler {
      type: "xavier"
    }
    bias_filler {
      type: "constant"
      value: 0
    }
  }
}
layer {
  name: "conv6_1_relu"
  type: "ReLU"
  bottom: "conv6_1"
  top: "conv6_1"
}
layer {
  name: "conv6_2"
  type: "Convolution"
  bottom: "conv6_1"
  top: "conv6_2"
  param {
    lr_mult: 1
    decay_mult: 1
  }
  param {
    lr_mult: 2
    decay_mult: 0
  }
  convolution_param {
    num_output: 512
    pad: 1
    kernel_size: 3
    stride: 2
    weight_filler {
      type: "xavier"
    }
    bias_filler {
      type: "constant"
      value: 0
    }
  }
}
layer {
  name: "conv6_2_relu"
  type: "ReLU"
  bottom: "conv6_2"
  top: "conv6_2"
}
layer {
  name: "conv7_1"
  type: "Convolution"
  bottom: "conv6_2"
  top: "conv7_1"
  param {
    lr_mult: 1
    decay_mult: 1
  }
  param {
    lr_mult: 2
    decay_mult: 0
  }
  convolution_param {
    num_output: 128
    pad: 0
    kernel_size: 1
    stride: 1
    weight_filler {
      type: "xavier"
    }
    bias_filler {
      type: "constant"
      value: 0
    }
  }
}
layer {
  name: "conv7_1_relu"
  type: "ReLU"
  bottom: "conv7_1"
  top: "conv7_1"
}
layer {
  name: "conv7_2"
  type: "Convolution"
  bottom: "conv7_1"
  top: "conv7_2"
  param {
    lr_mult: 1
    decay_mult: 1
  }
  param {
    lr_mult: 2
    decay_mult: 0
  }
  convolution_param {
    num_output: 256
    pad: 1
    kernel_size: 3
    stride: 2
    weight_filler {
      type: "xavier"
    }
    bias_filler {
      type: "constant"
      value: 0
    }
  }
}
layer {
  name: "conv7_2_relu"
  type: "ReLU"
  bottom: "conv7_2"
  top: "conv7_2"
}
layer {
  name: "conv8_1"
  type: "Convolution"
  bottom: "conv7_2"
  top: "conv8_1"
  param {
    lr_mult: 1
    decay_mult: 1
  }
  param {
    lr_mult: 2
    decay_mult: 0
  }
  convolution_param {
    num_output: 128
    pad: 0
    kernel_size: 1
    stride: 1
    weight_filler {
      type: "xavier"
    }
    bias_filler {
      type: "constant"
      value: 0
    }
  }
}
layer {
  name: "conv8_1_relu"
  type: "ReLU"
  bottom: "conv8_1"
  top: "conv8_1"
}
layer {
  name: "conv8_2"
  type: "Convolution"
  bottom: "conv8_1"
  top: "conv8_2"
  param {
    lr_mult: 1
    decay_mult: 1
  }
  param {
    lr_mult: 2
    decay_mult: 0
  }
  convolution_param {
    num_output: 256
    pad: 1
    kernel_size: 3
    stride: 2
    weight_filler {
      type: "xavier"
    }
    bias_filler {
      type: "constant"
      value: 0
    }
  }
}
layer {
  name: "conv8_2_relu"
  type: "ReLU"
  bottom: "conv8_2"
  top: "conv8_2"
}
layer {
  name: "pool6"
  type: "Pooling"
  bottom: "conv8_2"
  top: "pool6"
  pooling_param {
    pool: AVE
    global_pooling: true
  }
}
layer {
  name: "conv4_3_norm"
  type: "Normalize"
  bottom: "conv4_3"
  top: "conv4_3_norm"
  norm_param {
    across_spatial: false
    scale_filler {
      type: "constant"
      value: 20
    }
    channel_shared: false
  }
}
layer {
  name: "conv4_3_norm_mbox_loc"
  type: "Convolution"
  bottom: "conv4_3_norm"
  top: "conv4_3_norm_mbox_loc"
  param {
    lr_mult: 1
    decay_mult: 1
  }
  param {
    lr_mult: 2
    decay_mult: 0
  }
  convolution_param {
    num_output: 12
    pad: 1
    kernel_size: 3
    stride: 1
    weight_filler {
      type: "xavier"
    }
    bias_filler {
      type: "constant"
      value: 0
    }
  }
}
layer {
  name: "conv4_3_norm_mbox_loc_perm"
  type: "Permute"
  bottom: "conv4_3_norm_mbox_loc"
  top: "conv4_3_norm_mbox_loc_perm"
  permute_param {
    order: 0
    order: 2
    order: 3
    order: 1
  }
}
layer {
  name: "conv4_3_norm_mbox_loc_flat"
  type: "Flatten"
  bottom: "conv4_3_norm_mbox_loc_perm"
  top: "conv4_3_norm_mbox_loc_flat"
  flatten_param {
    axis: 1
  }
}
layer {
  name: "conv4_3_norm_mbox_conf"
  type: "Convolution"
  bottom: "conv4_3_norm"
  top: "conv4_3_norm_mbox_conf"
  param {
    lr_mult: 1
    decay_mult: 1
  }
  param {
    lr_mult: 2
    decay_mult: 0
  }
  convolution_param {
    num_output: 15
    pad: 1
    kernel_size: 3
    stride: 1
    weight_filler {
      type: "xavier"
    }
    bias_filler {
      type: "constant"
      value: 0
    }
  }
}
layer {
  name: "conv4_3_norm_mbox_conf_perm"
  type: "Permute"
  bottom: "conv4_3_norm_mbox_conf"
  top: "conv4_3_norm_mbox_conf_perm"
  permute_param {
    order: 0
    order: 2
    order: 3
    order: 1
  }
}
layer {
  name: "conv4_3_norm_mbox_conf_flat"
  type: "Flatten"
  bottom: "conv4_3_norm_mbox_conf_perm"
  top: "conv4_3_norm_mbox_conf_flat"
  flatten_param {
    axis: 1
  }
}
layer {
  name: "conv4_3_norm_mbox_priorbox"
  type: "PriorBox"
  bottom: "conv4_3_norm"
  bottom: "data"
  top: "conv4_3_norm_mbox_priorbox"
  prior_box_param {
    min_size: 30
    aspect_ratio: 2
    flip: true
    clip: true
    variance: 0.1
    variance: 0.1
    variance: 0.2
    variance: 0.2
  }
}
layer {
  name: "fc7_mbox_loc"
  type: "Convolution"
  bottom: "fc7"
  top: "fc7_mbox_loc"
  param {
    lr_mult: 1
    decay_mult: 1
  }
  param {
    lr_mult: 2
    decay_mult: 0
  }
  convolution_param {
    num_output: 24
    pad: 1
    kernel_size: 3
    stride: 1
    weight_filler {
      type: "xavier"
    }
    bias_filler {
      type: "constant"
      value: 0
    }
  }
}
layer {
  name: "fc7_mbox_loc_perm"
  type: "Permute"
  bottom: "fc7_mbox_loc"
  top: "fc7_mbox_loc_perm"
  permute_param {
    order: 0
    order: 2
    order: 3
    order: 1
  }
}
layer {
  name: "fc7_mbox_loc_flat"
  type: "Flatten"
  bottom: "fc7_mbox_loc_perm"
  top: "fc7_mbox_loc_flat"
  flatten_param {
    axis: 1
  }
}
layer {
  name: "fc7_mbox_conf"
  type: "Convolution"
  bottom: "fc7"
  top: "fc7_mbox_conf"
  param {
    lr_mult: 1
    decay_mult: 1
  }
  param {
    lr_mult: 2
    decay_mult: 0
  }
  convolution_param {
    num_output: 30
    pad: 1
    kernel_size: 3
    stride: 1
    weight_filler {
      type: "xavier"
    }
    bias_filler {
      type: "constant"
      value: 0
    }
  }
}
layer {
  name: "fc7_mbox_conf_perm"
  type: "Permute"
  bottom: "fc7_mbox_conf"
  top: "fc7_mbox_conf_perm"
  permute_param {
    order: 0
    order: 2
    order: 3
    order: 1
  }
}
layer {
  name: "fc7_mbox_conf_flat"
  type: "Flatten"
  bottom: "fc7_mbox_conf_perm"
  top: "fc7_mbox_conf_flat"
  flatten_param {
    axis: 1
  }
}
layer {
  name: "fc7_mbox_priorbox"
  type: "PriorBox"
  bottom: "fc7"
  bottom: "data"
  top: "fc7_mbox_priorbox"
  prior_box_param {
    min_size: 60
    max_size: 114
    aspect_ratio: 2
    aspect_ratio: 3
    flip: true
    clip: true
    variance: 0.1
    variance: 0.1
    variance: 0.2
    variance: 0.2
  }
}
layer {
  name: "conv6_2_mbox_loc"
  type: "Convolution"
  bottom: "conv6_2"
  top: "conv6_2_mbox_loc"
  param {
    lr_mult: 1
    decay_mult: 1
  }
  param {
    lr_mult: 2
    decay_mult: 0
  }
  convolution_param {
    num_output: 24
    pad: 1
    kernel_size: 3
    stride: 1
    weight_filler {
      type: "xavier"
    }
    bias_filler {
      type: "constant"
      value: 0
    }
  }
}
layer {
  name: "conv6_2_mbox_loc_perm"
  type: "Permute"
  bottom: "conv6_2_mbox_loc"
  top: "conv6_2_mbox_loc_perm"
  permute_param {
    order: 0
    order: 2
    order: 3
    order: 1
  }
}
layer {
  name: "conv6_2_mbox_loc_flat"
  type: "Flatten"
  bottom: "conv6_2_mbox_loc_perm"
  top: "conv6_2_mbox_loc_flat"
  flatten_param {
    axis: 1
  }
}
layer {
  name: "conv6_2_mbox_conf"
  type: "Convolution"
  bottom: "conv6_2"
  top: "conv6_2_mbox_conf"
  param {
    lr_mult: 1
    decay_mult: 1
  }
  param {
    lr_mult: 2
    decay_mult: 0
  }
  convolution_param {
    num_output: 30
    pad: 1
    kernel_size: 3
    stride: 1
    weight_filler {
      type: "xavier"
    }
    bias_filler {
      type: "constant"
      value: 0
    }
  }
}
layer {
  name: "conv6_2_mbox_conf_perm"
  type: "Permute"
  bottom: "conv6_2_mbox_conf"
  top: "conv6_2_mbox_conf_perm"
  permute_param {
    order: 0
    order: 2
    order: 3
    order: 1
  }
}
layer {
  name: "conv6_2_mbox_conf_flat"
  type: "Flatten"
  bottom: "conv6_2_mbox_conf_perm"
  top: "conv6_2_mbox_conf_flat"
  flatten_param {
    axis: 1
  }
}
layer {
  name: "conv6_2_mbox_priorbox"
  type: "PriorBox"
  bottom: "conv6_2"
  bottom: "data"
  top: "conv6_2_mbox_priorbox"
  prior_box_param {
    min_size: 114
    max_size: 168
    aspect_ratio: 2
    aspect_ratio: 3
    flip: true
    clip: true
    variance: 0.1
    variance: 0.1
    variance: 0.2
    variance: 0.2
  }
}
layer {
  name: "conv7_2_mbox_loc"
  type: "Convolution"
  bottom: "conv7_2"
  top: "conv7_2_mbox_loc"
  param {
    lr_mult: 1
    decay_mult: 1
  }
  param {
    lr_mult: 2
    decay_mult: 0
  }
  convolution_param {
    num_output: 24
    pad: 1
    kernel_size: 3
    stride: 1
    weight_filler {
      type: "xavier"
    }
    bias_filler {
      type: "constant"
      value: 0
    }
  }
}
layer {
  name: "conv7_2_mbox_loc_perm"
  type: "Permute"
  bottom: "conv7_2_mbox_loc"
  top: "conv7_2_mbox_loc_perm"
  permute_param {
    order: 0
    order: 2
    order: 3
    order: 1
  }
}
layer {
  name: "conv7_2_mbox_loc_flat"
  type: "Flatten"
  bottom: "conv7_2_mbox_loc_perm"
  top: "conv7_2_mbox_loc_flat"
  flatten_param {
    axis: 1
  }
}
layer {
  name: "conv7_2_mbox_conf"
  type: "Convolution"
  bottom: "conv7_2"
  top: "conv7_2_mbox_conf"
  param {
    lr_mult: 1
    decay_mult: 1
  }
  param {
    lr_mult: 2
    decay_mult: 0
  }
  convolution_param {
    num_output: 30
    pad: 1
    kernel_size: 3
    stride: 1
    weight_filler {
      type: "xavier"
    }
    bias_filler {
      type: "constant"
      value: 0
    }
  }
}
layer {
  name: "conv7_2_mbox_conf_perm"
  type: "Permute"
  bottom: "conv7_2_mbox_conf"
  top: "conv7_2_mbox_conf_perm"
  permute_param {
    order: 0
    order: 2
    order: 3
    order: 1
  }
}
layer {
  name: "conv7_2_mbox_conf_flat"
  type: "Flatten"
  bottom: "conv7_2_mbox_conf_perm"
  top: "conv7_2_mbox_conf_flat"
  flatten_param {
    axis: 1
  }
}
layer {
  name: "conv7_2_mbox_priorbox"
  type: "PriorBox"
  bottom: "conv7_2"
  bottom: "data"
  top: "conv7_2_mbox_priorbox"
  prior_box_param {
    min_size: 168
    max_size: 222
    aspect_ratio: 2
    aspect_ratio: 3
    flip: true
    clip: true
    variance: 0.1
    variance: 0.1
    variance: 0.2
    variance: 0.2
  }
}
layer {
  name: "conv8_2_mbox_loc"
  type: "Convolution"
  bottom: "conv8_2"
  top: "conv8_2_mbox_loc"
  param {
    lr_mult: 1
    decay_mult: 1
  }
  param {
    lr_mult: 2
    decay_mult: 0
  }
  convolution_param {
    num_output: 24
    pad: 1
    kernel_size: 3
    stride: 1
    weight_filler {
      type: "xavier"
    }
    bias_filler {
      type: "constant"
      value: 0
    }
  }
}
layer {
  name: "conv8_2_mbox_loc_perm"
  type: "Permute"
  bottom: "conv8_2_mbox_loc"
  top: "conv8_2_mbox_loc_perm"
  permute_param {
    order: 0
    order: 2
    order: 3
    order: 1
  }
}
layer {
  name: "conv8_2_mbox_loc_flat"
  type: "Flatten"
  bottom: "conv8_2_mbox_loc_perm"
  top: "conv8_2_mbox_loc_flat"
  flatten_param {
    axis: 1
  }
}
layer {
  name: "conv8_2_mbox_conf"
  type: "Convolution"
  bottom: "conv8_2"
  top: "conv8_2_mbox_conf"
  param {
    lr_mult: 1
    decay_mult: 1
  }
  param {
    lr_mult: 2
    decay_mult: 0
  }
  convolution_param {
    num_output: 30
    pad: 1
    kernel_size: 3
    stride: 1
    weight_filler {
      type: "xavier"
    }
    bias_filler {
      type: "constant"
      value: 0
    }
  }
}
layer {
  name: "conv8_2_mbox_conf_perm"
  type: "Permute"
  bottom: "conv8_2_mbox_conf"
  top: "conv8_2_mbox_conf_perm"
  permute_param {
    order: 0
    order: 2
    order: 3
    order: 1
  }
}
layer {
  name: "conv8_2_mbox_conf_flat"
  type: "Flatten"
  bottom: "conv8_2_mbox_conf_perm"
  top: "conv8_2_mbox_conf_flat"
  flatten_param {
    axis: 1
  }
}
layer {
  name: "conv8_2_mbox_priorbox"
  type: "PriorBox"
  bottom: "conv8_2"
  bottom: "data"
  top: "conv8_2_mbox_priorbox"
  prior_box_param {
    min_size: 222
    max_size: 276
    aspect_ratio: 2
    aspect_ratio: 3
    flip: true
    clip: true
    variance: 0.1
    variance: 0.1
    variance: 0.2
    variance: 0.2
  }
}
layer {
  name: "pool6_mbox_loc"
  type: "Convolution"
  bottom: "pool6"
  top: "pool6_mbox_loc"
  param {
    lr_mult: 1
    decay_mult: 1
  }
  param {
    lr_mult: 2
    decay_mult: 0
  }
  convolution_param {
    num_output: 24
    pad: 1
    kernel_size: 3
    stride: 1
    weight_filler {
      type: "xavier"
    }
    bias_filler {
      type: "constant"
      value: 0
    }
  }
}
layer {
  name: "pool6_mbox_loc_perm"
  type: "Permute"
  bottom: "pool6_mbox_loc"
  top: "pool6_mbox_loc_perm"
  permute_param {
    order: 0
    order: 2
    order: 3
    order: 1
  }
}
layer {
  name: "pool6_mbox_loc_flat"
  type: "Flatten"
  bottom: "pool6_mbox_loc_perm"
  top: "pool6_mbox_loc_flat"
  flatten_param {
    axis: 1
  }
}
layer {
  name: "pool6_mbox_conf"
  type: "Convolution"
  bottom: "pool6"
  top: "pool6_mbox_conf"
  param {
    lr_mult: 1
    decay_mult: 1
  }
  param {
    lr_mult: 2
    decay_mult: 0
  }
  convolution_param {
    num_output: 30
    pad: 1
    kernel_size: 3
    stride: 1
    weight_filler {
      type: "xavier"
    }
    bias_filler {
      type: "constant"
      value: 0
    }
  }
}
layer {
  name: "pool6_mbox_conf_perm"
  type: "Permute"
  bottom: "pool6_mbox_conf"
  top: "pool6_mbox_conf_perm"
  permute_param {
    order: 0
    order: 2
    order: 3
    order: 1
  }
}
layer {
  name: "pool6_mbox_conf_flat"
  type: "Flatten"
  bottom: "pool6_mbox_conf_perm"
  top: "pool6_mbox_conf_flat"
  flatten_param {
    axis: 1
  }
}
layer {
  name: "pool6_mbox_priorbox"
  type: "PriorBox"
  bottom: "pool6"
  bottom: "data"
  top: "pool6_mbox_priorbox"
  prior_box_param {
    min_size: 276
    max_size: 330
    aspect_ratio: 2
    aspect_ratio: 3
    flip: true
    clip: true
    variance: 0.1
    variance: 0.1
    variance: 0.2
    variance: 0.2
  }
}
layer {
  name: "mbox_loc"
  type: "Concat"
  bottom: "conv4_3_norm_mbox_loc_flat"
  bottom: "fc7_mbox_loc_flat"
  bottom: "conv6_2_mbox_loc_flat"
  bottom: "conv7_2_mbox_loc_flat"
  bottom: "conv8_2_mbox_loc_flat"
  bottom: "pool6_mbox_loc_flat"
  top: "mbox_loc"
  concat_param {
    axis: 1
  }
}
layer {
  name: "mbox_conf"
  type: "Concat"
  bottom: "conv4_3_norm_mbox_conf_flat"
  bottom: "fc7_mbox_conf_flat"
  bottom: "conv6_2_mbox_conf_flat"
  bottom: "conv7_2_mbox_conf_flat"
  bottom: "conv8_2_mbox_conf_flat"
  bottom: "pool6_mbox_conf_flat"
  top: "mbox_conf"
  concat_param {
    axis: 1
  }
}
layer {
  name: "mbox_priorbox"
  type: "Concat"
  bottom: "conv4_3_norm_mbox_priorbox"
  bottom: "fc7_mbox_priorbox"
  bottom: "conv6_2_mbox_priorbox"
  bottom: "conv7_2_mbox_priorbox"
  bottom: "conv8_2_mbox_priorbox"
  bottom: "pool6_mbox_priorbox"
  top: "mbox_priorbox"
  concat_param {
    axis: 2
  }
}
layer {
  name: "mbox_loss"
  type: "MultiBoxLoss"
  bottom: "mbox_loc"
  bottom: "mbox_conf"
  bottom: "mbox_priorbox"
  bottom: "label"
  top: "mbox_loss"
  include {
    phase: TRAIN
  }
  propagate_down: true
  propagate_down: true
  propagate_down: false
  propagate_down: false
  loss_param {
    normalization: VALID
  }
  multibox_loss_param {
    loc_loss_type: SMOOTH_L1
    conf_loss_type: SOFTMAX
    loc_weight: 1
    num_classes: 5
    share_location: true
    match_type: PER_PREDICTION
    overlap_threshold: 0.5
    use_prior_for_matching: true
    background_label_id: 0
    use_difficult_gt: true
    do_neg_mining: true
    neg_pos_ratio: 3
    neg_overlap: 0.5
    code_type: CENTER_SIZE
  }
}
I0517 12:06:54.296542 10114 layer_factory.hpp:77] Creating layer data
I0517 12:06:54.297083 10114 net.cpp:91] Creating Layer data
I0517 12:06:54.297106 10114 net.cpp:399] data -> data
I0517 12:06:54.297160 10114 net.cpp:399] data -> label
I0517 12:06:54.298979 10124 db_lmdb.cpp:35] Opened lmdb examples/deepv_car_person/deepv_car_person_trainval_lmdb
I0517 12:06:54.324522 10114 annotated_data_layer.cpp:52] output data size: 8,3,300,300
I0517 12:06:54.344784 10114 net.cpp:141] Setting up data
I0517 12:06:54.344837 10114 net.cpp:148] Top shape: 8 3 300 300 (2160000)
I0517 12:06:54.344847 10114 net.cpp:148] Top shape: 1 1 6 8 (48)
I0517 12:06:54.344852 10114 net.cpp:156] Memory required for data: 8640192
I0517 12:06:54.344872 10114 layer_factory.hpp:77] Creating layer data_data_0_split
I0517 12:06:54.344905 10114 net.cpp:91] Creating Layer data_data_0_split
I0517 12:06:54.344915 10114 net.cpp:425] data_data_0_split <- data
I0517 12:06:54.344933 10114 net.cpp:399] data_data_0_split -> data_data_0_split_0
I0517 12:06:54.344957 10114 net.cpp:399] data_data_0_split -> data_data_0_split_1
I0517 12:06:54.344966 10114 net.cpp:399] data_data_0_split -> data_data_0_split_2
I0517 12:06:54.344975 10114 net.cpp:399] data_data_0_split -> data_data_0_split_3
I0517 12:06:54.344982 10114 net.cpp:399] data_data_0_split -> data_data_0_split_4
I0517 12:06:54.344990 10114 net.cpp:399] data_data_0_split -> data_data_0_split_5
I0517 12:06:54.344997 10114 net.cpp:399] data_data_0_split -> data_data_0_split_6
I0517 12:06:54.345149 10114 net.cpp:141] Setting up data_data_0_split
I0517 12:06:54.345165 10114 net.cpp:148] Top shape: 8 3 300 300 (2160000)
I0517 12:06:54.345170 10114 net.cpp:148] Top shape: 8 3 300 300 (2160000)
I0517 12:06:54.345177 10114 net.cpp:148] Top shape: 8 3 300 300 (2160000)
I0517 12:06:54.345182 10114 net.cpp:148] Top shape: 8 3 300 300 (2160000)
I0517 12:06:54.345188 10114 net.cpp:148] Top shape: 8 3 300 300 (2160000)
I0517 12:06:54.345224 10114 net.cpp:148] Top shape: 8 3 300 300 (2160000)
I0517 12:06:54.345232 10114 net.cpp:148] Top shape: 8 3 300 300 (2160000)
I0517 12:06:54.345235 10114 net.cpp:156] Memory required for data: 69120192
I0517 12:06:54.345240 10114 layer_factory.hpp:77] Creating layer conv1_1
I0517 12:06:54.345268 10114 net.cpp:91] Creating Layer conv1_1
I0517 12:06:54.345273 10114 net.cpp:425] conv1_1 <- data_data_0_split_0
I0517 12:06:54.345283 10114 net.cpp:399] conv1_1 -> conv1_1
I0517 12:06:54.444335 10125 blocking_queue.cpp:50] Waiting for data
I0517 12:06:54.522969 10114 net.cpp:141] Setting up conv1_1
I0517 12:06:54.523013 10114 net.cpp:148] Top shape: 8 64 300 300 (46080000)
I0517 12:06:54.523020 10114 net.cpp:156] Memory required for data: 253440192
I0517 12:06:54.523046 10114 layer_factory.hpp:77] Creating layer relu1_1
I0517 12:06:54.523066 10114 net.cpp:91] Creating Layer relu1_1
I0517 12:06:54.523072 10114 net.cpp:425] relu1_1 <- conv1_1
I0517 12:06:54.523085 10114 net.cpp:386] relu1_1 -> conv1_1 (in-place)
I0517 12:06:54.523409 10114 net.cpp:141] Setting up relu1_1
I0517 12:06:54.523427 10114 net.cpp:148] Top shape: 8 64 300 300 (46080000)
I0517 12:06:54.523432 10114 net.cpp:156] Memory required for data: 437760192
I0517 12:06:54.523437 10114 layer_factory.hpp:77] Creating layer conv1_2
I0517 12:06:54.523457 10114 net.cpp:91] Creating Layer conv1_2
I0517 12:06:54.523463 10114 net.cpp:425] conv1_2 <- conv1_1
I0517 12:06:54.523470 10114 net.cpp:399] conv1_2 -> conv1_2
I0517 12:06:54.525477 10114 net.cpp:141] Setting up conv1_2
I0517 12:06:54.525498 10114 net.cpp:148] Top shape: 8 64 300 300 (46080000)
I0517 12:06:54.525504 10114 net.cpp:156] Memory required for data: 622080192
I0517 12:06:54.525516 10114 layer_factory.hpp:77] Creating layer relu1_2
I0517 12:06:54.525527 10114 net.cpp:91] Creating Layer relu1_2
I0517 12:06:54.525532 10114 net.cpp:425] relu1_2 <- conv1_2
I0517 12:06:54.525537 10114 net.cpp:386] relu1_2 -> conv1_2 (in-place)
I0517 12:06:54.525842 10114 net.cpp:141] Setting up relu1_2
I0517 12:06:54.525859 10114 net.cpp:148] Top shape: 8 64 300 300 (46080000)
I0517 12:06:54.525864 10114 net.cpp:156] Memory required for data: 806400192
I0517 12:06:54.525869 10114 layer_factory.hpp:77] Creating layer pool1
I0517 12:06:54.525881 10114 net.cpp:91] Creating Layer pool1
I0517 12:06:54.525885 10114 net.cpp:425] pool1 <- conv1_2
I0517 12:06:54.525893 10114 net.cpp:399] pool1 -> pool1
I0517 12:06:54.525966 10114 net.cpp:141] Setting up pool1
I0517 12:06:54.525979 10114 net.cpp:148] Top shape: 8 64 150 150 (11520000)
I0517 12:06:54.525984 10114 net.cpp:156] Memory required for data: 852480192
I0517 12:06:54.525988 10114 layer_factory.hpp:77] Creating layer conv2_1
I0517 12:06:54.526000 10114 net.cpp:91] Creating Layer conv2_1
I0517 12:06:54.526005 10114 net.cpp:425] conv2_1 <- pool1
I0517 12:06:54.526013 10114 net.cpp:399] conv2_1 -> conv2_1
I0517 12:06:54.527782 10114 net.cpp:141] Setting up conv2_1
I0517 12:06:54.527802 10114 net.cpp:148] Top shape: 8 128 150 150 (23040000)
I0517 12:06:54.527808 10114 net.cpp:156] Memory required for data: 944640192
I0517 12:06:54.527820 10114 layer_factory.hpp:77] Creating layer relu2_1
I0517 12:06:54.527832 10114 net.cpp:91] Creating Layer relu2_1
I0517 12:06:54.527837 10114 net.cpp:425] relu2_1 <- conv2_1
I0517 12:06:54.527843 10114 net.cpp:386] relu2_1 -> conv2_1 (in-place)
I0517 12:06:54.528031 10114 net.cpp:141] Setting up relu2_1
I0517 12:06:54.528045 10114 net.cpp:148] Top shape: 8 128 150 150 (23040000)
I0517 12:06:54.528050 10114 net.cpp:156] Memory required for data: 1036800192
I0517 12:06:54.528055 10114 layer_factory.hpp:77] Creating layer conv2_2
I0517 12:06:54.528067 10114 net.cpp:91] Creating Layer conv2_2
I0517 12:06:54.528072 10114 net.cpp:425] conv2_2 <- conv2_1
I0517 12:06:54.528080 10114 net.cpp:399] conv2_2 -> conv2_2
I0517 12:06:54.530886 10114 net.cpp:141] Setting up conv2_2
I0517 12:06:54.530905 10114 net.cpp:148] Top shape: 8 128 150 150 (23040000)
I0517 12:06:54.530911 10114 net.cpp:156] Memory required for data: 1128960192
I0517 12:06:54.530920 10114 layer_factory.hpp:77] Creating layer relu2_2
I0517 12:06:54.530951 10114 net.cpp:91] Creating Layer relu2_2
I0517 12:06:54.530956 10114 net.cpp:425] relu2_2 <- conv2_2
I0517 12:06:54.530963 10114 net.cpp:386] relu2_2 -> conv2_2 (in-place)
I0517 12:06:54.531273 10114 net.cpp:141] Setting up relu2_2
I0517 12:06:54.531291 10114 net.cpp:148] Top shape: 8 128 150 150 (23040000)
I0517 12:06:54.531296 10114 net.cpp:156] Memory required for data: 1221120192
I0517 12:06:54.531301 10114 layer_factory.hpp:77] Creating layer pool2
I0517 12:06:54.531311 10114 net.cpp:91] Creating Layer pool2
I0517 12:06:54.531316 10114 net.cpp:425] pool2 <- conv2_2
I0517 12:06:54.531323 10114 net.cpp:399] pool2 -> pool2
I0517 12:06:54.531373 10114 net.cpp:141] Setting up pool2
I0517 12:06:54.531380 10114 net.cpp:148] Top shape: 8 128 75 75 (5760000)
I0517 12:06:54.531385 10114 net.cpp:156] Memory required for data: 1244160192
I0517 12:06:54.531389 10114 layer_factory.hpp:77] Creating layer conv3_1
I0517 12:06:54.531401 10114 net.cpp:91] Creating Layer conv3_1
I0517 12:06:54.531405 10114 net.cpp:425] conv3_1 <- pool2
I0517 12:06:54.531414 10114 net.cpp:399] conv3_1 -> conv3_1
I0517 12:06:54.536033 10114 net.cpp:141] Setting up conv3_1
I0517 12:06:54.536053 10114 net.cpp:148] Top shape: 8 256 75 75 (11520000)
I0517 12:06:54.536059 10114 net.cpp:156] Memory required for data: 1290240192
I0517 12:06:54.536072 10114 layer_factory.hpp:77] Creating layer relu3_1
I0517 12:06:54.536082 10114 net.cpp:91] Creating Layer relu3_1
I0517 12:06:54.536087 10114 net.cpp:425] relu3_1 <- conv3_1
I0517 12:06:54.536097 10114 net.cpp:386] relu3_1 -> conv3_1 (in-place)
I0517 12:06:54.536427 10114 net.cpp:141] Setting up relu3_1
I0517 12:06:54.536445 10114 net.cpp:148] Top shape: 8 256 75 75 (11520000)
I0517 12:06:54.536449 10114 net.cpp:156] Memory required for data: 1336320192
I0517 12:06:54.536454 10114 layer_factory.hpp:77] Creating layer conv3_2
I0517 12:06:54.536470 10114 net.cpp:91] Creating Layer conv3_2
I0517 12:06:54.536476 10114 net.cpp:425] conv3_2 <- conv3_1
I0517 12:06:54.536484 10114 net.cpp:399] conv3_2 -> conv3_2
I0517 12:06:54.543390 10114 net.cpp:141] Setting up conv3_2
I0517 12:06:54.543411 10114 net.cpp:148] Top shape: 8 256 75 75 (11520000)
I0517 12:06:54.543416 10114 net.cpp:156] Memory required for data: 1382400192
I0517 12:06:54.543426 10114 layer_factory.hpp:77] Creating layer relu3_2
I0517 12:06:54.543434 10114 net.cpp:91] Creating Layer relu3_2
I0517 12:06:54.543439 10114 net.cpp:425] relu3_2 <- conv3_2
I0517 12:06:54.543445 10114 net.cpp:386] relu3_2 -> conv3_2 (in-place)
I0517 12:06:54.543656 10114 net.cpp:141] Setting up relu3_2
I0517 12:06:54.543673 10114 net.cpp:148] Top shape: 8 256 75 75 (11520000)
I0517 12:06:54.543678 10114 net.cpp:156] Memory required for data: 1428480192
I0517 12:06:54.543683 10114 layer_factory.hpp:77] Creating layer conv3_3
I0517 12:06:54.543699 10114 net.cpp:91] Creating Layer conv3_3
I0517 12:06:54.543705 10114 net.cpp:425] conv3_3 <- conv3_2
I0517 12:06:54.543714 10114 net.cpp:399] conv3_3 -> conv3_3
I0517 12:06:54.550617 10114 net.cpp:141] Setting up conv3_3
I0517 12:06:54.550637 10114 net.cpp:148] Top shape: 8 256 75 75 (11520000)
I0517 12:06:54.550642 10114 net.cpp:156] Memory required for data: 1474560192
I0517 12:06:54.550652 10114 layer_factory.hpp:77] Creating layer relu3_3
I0517 12:06:54.550662 10114 net.cpp:91] Creating Layer relu3_3
I0517 12:06:54.550668 10114 net.cpp:425] relu3_3 <- conv3_3
I0517 12:06:54.550676 10114 net.cpp:386] relu3_3 -> conv3_3 (in-place)
I0517 12:06:54.551007 10114 net.cpp:141] Setting up relu3_3
I0517 12:06:54.551024 10114 net.cpp:148] Top shape: 8 256 75 75 (11520000)
I0517 12:06:54.551029 10114 net.cpp:156] Memory required for data: 1520640192
I0517 12:06:54.551034 10114 layer_factory.hpp:77] Creating layer pool3
I0517 12:06:54.551043 10114 net.cpp:91] Creating Layer pool3
I0517 12:06:54.551048 10114 net.cpp:425] pool3 <- conv3_3
I0517 12:06:54.551057 10114 net.cpp:399] pool3 -> pool3
I0517 12:06:54.551111 10114 net.cpp:141] Setting up pool3
I0517 12:06:54.551121 10114 net.cpp:148] Top shape: 8 256 38 38 (2957312)
I0517 12:06:54.551139 10114 net.cpp:156] Memory required for data: 1532469440
I0517 12:06:54.551151 10114 layer_factory.hpp:77] Creating layer conv4_1
I0517 12:06:54.551164 10114 net.cpp:91] Creating Layer conv4_1
I0517 12:06:54.551169 10114 net.cpp:425] conv4_1 <- pool3
I0517 12:06:54.551177 10114 net.cpp:399] conv4_1 -> conv4_1
I0517 12:06:54.564265 10114 net.cpp:141] Setting up conv4_1
I0517 12:06:54.564287 10114 net.cpp:148] Top shape: 8 512 38 38 (5914624)
I0517 12:06:54.564293 10114 net.cpp:156] Memory required for data: 1556127936
I0517 12:06:54.564302 10114 layer_factory.hpp:77] Creating layer relu4_1
I0517 12:06:54.564313 10114 net.cpp:91] Creating Layer relu4_1
I0517 12:06:54.564318 10114 net.cpp:425] relu4_1 <- conv4_1
I0517 12:06:54.564327 10114 net.cpp:386] relu4_1 -> conv4_1 (in-place)
I0517 12:06:54.564661 10114 net.cpp:141] Setting up relu4_1
I0517 12:06:54.564680 10114 net.cpp:148] Top shape: 8 512 38 38 (5914624)
I0517 12:06:54.564685 10114 net.cpp:156] Memory required for data: 1579786432
I0517 12:06:54.564690 10114 layer_factory.hpp:77] Creating layer conv4_2
I0517 12:06:54.564704 10114 net.cpp:91] Creating Layer conv4_2
I0517 12:06:54.564710 10114 net.cpp:425] conv4_2 <- conv4_1
I0517 12:06:54.564718 10114 net.cpp:399] conv4_2 -> conv4_2
I0517 12:06:54.588513 10114 net.cpp:141] Setting up conv4_2
I0517 12:06:54.588541 10114 net.cpp:148] Top shape: 8 512 38 38 (5914624)
I0517 12:06:54.588546 10114 net.cpp:156] Memory required for data: 1603444928
I0517 12:06:54.588565 10114 layer_factory.hpp:77] Creating layer relu4_2
I0517 12:06:54.588577 10114 net.cpp:91] Creating Layer relu4_2
I0517 12:06:54.588582 10114 net.cpp:425] relu4_2 <- conv4_2
I0517 12:06:54.588592 10114 net.cpp:386] relu4_2 -> conv4_2 (in-place)
I0517 12:06:54.588798 10114 net.cpp:141] Setting up relu4_2
I0517 12:06:54.588810 10114 net.cpp:148] Top shape: 8 512 38 38 (5914624)
I0517 12:06:54.588815 10114 net.cpp:156] Memory required for data: 1627103424
I0517 12:06:54.588820 10114 layer_factory.hpp:77] Creating layer conv4_3
I0517 12:06:54.588838 10114 net.cpp:91] Creating Layer conv4_3
I0517 12:06:54.588845 10114 net.cpp:425] conv4_3 <- conv4_2
I0517 12:06:54.588852 10114 net.cpp:399] conv4_3 -> conv4_3
I0517 12:06:54.612954 10114 net.cpp:141] Setting up conv4_3
I0517 12:06:54.612987 10114 net.cpp:148] Top shape: 8 512 38 38 (5914624)
I0517 12:06:54.612994 10114 net.cpp:156] Memory required for data: 1650761920
I0517 12:06:54.613005 10114 layer_factory.hpp:77] Creating layer relu4_3
I0517 12:06:54.613018 10114 net.cpp:91] Creating Layer relu4_3
I0517 12:06:54.613023 10114 net.cpp:425] relu4_3 <- conv4_3
I0517 12:06:54.613030 10114 net.cpp:386] relu4_3 -> conv4_3 (in-place)
I0517 12:06:54.613371 10114 net.cpp:141] Setting up relu4_3
I0517 12:06:54.613389 10114 net.cpp:148] Top shape: 8 512 38 38 (5914624)
I0517 12:06:54.613394 10114 net.cpp:156] Memory required for data: 1674420416
I0517 12:06:54.613399 10114 layer_factory.hpp:77] Creating layer conv4_3_relu4_3_0_split
I0517 12:06:54.613409 10114 net.cpp:91] Creating Layer conv4_3_relu4_3_0_split
I0517 12:06:54.613414 10114 net.cpp:425] conv4_3_relu4_3_0_split <- conv4_3
I0517 12:06:54.613423 10114 net.cpp:399] conv4_3_relu4_3_0_split -> conv4_3_relu4_3_0_split_0
I0517 12:06:54.613433 10114 net.cpp:399] conv4_3_relu4_3_0_split -> conv4_3_relu4_3_0_split_1
I0517 12:06:54.613486 10114 net.cpp:141] Setting up conv4_3_relu4_3_0_split
I0517 12:06:54.613503 10114 net.cpp:148] Top shape: 8 512 38 38 (5914624)
I0517 12:06:54.613508 10114 net.cpp:148] Top shape: 8 512 38 38 (5914624)
I0517 12:06:54.613513 10114 net.cpp:156] Memory required for data: 1721737408
I0517 12:06:54.613517 10114 layer_factory.hpp:77] Creating layer pool4
I0517 12:06:54.613529 10114 net.cpp:91] Creating Layer pool4
I0517 12:06:54.613535 10114 net.cpp:425] pool4 <- conv4_3_relu4_3_0_split_0
I0517 12:06:54.613544 10114 net.cpp:399] pool4 -> pool4
I0517 12:06:54.613590 10114 net.cpp:141] Setting up pool4
I0517 12:06:54.613601 10114 net.cpp:148] Top shape: 8 512 19 19 (1478656)
I0517 12:06:54.613629 10114 net.cpp:156] Memory required for data: 1727652032
I0517 12:06:54.613634 10114 layer_factory.hpp:77] Creating layer conv5_1
I0517 12:06:54.613651 10114 net.cpp:91] Creating Layer conv5_1
I0517 12:06:54.613657 10114 net.cpp:425] conv5_1 <- pool4
I0517 12:06:54.613667 10114 net.cpp:399] conv5_1 -> conv5_1
I0517 12:06:54.637712 10114 net.cpp:141] Setting up conv5_1
I0517 12:06:54.637745 10114 net.cpp:148] Top shape: 8 512 19 19 (1478656)
I0517 12:06:54.637751 10114 net.cpp:156] Memory required for data: 1733566656
I0517 12:06:54.637761 10114 layer_factory.hpp:77] Creating layer relu5_1
I0517 12:06:54.637773 10114 net.cpp:91] Creating Layer relu5_1
I0517 12:06:54.637779 10114 net.cpp:425] relu5_1 <- conv5_1
I0517 12:06:54.637790 10114 net.cpp:386] relu5_1 -> conv5_1 (in-place)
I0517 12:06:54.638131 10114 net.cpp:141] Setting up relu5_1
I0517 12:06:54.638149 10114 net.cpp:148] Top shape: 8 512 19 19 (1478656)
I0517 12:06:54.638154 10114 net.cpp:156] Memory required for data: 1739481280
I0517 12:06:54.638159 10114 layer_factory.hpp:77] Creating layer conv5_2
I0517 12:06:54.638176 10114 net.cpp:91] Creating Layer conv5_2
I0517 12:06:54.638182 10114 net.cpp:425] conv5_2 <- conv5_1
I0517 12:06:54.638190 10114 net.cpp:399] conv5_2 -> conv5_2
I0517 12:06:54.662106 10114 net.cpp:141] Setting up conv5_2
I0517 12:06:54.662135 10114 net.cpp:148] Top shape: 8 512 19 19 (1478656)
I0517 12:06:54.662142 10114 net.cpp:156] Memory required for data: 1745395904
I0517 12:06:54.662152 10114 layer_factory.hpp:77] Creating layer relu5_2
I0517 12:06:54.662165 10114 net.cpp:91] Creating Layer relu5_2
I0517 12:06:54.662171 10114 net.cpp:425] relu5_2 <- conv5_2
I0517 12:06:54.662179 10114 net.cpp:386] relu5_2 -> conv5_2 (in-place)
I0517 12:06:54.662386 10114 net.cpp:141] Setting up relu5_2
I0517 12:06:54.662401 10114 net.cpp:148] Top shape: 8 512 19 19 (1478656)
I0517 12:06:54.662406 10114 net.cpp:156] Memory required for data: 1751310528
I0517 12:06:54.662410 10114 layer_factory.hpp:77] Creating layer conv5_3
I0517 12:06:54.662427 10114 net.cpp:91] Creating Layer conv5_3
I0517 12:06:54.662433 10114 net.cpp:425] conv5_3 <- conv5_2
I0517 12:06:54.662441 10114 net.cpp:399] conv5_3 -> conv5_3
I0517 12:06:54.686349 10114 net.cpp:141] Setting up conv5_3
I0517 12:06:54.686379 10114 net.cpp:148] Top shape: 8 512 19 19 (1478656)
I0517 12:06:54.686385 10114 net.cpp:156] Memory required for data: 1757225152
I0517 12:06:54.686394 10114 layer_factory.hpp:77] Creating layer relu5_3
I0517 12:06:54.686414 10114 net.cpp:91] Creating Layer relu5_3
I0517 12:06:54.686421 10114 net.cpp:425] relu5_3 <- conv5_3
I0517 12:06:54.686429 10114 net.cpp:386] relu5_3 -> conv5_3 (in-place)
I0517 12:06:54.686764 10114 net.cpp:141] Setting up relu5_3
I0517 12:06:54.686781 10114 net.cpp:148] Top shape: 8 512 19 19 (1478656)
I0517 12:06:54.686785 10114 net.cpp:156] Memory required for data: 1763139776
I0517 12:06:54.686790 10114 layer_factory.hpp:77] Creating layer pool5
I0517 12:06:54.686803 10114 net.cpp:91] Creating Layer pool5
I0517 12:06:54.686808 10114 net.cpp:425] pool5 <- conv5_3
I0517 12:06:54.686816 10114 net.cpp:399] pool5 -> pool5
I0517 12:06:54.686875 10114 net.cpp:141] Setting up pool5
I0517 12:06:54.686888 10114 net.cpp:148] Top shape: 8 512 19 19 (1478656)
I0517 12:06:54.686892 10114 net.cpp:156] Memory required for data: 1769054400
I0517 12:06:54.686897 10114 layer_factory.hpp:77] Creating layer fc6
I0517 12:06:54.686913 10114 net.cpp:91] Creating Layer fc6
I0517 12:06:54.686918 10114 net.cpp:425] fc6 <- pool5
I0517 12:06:54.686928 10114 net.cpp:399] fc6 -> fc6
I0517 12:06:54.733706 10114 net.cpp:141] Setting up fc6
I0517 12:06:54.733760 10114 net.cpp:148] Top shape: 8 1024 19 19 (2957312)
I0517 12:06:54.733767 10114 net.cpp:156] Memory required for data: 1780883648
I0517 12:06:54.733781 10114 layer_factory.hpp:77] Creating layer relu6
I0517 12:06:54.733798 10114 net.cpp:91] Creating Layer relu6
I0517 12:06:54.733805 10114 net.cpp:425] relu6 <- fc6
I0517 12:06:54.733819 10114 net.cpp:386] relu6 -> fc6 (in-place)
I0517 12:06:54.734113 10114 net.cpp:141] Setting up relu6
I0517 12:06:54.734150 10114 net.cpp:148] Top shape: 8 1024 19 19 (2957312)
I0517 12:06:54.734156 10114 net.cpp:156] Memory required for data: 1792712896
I0517 12:06:54.734161 10114 layer_factory.hpp:77] Creating layer fc7
I0517 12:06:54.734179 10114 net.cpp:91] Creating Layer fc7
I0517 12:06:54.734184 10114 net.cpp:425] fc7 <- fc6
I0517 12:06:54.734191 10114 net.cpp:399] fc7 -> fc7
I0517 12:06:54.745694 10114 net.cpp:141] Setting up fc7
I0517 12:06:54.745715 10114 net.cpp:148] Top shape: 8 1024 19 19 (2957312)
I0517 12:06:54.745720 10114 net.cpp:156] Memory required for data: 1804542144
I0517 12:06:54.745730 10114 layer_factory.hpp:77] Creating layer relu7
I0517 12:06:54.745744 10114 net.cpp:91] Creating Layer relu7
I0517 12:06:54.745750 10114 net.cpp:425] relu7 <- fc7
I0517 12:06:54.745757 10114 net.cpp:386] relu7 -> fc7 (in-place)
I0517 12:06:54.745968 10114 net.cpp:141] Setting up relu7
I0517 12:06:54.745983 10114 net.cpp:148] Top shape: 8 1024 19 19 (2957312)
I0517 12:06:54.745988 10114 net.cpp:156] Memory required for data: 1816371392
I0517 12:06:54.745992 10114 layer_factory.hpp:77] Creating layer fc7_relu7_0_split
I0517 12:06:54.746001 10114 net.cpp:91] Creating Layer fc7_relu7_0_split
I0517 12:06:54.746006 10114 net.cpp:425] fc7_relu7_0_split <- fc7
I0517 12:06:54.746016 10114 net.cpp:399] fc7_relu7_0_split -> fc7_relu7_0_split_0
I0517 12:06:54.746026 10114 net.cpp:399] fc7_relu7_0_split -> fc7_relu7_0_split_1
I0517 12:06:54.746039 10114 net.cpp:399] fc7_relu7_0_split -> fc7_relu7_0_split_2
I0517 12:06:54.746048 10114 net.cpp:399] fc7_relu7_0_split -> fc7_relu7_0_split_3
I0517 12:06:54.746130 10114 net.cpp:141] Setting up fc7_relu7_0_split
I0517 12:06:54.746140 10114 net.cpp:148] Top shape: 8 1024 19 19 (2957312)
I0517 12:06:54.746147 10114 net.cpp:148] Top shape: 8 1024 19 19 (2957312)
I0517 12:06:54.746152 10114 net.cpp:148] Top shape: 8 1024 19 19 (2957312)
I0517 12:06:54.746157 10114 net.cpp:148] Top shape: 8 1024 19 19 (2957312)
I0517 12:06:54.746161 10114 net.cpp:156] Memory required for data: 1863688384
I0517 12:06:54.746166 10114 layer_factory.hpp:77] Creating layer conv6_1
I0517 12:06:54.746181 10114 net.cpp:91] Creating Layer conv6_1
I0517 12:06:54.746186 10114 net.cpp:425] conv6_1 <- fc7_relu7_0_split_0
I0517 12:06:54.746196 10114 net.cpp:399] conv6_1 -> conv6_1
I0517 12:06:54.750156 10114 net.cpp:141] Setting up conv6_1
I0517 12:06:54.750176 10114 net.cpp:148] Top shape: 8 256 19 19 (739328)
I0517 12:06:54.750181 10114 net.cpp:156] Memory required for data: 1866645696
I0517 12:06:54.750190 10114 layer_factory.hpp:77] Creating layer conv6_1_relu
I0517 12:06:54.750198 10114 net.cpp:91] Creating Layer conv6_1_relu
I0517 12:06:54.750205 10114 net.cpp:425] conv6_1_relu <- conv6_1
I0517 12:06:54.750213 10114 net.cpp:386] conv6_1_relu -> conv6_1 (in-place)
I0517 12:06:54.750560 10114 net.cpp:141] Setting up conv6_1_relu
I0517 12:06:54.750577 10114 net.cpp:148] Top shape: 8 256 19 19 (739328)
I0517 12:06:54.750582 10114 net.cpp:156] Memory required for data: 1869603008
I0517 12:06:54.750587 10114 layer_factory.hpp:77] Creating layer conv6_2
I0517 12:06:54.750602 10114 net.cpp:91] Creating Layer conv6_2
I0517 12:06:54.750607 10114 net.cpp:425] conv6_2 <- conv6_1
I0517 12:06:54.750617 10114 net.cpp:399] conv6_2 -> conv6_2
I0517 12:06:54.763187 10114 net.cpp:141] Setting up conv6_2
I0517 12:06:54.763209 10114 net.cpp:148] Top shape: 8 512 10 10 (409600)
I0517 12:06:54.763216 10114 net.cpp:156] Memory required for data: 1871241408
I0517 12:06:54.763236 10114 layer_factory.hpp:77] Creating layer conv6_2_relu
I0517 12:06:54.763247 10114 net.cpp:91] Creating Layer conv6_2_relu
I0517 12:06:54.763252 10114 net.cpp:425] conv6_2_relu <- conv6_2
I0517 12:06:54.763258 10114 net.cpp:386] conv6_2_relu -> conv6_2 (in-place)
I0517 12:06:54.763473 10114 net.cpp:141] Setting up conv6_2_relu
I0517 12:06:54.763487 10114 net.cpp:148] Top shape: 8 512 10 10 (409600)
I0517 12:06:54.763492 10114 net.cpp:156] Memory required for data: 1872879808
I0517 12:06:54.763497 10114 layer_factory.hpp:77] Creating layer conv6_2_conv6_2_relu_0_split
I0517 12:06:54.763525 10114 net.cpp:91] Creating Layer conv6_2_conv6_2_relu_0_split
I0517 12:06:54.763530 10114 net.cpp:425] conv6_2_conv6_2_relu_0_split <- conv6_2
I0517 12:06:54.763540 10114 net.cpp:399] conv6_2_conv6_2_relu_0_split -> conv6_2_conv6_2_relu_0_split_0
I0517 12:06:54.763550 10114 net.cpp:399] conv6_2_conv6_2_relu_0_split -> conv6_2_conv6_2_relu_0_split_1
I0517 12:06:54.763557 10114 net.cpp:399] conv6_2_conv6_2_relu_0_split -> conv6_2_conv6_2_relu_0_split_2
I0517 12:06:54.763564 10114 net.cpp:399] conv6_2_conv6_2_relu_0_split -> conv6_2_conv6_2_relu_0_split_3
I0517 12:06:54.763659 10114 net.cpp:141] Setting up conv6_2_conv6_2_relu_0_split
I0517 12:06:54.763672 10114 net.cpp:148] Top shape: 8 512 10 10 (409600)
I0517 12:06:54.763679 10114 net.cpp:148] Top shape: 8 512 10 10 (409600)
I0517 12:06:54.763684 10114 net.cpp:148] Top shape: 8 512 10 10 (409600)
I0517 12:06:54.763689 10114 net.cpp:148] Top shape: 8 512 10 10 (409600)
I0517 12:06:54.763694 10114 net.cpp:156] Memory required for data: 1879433408
I0517 12:06:54.763698 10114 layer_factory.hpp:77] Creating layer conv7_1
I0517 12:06:54.763715 10114 net.cpp:91] Creating Layer conv7_1
I0517 12:06:54.763720 10114 net.cpp:425] conv7_1 <- conv6_2_conv6_2_relu_0_split_0
I0517 12:06:54.763730 10114 net.cpp:399] conv7_1 -> conv7_1
I0517 12:06:54.765480 10114 net.cpp:141] Setting up conv7_1
I0517 12:06:54.765498 10114 net.cpp:148] Top shape: 8 128 10 10 (102400)
I0517 12:06:54.765503 10114 net.cpp:156] Memory required for data: 1879843008
I0517 12:06:54.765512 10114 layer_factory.hpp:77] Creating layer conv7_1_relu
I0517 12:06:54.765523 10114 net.cpp:91] Creating Layer conv7_1_relu
I0517 12:06:54.765529 10114 net.cpp:425] conv7_1_relu <- conv7_1
I0517 12:06:54.765537 10114 net.cpp:386] conv7_1_relu -> conv7_1 (in-place)
I0517 12:06:54.765743 10114 net.cpp:141] Setting up conv7_1_relu
I0517 12:06:54.765755 10114 net.cpp:148] Top shape: 8 128 10 10 (102400)
I0517 12:06:54.765760 10114 net.cpp:156] Memory required for data: 1880252608
I0517 12:06:54.765765 10114 layer_factory.hpp:77] Creating layer conv7_2
I0517 12:06:54.765779 10114 net.cpp:91] Creating Layer conv7_2
I0517 12:06:54.765784 10114 net.cpp:425] conv7_2 <- conv7_1
I0517 12:06:54.765794 10114 net.cpp:399] conv7_2 -> conv7_2
I0517 12:06:54.769945 10114 net.cpp:141] Setting up conv7_2
I0517 12:06:54.769965 10114 net.cpp:148] Top shape: 8 256 5 5 (51200)
I0517 12:06:54.769971 10114 net.cpp:156] Memory required for data: 1880457408
I0517 12:06:54.769979 10114 layer_factory.hpp:77] Creating layer conv7_2_relu
I0517 12:06:54.769989 10114 net.cpp:91] Creating Layer conv7_2_relu
I0517 12:06:54.769994 10114 net.cpp:425] conv7_2_relu <- conv7_2
I0517 12:06:54.770004 10114 net.cpp:386] conv7_2_relu -> conv7_2 (in-place)
I0517 12:06:54.770344 10114 net.cpp:141] Setting up conv7_2_relu
I0517 12:06:54.770362 10114 net.cpp:148] Top shape: 8 256 5 5 (51200)
I0517 12:06:54.770367 10114 net.cpp:156] Memory required for data: 1880662208
I0517 12:06:54.770372 10114 layer_factory.hpp:77] Creating layer conv7_2_conv7_2_relu_0_split
I0517 12:06:54.770382 10114 net.cpp:91] Creating Layer conv7_2_conv7_2_relu_0_split
I0517 12:06:54.770390 10114 net.cpp:425] conv7_2_conv7_2_relu_0_split <- conv7_2
I0517 12:06:54.770396 10114 net.cpp:399] conv7_2_conv7_2_relu_0_split -> conv7_2_conv7_2_relu_0_split_0
I0517 12:06:54.770406 10114 net.cpp:399] conv7_2_conv7_2_relu_0_split -> conv7_2_conv7_2_relu_0_split_1
I0517 12:06:54.770413 10114 net.cpp:399] conv7_2_conv7_2_relu_0_split -> conv7_2_conv7_2_relu_0_split_2
I0517 12:06:54.770421 10114 net.cpp:399] conv7_2_conv7_2_relu_0_split -> conv7_2_conv7_2_relu_0_split_3
I0517 12:06:54.770506 10114 net.cpp:141] Setting up conv7_2_conv7_2_relu_0_split
I0517 12:06:54.770517 10114 net.cpp:148] Top shape: 8 256 5 5 (51200)
I0517 12:06:54.770524 10114 net.cpp:148] Top shape: 8 256 5 5 (51200)
I0517 12:06:54.770529 10114 net.cpp:148] Top shape: 8 256 5 5 (51200)
I0517 12:06:54.770534 10114 net.cpp:148] Top shape: 8 256 5 5 (51200)
I0517 12:06:54.770537 10114 net.cpp:156] Memory required for data: 1881481408
I0517 12:06:54.770555 10114 layer_factory.hpp:77] Creating layer conv8_1
I0517 12:06:54.770571 10114 net.cpp:91] Creating Layer conv8_1
I0517 12:06:54.770576 10114 net.cpp:425] conv8_1 <- conv7_2_conv7_2_relu_0_split_0
I0517 12:06:54.770587 10114 net.cpp:399] conv8_1 -> conv8_1
I0517 12:06:54.772081 10114 net.cpp:141] Setting up conv8_1
I0517 12:06:54.772100 10114 net.cpp:148] Top shape: 8 128 5 5 (25600)
I0517 12:06:54.772105 10114 net.cpp:156] Memory required for data: 1881583808
I0517 12:06:54.772114 10114 layer_factory.hpp:77] Creating layer conv8_1_relu
I0517 12:06:54.772125 10114 net.cpp:91] Creating Layer conv8_1_relu
I0517 12:06:54.772131 10114 net.cpp:425] conv8_1_relu <- conv8_1
I0517 12:06:54.772138 10114 net.cpp:386] conv8_1_relu -> conv8_1 (in-place)
I0517 12:06:54.772346 10114 net.cpp:141] Setting up conv8_1_relu
I0517 12:06:54.772359 10114 net.cpp:148] Top shape: 8 128 5 5 (25600)
I0517 12:06:54.772363 10114 net.cpp:156] Memory required for data: 1881686208
I0517 12:06:54.772368 10114 layer_factory.hpp:77] Creating layer conv8_2
I0517 12:06:54.772383 10114 net.cpp:91] Creating Layer conv8_2
I0517 12:06:54.772388 10114 net.cpp:425] conv8_2 <- conv8_1
I0517 12:06:54.772399 10114 net.cpp:399] conv8_2 -> conv8_2
I0517 12:06:54.776582 10114 net.cpp:141] Setting up conv8_2
I0517 12:06:54.776602 10114 net.cpp:148] Top shape: 8 256 3 3 (18432)
I0517 12:06:54.776607 10114 net.cpp:156] Memory required for data: 1881759936
I0517 12:06:54.776614 10114 layer_factory.hpp:77] Creating layer conv8_2_relu
I0517 12:06:54.776626 10114 net.cpp:91] Creating Layer conv8_2_relu
I0517 12:06:54.776633 10114 net.cpp:425] conv8_2_relu <- conv8_2
I0517 12:06:54.776640 10114 net.cpp:386] conv8_2_relu -> conv8_2 (in-place)
I0517 12:06:54.776851 10114 net.cpp:141] Setting up conv8_2_relu
I0517 12:06:54.776866 10114 net.cpp:148] Top shape: 8 256 3 3 (18432)
I0517 12:06:54.776870 10114 net.cpp:156] Memory required for data: 1881833664
I0517 12:06:54.776875 10114 layer_factory.hpp:77] Creating layer conv8_2_conv8_2_relu_0_split
I0517 12:06:54.776885 10114 net.cpp:91] Creating Layer conv8_2_conv8_2_relu_0_split
I0517 12:06:54.776890 10114 net.cpp:425] conv8_2_conv8_2_relu_0_split <- conv8_2
I0517 12:06:54.776897 10114 net.cpp:399] conv8_2_conv8_2_relu_0_split -> conv8_2_conv8_2_relu_0_split_0
I0517 12:06:54.776906 10114 net.cpp:399] conv8_2_conv8_2_relu_0_split -> conv8_2_conv8_2_relu_0_split_1
I0517 12:06:54.776917 10114 net.cpp:399] conv8_2_conv8_2_relu_0_split -> conv8_2_conv8_2_relu_0_split_2
I0517 12:06:54.776924 10114 net.cpp:399] conv8_2_conv8_2_relu_0_split -> conv8_2_conv8_2_relu_0_split_3
I0517 12:06:54.777009 10114 net.cpp:141] Setting up conv8_2_conv8_2_relu_0_split
I0517 12:06:54.777019 10114 net.cpp:148] Top shape: 8 256 3 3 (18432)
I0517 12:06:54.777025 10114 net.cpp:148] Top shape: 8 256 3 3 (18432)
I0517 12:06:54.777030 10114 net.cpp:148] Top shape: 8 256 3 3 (18432)
I0517 12:06:54.777035 10114 net.cpp:148] Top shape: 8 256 3 3 (18432)
I0517 12:06:54.777040 10114 net.cpp:156] Memory required for data: 1882128576
I0517 12:06:54.777043 10114 layer_factory.hpp:77] Creating layer pool6
I0517 12:06:54.777055 10114 net.cpp:91] Creating Layer pool6
I0517 12:06:54.777060 10114 net.cpp:425] pool6 <- conv8_2_conv8_2_relu_0_split_0
I0517 12:06:54.777067 10114 net.cpp:399] pool6 -> pool6
I0517 12:06:54.777454 10114 net.cpp:141] Setting up pool6
I0517 12:06:54.777472 10114 net.cpp:148] Top shape: 8 256 1 1 (2048)
I0517 12:06:54.777475 10114 net.cpp:156] Memory required for data: 1882136768
I0517 12:06:54.777480 10114 layer_factory.hpp:77] Creating layer pool6_pool6_0_split
I0517 12:06:54.777492 10114 net.cpp:91] Creating Layer pool6_pool6_0_split
I0517 12:06:54.777498 10114 net.cpp:425] pool6_pool6_0_split <- pool6
I0517 12:06:54.777504 10114 net.cpp:399] pool6_pool6_0_split -> pool6_pool6_0_split_0
I0517 12:06:54.777513 10114 net.cpp:399] pool6_pool6_0_split -> pool6_pool6_0_split_1
I0517 12:06:54.777523 10114 net.cpp:399] pool6_pool6_0_split -> pool6_pool6_0_split_2
I0517 12:06:54.777590 10114 net.cpp:141] Setting up pool6_pool6_0_split
I0517 12:06:54.777612 10114 net.cpp:148] Top shape: 8 256 1 1 (2048)
I0517 12:06:54.777619 10114 net.cpp:148] Top shape: 8 256 1 1 (2048)
I0517 12:06:54.777624 10114 net.cpp:148] Top shape: 8 256 1 1 (2048)
I0517 12:06:54.777628 10114 net.cpp:156] Memory required for data: 1882161344
I0517 12:06:54.777632 10114 layer_factory.hpp:77] Creating layer conv4_3_norm
I0517 12:06:54.777644 10114 net.cpp:91] Creating Layer conv4_3_norm
I0517 12:06:54.777650 10114 net.cpp:425] conv4_3_norm <- conv4_3_relu4_3_0_split_1
I0517 12:06:54.777657 10114 net.cpp:399] conv4_3_norm -> conv4_3_norm
I0517 12:06:54.777854 10114 net.cpp:141] Setting up conv4_3_norm
I0517 12:06:54.777866 10114 net.cpp:148] Top shape: 8 512 38 38 (5914624)
I0517 12:06:54.777870 10114 net.cpp:156] Memory required for data: 1905819840
I0517 12:06:54.777878 10114 layer_factory.hpp:77] Creating layer conv4_3_norm_conv4_3_norm_0_split
I0517 12:06:54.777887 10114 net.cpp:91] Creating Layer conv4_3_norm_conv4_3_norm_0_split
I0517 12:06:54.777892 10114 net.cpp:425] conv4_3_norm_conv4_3_norm_0_split <- conv4_3_norm
I0517 12:06:54.777899 10114 net.cpp:399] conv4_3_norm_conv4_3_norm_0_split -> conv4_3_norm_conv4_3_norm_0_split_0
I0517 12:06:54.777907 10114 net.cpp:399] conv4_3_norm_conv4_3_norm_0_split -> conv4_3_norm_conv4_3_norm_0_split_1
I0517 12:06:54.777915 10114 net.cpp:399] conv4_3_norm_conv4_3_norm_0_split -> conv4_3_norm_conv4_3_norm_0_split_2
I0517 12:06:54.777973 10114 net.cpp:141] Setting up conv4_3_norm_conv4_3_norm_0_split
I0517 12:06:54.777983 10114 net.cpp:148] Top shape: 8 512 38 38 (5914624)
I0517 12:06:54.777989 10114 net.cpp:148] Top shape: 8 512 38 38 (5914624)
I0517 12:06:54.777994 10114 net.cpp:148] Top shape: 8 512 38 38 (5914624)
I0517 12:06:54.777998 10114 net.cpp:156] Memory required for data: 1976795328
I0517 12:06:54.778002 10114 layer_factory.hpp:77] Creating layer conv4_3_norm_mbox_loc
I0517 12:06:54.778017 10114 net.cpp:91] Creating Layer conv4_3_norm_mbox_loc
I0517 12:06:54.778022 10114 net.cpp:425] conv4_3_norm_mbox_loc <- conv4_3_norm_conv4_3_norm_0_split_0
I0517 12:06:54.778029 10114 net.cpp:399] conv4_3_norm_mbox_loc -> conv4_3_norm_mbox_loc
I0517 12:06:54.779685 10114 net.cpp:141] Setting up conv4_3_norm_mbox_loc
I0517 12:06:54.779714 10114 net.cpp:148] Top shape: 8 12 38 38 (138624)
I0517 12:06:54.779726 10114 net.cpp:156] Memory required for data: 1977349824
I0517 12:06:54.779736 10114 layer_factory.hpp:77] Creating layer conv4_3_norm_mbox_loc_perm
I0517 12:06:54.779749 10114 net.cpp:91] Creating Layer conv4_3_norm_mbox_loc_perm
I0517 12:06:54.779755 10114 net.cpp:425] conv4_3_norm_mbox_loc_perm <- conv4_3_norm_mbox_loc
I0517 12:06:54.779770 10114 net.cpp:399] conv4_3_norm_mbox_loc_perm -> conv4_3_norm_mbox_loc_perm
I0517 12:06:54.779908 10114 net.cpp:141] Setting up conv4_3_norm_mbox_loc_perm
I0517 12:06:54.779922 10114 net.cpp:148] Top shape: 8 38 38 12 (138624)
I0517 12:06:54.779927 10114 net.cpp:156] Memory required for data: 1977904320
I0517 12:06:54.779930 10114 layer_factory.hpp:77] Creating layer conv4_3_norm_mbox_loc_flat
I0517 12:06:54.779947 10114 net.cpp:91] Creating Layer conv4_3_norm_mbox_loc_flat
I0517 12:06:54.779952 10114 net.cpp:425] conv4_3_norm_mbox_loc_flat <- conv4_3_norm_mbox_loc_perm
I0517 12:06:54.779958 10114 net.cpp:399] conv4_3_norm_mbox_loc_flat -> conv4_3_norm_mbox_loc_flat
I0517 12:06:54.780006 10114 net.cpp:141] Setting up conv4_3_norm_mbox_loc_flat
I0517 12:06:54.780017 10114 net.cpp:148] Top shape: 8 17328 (138624)
I0517 12:06:54.780021 10114 net.cpp:156] Memory required for data: 1978458816
I0517 12:06:54.780026 10114 layer_factory.hpp:77] Creating layer conv4_3_norm_mbox_conf
I0517 12:06:54.780040 10114 net.cpp:91] Creating Layer conv4_3_norm_mbox_conf
I0517 12:06:54.780045 10114 net.cpp:425] conv4_3_norm_mbox_conf <- conv4_3_norm_conv4_3_norm_0_split_1
I0517 12:06:54.780055 10114 net.cpp:399] conv4_3_norm_mbox_conf -> conv4_3_norm_mbox_conf
I0517 12:06:54.781879 10114 net.cpp:141] Setting up conv4_3_norm_mbox_conf
I0517 12:06:54.781899 10114 net.cpp:148] Top shape: 8 15 38 38 (173280)
I0517 12:06:54.781918 10114 net.cpp:156] Memory required for data: 1979151936
I0517 12:06:54.781929 10114 layer_factory.hpp:77] Creating layer conv4_3_norm_mbox_conf_perm
I0517 12:06:54.781940 10114 net.cpp:91] Creating Layer conv4_3_norm_mbox_conf_perm
I0517 12:06:54.781946 10114 net.cpp:425] conv4_3_norm_mbox_conf_perm <- conv4_3_norm_mbox_conf
I0517 12:06:54.781956 10114 net.cpp:399] conv4_3_norm_mbox_conf_perm -> conv4_3_norm_mbox_conf_perm
I0517 12:06:54.782088 10114 net.cpp:141] Setting up conv4_3_norm_mbox_conf_perm
I0517 12:06:54.782110 10114 net.cpp:148] Top shape: 8 38 38 15 (173280)
I0517 12:06:54.782119 10114 net.cpp:156] Memory required for data: 1979845056
I0517 12:06:54.782124 10114 layer_factory.hpp:77] Creating layer conv4_3_norm_mbox_conf_flat
I0517 12:06:54.782132 10114 net.cpp:91] Creating Layer conv4_3_norm_mbox_conf_flat
I0517 12:06:54.782137 10114 net.cpp:425] conv4_3_norm_mbox_conf_flat <- conv4_3_norm_mbox_conf_perm
I0517 12:06:54.782145 10114 net.cpp:399] conv4_3_norm_mbox_conf_flat -> conv4_3_norm_mbox_conf_flat
I0517 12:06:54.782181 10114 net.cpp:141] Setting up conv4_3_norm_mbox_conf_flat
I0517 12:06:54.782191 10114 net.cpp:148] Top shape: 8 21660 (173280)
I0517 12:06:54.782196 10114 net.cpp:156] Memory required for data: 1980538176
I0517 12:06:54.782201 10114 layer_factory.hpp:77] Creating layer conv4_3_norm_mbox_priorbox
I0517 12:06:54.782225 10114 net.cpp:91] Creating Layer conv4_3_norm_mbox_priorbox
I0517 12:06:54.782232 10114 net.cpp:425] conv4_3_norm_mbox_priorbox <- conv4_3_norm_conv4_3_norm_0_split_2
I0517 12:06:54.782238 10114 net.cpp:425] conv4_3_norm_mbox_priorbox <- data_data_0_split_1
I0517 12:06:54.782248 10114 net.cpp:399] conv4_3_norm_mbox_priorbox -> conv4_3_norm_mbox_priorbox
I0517 12:06:54.782286 10114 net.cpp:141] Setting up conv4_3_norm_mbox_priorbox
I0517 12:06:54.782299 10114 net.cpp:148] Top shape: 1 2 17328 (34656)
I0517 12:06:54.782304 10114 net.cpp:156] Memory required for data: 1980676800
I0517 12:06:54.782310 10114 layer_factory.hpp:77] Creating layer fc7_mbox_loc
I0517 12:06:54.782322 10114 net.cpp:91] Creating Layer fc7_mbox_loc
I0517 12:06:54.782327 10114 net.cpp:425] fc7_mbox_loc <- fc7_relu7_0_split_1
I0517 12:06:54.782336 10114 net.cpp:399] fc7_mbox_loc -> fc7_mbox_loc
I0517 12:06:54.785887 10114 net.cpp:141] Setting up fc7_mbox_loc
I0517 12:06:54.785908 10114 net.cpp:148] Top shape: 8 24 19 19 (69312)
I0517 12:06:54.785913 10114 net.cpp:156] Memory required for data: 1980954048
I0517 12:06:54.785923 10114 layer_factory.hpp:77] Creating layer fc7_mbox_loc_perm
I0517 12:06:54.785934 10114 net.cpp:91] Creating Layer fc7_mbox_loc_perm
I0517 12:06:54.785940 10114 net.cpp:425] fc7_mbox_loc_perm <- fc7_mbox_loc
I0517 12:06:54.785948 10114 net.cpp:399] fc7_mbox_loc_perm -> fc7_mbox_loc_perm
I0517 12:06:54.786082 10114 net.cpp:141] Setting up fc7_mbox_loc_perm
I0517 12:06:54.786094 10114 net.cpp:148] Top shape: 8 19 19 24 (69312)
I0517 12:06:54.786099 10114 net.cpp:156] Memory required for data: 1981231296
I0517 12:06:54.786103 10114 layer_factory.hpp:77] Creating layer fc7_mbox_loc_flat
I0517 12:06:54.786111 10114 net.cpp:91] Creating Layer fc7_mbox_loc_flat
I0517 12:06:54.786116 10114 net.cpp:425] fc7_mbox_loc_flat <- fc7_mbox_loc_perm
I0517 12:06:54.786125 10114 net.cpp:399] fc7_mbox_loc_flat -> fc7_mbox_loc_flat
I0517 12:06:54.786157 10114 net.cpp:141] Setting up fc7_mbox_loc_flat
I0517 12:06:54.786171 10114 net.cpp:148] Top shape: 8 8664 (69312)
I0517 12:06:54.786176 10114 net.cpp:156] Memory required for data: 1981508544
I0517 12:06:54.786180 10114 layer_factory.hpp:77] Creating layer fc7_mbox_conf
I0517 12:06:54.786195 10114 net.cpp:91] Creating Layer fc7_mbox_conf
I0517 12:06:54.786200 10114 net.cpp:425] fc7_mbox_conf <- fc7_relu7_0_split_2
I0517 12:06:54.786207 10114 net.cpp:399] fc7_mbox_conf -> fc7_mbox_conf
I0517 12:06:54.790236 10114 net.cpp:141] Setting up fc7_mbox_conf
I0517 12:06:54.790256 10114 net.cpp:148] Top shape: 8 30 19 19 (86640)
I0517 12:06:54.790261 10114 net.cpp:156] Memory required for data: 1981855104
I0517 12:06:54.790269 10114 layer_factory.hpp:77] Creating layer fc7_mbox_conf_perm
I0517 12:06:54.790294 10114 net.cpp:91] Creating Layer fc7_mbox_conf_perm
I0517 12:06:54.790302 10114 net.cpp:425] fc7_mbox_conf_perm <- fc7_mbox_conf
I0517 12:06:54.790309 10114 net.cpp:399] fc7_mbox_conf_perm -> fc7_mbox_conf_perm
I0517 12:06:54.790444 10114 net.cpp:141] Setting up fc7_mbox_conf_perm
I0517 12:06:54.790457 10114 net.cpp:148] Top shape: 8 19 19 30 (86640)
I0517 12:06:54.790462 10114 net.cpp:156] Memory required for data: 1982201664
I0517 12:06:54.790465 10114 layer_factory.hpp:77] Creating layer fc7_mbox_conf_flat
I0517 12:06:54.790473 10114 net.cpp:91] Creating Layer fc7_mbox_conf_flat
I0517 12:06:54.790477 10114 net.cpp:425] fc7_mbox_conf_flat <- fc7_mbox_conf_perm
I0517 12:06:54.790487 10114 net.cpp:399] fc7_mbox_conf_flat -> fc7_mbox_conf_flat
I0517 12:06:54.790521 10114 net.cpp:141] Setting up fc7_mbox_conf_flat
I0517 12:06:54.790530 10114 net.cpp:148] Top shape: 8 10830 (86640)
I0517 12:06:54.790535 10114 net.cpp:156] Memory required for data: 1982548224
I0517 12:06:54.790539 10114 layer_factory.hpp:77] Creating layer fc7_mbox_priorbox
I0517 12:06:54.790547 10114 net.cpp:91] Creating Layer fc7_mbox_priorbox
I0517 12:06:54.790551 10114 net.cpp:425] fc7_mbox_priorbox <- fc7_relu7_0_split_3
I0517 12:06:54.790557 10114 net.cpp:425] fc7_mbox_priorbox <- data_data_0_split_2
I0517 12:06:54.790568 10114 net.cpp:399] fc7_mbox_priorbox -> fc7_mbox_priorbox
I0517 12:06:54.790602 10114 net.cpp:141] Setting up fc7_mbox_priorbox
I0517 12:06:54.790616 10114 net.cpp:148] Top shape: 1 2 8664 (17328)
I0517 12:06:54.790619 10114 net.cpp:156] Memory required for data: 1982617536
I0517 12:06:54.790623 10114 layer_factory.hpp:77] Creating layer conv6_2_mbox_loc
I0517 12:06:54.790637 10114 net.cpp:91] Creating Layer conv6_2_mbox_loc
I0517 12:06:54.790643 10114 net.cpp:425] conv6_2_mbox_loc <- conv6_2_conv6_2_relu_0_split_1
I0517 12:06:54.790652 10114 net.cpp:399] conv6_2_mbox_loc -> conv6_2_mbox_loc
I0517 12:06:54.793364 10114 net.cpp:141] Setting up conv6_2_mbox_loc
I0517 12:06:54.793383 10114 net.cpp:148] Top shape: 8 24 10 10 (19200)
I0517 12:06:54.793390 10114 net.cpp:156] Memory required for data: 1982694336
I0517 12:06:54.793397 10114 layer_factory.hpp:77] Creating layer conv6_2_mbox_loc_perm
I0517 12:06:54.793409 10114 net.cpp:91] Creating Layer conv6_2_mbox_loc_perm
I0517 12:06:54.793416 10114 net.cpp:425] conv6_2_mbox_loc_perm <- conv6_2_mbox_loc
I0517 12:06:54.793423 10114 net.cpp:399] conv6_2_mbox_loc_perm -> conv6_2_mbox_loc_perm
I0517 12:06:54.793556 10114 net.cpp:141] Setting up conv6_2_mbox_loc_perm
I0517 12:06:54.793568 10114 net.cpp:148] Top shape: 8 10 10 24 (19200)
I0517 12:06:54.793573 10114 net.cpp:156] Memory required for data: 1982771136
I0517 12:06:54.793577 10114 layer_factory.hpp:77] Creating layer conv6_2_mbox_loc_flat
I0517 12:06:54.793584 10114 net.cpp:91] Creating Layer conv6_2_mbox_loc_flat
I0517 12:06:54.793589 10114 net.cpp:425] conv6_2_mbox_loc_flat <- conv6_2_mbox_loc_perm
I0517 12:06:54.793598 10114 net.cpp:399] conv6_2_mbox_loc_flat -> conv6_2_mbox_loc_flat
I0517 12:06:54.793630 10114 net.cpp:141] Setting up conv6_2_mbox_loc_flat
I0517 12:06:54.793642 10114 net.cpp:148] Top shape: 8 2400 (19200)
I0517 12:06:54.793648 10114 net.cpp:156] Memory required for data: 1982847936
I0517 12:06:54.793651 10114 layer_factory.hpp:77] Creating layer conv6_2_mbox_conf
I0517 12:06:54.793665 10114 net.cpp:91] Creating Layer conv6_2_mbox_conf
I0517 12:06:54.793671 10114 net.cpp:425] conv6_2_mbox_conf <- conv6_2_conv6_2_relu_0_split_2
I0517 12:06:54.793679 10114 net.cpp:399] conv6_2_mbox_conf -> conv6_2_mbox_conf
I0517 12:06:54.796002 10114 net.cpp:141] Setting up conv6_2_mbox_conf
I0517 12:06:54.796021 10114 net.cpp:148] Top shape: 8 30 10 10 (24000)
I0517 12:06:54.796026 10114 net.cpp:156] Memory required for data: 1982943936
I0517 12:06:54.796036 10114 layer_factory.hpp:77] Creating layer conv6_2_mbox_conf_perm
I0517 12:06:54.796048 10114 net.cpp:91] Creating Layer conv6_2_mbox_conf_perm
I0517 12:06:54.796054 10114 net.cpp:425] conv6_2_mbox_conf_perm <- conv6_2_mbox_conf
I0517 12:06:54.796075 10114 net.cpp:399] conv6_2_mbox_conf_perm -> conv6_2_mbox_conf_perm
I0517 12:06:54.796211 10114 net.cpp:141] Setting up conv6_2_mbox_conf_perm
I0517 12:06:54.796223 10114 net.cpp:148] Top shape: 8 10 10 30 (24000)
I0517 12:06:54.796227 10114 net.cpp:156] Memory required for data: 1983039936
I0517 12:06:54.796232 10114 layer_factory.hpp:77] Creating layer conv6_2_mbox_conf_flat
I0517 12:06:54.796241 10114 net.cpp:91] Creating Layer conv6_2_mbox_conf_flat
I0517 12:06:54.796247 10114 net.cpp:425] conv6_2_mbox_conf_flat <- conv6_2_mbox_conf_perm
I0517 12:06:54.796253 10114 net.cpp:399] conv6_2_mbox_conf_flat -> conv6_2_mbox_conf_flat
I0517 12:06:54.796288 10114 net.cpp:141] Setting up conv6_2_mbox_conf_flat
I0517 12:06:54.796298 10114 net.cpp:148] Top shape: 8 3000 (24000)
I0517 12:06:54.796303 10114 net.cpp:156] Memory required for data: 1983135936
I0517 12:06:54.796308 10114 layer_factory.hpp:77] Creating layer conv6_2_mbox_priorbox
I0517 12:06:54.796315 10114 net.cpp:91] Creating Layer conv6_2_mbox_priorbox
I0517 12:06:54.796319 10114 net.cpp:425] conv6_2_mbox_priorbox <- conv6_2_conv6_2_relu_0_split_3
I0517 12:06:54.796326 10114 net.cpp:425] conv6_2_mbox_priorbox <- data_data_0_split_3
I0517 12:06:54.796336 10114 net.cpp:399] conv6_2_mbox_priorbox -> conv6_2_mbox_priorbox
I0517 12:06:54.796370 10114 net.cpp:141] Setting up conv6_2_mbox_priorbox
I0517 12:06:54.796380 10114 net.cpp:148] Top shape: 1 2 2400 (4800)
I0517 12:06:54.796386 10114 net.cpp:156] Memory required for data: 1983155136
I0517 12:06:54.796389 10114 layer_factory.hpp:77] Creating layer conv7_2_mbox_loc
I0517 12:06:54.796404 10114 net.cpp:91] Creating Layer conv7_2_mbox_loc
I0517 12:06:54.796409 10114 net.cpp:425] conv7_2_mbox_loc <- conv7_2_conv7_2_relu_0_split_1
I0517 12:06:54.796418 10114 net.cpp:399] conv7_2_mbox_loc -> conv7_2_mbox_loc
I0517 12:06:54.798688 10114 net.cpp:141] Setting up conv7_2_mbox_loc
I0517 12:06:54.798707 10114 net.cpp:148] Top shape: 8 24 5 5 (4800)
I0517 12:06:54.798712 10114 net.cpp:156] Memory required for data: 1983174336
I0517 12:06:54.798722 10114 layer_factory.hpp:77] Creating layer conv7_2_mbox_loc_perm
I0517 12:06:54.798734 10114 net.cpp:91] Creating Layer conv7_2_mbox_loc_perm
I0517 12:06:54.798740 10114 net.cpp:425] conv7_2_mbox_loc_perm <- conv7_2_mbox_loc
I0517 12:06:54.798749 10114 net.cpp:399] conv7_2_mbox_loc_perm -> conv7_2_mbox_loc_perm
I0517 12:06:54.798883 10114 net.cpp:141] Setting up conv7_2_mbox_loc_perm
I0517 12:06:54.798895 10114 net.cpp:148] Top shape: 8 5 5 24 (4800)
I0517 12:06:54.798902 10114 net.cpp:156] Memory required for data: 1983193536
I0517 12:06:54.798907 10114 layer_factory.hpp:77] Creating layer conv7_2_mbox_loc_flat
I0517 12:06:54.798913 10114 net.cpp:91] Creating Layer conv7_2_mbox_loc_flat
I0517 12:06:54.798918 10114 net.cpp:425] conv7_2_mbox_loc_flat <- conv7_2_mbox_loc_perm
I0517 12:06:54.798925 10114 net.cpp:399] conv7_2_mbox_loc_flat -> conv7_2_mbox_loc_flat
I0517 12:06:54.798960 10114 net.cpp:141] Setting up conv7_2_mbox_loc_flat
I0517 12:06:54.798970 10114 net.cpp:148] Top shape: 8 600 (4800)
I0517 12:06:54.798974 10114 net.cpp:156] Memory required for data: 1983212736
I0517 12:06:54.798979 10114 layer_factory.hpp:77] Creating layer conv7_2_mbox_conf
I0517 12:06:54.798991 10114 net.cpp:91] Creating Layer conv7_2_mbox_conf
I0517 12:06:54.798997 10114 net.cpp:425] conv7_2_mbox_conf <- conv7_2_conv7_2_relu_0_split_2
I0517 12:06:54.799007 10114 net.cpp:399] conv7_2_mbox_conf -> conv7_2_mbox_conf
I0517 12:06:54.801288 10114 net.cpp:141] Setting up conv7_2_mbox_conf
I0517 12:06:54.801308 10114 net.cpp:148] Top shape: 8 30 5 5 (6000)
I0517 12:06:54.801313 10114 net.cpp:156] Memory required for data: 1983236736
I0517 12:06:54.801322 10114 layer_factory.hpp:77] Creating layer conv7_2_mbox_conf_perm
I0517 12:06:54.801331 10114 net.cpp:91] Creating Layer conv7_2_mbox_conf_perm
I0517 12:06:54.801337 10114 net.cpp:425] conv7_2_mbox_conf_perm <- conv7_2_mbox_conf
I0517 12:06:54.801347 10114 net.cpp:399] conv7_2_mbox_conf_perm -> conv7_2_mbox_conf_perm
I0517 12:06:54.801501 10114 net.cpp:141] Setting up conv7_2_mbox_conf_perm
I0517 12:06:54.801513 10114 net.cpp:148] Top shape: 8 5 5 30 (6000)
I0517 12:06:54.801518 10114 net.cpp:156] Memory required for data: 1983260736
I0517 12:06:54.801522 10114 layer_factory.hpp:77] Creating layer conv7_2_mbox_conf_flat
I0517 12:06:54.801535 10114 net.cpp:91] Creating Layer conv7_2_mbox_conf_flat
I0517 12:06:54.801540 10114 net.cpp:425] conv7_2_mbox_conf_flat <- conv7_2_mbox_conf_perm
I0517 12:06:54.801548 10114 net.cpp:399] conv7_2_mbox_conf_flat -> conv7_2_mbox_conf_flat
I0517 12:06:54.801583 10114 net.cpp:141] Setting up conv7_2_mbox_conf_flat
I0517 12:06:54.801592 10114 net.cpp:148] Top shape: 8 750 (6000)
I0517 12:06:54.801596 10114 net.cpp:156] Memory required for data: 1983284736
I0517 12:06:54.801600 10114 layer_factory.hpp:77] Creating layer conv7_2_mbox_priorbox
I0517 12:06:54.801612 10114 net.cpp:91] Creating Layer conv7_2_mbox_priorbox
I0517 12:06:54.801617 10114 net.cpp:425] conv7_2_mbox_priorbox <- conv7_2_conv7_2_relu_0_split_3
I0517 12:06:54.801623 10114 net.cpp:425] conv7_2_mbox_priorbox <- data_data_0_split_4
I0517 12:06:54.801630 10114 net.cpp:399] conv7_2_mbox_priorbox -> conv7_2_mbox_priorbox
I0517 12:06:54.801667 10114 net.cpp:141] Setting up conv7_2_mbox_priorbox
I0517 12:06:54.801677 10114 net.cpp:148] Top shape: 1 2 600 (1200)
I0517 12:06:54.801681 10114 net.cpp:156] Memory required for data: 1983289536
I0517 12:06:54.801686 10114 layer_factory.hpp:77] Creating layer conv8_2_mbox_loc
I0517 12:06:54.801702 10114 net.cpp:91] Creating Layer conv8_2_mbox_loc
I0517 12:06:54.801708 10114 net.cpp:425] conv8_2_mbox_loc <- conv8_2_conv8_2_relu_0_split_1
I0517 12:06:54.801718 10114 net.cpp:399] conv8_2_mbox_loc -> conv8_2_mbox_loc
I0517 12:06:54.803506 10114 net.cpp:141] Setting up conv8_2_mbox_loc
I0517 12:06:54.803527 10114 net.cpp:148] Top shape: 8 24 3 3 (1728)
I0517 12:06:54.803534 10114 net.cpp:156] Memory required for data: 1983296448
I0517 12:06:54.803542 10114 layer_factory.hpp:77] Creating layer conv8_2_mbox_loc_perm
I0517 12:06:54.803552 10114 net.cpp:91] Creating Layer conv8_2_mbox_loc_perm
I0517 12:06:54.803557 10114 net.cpp:425] conv8_2_mbox_loc_perm <- conv8_2_mbox_loc
I0517 12:06:54.803565 10114 net.cpp:399] conv8_2_mbox_loc_perm -> conv8_2_mbox_loc_perm
I0517 12:06:54.803714 10114 net.cpp:141] Setting up conv8_2_mbox_loc_perm
I0517 12:06:54.803726 10114 net.cpp:148] Top shape: 8 3 3 24 (1728)
I0517 12:06:54.803731 10114 net.cpp:156] Memory required for data: 1983303360
I0517 12:06:54.803735 10114 layer_factory.hpp:77] Creating layer conv8_2_mbox_loc_flat
I0517 12:06:54.803746 10114 net.cpp:91] Creating Layer conv8_2_mbox_loc_flat
I0517 12:06:54.803751 10114 net.cpp:425] conv8_2_mbox_loc_flat <- conv8_2_mbox_loc_perm
I0517 12:06:54.803758 10114 net.cpp:399] conv8_2_mbox_loc_flat -> conv8_2_mbox_loc_flat
I0517 12:06:54.803796 10114 net.cpp:141] Setting up conv8_2_mbox_loc_flat
I0517 12:06:54.803805 10114 net.cpp:148] Top shape: 8 216 (1728)
I0517 12:06:54.803809 10114 net.cpp:156] Memory required for data: 1983310272
I0517 12:06:54.803814 10114 layer_factory.hpp:77] Creating layer conv8_2_mbox_conf
I0517 12:06:54.803828 10114 net.cpp:91] Creating Layer conv8_2_mbox_conf
I0517 12:06:54.803833 10114 net.cpp:425] conv8_2_mbox_conf <- conv8_2_conv8_2_relu_0_split_2
I0517 12:06:54.803843 10114 net.cpp:399] conv8_2_mbox_conf -> conv8_2_mbox_conf
I0517 12:06:54.805762 10114 net.cpp:141] Setting up conv8_2_mbox_conf
I0517 12:06:54.805780 10114 net.cpp:148] Top shape: 8 30 3 3 (2160)
I0517 12:06:54.805785 10114 net.cpp:156] Memory required for data: 1983318912
I0517 12:06:54.805796 10114 layer_factory.hpp:77] Creating layer conv8_2_mbox_conf_perm
I0517 12:06:54.805806 10114 net.cpp:91] Creating Layer conv8_2_mbox_conf_perm
I0517 12:06:54.805811 10114 net.cpp:425] conv8_2_mbox_conf_perm <- conv8_2_mbox_conf
I0517 12:06:54.805819 10114 net.cpp:399] conv8_2_mbox_conf_perm -> conv8_2_mbox_conf_perm
I0517 12:06:54.805961 10114 net.cpp:141] Setting up conv8_2_mbox_conf_perm
I0517 12:06:54.805974 10114 net.cpp:148] Top shape: 8 3 3 30 (2160)
I0517 12:06:54.805990 10114 net.cpp:156] Memory required for data: 1983327552
I0517 12:06:54.805996 10114 layer_factory.hpp:77] Creating layer conv8_2_mbox_conf_flat
I0517 12:06:54.806005 10114 net.cpp:91] Creating Layer conv8_2_mbox_conf_flat
I0517 12:06:54.806018 10114 net.cpp:425] conv8_2_mbox_conf_flat <- conv8_2_mbox_conf_perm
I0517 12:06:54.806031 10114 net.cpp:399] conv8_2_mbox_conf_flat -> conv8_2_mbox_conf_flat
I0517 12:06:54.806071 10114 net.cpp:141] Setting up conv8_2_mbox_conf_flat
I0517 12:06:54.806082 10114 net.cpp:148] Top shape: 8 270 (2160)
I0517 12:06:54.806087 10114 net.cpp:156] Memory required for data: 1983336192
I0517 12:06:54.806092 10114 layer_factory.hpp:77] Creating layer conv8_2_mbox_priorbox
I0517 12:06:54.806099 10114 net.cpp:91] Creating Layer conv8_2_mbox_priorbox
I0517 12:06:54.806104 10114 net.cpp:425] conv8_2_mbox_priorbox <- conv8_2_conv8_2_relu_0_split_3
I0517 12:06:54.806110 10114 net.cpp:425] conv8_2_mbox_priorbox <- data_data_0_split_5
I0517 12:06:54.806120 10114 net.cpp:399] conv8_2_mbox_priorbox -> conv8_2_mbox_priorbox
I0517 12:06:54.806156 10114 net.cpp:141] Setting up conv8_2_mbox_priorbox
I0517 12:06:54.806169 10114 net.cpp:148] Top shape: 1 2 216 (432)
I0517 12:06:54.806174 10114 net.cpp:156] Memory required for data: 1983337920
I0517 12:06:54.806177 10114 layer_factory.hpp:77] Creating layer pool6_mbox_loc
I0517 12:06:54.806191 10114 net.cpp:91] Creating Layer pool6_mbox_loc
I0517 12:06:54.806196 10114 net.cpp:425] pool6_mbox_loc <- pool6_pool6_0_split_0
I0517 12:06:54.806205 10114 net.cpp:399] pool6_mbox_loc -> pool6_mbox_loc
I0517 12:06:54.807955 10114 net.cpp:141] Setting up pool6_mbox_loc
I0517 12:06:54.807974 10114 net.cpp:148] Top shape: 8 24 1 1 (192)
I0517 12:06:54.807979 10114 net.cpp:156] Memory required for data: 1983338688
I0517 12:06:54.808003 10114 layer_factory.hpp:77] Creating layer pool6_mbox_loc_perm
I0517 12:06:54.808017 10114 net.cpp:91] Creating Layer pool6_mbox_loc_perm
I0517 12:06:54.808023 10114 net.cpp:425] pool6_mbox_loc_perm <- pool6_mbox_loc
I0517 12:06:54.808032 10114 net.cpp:399] pool6_mbox_loc_perm -> pool6_mbox_loc_perm
I0517 12:06:54.808173 10114 net.cpp:141] Setting up pool6_mbox_loc_perm
I0517 12:06:54.808185 10114 net.cpp:148] Top shape: 8 1 1 24 (192)
I0517 12:06:54.808190 10114 net.cpp:156] Memory required for data: 1983339456
I0517 12:06:54.808194 10114 layer_factory.hpp:77] Creating layer pool6_mbox_loc_flat
I0517 12:06:54.808202 10114 net.cpp:91] Creating Layer pool6_mbox_loc_flat
I0517 12:06:54.808207 10114 net.cpp:425] pool6_mbox_loc_flat <- pool6_mbox_loc_perm
I0517 12:06:54.808217 10114 net.cpp:399] pool6_mbox_loc_flat -> pool6_mbox_loc_flat
I0517 12:06:54.808250 10114 net.cpp:141] Setting up pool6_mbox_loc_flat
I0517 12:06:54.808260 10114 net.cpp:148] Top shape: 8 24 (192)
I0517 12:06:54.808264 10114 net.cpp:156] Memory required for data: 1983340224
I0517 12:06:54.808269 10114 layer_factory.hpp:77] Creating layer pool6_mbox_conf
I0517 12:06:54.808284 10114 net.cpp:91] Creating Layer pool6_mbox_conf
I0517 12:06:54.808290 10114 net.cpp:425] pool6_mbox_conf <- pool6_pool6_0_split_1
I0517 12:06:54.808298 10114 net.cpp:399] pool6_mbox_conf -> pool6_mbox_conf
I0517 12:06:54.810135 10114 net.cpp:141] Setting up pool6_mbox_conf
I0517 12:06:54.810155 10114 net.cpp:148] Top shape: 8 30 1 1 (240)
I0517 12:06:54.810160 10114 net.cpp:156] Memory required for data: 1983341184
I0517 12:06:54.810168 10114 layer_factory.hpp:77] Creating layer pool6_mbox_conf_perm
I0517 12:06:54.810179 10114 net.cpp:91] Creating Layer pool6_mbox_conf_perm
I0517 12:06:54.810185 10114 net.cpp:425] pool6_mbox_conf_perm <- pool6_mbox_conf
I0517 12:06:54.810194 10114 net.cpp:399] pool6_mbox_conf_perm -> pool6_mbox_conf_perm
I0517 12:06:54.810334 10114 net.cpp:141] Setting up pool6_mbox_conf_perm
I0517 12:06:54.810346 10114 net.cpp:148] Top shape: 8 1 1 30 (240)
I0517 12:06:54.810350 10114 net.cpp:156] Memory required for data: 1983342144
I0517 12:06:54.810355 10114 layer_factory.hpp:77] Creating layer pool6_mbox_conf_flat
I0517 12:06:54.810375 10114 net.cpp:91] Creating Layer pool6_mbox_conf_flat
I0517 12:06:54.810381 10114 net.cpp:425] pool6_mbox_conf_flat <- pool6_mbox_conf_perm
I0517 12:06:54.810390 10114 net.cpp:399] pool6_mbox_conf_flat -> pool6_mbox_conf_flat
I0517 12:06:54.810430 10114 net.cpp:141] Setting up pool6_mbox_conf_flat
I0517 12:06:54.810439 10114 net.cpp:148] Top shape: 8 30 (240)
I0517 12:06:54.810444 10114 net.cpp:156] Memory required for data: 1983343104
I0517 12:06:54.810448 10114 layer_factory.hpp:77] Creating layer pool6_mbox_priorbox
I0517 12:06:54.810456 10114 net.cpp:91] Creating Layer pool6_mbox_priorbox
I0517 12:06:54.810461 10114 net.cpp:425] pool6_mbox_priorbox <- pool6_pool6_0_split_2
I0517 12:06:54.810467 10114 net.cpp:425] pool6_mbox_priorbox <- data_data_0_split_6
I0517 12:06:54.810477 10114 net.cpp:399] pool6_mbox_priorbox -> pool6_mbox_priorbox
I0517 12:06:54.810515 10114 net.cpp:141] Setting up pool6_mbox_priorbox
I0517 12:06:54.810525 10114 net.cpp:148] Top shape: 1 2 24 (48)
I0517 12:06:54.810529 10114 net.cpp:156] Memory required for data: 1983343296
I0517 12:06:54.810534 10114 layer_factory.hpp:77] Creating layer mbox_loc
I0517 12:06:54.810549 10114 net.cpp:91] Creating Layer mbox_loc
I0517 12:06:54.810555 10114 net.cpp:425] mbox_loc <- conv4_3_norm_mbox_loc_flat
I0517 12:06:54.810561 10114 net.cpp:425] mbox_loc <- fc7_mbox_loc_flat
I0517 12:06:54.810567 10114 net.cpp:425] mbox_loc <- conv6_2_mbox_loc_flat
I0517 12:06:54.810573 10114 net.cpp:425] mbox_loc <- conv7_2_mbox_loc_flat
I0517 12:06:54.810578 10114 net.cpp:425] mbox_loc <- conv8_2_mbox_loc_flat
I0517 12:06:54.810583 10114 net.cpp:425] mbox_loc <- pool6_mbox_loc_flat
I0517 12:06:54.810590 10114 net.cpp:399] mbox_loc -> mbox_loc
I0517 12:06:54.810633 10114 net.cpp:141] Setting up mbox_loc
I0517 12:06:54.810643 10114 net.cpp:148] Top shape: 8 29232 (233856)
I0517 12:06:54.810648 10114 net.cpp:156] Memory required for data: 1984278720
I0517 12:06:54.810652 10114 layer_factory.hpp:77] Creating layer mbox_conf
I0517 12:06:54.810663 10114 net.cpp:91] Creating Layer mbox_conf
I0517 12:06:54.810668 10114 net.cpp:425] mbox_conf <- conv4_3_norm_mbox_conf_flat
I0517 12:06:54.810674 10114 net.cpp:425] mbox_conf <- fc7_mbox_conf_flat
I0517 12:06:54.810680 10114 net.cpp:425] mbox_conf <- conv6_2_mbox_conf_flat
I0517 12:06:54.810685 10114 net.cpp:425] mbox_conf <- conv7_2_mbox_conf_flat
I0517 12:06:54.810690 10114 net.cpp:425] mbox_conf <- conv8_2_mbox_conf_flat
I0517 12:06:54.810695 10114 net.cpp:425] mbox_conf <- pool6_mbox_conf_flat
I0517 12:06:54.810703 10114 net.cpp:399] mbox_conf -> mbox_conf
I0517 12:06:54.810739 10114 net.cpp:141] Setting up mbox_conf
I0517 12:06:54.810748 10114 net.cpp:148] Top shape: 8 36540 (292320)
I0517 12:06:54.810753 10114 net.cpp:156] Memory required for data: 1985448000
I0517 12:06:54.810757 10114 layer_factory.hpp:77] Creating layer mbox_priorbox
I0517 12:06:54.810765 10114 net.cpp:91] Creating Layer mbox_priorbox
I0517 12:06:54.810770 10114 net.cpp:425] mbox_priorbox <- conv4_3_norm_mbox_priorbox
I0517 12:06:54.810775 10114 net.cpp:425] mbox_priorbox <- fc7_mbox_priorbox
I0517 12:06:54.810781 10114 net.cpp:425] mbox_priorbox <- conv6_2_mbox_priorbox
I0517 12:06:54.810786 10114 net.cpp:425] mbox_priorbox <- conv7_2_mbox_priorbox
I0517 12:06:54.810791 10114 net.cpp:425] mbox_priorbox <- conv8_2_mbox_priorbox
I0517 12:06:54.810796 10114 net.cpp:425] mbox_priorbox <- pool6_mbox_priorbox
I0517 12:06:54.810802 10114 net.cpp:399] mbox_priorbox -> mbox_priorbox
I0517 12:06:54.810835 10114 net.cpp:141] Setting up mbox_priorbox
I0517 12:06:54.810843 10114 net.cpp:148] Top shape: 1 2 29232 (58464)
I0517 12:06:54.810847 10114 net.cpp:156] Memory required for data: 1985681856
I0517 12:06:54.810852 10114 layer_factory.hpp:77] Creating layer mbox_loss
I0517 12:06:54.810868 10114 net.cpp:91] Creating Layer mbox_loss
I0517 12:06:54.810873 10114 net.cpp:425] mbox_loss <- mbox_loc
I0517 12:06:54.810879 10114 net.cpp:425] mbox_loss <- mbox_conf
I0517 12:06:54.810884 10114 net.cpp:425] mbox_loss <- mbox_priorbox
…
  name: "data"
  type: "AnnotatedData"
  top: "data"
  top: "label"
  include {
    phase: TEST
  }
  transform_param {
    mean_value: 104
    mean_value: 117
    mean_value: 123
    resize_param {
      prob: 1
      resize_mode: WARP
      height: 300
      width: 300
      interp_mode: LINEAR
    }
  }
  data_param {
    source: "examples/deepv_car_person/deepv_car_person_test_lmdb"
    batch_size: 1
    backend: LMDB
  }
  annotated_data_param {
    batch_sampler {
    }
    label_map_file: "data/deepv_car_person/labelmap_voc.prototxt"
  }
}
layer {
  name: "conv1_1"
  type: "Convolution"
  bottom: "data"
  top: "conv1_1"
  param {
    lr_mult: 0
    decay_mult: 0
  }
  param {
    lr_mult: 0
    decay_mult: 0
  }
  convolution_param {
    num_output: 64
    pad: 1
    kernel_size: 3
    weight_filler {
      type: "xavier"
    }
    bias_filler {
      type: "constant"
      value: 0
    }
  }
}
layer {
  name: "relu1_1"
  type: "ReLU"
  bottom: "conv1_1"
  top: "conv1_1"
}
layer {
  name: "conv1_2"
  type: "Convolution"
  bottom: "conv1_1"
  top: "conv1_2"
  param {
    lr_mult: 0
    decay_mult: 0
  }
  param {
    lr_mult: 0
    decay_mult: 0
  }
  convolution_param {
    num_output: 64
    pad: 1
    kernel_size: 3
    weight_filler {
      type: "xavier"
    }
    bias_filler {
      type: "constant"
      value: 0
    }
  }
}
layer {
  name: "relu1_2"
  type: "ReLU"
  bottom: "conv1_2"
  top: "conv1_2"
}
layer {
  name: "pool1"
  type: "Pooling"
  bottom: "conv1_2"
  top: "pool1"
  pooling_param {
    pool: MAX
    kernel_size: 2
    stride: 2
  }
}
layer {
  name: "conv2_1"
  type: "Convolution"
  bottom: "pool1"
  top: "conv2_1"
  param {
    lr_mult: 0
    decay_mult: 0
  }
  param {
    lr_mult: 0
    decay_mult: 0
  }
  convolution_param {
    num_output: 128
    pad: 1
    kernel_size: 3
    weight_filler {
      type: "xavier"
    }
    bias_filler {
      type: "constant"
      value: 0
    }
  }
}
layer {
  name: "relu2_1"
  type: "ReLU"
  bottom: "conv2_1"
  top: "conv2_1"
}
layer {
  name: "conv2_2"
  type: "Convolution"
  bottom: "conv2_1"
  top: "conv2_2"
  param {
    lr_mult: 0
    decay_mult: 0
  }
  param {
    lr_mult: 0
    decay_mult: 0
  }
  convolution_param {
    num_output: 128
    pad: 1
    kernel_size: 3
    weight_filler {
      type: "xavier"
    }
    bias_filler {
      type: "constant"
      value: 0
    }
  }
}
layer {
  name: "relu2_2"
  type: "ReLU"
  bottom: "conv2_2"
  top: "conv2_2"
}
layer {
  name: "pool2"
  type: "Pooling"
  bottom: "conv2_2"
  top: "pool2"
  pooling_param {
    pool: MAX
    kernel_size: 2
    stride: 2
  }
}
layer {
  name: "conv3_1"
  type: "Convolution"
  bottom: "pool2"
  top: "conv3_1"
  param {
    lr_mult: 1
    decay_mult: 1
  }
  param {
    lr_mult: 2
    decay_mult: 0
  }
  convolution_param {
    num_output: 256
    pad: 1
    kernel_size: 3
    weight_filler {
      type: "xavier"
    }
    bias_filler {
      type: "constant"
      value: 0
    }
  }
}
layer {
  name: "relu3_1"
  type: "ReLU"
  bottom: "conv3_1"
  top: "conv3_1"
}
layer {
  name: "conv3_2"
  type: "Convolution"
  bottom: "conv3_1"
  top: "conv3_2"
  param {
    lr_mult: 1
    decay_mult: 1
  }
  param {
    lr_mult: 2
    decay_mult: 0
  }
  convolution_param {
    num_output: 256
    pad: 1
    kernel_size: 3
    weight_filler {
      type: "xavier"
    }
    bias_filler {
      type: "constant"
      value: 0
    }
  }
}
layer {
  name: "relu3_2"
  type: "ReLU"
  bottom: "conv3_2"
  top: "conv3_2"
}
layer {
  name: "conv3_3"
  type: "Convolution"
  bottom: "conv3_2"
  top: "conv3_3"
  param {
    lr_mult: 1
    decay_mult: 1
  }
  param {
    lr_mult: 2
    decay_mult: 0
  }
  convolution_param {
    num_output: 256
    pad: 1
    kernel_size: 3
    weight_filler {
      type: "xavier"
    }
    bias_filler {
      type: "constant"
      value: 0
    }
  }
}
layer {
  name: "relu3_3"
  type: "ReLU"
  bottom: "conv3_3"
  top: "conv3_3"
}
layer {
  name: "pool3"
  type: "Pooling"
  bottom: "conv3_3"
  top: "pool3"
  pooling_param {
    pool: MAX
    kernel_size: 2
    stride: 2
  }
}
layer {
  name: "conv4_1"
  type: "Convolution"
  bottom: "pool3"
  top: "conv4_1"
  param {
    lr_mult: 1
    decay_mult: 1
  }
  param {
    lr_mult: 2
    decay_mult: 0
  }
  convolution_param {
    num_output: 512
    pad: 1
    kernel_size: 3
    weight_filler {
      type: "xavier"
    }
    bias_filler {
      type: "constant"
      value: 0
    }
  }
}
layer {
  name: "relu4_1"
  type: "ReLU"
  bottom: "conv4_1"
  top: "conv4_1"
}
layer {
  name: "conv4_2"
  type: "Convolution"
  bottom: "conv4_1"
  top: "conv4_2"
  param {
    lr_mult: 1
    decay_mult: 1
  }
  param {
    lr_mult: 2
    decay_mult: 0
  }
  convolution_param {
    num_output: 512
    pad: 1
    kernel_size: 3
    weight_filler {
      type: "xavier"
    }
    bias_filler {
      type: "constant"
      value: 0
    }
  }
}
layer {
  name: "relu4_2"
  type: "ReLU"
  bottom: "conv4_2"
  top: "conv4_2"
}
layer {
  name: "conv4_3"
  type: "Convolution"
  bottom: "conv4_2"
  top: "conv4_3"
  param {
    lr_mult: 1
    decay_mult: 1
  }
  param {
    lr_mult: 2
    decay_mult: 0
  }
  convolution_param {
    num_output: 512
    pad: 1
    kernel_size: 3
    weight_filler {
      type: "xavier"
    }
    bias_filler {
      type: "constant"
      value: 0
    }
  }
}
layer {
  name: "relu4_3"
  type: "ReLU"
  bottom: "conv4_3"
  top: "conv4_3"
}
layer {
  name: "pool4"
  type: "Pooling"
  bottom: "conv4_3"
  top: "pool4"
  pooling_param {
    pool: MAX
    kernel_size: 2
    stride: 2
  }
}
layer {
  name: "conv5_1"
  type: "Convolution"
  bottom: "pool4"
  top: "conv5_1"
  param {
    lr_mult: 1
    decay_mult: 1
  }
  param {
    lr_mult: 2
    decay_mult: 0
  }
  convolution_param {
    num_output: 512
    pad: 1
    kernel_size: 3
    weight_filler {
      type: "xavier"
    }
    bias_filler {
      type: "constant"
      value: 0
    }
  }
}
layer {
  name: "relu5_1"
  type: "ReLU"
  bottom: "conv5_1"
  top: "conv5_1"
}
layer {
  name: "conv5_2"
  type: "Convolution"
  bottom: "conv5_1"
  top: "conv5_2"
  param {
    lr_mult: 1
    decay_mult: 1
  }
  param {
    lr_mult: 2
    decay_mult: 0
  }
  convolution_param {
    num_output: 512
    pad: 1
    kernel_size: 3
    weight_filler {
      type: "xavier"
    }
    bias_filler {
      type: "constant"
      value: 0
    }
  }
}
layer {
  name: "relu5_2"
  type: "ReLU"
  bottom: "conv5_2"
  top: "conv5_2"
}
layer {
  name: "conv5_3"
  type: "Convolution"
  bottom: "conv5_2"
  top: "conv5_3"
  param {
    lr_mult: 1
    decay_mult: 1
  }
  param {
    lr_mult: 2
    decay_mult: 0
  }
  convolution_param {
    num_output: 512
    pad: 1
    kernel_size: 3
    weight_filler {
      type: "xavier"
    }
    bias_filler {
      type: "constant"
      value: 0
    }
  }
}
layer {
  name: "relu5_3"
  type: "ReLU"
  bottom: "conv5_3"
  top: "conv5_3"
}
layer {
  name: "pool5"
  type: "Pooling"
  bottom: "conv5_3"
  top: "pool5"
  pooling_param {
    pool: MAX
    kernel_size: 3
    stride: 1
    pad: 1
  }
}
layer {
  name: "fc6"
  type: "Convolution"
  bottom: "pool5"
  top: "fc6"
  param {
    lr_mult: 1
    decay_mult: 1
  }
  param {
    lr_mult: 2
    decay_mult: 0
  }
  convolution_param {
    num_output: 1024
    pad: 6
    kernel_size: 3
    weight_filler {
      type: "xavier"
    }
    bias_filler {
      type: "constant"
      value: 0
    }
    dilation: 6
  }
}
layer {
  name: "relu6"
  type: "ReLU"
  bottom: "fc6"
  top: "fc6"
}
layer {
  name: "fc7"
  type: "Convolution"
  bottom: "fc6"
  top: "fc7"
  param {
    lr_mult: 1
    decay_mult: 1
  }
  param {
    lr_mult: 2
    decay_mult: 0
  }
  convolution_param {
    num_output: 1024
    kernel_size: 1
    weight_filler {
      type: "xavier"
    }
    bias_filler {
      type: "constant"
      value: 0
    }
  }
}
layer {
  name: "relu7"
  type: "ReLU"
  bottom: "fc7"
  top: "fc7"
}
layer {
  name: "conv6_1"
  type: "Convolution"
  bottom: "fc7"
  top: "conv6_1"
  param {
    lr_mult: 1
    decay_mult: 1
  }
  param {
    lr_mult: 2
    decay_mult: 0
  }
  convolution_param {
    num_output: 256
    pad: 0
    kernel_size: 1
    stride: 1
    weight_filler {
      type: "xavier"
    }
    bias_filler {
      type: "constant"
      value: 0
    }
  }
}
layer {
  name: "conv6_1_relu"
  type: "ReLU"
  bottom: "conv6_1"
  top: "conv6_1"
}
layer {
  name: "conv6_2"
  type: "Convolution"
  bottom: "conv6_1"
  top: "conv6_2"
  param {
    lr_mult: 1
    decay_mult: 1
  }
  param {
    lr_mult: 2
    decay_mult: 0
  }
  convolution_param {
    num_output: 512
    pad: 1
    kernel_size: 3
    stride: 2
    weight_filler {
      type: "xavier"
    }
    bias_filler {
      type: "constant"
      value: 0
    }
  }
}
layer {
  name: "conv6_2_relu"
  type: "ReLU"
  bottom: "conv6_2"
  top: "conv6_2"
}
layer {
  name: "conv7_1"
  type: "Convolution"
  bottom: "conv6_2"
  top: "conv7_1"
  param {
    lr_mult: 1
    decay_mult: 1
  }
  param {
    lr_mult: 2
    decay_mult: 0
  }
  convolution_param {
    num_output: 128
    pad: 0
    kernel_size: 1
    stride: 1
    weight_filler {
      type: "xavier"
    }
    bias_filler {
      type: "constant"
      value: 0
    }
  }
}
layer {
  name: "conv7_1_relu"
  type: "ReLU"
  bottom: "conv7_1"
  top: "conv7_1"
}
layer {
  name: "conv7_2"
  type: "Convolution"
  bottom: "conv7_1"
  top: "conv7_2"
  param {
    lr_mult: 1
    decay_mult: 1
  }
  param {
    lr_mult: 2
    decay_mult: 0
  }
  convolution_param {
    num_output: 256
    pad: 1
    kernel_size: 3
    stride: 2
    weight_filler {
      type: "xavier"
    }
    bias_filler {
      type: "constant"
      value: 0
    }
  }
}
layer {
  name: "conv7_2_relu"
  type: "ReLU"
  bottom: "conv7_2"
  top: "conv7_2"
}
layer {
  name: "conv8_1"
  type: "Convolution"
  bottom: "conv7_2"
  top: "conv8_1"
  param {
    lr_mult: 1
    decay_mult: 1
  }
  param {
    lr_mult: 2
    decay_mult: 0
  }
  convolution_param {
    num_output: 128
    pad: 0
    kernel_size: 1
    stride: 1
    weight_filler {
      type: "xavier"
    }
    bias_filler {
      type: "constant"
      value: 0
    }
  }
}
layer {
  name: "conv8_1_relu"
  type: "ReLU"
  bottom: "conv8_1"
  top: "conv8_1"
}
layer {
  name: "conv8_2"
  type: "Convolution"
  bottom: "conv8_1"
  top: "conv8_2"
  param {
    lr_mult: 1
    decay_mult: 1
  }
  param {
    lr_mult: 2
    decay_mult: 0
  }
  convolution_param {
    num_output: 256
    pad: 1
    kernel_size: 3
    stride: 2
    weight_filler {
      type: "xavier"
    }
    bias_filler {
      type: "constant"
      value: 0
    }
  }
}
layer {
  name: "conv8_2_relu"
  type: "ReLU"
  bottom: "conv8_2"
  top: "conv8_2"
}
layer {
  name: "pool6"
  type: "Pooling"
  bottom: "conv8_2"
  top: "pool6"
  pooling_param {
    pool: AVE
    global_pooling: true
  }
}
layer {
  name: "conv4_3_norm"
  type: "Normalize"
  bottom: "conv4_3"
  top: "conv4_3_norm"
  norm_param {
    across_spatial: false
    scale_filler {
      type: "constant"
      value: 20
    }
    channel_shared: false
  }
}
layer {
  name: "conv4_3_norm_mbox_loc"
  type: "Convolution"
  bottom: "conv4_3_norm"
  top: "conv4_3_norm_mbox_loc"
  param {
    lr_mult: 1
    decay_mult: 1
  }
  param {
    lr_mult: 2
    decay_mult: 0
  }
  convolution_param {
    num_output: 12
    pad: 1
    kernel_size: 3
    stride: 1
    weight_filler {
      type: "xavier"
    }
    bias_filler {
      type: "constant"
      value: 0
    }
  }
}
layer {
  name: "conv4_3_norm_mbox_loc_perm"
  type: "Permute"
  bottom: "conv4_3_norm_mbox_loc"
  top: "conv4_3_norm_mbox_loc_perm"
  permute_param {
    order: 0
    order: 2
    order: 3
    order: 1
  }
}
layer {
  name: "conv4_3_norm_mbox_loc_flat"
  type: "Flatten"
  bottom: "conv4_3_norm_mbox_loc_perm"
  top: "conv4_3_norm_mbox_loc_flat"
  flatten_param {
    axis: 1
  }
}
layer {
  name: "conv4_3_norm_mbox_conf"
  type: "Convolution"
  bottom: "conv4_3_norm"
  top: "conv4_3_norm_mbox_conf"
  param {
    lr_mult: 1
    decay_mult: 1
  }
  param {
    lr_mult: 2
    decay_mult: 0
  }
  convolution_param {
    num_output: 15
    pad: 1
    kernel_size: 3
    stride: 1
    weight_filler {
      type: "xavier"
    }
    bias_filler {
      type: "constant"
      value: 0
    }
  }
}
layer {
  name: "conv4_3_norm_mbox_conf_perm"
  type: "Permute"
  bottom: "conv4_3_norm_mbox_conf"
  top: "conv4_3_norm_mbox_conf_perm"
  permute_param {
    order: 0
    order: 2
    order: 3
    order: 1
  }
}
layer {
  name: "conv4_3_norm_mbox_conf_flat"
  type: "Flatten"
  bottom: "conv4_3_norm_mbox_conf_perm"
  top: "conv4_3_norm_mbox_conf_flat"
  flatten_param {
    axis: 1
  }
}
layer {
  name: "conv4_3_norm_mbox_priorbox"
  type: "PriorBox"
  bottom: "conv4_3_norm"
  bottom: "data"
  top: "conv4_3_norm_mbox_priorbox"
  prior_box_param {
    min_size: 30
    aspect_ratio: 2
    flip: true
    clip: true
    variance: 0.1
    variance: 0.1
    variance: 0.2
    variance: 0.2
  }
}
layer {
  name: "fc7_mbox_loc"
  type: "Convolution"
  bottom: "fc7"
  top: "fc7_mbox_loc"
  param {
    lr_mult: 1
    decay_mult: 1
  }
  param {
    lr_mult: 2
    decay_mult: 0
  }
  convolution_param {
    num_output: 24
    pad: 1
    kernel_size: 3
    stride: 1
    weight_filler {
      type: "xavier"
    }
    bias_filler {
      type: "constant"
      value: 0
    }
  }
}
layer {
  name: "fc7_mbox_loc_perm"
  type: "Permute"
  bottom: "fc7_mbox_loc"
  top: "fc7_mbox_loc_perm"
  permute_param {
    order: 0
    order: 2
    order: 3
    order: 1
  }
}
layer {
  name: "fc7_mbox_loc_flat"
  type: "Flatten"
  bottom: "fc7_mbox_loc_perm"
  top: "fc7_mbox_loc_flat"
  flatten_param {
    axis: 1
  }
}
layer {
  name: "fc7_mbox_conf"
  type: "Convolution"
  bottom: "fc7"
  top: "fc7_mbox_conf"
  param {
    lr_mult: 1
    decay_mult: 1
  }
  param {
    lr_mult: 2
    decay_mult: 0
  }
  convolution_param {
    num_output: 30
    pad: 1
    kernel_size: 3
    stride: 1
    weight_filler {
      type: "xavier"
    }
    bias_filler {
      type: "constant"
      value: 0
    }
  }
}
layer {
  name: "fc7_mbox_conf_perm"
  type: "Permute"
  bottom: "fc7_mbox_conf"
  top: "fc7_mbox_conf_perm"
  permute_param {
    order: 0
    order: 2
    order: 3
    order: 1
  }
}
layer {
  name: "fc7_mbox_conf_flat"
  type: "Flatten"
  bottom: "fc7_mbox_conf_perm"
  top: "fc7_mbox_conf_flat"
  flatten_param {
    axis: 1
  }
}
layer {
  name: "fc7_mbox_priorbox"
  type: "PriorBox"
  bottom: "fc7"
  bottom: "data"
  top: "fc7_mbox_priorbox"
  prior_box_param {
    min_size: 60
    max_size: 114
    aspect_ratio: 2
    aspect_ratio: 3
    flip: true
    clip: true
    variance: 0.1
    variance: 0.1
    variance: 0.2
    variance: 0.2
  }
}
layer {
  name: "conv6_2_mbox_loc"
  type: "Convolution"
  bottom: "conv6_2"
  top: "conv6_2_mbox_loc"
  param {
    lr_mult: 1
    decay_mult: 1
  }
  param {
    lr_mult: 2
    decay_mult: 0
  }
  convolution_param {
    num_output: 24
    pad: 1
    kernel_size: 3
    stride: 1
    weight_filler {
      type: "xavier"
    }
    bias_filler {
      type: "constant"
      value: 0
    }
  }
}
layer {
  name: "conv6_2_mbox_loc_perm"
  type: "Permute"
  bottom: "conv6_2_mbox_loc"
  top: "conv6_2_mbox_loc_perm"
  permute_param {
    order: 0
    order: 2
    order: 3
    order: 1
  }
}
layer {
  name: "conv6_2_mbox_loc_flat"
  type: "Flatten"
  bottom: "conv6_2_mbox_loc_perm"
  top: "conv6_2_mbox_loc_flat"
  flatten_param {
    axis: 1
  }
}
layer {
  name: "conv6_2_mbox_conf"
  type: "Convolution"
  bottom: "conv6_2"
  top: "conv6_2_mbox_conf"
  param {
    lr_mult: 1
    decay_mult: 1
  }
  param {
    lr_mult: 2
    decay_mult: 0
  }
  convolution_param {
    num_output: 30
    pad: 1
    kernel_size: 3
    stride: 1
    weight_filler {
      type: "xavier"
    }
    bias_filler {
      type: "constant"
      value: 0
    }
  }
}
layer {
  name: "conv6_2_mbox_conf_perm"
  type: "Permute"
  bottom: "conv6_2_mbox_conf"
  top: "conv6_2_mbox_conf_perm"
  permute_param {
    order: 0
    order: 2
    order: 3
    order: 1
  }
}
layer {
  name: "conv6_2_mbox_conf_flat"
  type: "Flatten"
  bottom: "conv6_2_mbox_conf_perm"
  top: "conv6_2_mbox_conf_flat"
  flatten_param {
    axis: 1
  }
}
layer {
  name: "conv6_2_mbox_priorbox"
  type: "PriorBox"
  bottom: "conv6_2"
  bottom: "data"
  top: "conv6_2_mbox_priorbox"
  prior_box_param {
    min_size: 114
    max_size: 168
    aspect_ratio: 2
    aspect_ratio: 3
    flip: true
    clip: true
    variance: 0.1
    variance: 0.1
    variance: 0.2
    variance: 0.2
  }
}
layer {
  name: "conv7_2_mbox_loc"
  type: "Convolution"
  bottom: "conv7_2"
  top: "conv7_2_mbox_loc"
  param {
    lr_mult: 1
    decay_mult: 1
  }
  param {
    lr_mult: 2
    decay_mult: 0
  }
  convolution_param {
    num_output: 24
    pad: 1
    kernel_size: 3
    stride: 1
    weight_filler {
      type: "xavier"
    }
    bias_filler {
      type: "constant"
      value: 0
    }
  }
}
layer {
  name: "conv7_2_mbox_loc_perm"
  type: "Permute"
  bottom: "conv7_2_mbox_loc"
  top: "conv7_2_mbox_loc_perm"
  permute_param {
    order: 0
    order: 2
    order: 3
    order: 1
  }
}
layer {
  name: "conv7_2_mbox_loc_flat"
  type: "Flatten"
  bottom: "conv7_2_mbox_loc_perm"
  top: "conv7_2_mbox_loc_flat"
  flatten_param {
    axis: 1
  }
}
layer {
  name: "conv7_2_mbox_conf"
  type: "Convolution"
  bottom: "conv7_2"
  top: "conv7_2_mbox_conf"
  param {
    lr_mult: 1
    decay_mult: 1
  }
  param {
    lr_mult: 2
    decay_mult: 0
  }
  convolution_param {
    num_output: 30
    pad: 1
    kernel_size: 3
    stride: 1
    weight_filler {
      type: "xavier"
    }
    bias_filler {
      type: "constant"
      value: 0
    }
  }
}
layer {
  name: "conv7_2_mbox_conf_perm"
  type: "Permute"
  bottom: "conv7_2_mbox_conf"
  top: "conv7_2_mbox_conf_perm"
  permute_param {
    order: 0
    order: 2
    order: 3
    order: 1
  }
}
layer {
  name: "conv7_2_mbox_conf_flat"
  type: "Flatten"
  bottom: "conv7_2_mbox_conf_perm"
  top: "conv7_2_mbox_conf_flat"
  flatten_param {
    axis: 1
  }
}
layer {
  name: "conv7_2_mbox_priorbox"
  type: "PriorBox"
  bottom: "conv7_2"
  bottom: "data"
  top: "conv7_2_mbox_priorbox"
  prior_box_param {
    min_size: 168
    max_size: 222
    aspect_ratio: 2
    aspect_ratio: 3
    flip: true
    clip: true
    variance: 0.1
    variance: 0.1
    variance: 0.2
    variance: 0.2
  }
}
layer {
  name: "conv8_2_mbox_loc"
  type: "Convolution"
  bottom: "conv8_2"
  top: "conv8_2_mbox_loc"
  param {
    lr_mult: 1
    decay_mult: 1
  }
  param {
    lr_mult: 2
    decay_mult: 0
  }
  convolution_param {
    num_output: 24
    pad: 1
    kernel_size: 3
    stride: 1
    weight_filler {
      type: "xavier"
    }
    bias_filler {
      type: "constant"
      value: 0
    }
  }
}
layer {
  name: "conv8_2_mbox_loc_perm"
  type: "Permute"
  bottom: "conv8_2_mbox_loc"
  top: "conv8_2_mbox_loc_perm"
  permute_param {
    order: 0
    order: 2
    order: 3
    order: 1
  }
}
layer {
  name: "conv8_2_mbox_loc_flat"
  type: "Flatten"
  bottom: "conv8_2_mbox_loc_perm"
  top: "conv8_2_mbox_loc_flat"
  flatten_param {
    axis: 1
  }
}
layer {
  name: "conv8_2_mbox_conf"
  type: "Convolution"
  bottom: "conv8_2"
  top: "conv8_2_mbox_conf"
  param {
    lr_mult: 1
    decay_mult: 1
  }
  param {
    lr_mult: 2
    decay_mult: 0
  }
  convolution_param {
    num_output: 30
    pad: 1
    kernel_size: 3
    stride: 1
    weight_filler {
      type: "xavier"
    }
    bias_filler {
      type: "constant"
      value: 0
    }
  }
}
layer {
  name: "conv8_2_mbox_conf_perm"
  type: "Permute"
  bottom: "conv8_2_mbox_conf"
  top: "conv8_2_mbox_conf_perm"
  permute_param {
    order: 0
    order: 2
    order: 3
    order: 1
  }
}
layer {
  name: "conv8_2_mbox_conf_flat"
  type: "Flatten"
  bottom: "conv8_2_mbox_conf_perm"
  top: "conv8_2_mbox_conf_flat"
  flatten_param {
    axis: 1
  }
}
layer {
  name: "conv8_2_mbox_priorbox"
  type: "PriorBox"
  bottom: "conv8_2"
  bottom: "data"
  top: "conv8_2_mbox_priorbox"
  prior_box_param {
    min_size: 222
    max_size: 276
    aspect_ratio: 2
    aspect_ratio: 3
    flip: true
    clip: true
    variance: 0.1
    variance: 0.1
    variance: 0.2
    variance: 0.2
  }
}
layer {
  name: "pool6_mbox_loc"
  type: "Convolution"
  bottom: "pool6"
  top: "pool6_mbox_loc"
  param {
    lr_mult: 1
    decay_mult: 1
  }
  param {
    lr_mult: 2
    decay_mult: 0
  }
  convolution_param {
    num_output: 24
    pad: 1
    kernel_size: 3
    stride: 1
    weight_filler {
      type: "xavier"
    }
    bias_filler {
      type: "constant"
      value: 0
    }
  }
}
layer {
  name: "pool6_mbox_loc_perm"
  type: "Permute"
  bottom: "pool6_mbox_loc"
  top: "pool6_mbox_loc_perm"
  permute_param {
    order: 0
    order: 2
    order: 3
    order: 1
  }
}
layer {
  name: "pool6_mbox_loc_flat"
  type: "Flatten"
  bottom: "pool6_mbox_loc_perm"
  top: "pool6_mbox_loc_flat"
  flatten_param {
    axis: 1
  }
}
layer {
  name: "pool6_mbox_conf"
  type: "Convolution"
  bottom: "pool6"
  top: "pool6_mbox_conf"
  param {
    lr_mult: 1
    decay_mult: 1
  }
  param {
    lr_mult: 2
    decay_mult: 0
  }
  convolution_param {
    num_output: 30
    pad: 1
    kernel_size: 3
    stride: 1
    weight_filler {
      type: "xavier"
    }
    bias_filler {
      type: "constant"
      value: 0
    }
  }
}
layer {
  name: "pool6_mbox_conf_perm"
  type: "Permute"
  bottom: "pool6_mbox_conf"
  top: "pool6_mbox_conf_perm"
  permute_param {
    order: 0
    order: 2
    order: 3
    order: 1
  }
}
layer {
  name: "pool6_mbox_conf_flat"
  type: "Flatten"
  bottom: "pool6_mbox_conf_perm"
  top: "pool6_mbox_conf_flat"
  flatten_param {
    axis: 1
  }
}
layer {
  name: "pool6_mbox_priorbox"
  type: "PriorBox"
  bottom: "pool6"
  bottom: "data"
  top: "pool6_mbox_priorbox"
  prior_box_param {
    min_size: 276
    max_size: 330
    aspect_ratio: 2
    aspect_ratio: 3
    flip: true
    clip: true
    variance: 0.1
    variance: 0.1
    variance: 0.2
    variance: 0.2
  }
}
layer {
  name: "mbox_loc"
  type: "Concat"
  bottom: "conv4_3_norm_mbox_loc_flat"
  bottom: "fc7_mbox_loc_flat"
  bottom: "conv6_2_mbox_loc_flat"
  bottom: "conv7_2_mbox_loc_flat"
  bottom: "conv8_2_mbox_loc_flat"
  bottom: "pool6_mbox_loc_flat"
  top: "mbox_loc"
  concat_param {
    axis: 1
  }
}
layer {
  name: "mbox_conf"
  type: "Concat"
  bottom: "conv4_3_norm_mbox_conf_flat"
  bottom: "fc7_mbox_conf_flat"
  bottom: "conv6_2_mbox_conf_flat"
  bottom: "conv7_2_mbox_conf_flat"
  bottom: "conv8_2_mbox_conf_flat"
  bottom: "pool6_mbox_conf_flat"
  top: "mbox_conf"
  concat_param {
    axis: 1
  }
}
layer {
  name: "mbox_priorbox"
  type: "Concat"
  bottom: "conv4_3_norm_mbox_priorbox"
  bottom: "fc7_mbox_priorbox"
  bottom: "conv6_2_mbox_priorbox"
  bottom: "conv7_2_mbox_priorbox"
  bottom: "conv8_2_mbox_priorbox"
  bottom: "pool6_mbox_priorbox"
  top: "mbox_priorbox"
  concat_param {
    axis: 2
  }
}
layer {
  name: "mbox_conf_reshape"
  type: "Reshape"
  bottom: "mbox_conf"
  top: "mbox_conf_reshape"
  reshape_param {
    shape {
      dim: 0
      dim: -1
      dim: 5
    }
  }
}
layer {
  name: "mbox_conf_softmax"
  type: "Softmax"
  bottom: "mbox_conf_reshape"
  top: "mbox_conf_softmax"
  softmax_param {
    axis: 2
  }
}
layer {
  name: "mbox_conf_flatten"
  type: "Flatten"
  bottom: "mbox_conf_softmax"
  top: "mbox_conf_flatten"
  flatten_param {
    axis: 1
  }
}
layer {
  name: "detection_out"
  type: "DetectionOutput"
  bottom: "mbox_loc"
  bottom: "mbox_conf_flatten"
  bottom: "mbox_priorbox"
  top: "detection_out"
  include {
    phase: TEST
  }
  detection_output_param {
    num_classes: 5
    share_location: true
    background_label_id: 0
    nms_param {
      nms_threshold: 0.45
      top_k: 400
    }
    save_output_param {
      output_directory: "/home/zdb/data/VOCdevkit/results/VOC2007/SSD_300x300/Main"
      output_name_prefix: "comp4_det_test_"
      output_format: "VOC"
      label_map_file: "data/deepv_car_person/labelmap_voc.prototxt"
      name_size_file: "data/deepv_car_person/test_name_size.txt"
      num_test_image: 4367
    }
    code_type: CENTER_SIZE
    keep_top_k: 200
    confidence_threshold: 0.01
  }
}
layer {
  name: "detection_eval"
  type: "DetectionEvaluate"
  bottom: "detection_out"
  bottom: "label"
  top: "detection_eval"
  include {
    phase: TEST
  }
  detection_evaluate_param {
    num_classes: 5
    background_label_id: 0
    overlap_threshold: 0.5
    evaluate_difficult_gt: false
    name_size_file: "data/deepv_car_person/test_name_size.txt"
  }
}
I0517 12:06:54.816982 10114 layer_factory.hpp:77] Creating layer data
I0517 12:06:54.817073 10114 net.cpp:91] Creating Layer data
I0517 12:06:54.817085 10114 net.cpp:399] data -> data
I0517 12:06:54.817101 10114 net.cpp:399] data -> label
I0517 12:06:54.818850 10126 db_lmdb.cpp:35] Opened lmdb examples/deepv_car_person/deepv_car_person_test_lmdb
I0517 12:06:54.832291 10114 annotated_data_layer.cpp:52] output data size: 1,3,300,300
I0517 12:06:54.836204 10114 net.cpp:141] Setting up data
I0517 12:06:54.836225 10114 net.cpp:148] Top shape: 1 3 300 300 (270000)
I0517 12:06:54.836232 10114 net.cpp:148] Top shape: 1 1 4 8 (32)
I0517 12:06:54.836236 10114 net.cpp:156] Memory required for data: 1080128
I0517 12:06:54.836243 10114 layer_factory.hpp:77] Creating layer data_data_0_split
I0517 12:06:54.836256 10114 net.cpp:91] Creating Layer data_data_0_split
I0517 12:06:54.836261 10114 net.cpp:425] data_data_0_split <- data
I0517 12:06:54.836269 10114 net.cpp:399] data_data_0_split -> data_data_0_split_0
I0517 12:06:54.836284 10114 net.cpp:399] data_data_0_split -> data_data_0_split_1
I0517 12:06:54.836292 10114 net.cpp:399] data_data_0_split -> data_data_0_split_2
I0517 12:06:54.836303 10114 net.cpp:399] data_data_0_split -> data_data_0_split_3
I0517 12:06:54.836311 10114 net.cpp:399] data_data_0_split -> data_data_0_split_4
I0517 12:06:54.836318 10114 net.cpp:399] data_data_0_split -> data_data_0_split_5
I0517 12:06:54.836325 10114 net.cpp:399] data_data_0_split -> data_data_0_split_6
I0517 12:06:54.836568 10114 net.cpp:141] Setting up data_data_0_split
I0517 12:06:54.836582 10114 net.cpp:148] Top shape: 1 3 300 300 (270000)
I0517 12:06:54.836588 10114 net.cpp:148] Top shape: 1 3 300 300 (270000)
I0517 12:06:54.836594 10114 net.cpp:148] Top shape: 1 3 300 300 (270000)
I0517 12:06:54.836599 10114 net.cpp:148] Top shape: 1 3 300 300 (270000)
I0517 12:06:54.836604 10114 net.cpp:148] Top shape: 1 3 300 300 (270000)
I0517 12:06:54.836609 10114 net.cpp:148] Top shape: 1 3 300 300 (270000)
I0517 12:06:54.836616 10114 net.cpp:148] Top shape: 1 3 300 300 (270000)
I0517 12:06:54.836621 10114 net.cpp:156] Memory required for data: 8640128
I0517 12:06:54.836626 10114 layer_factory.hpp:77] Creating layer conv1_1
I0517 12:06:54.836639 10114 net.cpp:91] Creating Layer conv1_1
I0517 12:06:54.836644 10114 net.cpp:425] conv1_1 <- data_data_0_split_0
I0517 12:06:54.836670 10114 net.cpp:399] conv1_1 -> conv1_1
I0517 12:06:54.839262 10114 net.cpp:141] Setting up conv1_1
I0517 12:06:54.839285 10114 net.cpp:148] Top shape: 1 64 300 300 (5760000)
I0517 12:06:54.839292 10114 net.cpp:156] Memory required for data: 31680128
I0517 12:06:54.839306 10114 layer_factory.hpp:77] Creating layer relu1_1
I0517 12:06:54.839318 10114 net.cpp:91] Creating Layer relu1_1
I0517 12:06:54.839323 10114 net.cpp:425] relu1_1 <- conv1_1
I0517 12:06:54.839329 10114 net.cpp:386] relu1_1 -> conv1_1 (in-place)
I0517 12:06:54.839716 10114 net.cpp:141] Setting up relu1_1
I0517 12:06:54.839736 10114 net.cpp:148] Top shape: 1 64 300 300 (5760000)
I0517 12:06:54.839741 10114 net.cpp:156] Memory required for data: 54720128
I0517 12:06:54.839746 10114 layer_factory.hpp:77] Creating layer conv1_2
I0517 12:06:54.839761 10114 net.cpp:91] Creating Layer conv1_2
I0517 12:06:54.839768 10114 net.cpp:425] conv1_2 <- conv1_1
I0517 12:06:54.839777 10114 net.cpp:399] conv1_2 -> conv1_2
I0517 12:06:54.841377 10114 net.cpp:141] Setting up conv1_2
I0517 12:06:54.841397 10114 net.cpp:148] Top shape: 1 64 300 300 (5760000)
I0517 12:06:54.841401 10114 net.cpp:156] Memory required for data: 77760128
I0517 12:06:54.841413 10114 layer_factory.hpp:77] Creating layer relu1_2
I0517 12:06:54.841423 10114 net.cpp:91] Creating Layer relu1_2
I0517 12:06:54.841428 10114 net.cpp:425] relu1_2 <- conv1_2
I0517 12:06:54.841434 10114 net.cpp:386] relu1_2 -> conv1_2 (in-place)
I0517 12:06:54.841783 10114 net.cpp:141] Setting up relu1_2
I0517 12:06:54.841799 10114 net.cpp:148] Top shape: 1 64 300 300 (5760000)
I0517 12:06:54.841804 10114 net.cpp:156] Memory required for data: 100800128
I0517 12:06:54.841809 10114 layer_factory.hpp:77] Creating layer pool1
I0517 12:06:54.841819 10114 net.cpp:91] Creating Layer pool1
I0517 12:06:54.841825 10114 net.cpp:425] pool1 <- conv1_2
I0517 12:06:54.841831 10114 net.cpp:399] pool1 -> pool1
I0517 12:06:54.841895 10114 net.cpp:141] Setting up pool1
I0517 12:06:54.841910 10114 net.cpp:148] Top shape: 1 64 150 150 (1440000)
I0517 12:06:54.841915 10114 net.cpp:156] Memory required for data: 106560128
I0517 12:06:54.841919 10114 layer_factory.hpp:77] Creating layer conv2_1
I0517 12:06:54.841930 10114 net.cpp:91] Creating Layer conv2_1
I0517 12:06:54.841935 10114 net.cpp:425] conv2_1 <- pool1
I0517 12:06:54.841943 10114 net.cpp:399] conv2_1 -> conv2_1
I0517 12:06:54.845366 10114 net.cpp:141] Setting up conv2_1
I0517 12:06:54.845391 10114 net.cpp:148] Top shape: 1 128 150 150 (2880000)
I0517 12:06:54.845396 10114 net.cpp:156] Memory required for data: 118080128
I0517 12:06:54.845414 10114 layer_factory.hpp:77] Creating layer relu2_1
I0517 12:06:54.845437 10114 net.cpp:91] Creating Layer relu2_1
I0517 12:06:54.845441 10114 net.cpp:425] relu2_1 <- conv2_1
I0517 12:06:54.845451 10114 net.cpp:386] relu2_1 -> conv2_1 (in-place)
I0517 12:06:54.845748 10114 net.cpp:141] Setting up relu2_1
I0517 12:06:54.845762 10114 net.cpp:148] Top shape: 1 128 150 150 (2880000)
I0517 12:06:54.845767 10114 net.cpp:156] Memory required for data: 129600128
I0517 12:06:54.845772 10114 layer_factory.hpp:77] Creating layer conv2_2
I0517 12:06:54.845788 10114 net.cpp:91] Creating Layer conv2_2
I0517 12:06:54.845793 10114 net.cpp:425] conv2_2 <- conv2_1
I0517 12:06:54.845803 10114 net.cpp:399] conv2_2 -> conv2_2
I0517 12:06:54.848963 10114 net.cpp:141] Setting up conv2_2
I0517 12:06:54.848983 10114 net.cpp:148] Top shape: 1 128 150 150 (2880000)
I0517 12:06:54.848987 10114 net.cpp:156] Memory required for data: 141120128
I0517 12:06:54.848997 10114 layer_factory.hpp:77] Creating layer relu2_2
I0517 12:06:54.849009 10114 net.cpp:91] Creating Layer relu2_2
I0517 12:06:54.849014 10114 net.cpp:425] relu2_2 <- conv2_2
I0517 12:06:54.849022 10114 net.cpp:386] relu2_2 -> conv2_2 (in-place)
I0517 12:06:54.849385 10114 net.cpp:141] Setting up relu2_2
I0517 12:06:54.849401 10114 net.cpp:148] Top shape: 1 128 150 150 (2880000)
I0517 12:06:54.849406 10114 net.cpp:156] Memory required for data: 152640128
I0517 12:06:54.849411 10114 layer_factory.hpp:77] Creating layer pool2
I0517 12:06:54.849439 10114 net.cpp:91] Creating Layer pool2
I0517 12:06:54.849445 10114 net.cpp:425] pool2 <- conv2_2
I0517 12:06:54.849455 10114 net.cpp:399] pool2 -> pool2
I0517 12:06:54.849527 10114 net.cpp:141] Setting up pool2
I0517 12:06:54.849539 10114 net.cpp:148] Top shape: 1 128 75 75 (720000)
I0517 12:06:54.849545 10114 net.cpp:156] Memory required for data: 155520128
I0517 12:06:54.849548 10114 layer_factory.hpp:77] Creating layer conv3_1
I0517 12:06:54.849565 10114 net.cpp:91] Creating Layer conv3_1
I0517 12:06:54.849570 10114 net.cpp:425] conv3_1 <- pool2
I0517 12:06:54.849581 10114 net.cpp:399] conv3_1 -> conv3_1
I0517 12:06:54.853793 10114 net.cpp:141] Setting up conv3_1
I0517 12:06:54.853814 10114 net.cpp:148] Top shape: 1 256 75 75 (1440000)
I0517 12:06:54.853821 10114 net.cpp:156] Memory required for data: 161280128
I0517 12:06:54.853834 10114 layer_factory.hpp:77] Creating layer relu3_1
I0517 12:06:54.853845 10114 net.cpp:91] Creating Layer relu3_1
I0517 12:06:54.853850 10114 net.cpp:425] relu3_1 <- conv3_1
I0517 12:06:54.853857 10114 net.cpp:386] relu3_1 -> conv3_1 (in-place)
I0517 12:06:54.854219 10114 net.cpp:141] Setting up relu3_1
I0517 12:06:54.854236 10114 net.cpp:148] Top shape: 1 256 75 75 (1440000)
I0517 12:06:54.854241 10114 net.cpp:156] Memory required for data: 167040128
I0517 12:06:54.854246 10114 layer_factory.hpp:77] Creating layer conv3_2
I0517 12:06:54.854261 10114 net.cpp:91] Creating Layer conv3_2
I0517 12:06:54.854267 10114 net.cpp:425] conv3_2 <- conv3_1
I0517 12:06:54.854277 10114 net.cpp:399] conv3_2 -> conv3_2
I0517 12:06:54.861433 10114 net.cpp:141] Setting up conv3_2
I0517 12:06:54.861454 10114 net.cpp:148] Top shape: 1 256 75 75 (1440000)
I0517 12:06:54.861460 10114 net.cpp:156] Memory required for data: 172800128
I0517 12:06:54.861469 10114 layer_factory.hpp:77] Creating layer relu3_2
I0517 12:06:54.861480 10114 net.cpp:91] Creating Layer relu3_2
I0517 12:06:54.861485 10114 net.cpp:425] relu3_2 <- conv3_2
I0517 12:06:54.861495 10114 net.cpp:386] relu3_2 -> conv3_2 (in-place)
I0517 12:06:54.861722 10114 net.cpp:141] Setting up relu3_2
I0517 12:06:54.861737 10114 net.cpp:148] Top shape: 1 256 75 75 (1440000)
I0517 12:06:54.861742 10114 net.cpp:156] Memory required for data: 178560128
I0517 12:06:54.861747 10114 layer_factory.hpp:77] Creating layer conv3_3
I0517 12:06:54.861766 10114 net.cpp:91] Creating Layer conv3_3
I0517 12:06:54.861771 10114 net.cpp:425] conv3_3 <- conv3_2
I0517 12:06:54.861781 10114 net.cpp:399] conv3_3 -> conv3_3
I0517 12:06:54.869050 10114 net.cpp:141] Setting up conv3_3
I0517 12:06:54.869071 10114 net.cpp:148] Top shape: 1 256 75 75 (1440000)
I0517 12:06:54.869077 10114 net.cpp:156] Memory required for data: 184320128
I0517 12:06:54.869086 10114 layer_factory.hpp:77] Creating layer relu3_3
I0517 12:06:54.869097 10114 net.cpp:91] Creating Layer relu3_3
I0517 12:06:54.869102 10114 net.cpp:425] relu3_3 <- conv3_3
I0517 12:06:54.869110 10114 net.cpp:386] relu3_3 -> conv3_3 (in-place)
I0517 12:06:54.869482 10114 net.cpp:141] Setting up relu3_3
I0517 12:06:54.869499 10114 net.cpp:148] Top shape: 1 256 75 75 (1440000)
I0517 12:06:54.869504 10114 net.cpp:156] Memory required for data: 190080128
I0517 12:06:54.869508 10114 layer_factory.hpp:77] Creating layer pool3
I0517 12:06:54.869519 10114 net.cpp:91] Creating Layer pool3
I0517 12:06:54.869524 10114 net.cpp:425] pool3 <- conv3_3
I0517 12:06:54.869534 10114 net.cpp:399] pool3 -> pool3
I0517 12:06:54.869604 10114 net.cpp:141] Setting up pool3
I0517 12:06:54.869626 10114 net.cpp:148] Top shape: 1 256 38 38 (369664)
I0517 12:06:54.869631 10114 net.cpp:156] Memory required for data: 191558784
I0517 12:06:54.869634 10114 layer_factory.hpp:77] Creating layer conv4_1
I0517 12:06:54.869649 10114 net.cpp:91] Creating Layer conv4_1
I0517 12:06:54.869654 10114 net.cpp:425] conv4_1 <- pool3
I0517 12:06:54.869664 10114 net.cpp:399] conv4_1 -> conv4_1
I0517 12:06:54.882453 10114 net.cpp:141] Setting up conv4_1
I0517 12:06:54.882475 10114 net.cpp:148] Top shape: 1 512 38 38 (739328)
I0517 12:06:54.882498 10114 net.cpp:156] Memory required for data: 194516096
I0517 12:06:54.882510 10114 layer_factory.hpp:77] Creating layer relu4_1
I0517 12:06:54.882522 10114 net.cpp:91] Creating Layer relu4_1
I0517 12:06:54.882527 10114 net.cpp:425] relu4_1 <- conv4_1
I0517 12:06:54.882535 10114 net.cpp:386] relu4_1 -> conv4_1 (in-place)
I0517 12:06:54.882917 10114 net.cpp:141] Setting up relu4_1
I0517 12:06:54.882936 10114 net.cpp:148] Top shape: 1 512 38 38 (739328)
I0517 12:06:54.882941 10114 net.cpp:156] Memory required for data: 197473408
I0517 12:06:54.882946 10114 layer_factory.hpp:77] Creating layer conv4_2
I0517 12:06:54.882959 10114 net.cpp:91] Creating Layer conv4_2
I0517 12:06:54.882964 10114 net.cpp:425] conv4_2 <- conv4_1
I0517 12:06:54.882975 10114 net.cpp:399] conv4_2 -> conv4_2
I0517 12:06:54.907227 10114 net.cpp:141] Setting up conv4_2
I0517 12:06:54.907258 10114 net.cpp:148] Top shape: 1 512 38 38 (739328)
I0517 12:06:54.907263 10114 net.cpp:156] Memory required for data: 200430720
I0517 12:06:54.907280 10114 layer_factory.hpp:77] Creating layer relu4_2
I0517 12:06:54.907294 10114 net.cpp:91] Creating Layer relu4_2
I0517 12:06:54.907299 10114 net.cpp:425] relu4_2 <- conv4_2
I0517 12:06:54.907308 10114 net.cpp:386] relu4_2 -> conv4_2 (in-place)
I0517 12:06:54.907541 10114 net.cpp:141] Setting up relu4_2
I0517 12:06:54.907557 10114 net.cpp:148] Top shape: 1 512 38 38 (739328)
I0517 12:06:54.907560 10114 net.cpp:156] Memory required for data: 203388032
I0517 12:06:54.907567 10114 layer_factory.hpp:77] Creating layer conv4_3
I0517 12:06:54.907582 10114 net.cpp:91] Creating Layer conv4_3
I0517 12:06:54.907588 10114 net.cpp:425] conv4_3 <- conv4_2
I0517 12:06:54.907606 10114 net.cpp:399] conv4_3 -> conv4_3
I0517 12:06:54.931677 10114 net.cpp:141] Setting up conv4_3
I0517 12:06:54.931705 10114 net.cpp:148] Top shape: 1 512 38 38 (739328)
I0517 12:06:54.931711 10114 net.cpp:156] Memory required for data: 206345344
I0517 12:06:54.931721 10114 layer_factory.hpp:77] Creating layer relu4_3
I0517 12:06:54.931733 10114 net.cpp:91] Creating Layer relu4_3
I0517 12:06:54.931740 10114 net.cpp:425] relu4_3 <- conv4_3
I0517 12:06:54.931749 10114 net.cpp:386] relu4_3 -> conv4_3 (in-place)
I0517 12:06:54.932119 10114 net.cpp:141] Setting up relu4_3
I0517 12:06:54.932137 10114 net.cpp:148] Top shape: 1 512 38 38 (739328)
I0517 12:06:54.932142 10114 net.cpp:156] Memory required for data: 209302656
I0517 12:06:54.932147 10114 layer_factory.hpp:77] Creating layer conv4_3_relu4_3_0_split
I0517 12:06:54.932157 10114 net.cpp:91] Creating Layer conv4_3_relu4_3_0_split
I0517 12:06:54.932163 10114 net.cpp:425] conv4_3_relu4_3_0_split <- conv4_3
I0517 12:06:54.932171 10114 net.cpp:399] conv4_3_relu4_3_0_split -> conv4_3_relu4_3_0_split_0
I0517 12:06:54.932181 10114 net.cpp:399] conv4_3_relu4_3_0_split -> conv4_3_relu4_3_0_split_1
I0517 12:06:54.932250 10114 net.cpp:141] Setting up conv4_3_relu4_3_0_split
I0517 12:06:54.932261 10114 net.cpp:148] Top shape: 1 512 38 38 (739328)
I0517 12:06:54.932266 10114 net.cpp:148] Top shape: 1 512 38 38 (739328)
I0517 12:06:54.932271 10114 net.cpp:156] Memory required for data: 215217280
I0517 12:06:54.932276 10114 layer_factory.hpp:77] Creating layer pool4
I0517 12:06:54.932286 10114 net.cpp:91] Creating Layer pool4
I0517 12:06:54.932291 10114 net.cpp:425] pool4 <- conv4_3_relu4_3_0_split_0
I0517 12:06:54.932299 10114 net.cpp:399] pool4 -> pool4
I0517 12:06:54.932360 10114 net.cpp:141] Setting up pool4
I0517 12:06:54.932370 10114 net.cpp:148] Top shape: 1 512 19 19 (184832)
I0517 12:06:54.932375 10114 net.cpp:156] Memory required for data: 215956608
I0517 12:06:54.932380 10114 layer_factory.hpp:77] Creating layer conv5_1
I0517 12:06:54.932396 10114 net.cpp:91] Creating Layer conv5_1
I0517 12:06:54.932401 10114 net.cpp:425] conv5_1 <- pool4
I0517 12:06:54.932425 10114 net.cpp:399] conv5_1 -> conv5_1
I0517 12:06:54.956315 10114 net.cpp:141] Setting up conv5_1
I0517 12:06:54.956343 10114 net.cpp:148] Top shape: 1 512 19 19 (184832)
I0517 12:06:54.956349 10114 net.cpp:156] Memory required for data: 216695936
I0517 12:06:54.956383 10114 layer_factory.hpp:77] Creating layer relu5_1
I0517 12:06:54.956398 10114 net.cpp:91] Creating Layer relu5_1
I0517 12:06:54.956403 10114 net.cpp:425] relu5_1 <- conv5_1
I0517 12:06:54.956411 10114 net.cpp:386] relu5_1 -> conv5_1 (in-place)
I0517 12:06:54.956820 10114 net.cpp:141] Setting up relu5_1
I0517 12:06:54.956838 10114 net.cpp:148] Top shape: 1 512 19 19 (184832)
I0517 12:06:54.956843 10114 net.cpp:156] Memory required for data: 217435264
I0517 12:06:54.956848 10114 layer_factory.hpp:77] Creating layer conv5_2
I0517 12:06:54.956866 10114 net.cpp:91] Creating Layer conv5_2
I0517 12:06:54.956871 10114 net.cpp:425] conv5_2 <- conv5_1
I0517 12:06:54.956881 10114 net.cpp:399] conv5_2 -> conv5_2
I0517 12:06:54.981060 10114 net.cpp:141] Setting up conv5_2
I0517 12:06:54.981089 10114 net.cpp:148] Top shape: 1 512 19 19 (184832)
I0517 12:06:54.981096 10114 net.cpp:156] Memory required for data: 218174592
I0517 12:06:54.981106 10114 layer_factory.hpp:77] Creating layer relu5_2
I0517 12:06:54.981120 10114 net.cpp:91] Creating Layer relu5_2
I0517 12:06:54.981127 10114 net.cpp:425] relu5_2 <- conv5_2
I0517 12:06:54.981135 10114 net.cpp:386] relu5_2 -> conv5_2 (in-place)
I0517 12:06:54.981369 10114 net.cpp:141] Setting up relu5_2
I0517 12:06:54.981384 10114 net.cpp:148] Top shape: 1 512 19 19 (184832)
I0517 12:06:54.981389 10114 net.cpp:156] Memory required for data: 218913920
I0517 12:06:54.981394 10114 layer_factory.hpp:77] Creating layer conv5_3
I0517 12:06:54.981410 10114 net.cpp:91] Creating Layer conv5_3
I0517 12:06:54.981416 10114 net.cpp:425] conv5_3 <- conv5_2
I0517 12:06:54.981426 10114 net.cpp:399] conv5_3 -> conv5_3
I0517 12:06:55.005480 10114 net.cpp:141] Setting up conv5_3
I0517 12:06:55.005506 10114 net.cpp:148] Top shape: 1 512 19 19 (184832)
I0517 12:06:55.005511 10114 net.cpp:156] Memory required for data: 219653248
I0517 12:06:55.005522 10114 layer_factory.hpp:77] Creating layer relu5_3
I0517 12:06:55.005544 10114 net.cpp:91] Creating Layer relu5_3
I0517 12:06:55.005550 10114 net.cpp:425] relu5_3 <- conv5_3
I0517 12:06:55.005559 10114 net.cpp:386] relu5_3 -> conv5_3 (in-place)
I0517 12:06:55.005931 10114 net.cpp:141] Setting up relu5_3
I0517 12:06:55.005950 10114 net.cpp:148] Top shape: 1 512 19 19 (184832)
I0517 12:06:55.005955 10114 net.cpp:156] Memory required for data: 220392576
I0517 12:06:55.005960 10114 layer_factory.hpp:77] Creating layer pool5
I0517 12:06:55.005971 10114 net.cpp:91] Creating Layer pool5
I0517 12:06:55.005977 10114 net.cpp:425] pool5 <- conv5_3
I0517 12:06:55.005985 10114 net.cpp:399] pool5 -> pool5
I0517 12:06:55.006059 10114 net.cpp:141] Setting up pool5
I0517 12:06:55.006070 10114 net.cpp:148] Top shape: 1 512 19 19 (184832)
I0517 12:06:55.006075 10114 net.cpp:156] Memory required for data: 221131904
I0517 12:06:55.006080 10114 layer_factory.hpp:77] Creating layer fc6
I0517 12:06:55.006098 10114 net.cpp:91] Creating Layer fc6
I0517 12:06:55.006103 10114 net.cpp:425] fc6 <- pool5
I0517 12:06:55.006113 10114 net.cpp:399] fc6 -> fc6
I0517 12:06:55.044919 10114 net.cpp:141] Setting up fc6
I0517 12:06:55.044957 10114 net.cpp:148] Top shape: 1 1024 19 19 (369664)
I0517 12:06:55.044962 10114 net.cpp:156] Memory required for data: 222610560
I0517 12:06:55.044973 10114 layer_factory.hpp:77] Creating layer relu6
I0517 12:06:55.044988 10114 net.cpp:91] Creating Layer relu6
I0517 12:06:55.044996 10114 net.cpp:425] relu6 <- fc6
I0517 12:06:55.045004 10114 net.cpp:386] relu6 -> fc6 (in-place)
I0517 12:06:55.045281 10114 net.cpp:141] Setting up relu6
I0517 12:06:55.045295 10114 net.cpp:148] Top shape: 1 1024 19 19 (369664)
I0517 12:06:55.045298 10114 net.cpp:156] Memory required for data: 224089216
I0517 12:06:55.045302 10114 layer_factory.hpp:77] Creating layer fc7
I0517 12:06:55.045318 10114 net.cpp:91] Creating Layer fc7
I0517 12:06:55.045322 10114 net.cpp:425] fc7 <- fc6
I0517 12:06:55.045331 10114 net.cpp:399] fc7 -> fc7
I0517 12:06:55.054586 10114 net.cpp:141] Setting up fc7
I0517 12:06:55.054605 10114 net.cpp:148] Top shape: 1 1024 19 19 (369664)
I0517 12:06:55.054627 10114 net.cpp:156] Memory required for data: 225567872
I0517 12:06:55.054638 10114 layer_factory.hpp:77] Creating layer relu7
I0517 12:06:55.054646 10114 net.cpp:91] Creating Layer relu7
I0517 12:06:55.054661 10114 net.cpp:425] relu7 <- fc7
I0517 12:06:55.054669 10114 net.cpp:386] relu7 -> fc7 (in-place)
I0517 12:06:55.054877 10114 net.cpp:141] Setting up relu7
I0517 12:06:55.054889 10114 net.cpp:148] Top shape: 1 1024 19 19 (369664)
I0517 12:06:55.054893 10114 net.cpp:156] Memory required for data: 227046528
I0517 12:06:55.054898 10114 layer_factory.hpp:77] Creating layer fc7_relu7_0_split
I0517 12:06:55.054918 10114 net.cpp:91] Creating Layer fc7_relu7_0_split
I0517 12:06:55.054921 10114 net.cpp:425] fc7_relu7_0_split <- fc7
I0517 12:06:55.054929 10114 net.cpp:399] fc7_relu7_0_split -> fc7_relu7_0_split_0
I0517 12:06:55.054936 10114 net.cpp:399] fc7_relu7_0_split -> fc7_relu7_0_split_1
I0517 12:06:55.054949 10114 net.cpp:399] fc7_relu7_0_split -> fc7_relu7_0_split_2
I0517 12:06:55.054957 10114 net.cpp:399] fc7_relu7_0_split -> fc7_relu7_0_split_3
I0517 12:06:55.055050 10114 net.cpp:141] Setting up fc7_relu7_0_split
I0517 12:06:55.055059 10114 net.cpp:148] Top shape: 1 1024 19 19 (369664)
I0517 12:06:55.055066 10114 net.cpp:148] Top shape: 1 1024 19 19 (369664)
I0517 12:06:55.055071 10114 net.cpp:148] Top shape: 1 1024 19 19 (369664)
I0517 12:06:55.055075 10114 net.cpp:148] Top shape: 1 1024 19 19 (369664)
I0517 12:06:55.055078 10114 net.cpp:156] Memory required for data: 232961152
I0517 12:06:55.055083 10114 layer_factory.hpp:77] Creating layer conv6_1
I0517 12:06:55.055095 10114 net.cpp:91] Creating Layer conv6_1
I0517 12:06:55.055100 10114 net.cpp:425] conv6_1 <- fc7_relu7_0_split_0
I0517 12:06:55.055109 10114 net.cpp:399] conv6_1 -> conv6_1
I0517 12:06:55.058454 10114 net.cpp:141] Setting up conv6_1
I0517 12:06:55.058470 10114 net.cpp:148] Top shape: 1 256 19 19 (92416)
I0517 12:06:55.058475 10114 net.cpp:156] Memory required for data: 233330816
I0517 12:06:55.058482 10114 layer_factory.hpp:77] Creating layer conv6_1_relu
I0517 12:06:55.058490 10114 net.cpp:91] Creating Layer conv6_1_relu
I0517 12:06:55.058495 10114 net.cpp:425] conv6_1_relu <- conv6_1
I0517 12:06:55.058501 10114 net.cpp:386] conv6_1_relu -> conv6_1 (in-place)
I0517 12:06:55.058980 10114 net.cpp:141] Setting up conv6_1_relu
I0517 12:06:55.059005 10114 net.cpp:148] Top shape: 1 256 19 19 (92416)
I0517 12:06:55.059010 10114 net.cpp:156] Memory required for data: 233700480
I0517 12:06:55.059015 10114 layer_factory.hpp:77] Creating layer conv6_2
I0517 12:06:55.059028 10114 net.cpp:91] Creating Layer conv6_2
I0517 12:06:55.059033 10114 net.cpp:425] conv6_2 <- conv6_1
I0517 12:06:55.059042 10114 net.cpp:399] conv6_2 -> conv6_2
I0517 12:06:55.069025 10114 net.cpp:141] Setting up conv6_2
I0517 12:06:55.069044 10114 net.cpp:148] Top shape: 1 512 10 10 (51200)
I0517 12:06:55.069048 10114 net.cpp:156] Memory required for data: 233905280
I0517 12:06:55.069080 10114 layer_factory.hpp:77] Creating layer conv6_2_relu
I0517 12:06:55.069089 10114 net.cpp:91] Creating Layer conv6_2_relu
I0517 12:06:55.069093 10114 net.cpp:425] conv6_2_relu <- conv6_2
I0517 12:06:55.069098 10114 net.cpp:386] conv6_2_relu -> conv6_2 (in-place)
I0517 12:06:55.069313 10114 net.cpp:141] Setting up conv6_2_relu
I0517 12:06:55.069324 10114 net.cpp:148] Top shape: 1 512 10 10 (51200)
I0517 12:06:55.069329 10114 net.cpp:156] Memory required for data: 234110080
I0517 12:06:55.069332 10114 layer_factory.hpp:77] Creating layer conv6_2_conv6_2_relu_0_split
I0517 12:06:55.069339 10114 net.cpp:91] Creating Layer conv6_2_conv6_2_relu_0_split
I0517 12:06:55.069344 10114 net.cpp:425] conv6_2_conv6_2_relu_0_split <- conv6_2
I0517 12:06:55.069355 10114 net.cpp:399] conv6_2_conv6_2_relu_0_split -> conv6_2_conv6_2_relu_0_split_0
I0517 12:06:55.069363 10114 net.cpp:399] conv6_2_conv6_2_relu_0_split -> conv6_2_conv6_2_relu_0_split_1
I0517 12:06:55.069370 10114 net.cpp:399] conv6_2_conv6_2_relu_0_split -> conv6_2_conv6_2_relu_0_split_2
I0517 12:06:55.069377 10114 net.cpp:399] conv6_2_conv6_2_relu_0_split -> conv6_2_conv6_2_relu_0_split_3
I0517 12:06:55.069499 10114 net.cpp:141] Setting up conv6_2_conv6_2_relu_0_split
I0517 12:06:55.069510 10114 net.cpp:148] Top shape: 1 512 10 10 (51200)
I0517 12:06:55.069514 10114 net.cpp:148] Top shape: 1 512 10 10 (51200)
I0517 12:06:55.069519 10114 net.cpp:148] Top shape: 1 512 10 10 (51200)
I0517 12:06:55.069525 10114 net.cpp:148] Top shape: 1 512 10 10 (51200)
I0517 12:06:55.069527 10114 net.cpp:156] Memory required for data: 234929280
I0517 12:06:55.069532 10114 layer_factory.hpp:77] Creating layer conv7_1
I0517 12:06:55.069545 10114 net.cpp:91] Creating Layer conv7_1
I0517 12:06:55.069550 10114 net.cpp:425] conv7_1 <- conv6_2_conv6_2_relu_0_split_0
I0517 12:06:55.069557 10114 net.cpp:399] conv7_1 -> conv7_1
I0517 12:06:55.071669 10114 net.cpp:141] Setting up conv7_1
I0517 12:06:55.071686 10114 net.cpp:148] Top shape: 1 128 10 10 (12800)
I0517 12:06:55.071691 10114 net.cpp:156] Memory required for data: 234980480
I0517 12:06:55.071697 10114 layer_factory.hpp:77] Creating layer conv7_1_relu
I0517 12:06:55.071703 10114 net.cpp:91] Creating Layer conv7_1_relu
I0517 12:06:55.071707 10114 net.cpp:425] conv7_1_relu <- conv7_1
I0517 12:06:55.071713 10114 net.cpp:386] conv7_1_relu -> conv7_1 (in-place)
I0517 12:06:55.071915 10114 net.cpp:141] Setting up conv7_1_relu
I0517 12:06:55.071928 10114 net.cpp:148] Top shape: 1 128 10 10 (12800)
I0517 12:06:55.071931 10114 net.cpp:156] Memory required for data: 235031680
I0517 12:06:55.071935 10114 layer_factory.hpp:77] Creating layer conv7_2
I0517 12:06:55.071948 10114 net.cpp:91] Creating Layer conv7_2
I0517 12:06:55.071951 10114 net.cpp:425] conv7_2 <- conv7_1
I0517 12:06:55.071960 10114 net.cpp:399] conv7_2 -> conv7_2
I0517 12:06:55.075461 10114 net.cpp:141] Setting up conv7_2
I0517 12:06:55.075476 10114 net.cpp:148] Top shape: 1 256 5 5 (6400)
I0517 12:06:55.075480 10114 net.cpp:156] Memory required for data: 235057280
I0517 12:06:55.075489 10114 layer_factory.hpp:77] Creating layer conv7_2_relu
I0517 12:06:55.075497 10114 net.cpp:91] Creating Layer conv7_2_relu
I0517 12:06:55.075501 10114 net.cpp:425] conv7_2_relu <- conv7_2
I0517 12:06:55.075506 10114 net.cpp:386] conv7_2_relu -> conv7_2 (in-place)
I0517 12:06:55.075853 10114 net.cpp:141] Setting up conv7_2_relu
I0517 12:06:55.075870 10114 net.cpp:148] Top shape: 1 256 5 5 (6400)
I0517 12:06:55.075875 10114 net.cpp:156] Memory required for data: 235082880
I0517 12:06:55.075880 10114 layer_factory.hpp:77] Creating layer conv7_2_conv7_2_relu_0_split
I0517 12:06:55.075886 10114 net.cpp:91] Creating Layer conv7_2_conv7_2_relu_0_split
I0517 12:06:55.075901 10114 net.cpp:425] conv7_2_conv7_2_relu_0_split <- conv7_2
I0517 12:06:55.075908 10114 net.cpp:399] conv7_2_conv7_2_relu_0_split -> conv7_2_conv7_2_relu_0_split_0
I0517 12:06:55.075917 10114 net.cpp:399] conv7_2_conv7_2_relu_0_split -> conv7_2_conv7_2_relu_0_split_1
I0517 12:06:55.075923 10114 net.cpp:399] conv7_2_conv7_2_relu_0_split -> conv7_2_conv7_2_relu_0_split_2
I0517 12:06:55.075932 10114 net.cpp:399] conv7_2_conv7_2_relu_0_split -> conv7_2_conv7_2_relu_0_split_3
I0517 12:06:55.076031 10114 net.cpp:141] Setting up conv7_2_conv7_2_relu_0_split
I0517 12:06:55.076041 10114 net.cpp:148] Top shape: 1 256 5 5 (6400)
I0517 12:06:55.076046 10114 net.cpp:148] Top shape: 1 256 5 5 (6400)
I0517 12:06:55.076051 10114 net.cpp:148] Top shape: 1 256 5 5 (6400)
I0517 12:06:55.076056 10114 net.cpp:148] Top shape: 1 256 5 5 (6400)
I0517 12:06:55.076058 10114 net.cpp:156] Memory required for data: 235185280
I0517 12:06:55.076062 10114 layer_factory.hpp:77] Creating layer conv8_1
I0517 12:06:55.076074 10114 net.cpp:91] Creating Layer conv8_1
I0517 12:06:55.076081 10114 net.cpp:425] conv8_1 <- conv7_2_conv7_2_relu_0_split_0
I0517 12:06:55.076088 10114 net.cpp:399] conv8_1 -> conv8_1
I0517 12:06:55.077509 10114 net.cpp:141] Setting up conv8_1
I0517 12:06:55.077536 10114 net.cpp:148] Top shape: 1 128 5 5 (3200)
I0517 12:06:55.077540 10114 net.cpp:156] Memory required for data: 235198080
I0517 12:06:55.077558 10114 layer_factory.hpp:77] Creating layer conv8_1_relu
I0517 12:06:55.077579 10114 net.cpp:91] Creating Layer conv8_1_relu
I0517 12:06:55.077584 10114 net.cpp:425] conv8_1_relu <- conv8_1
I0517 12:06:55.077590 10114 net.cpp:386] conv8_1_relu -> conv8_1 (in-place)
I0517 12:06:55.077800 10114 net.cpp:141] Setting up conv8_1_relu
I0517 12:06:55.077813 10114 net.cpp:148] Top shape: 1 128 5 5 (3200)
I0517 12:06:55.077817 10114 net.cpp:156] Memory required for data: 235210880
I0517 12:06:55.077822 10114 layer_factory.hpp:77] Creating layer conv8_2
I0517 12:06:55.077836 10114 net.cpp:91] Creating Layer conv8_2
I0517 12:06:55.077841 10114 net.cpp:425] conv8_2 <- conv8_1
I0517 12:06:55.077850 10114 net.cpp:399] conv8_2 -> conv8_2
I0517 12:06:55.081368 10114 net.cpp:141] Setting up conv8_2
I0517 12:06:55.081393 10114 net.cpp:148] Top shape: 1 256 3 3 (2304)
I0517 12:06:55.081398 10114 net.cpp:156] Memory required for data: 235220096
I0517 12:06:55.081405 10114 layer_factory.hpp:77] Creating layer conv8_2_relu
I0517 12:06:55.081414 10114 net.cpp:91] Creating Layer conv8_2_relu
I0517 12:06:55.081419 10114 net.cpp:425] conv8_2_relu <- conv8_2
I0517 12:06:55.081425 10114 net.cpp:386] conv8_2_relu -> conv8_2 (in-place)
I0517 12:06:55.081641 10114 net.cpp:141] Setting up conv8_2_relu
I0517 12:06:55.081653 10114 net.cpp:148] Top shape: 1 256 3 3 (2304)
I0517 12:06:55.081657 10114 net.cpp:156] Memory required for data: 235229312
I0517 12:06:55.081661 10114 layer_factory.hpp:77] Creating layer conv8_2_conv8_2_relu_0_split
I0517 12:06:55.081670 10114 net.cpp:91] Creating Layer conv8_2_conv8_2_relu_0_split
I0517 12:06:55.081675 10114 net.cpp:425] conv8_2_conv8_2_relu_0_split <- conv8_2
I0517 12:06:55.081681 10114 net.cpp:399] conv8_2_conv8_2_relu_0_split -> conv8_2_conv8_2_relu_0_split_0
I0517 12:06:55.081689 10114 net.cpp:399] conv8_2_conv8_2_relu_0_split -> conv8_2_conv8_2_relu_0_split_1
I0517 12:06:55.081696 10114 net.cpp:399] conv8_2_conv8_2_relu_0_split -> conv8_2_conv8_2_relu_0_split_2
I0517 12:06:55.081702 10114 net.cpp:399] conv8_2_conv8_2_relu_0_split -> conv8_2_conv8_2_relu_0_split_3
I0517 12:06:55.081809 10114 net.cpp:141] Setting up conv8_2_conv8_2_relu_0_split
I0517 12:06:55.081820 10114 net.cpp:148] Top shape: 1 256 3 3 (2304)
I0517 12:06:55.081825 10114 net.cpp:148] Top shape: 1 256 3 3 (2304)
I0517 12:06:55.081830 10114 net.cpp:148] Top shape: 1 256 3 3 (2304)
I0517 12:06:55.081835 10114 net.cpp:148] Top shape: 1 256 3 3 (2304)
I0517 12:06:55.081837 10114 net.cpp:156] Memory required for data: 235266176
I0517 12:06:55.081841 10114 layer_factory.hpp:77] Creating layer pool6
I0517 12:06:55.081850 10114 net.cpp:91] Creating Layer pool6
I0517 12:06:55.081854 10114 net.cpp:425] pool6 <- conv8_2_conv8_2_relu_0_split_0
I0517 12:06:55.081861 10114 net.cpp:399] pool6 -> pool6
I0517 12:06:55.082227 10114 net.cpp:141] Setting up pool6
I0517 12:06:55.082252 10114 net.cpp:148] Top shape: 1 256 1 1 (256)
I0517 12:06:55.082257 10114 net.cpp:156] Memory required for data: 235267200
I0517 12:06:55.082262 10114 layer_factory.hpp:77] Creating layer pool6_pool6_0_split
I0517 12:06:55.082272 10114 net.cpp:91] Creating Layer pool6_pool6_0_split
I0517 12:06:55.082276 10114 net.cpp:425] pool6_pool6_0_split <- pool6
I0517 12:06:55.082283 10114 net.cpp:399] pool6_pool6_0_split -> pool6_pool6_0_split_0
I0517 12:06:55.082290 10114 net.cpp:399] pool6_pool6_0_split -> pool6_pool6_0_split_1
I0517 12:06:55.082296 10114 net.cpp:399] pool6_pool6_0_split -> pool6_pool6_0_split_2
I0517 12:06:55.082365 10114 net.cpp:141] Setting up pool6_pool6_0_split
I0517 12:06:55.082373 10114 net.cpp:148] Top shape: 1 256 1 1 (256)
I0517 12:06:55.082377 10114 net.cpp:148] Top shape: 1 256 1 1 (256)
I0517 12:06:55.082382 10114 net.cpp:148] Top shape: 1 256 1 1 (256)
I0517 12:06:55.082386 10114 net.cpp:156] Memory required for data: 235270272
I0517 12:06:55.082388 10114 layer_factory.hpp:77] Creating layer conv4_3_norm
I0517 12:06:55.082399 10114 net.cpp:91] Creating Layer conv4_3_norm
I0517 12:06:55.082403 10114 net.cpp:425] conv4_3_norm <- conv4_3_relu4_3_0_split_1
I0517 12:06:55.082412 10114 net.cpp:399] conv4_3_norm -> conv4_3_norm
I0517 12:06:55.082644 10114 net.cpp:141] Setting up conv4_3_norm
I0517 12:06:55.082655 10114 net.cpp:148] Top shape: 1 512 38 38 (739328)
I0517 12:06:55.082659 10114 net.cpp:156] Memory required for data: 238227584
I0517 12:06:55.082665 10114 layer_factory.hpp:77] Creating layer conv4_3_norm_conv4_3_norm_0_split
I0517 12:06:55.082674 10114 net.cpp:91] Creating Layer conv4_3_norm_conv4_3_norm_0_split
I0517 12:06:55.082679 10114 net.cpp:425] conv4_3_norm_conv4_3_norm_0_split <- conv4_3_norm
I0517 12:06:55.082685 10114 net.cpp:399] conv4_3_norm_conv4_3_norm_0_split -> conv4_3_norm_conv4_3_norm_0_split_0
I0517 12:06:55.082692 10114 net.cpp:399] conv4_3_norm_conv4_3_norm_0_split -> conv4_3_norm_conv4_3_norm_0_split_1
I0517 12:06:55.082698 10114 net.cpp:399] conv4_3_norm_conv4_3_norm_0_split -> conv4_3_norm_conv4_3_norm_0_split_2
I0517 12:06:55.082763 10114 net.cpp:141] Setting up conv4_3_norm_conv4_3_norm_0_split
I0517 12:06:55.082772 10114 net.cpp:148] Top shape: 1 512 38 38 (739328)
I0517 12:06:55.082777 10114 net.cpp:148] Top shape: 1 512 38 38 (739328)
I0517 12:06:55.082782 10114 net.cpp:148] Top shape: 1 512 38 38 (739328)
I0517 12:06:55.082784 10114 net.cpp:156] Memory required for data: 247099520
I0517 12:06:55.082788 10114 layer_factory.hpp:77] Creating layer conv4_3_norm_mbox_loc
I0517 12:06:55.082800 10114 net.cpp:91] Creating Layer conv4_3_norm_mbox_loc
I0517 12:06:55.082805 10114 net.cpp:425] conv4_3_norm_mbox_loc <- conv4_3_norm_conv4_3_norm_0_split_0
I0517 12:06:55.082813 10114 net.cpp:399] conv4_3_norm_mbox_loc -> conv4_3_norm_mbox_loc
I0517 12:06:55.084285 10114 net.cpp:141] Setting up conv4_3_norm_mbox_loc
I0517 12:06:55.084311 10114 net.cpp:148] Top shape: 1 12 38 38 (17328)
I0517 12:06:55.084314 10114 net.cpp:156] Memory required for data: 247168832
I0517 12:06:55.084322 10114 layer_factory.hpp:77] Creating layer conv4_3_norm_mbox_loc_perm
I0517 12:06:55.084334 10114 net.cpp:91] Creating Layer conv4_3_norm_mbox_loc_perm
I0517 12:06:55.084339 10114 net.cpp:425] conv4_3_norm_mbox_loc_perm <- conv4_3_norm_mbox_loc
I0517 12:06:55.084347 10114 net.cpp:399] conv4_3_norm_mbox_loc_perm -> conv4_3_norm_mbox_loc_perm
I0517 12:06:55.084486 10114 net.cpp:141] Setting up conv4_3_norm_mbox_loc_perm
I0517 12:06:55.084496 10114 net.cpp:148] Top shape: 1 38 38 12 (17328)
I0517 12:06:55.084499 10114 net.cpp:156] Memory required for data: 247238144
I0517 12:06:55.084503 10114 layer_factory.hpp:77] Creating layer conv4_3_norm_mbox_loc_flat
I0517 12:06:55.084512 10114 net.cpp:91] Creating Layer conv4_3_norm_mbox_loc_flat
I0517 12:06:55.084517 10114 net.cpp:425] conv4_3_norm_mbox_loc_flat <- conv4_3_norm_mbox_loc_perm
I0517 12:06:55.084524 10114 net.cpp:399] conv4_3_norm_mbox_loc_flat -> conv4_3_norm_mbox_loc_flat
I0517 12:06:55.084558 10114 net.cpp:141] Setting up conv4_3_norm_mbox_loc_flat
I0517 12:06:55.084569 10114 net.cpp:148] Top shape: 1 17328 (17328)
I0517 12:06:55.084573 10114 net.cpp:156] Memory required for data: 247307456
I0517 12:06:55.084576 10114 layer_factory.hpp:77] Creating layer conv4_3_norm_mbox_conf
I0517 12:06:55.084590 10114 net.cpp:91] Creating Layer conv4_3_norm_mbox_conf
I0517 12:06:55.084594 10114 net.cpp:425] conv4_3_norm_mbox_conf <- conv4_3_norm_conv4_3_norm_0_split_1
I0517 12:06:55.084601 10114 net.cpp:399] conv4_3_norm_mbox_conf -> conv4_3_norm_mbox_conf
I0517 12:06:55.086221 10114 net.cpp:141] Setting up conv4_3_norm_mbox_conf
I0517 12:06:55.086249 10114 net.cpp:148] Top shape: 1 15 38 38 (21660)
I0517 12:06:55.086254 10114 net.cpp:156] Memory required for data: 247394096
I0517 12:06:55.086262 10114 layer_factory.hpp:77] Creating layer conv4_3_norm_mbox_conf_perm
I0517 12:06:55.086272 10114 net.cpp:91] Creating Layer conv4_3_norm_mbox_conf_perm
I0517 12:06:55.086279 10114 net.cpp:425] conv4_3_norm_mbox_conf_perm <- conv4_3_norm_mbox_conf
I0517 12:06:55.086285 10114 net.cpp:399] conv4_3_norm_mbox_conf_perm -> conv4_3_norm_mbox_conf_perm
I0517 12:06:55.086423 10114 net.cpp:141] Setting up conv4_3_norm_mbox_conf_perm
I0517 12:06:55.086432 10114 net.cpp:148] Top shape: 1 38 38 15 (21660)
I0517 12:06:55.086448 10114 net.cpp:156] Memory required for data: 247480736
I0517 12:06:55.086452 10114 layer_factory.hpp:77] Creating layer conv4_3_norm_mbox_conf_flat
I0517 12:06:55.086460 10114 net.cpp:91] Creating Layer conv4_3_norm_mbox_conf_flat
I0517 12:06:55.086465 10114 net.cpp:425] conv4_3_norm_mbox_conf_flat <- conv4_3_norm_mbox_conf_perm
I0517 12:06:55.086470 10114 net.cpp:399] conv4_3_norm_mbox_conf_flat -> conv4_3_norm_mbox_conf_flat
I0517 12:06:55.086508 10114 net.cpp:141] Setting up conv4_3_norm_mbox_conf_flat
I0517 12:06:55.086519 10114 net.cpp:148] Top shape: 1 21660 (21660)
I0517 12:06:55.086524 10114 net.cpp:156] Memory required for data: 247567376
I0517 12:06:55.086527 10114 layer_factory.hpp:77] Creating layer conv4_3_norm_mbox_priorbox
I0517 12:06:55.086546 10114 net.cpp:91] Creating Layer conv4_3_norm_mbox_priorbox
I0517 12:06:55.086551 10114 net.cpp:425] conv4_3_norm_mbox_priorbox <- conv4_3_norm_conv4_3_norm_0_split_2
I0517 12:06:55.086557 10114 net.cpp:425] conv4_3_norm_mbox_priorbox <- data_data_0_split_1
I0517 12:06:55.086563 10114 net.cpp:399] conv4_3_norm_mbox_priorbox -> conv4_3_norm_mbox_priorbox
I0517 12:06:55.086602 10114 net.cpp:141] Setting up conv4_3_norm_mbox_priorbox
I0517 12:06:55.086611 10114 net.cpp:148] Top shape: 1 2 17328 (34656)
I0517 12:06:55.086616 10114 net.cpp:156] Memory required for data: 247706000
I0517 12:06:55.086619 10114 layer_factory.hpp:77] Creating layer fc7_mbox_loc
I0517 12:06:55.086632 10114 net.cpp:91] Creating Layer fc7_mbox_loc
I0517 12:06:55.086635 10114 net.cpp:425] fc7_mbox_loc <- fc7_relu7_0_split_1
I0517 12:06:55.086642 10114 net.cpp:399] fc7_mbox_loc -> fc7_mbox_loc
I0517 12:06:55.089658 10114 net.cpp:141] Setting up fc7_mbox_loc
I0517 12:06:55.089673 10114 net.cpp:148] Top shape: 1 24 19 19 (8664)
I0517 12:06:55.089678 10114 net.cpp:156] Memory required for data: 247740656
I0517 12:06:55.089684 10114 layer_factory.hpp:77] Creating layer fc7_mbox_loc_perm
I0517 12:06:55.089694 10114 net.cpp:91] Creating Layer fc7_mbox_loc_perm
I0517 12:06:55.089699 10114 net.cpp:425] fc7_mbox_loc_perm <- fc7_mbox_loc
I0517 12:06:55.089705 10114 net.cpp:399] fc7_mbox_loc_perm -> fc7_mbox_loc_perm
I0517 12:06:55.089854 10114 net.cpp:141] Setting up fc7_mbox_loc_perm
I0517 12:06:55.089864 10114 net.cpp:148] Top shape: 1 19 19 24 (8664)
I0517 12:06:55.089867 10114 net.cpp:156] Memory required for data: 247775312
I0517 12:06:55.089870 10114 layer_factory.hpp:77] Creating layer fc7_mbox_loc_flat
I0517 12:06:55.089879 10114 net.cpp:91] Creating Layer fc7_mbox_loc_flat
I0517 12:06:55.089882 10114 net.cpp:425] fc7_mbox_loc_flat <- fc7_mbox_loc_perm
I0517 12:06:55.089890 10114 net.cpp:399] fc7_mbox_loc_flat -> fc7_mbox_loc_flat
I0517 12:06:55.089925 10114 net.cpp:141] Setting up fc7_mbox_loc_flat
I0517 12:06:55.089933 10114 net.cpp:148] Top shape: 1 8664 (8664)
I0517 12:06:55.089937 10114 net.cpp:156] Memory required for data: 247809968
I0517 12:06:55.089941 10114 layer_factory.hpp:77] Creating layer fc7_mbox_conf
I0517 12:06:55.089952 10114 net.cpp:91] Creating Layer fc7_mbox_conf
I0517 12:06:55.089956 10114 net.cpp:425] fc7_mbox_conf <- fc7_relu7_0_split_2
I0517 12:06:55.089965 10114 net.cpp:399] fc7_mbox_conf -> fc7_mbox_conf
I0517 12:06:55.093282 10114 net.cpp:141] Setting up fc7_mbox_conf
I0517 12:06:55.093309 10114 net.cpp:148] Top shape: 1 30 19 19 (10830)
I0517 12:06:55.093314 10114 net.cpp:156] Memory required for data: 247853288
I0517 12:06:55.093322 10114 layer_factory.hpp:77] Creating layer fc7_mbox_conf_perm
I0517 12:06:55.093333 10114 net.cpp:91] Creating Layer fc7_mbox_conf_perm
I0517 12:06:55.093338 10114 net.cpp:425] fc7_mbox_conf_perm <- fc7_mbox_conf
I0517 12:06:55.093345 10114 net.cpp:399] fc7_mbox_conf_perm -> fc7_mbox_conf_perm
I0517 12:06:55.093488 10114 net.cpp:141] Setting up fc7_mbox_conf_perm
I0517 12:06:55.093498 10114 net.cpp:148] Top shape: 1 19 19 30 (10830)
I0517 12:06:55.093502 10114 net.cpp:156] Memory required for data: 247896608
I0517 12:06:55.093507 10114 layer_factory.hpp:77] Creating layer fc7_mbox_conf_flat
I0517 12:06:55.093526 10114 net.cpp:91] Creating Layer fc7_mbox_conf_flat
I0517 12:06:55.093533 10114 net.cpp:425] fc7_mbox_conf_flat <- fc7_mbox_conf_perm
I0517 12:06:55.093538 10114 net.cpp:399] fc7_mbox_conf_flat -> fc7_mbox_conf_flat
I0517 12:06:55.093576 10114 net.cpp:141] Setting up fc7_mbox_conf_flat
I0517 12:06:55.093593 10114 net.cpp:148] Top shape: 1 10830 (10830)
I0517 12:06:55.093600 10114 net.cpp:156] Memory required for data: 247939928
I0517 12:06:55.093603 10114 layer_factory.hpp:77] Creating layer fc7_mbox_priorbox
I0517 12:06:55.093611 10114 net.cpp:91] Creating Layer fc7_mbox_priorbox
I0517 12:06:55.093616 10114 net.cpp:425] fc7_mbox_priorbox <- fc7_relu7_0_split_3
I0517 12:06:55.093623 10114 net.cpp:425] fc7_mbox_priorbox <- data_data_0_split_2
I0517 12:06:55.093631 10114 net.cpp:399] fc7_mbox_priorbox -> fc7_mbox_priorbox
I0517 12:06:55.093670 10114 net.cpp:141] Setting up fc7_mbox_priorbox
I0517 12:06:55.093680 10114 net.cpp:148] Top shape: 1 2 8664 (17328)
I0517 12:06:55.093683 10114 net.cpp:156] Memory required for data: 248009240
I0517 12:06:55.093688 10114 layer_factory.hpp:77] Creating layer conv6_2_mbox_loc
I0517 12:06:55.093699 10114 net.cpp:91] Creating Layer conv6_2_mbox_loc
I0517 12:06:55.093704 10114 net.cpp:425] conv6_2_mbox_loc <- conv6_2_conv6_2_relu_0_split_1
I0517 12:06:55.093713 10114 net.cpp:399] conv6_2_mbox_loc -> conv6_2_mbox_loc
I0517 12:06:55.096209 10114 net.cpp:141] Setting up conv6_2_mbox_loc
I0517 12:06:55.096235 10114 net.cpp:148] Top shape: 1 24 10 10 (2400)
I0517 12:06:55.096238 10114 net.cpp:156] Memory required for data: 248018840
I0517 12:06:55.096247 10114 layer_factory.hpp:77] Creating layer conv6_2_mbox_loc_perm
I0517 12:06:55.096256 10114 net.cpp:91] Creating Layer conv6_2_mbox_loc_perm
I0517 12:06:55.096261 10114 net.cpp:425] conv6_2_mbox_loc_perm <- conv6_2_mbox_loc
I0517 12:06:55.096269 10114 net.cpp:399] conv6_2_mbox_loc_perm -> conv6_2_mbox_loc_perm
I0517 12:06:55.096431 10114 net.cpp:141] Setting up conv6_2_mbox_loc_perm
I0517 12:06:55.096441 10114 net.cpp:148] Top shape: 1 10 10 24 (2400)
I0517 12:06:55.096444 10114 net.cpp:156] Memory required for data: 248028440
I0517 12:06:55.096448 10114 layer_factory.hpp:77] Creating layer conv6_2_mbox_loc_flat
I0517 12:06:55.096457 10114 net.cpp:91] Creating Layer conv6_2_mbox_loc_flat
I0517 12:06:55.096460 10114 net.cpp:425] conv6_2_mbox_loc_flat <- conv6_2_mbox_loc_perm
I0517 12:06:55.096468 10114 net.cpp:399] conv6_2_mbox_loc_flat -> conv6_2_mbox_loc_flat
I0517 12:06:55.096503 10114 net.cpp:141] Setting up conv6_2_mbox_loc_flat
I0517 12:06:55.096513 10114 net.cpp:148] Top shape: 1 2400 (2400)
I0517 12:06:55.096515 10114 net.cpp:156] Memory required for data: 248038040
I0517 12:06:55.096519 10114 layer_factory.hpp:77] Creating layer conv6_2_mbox_conf
I0517 12:06:55.096534 10114 net.cpp:91] Creating Layer conv6_2_mbox_conf
I0517 12:06:55.096539 10114 net.cpp:425] conv6_2_mbox_conf <- conv6_2_conv6_2_relu_0_split_2
I0517 12:06:55.096545 10114 net.cpp:399] conv6_2_mbox_conf -> conv6_2_mbox_conf
I0517 12:06:55.098712 10114 net.cpp:141] Setting up conv6_2_mbox_conf
I0517 12:06:55.098727 10114 net.cpp:148] Top shape: 1 30 10 10 (3000)
I0517 12:06:55.098731 10114 net.cpp:156] Memory required for data: 248050040
I0517 12:06:55.098738 10114 layer_factory.hpp:77] Creating layer conv6_2_mbox_conf_perm
I0517 12:06:55.098747 10114 net.cpp:91] Creating Layer conv6_2_mbox_conf_perm
I0517 12:06:55.098752 10114 net.cpp:425] conv6_2_mbox_conf_perm <- conv6_2_mbox_conf
I0517 12:06:55.098758 10114 net.cpp:399] conv6_2_mbox_conf_perm -> conv6_2_mbox_conf_perm
I0517 12:06:55.098912 10114 net.cpp:141] Setting up conv6_2_mbox_conf_perm
I0517 12:06:55.098922 10114 net.cpp:148] Top shape: 1 10 10 30 (3000)
I0517 12:06:55.098927 10114 net.cpp:156] Memory required for data: 248062040
I0517 12:06:55.098932 10114 layer_factory.hpp:77] Creating layer conv6_2_mbox_conf_flat
I0517 12:06:55.098938 10114 net.cpp:91] Creating Layer conv6_2_mbox_conf_flat
I0517 12:06:55.098942 10114 net.cpp:425] conv6_2_mbox_conf_flat <- conv6_2_mbox_conf_perm
I0517 12:06:55.098961 10114 net.cpp:399] conv6_2_mbox_conf_flat -> conv6_2_mbox_conf_flat
I0517 12:06:55.098999 10114 net.cpp:141] Setting up conv6_2_mbox_conf_flat
I0517 12:06:55.099007 10114 net.cpp:148] Top shape: 1 3000 (3000)
I0517 12:06:55.099011 10114 net.cpp:156] Memory required for data: 248074040
I0517 12:06:55.099014 10114 layer_factory.hpp:77] Creating layer conv6_2_mbox_priorbox
I0517 12:06:55.099025 10114 net.cpp:91] Creating Layer conv6_2_mbox_priorbox
I0517 12:06:55.099028 10114 net.cpp:425] conv6_2_mbox_priorbox <- conv6_2_conv6_2_relu_0_split_3
I0517 12:06:55.099033 10114 net.cpp:425] conv6_2_mbox_priorbox <- data_data_0_split_3
I0517 12:06:55.099041 10114 net.cpp:399] conv6_2_mbox_priorbox -> conv6_2_mbox_priorbox
I0517 12:06:55.099077 10114 net.cpp:141] Setting up conv6_2_mbox_priorbox
I0517 12:06:55.099086 10114 net.cpp:148] Top shape: 1 2 2400 (4800)
I0517 12:06:55.099089 10114 net.cpp:156] Memory required for data: 248093240
I0517 12:06:55.099092 10114 layer_factory.hpp:77] Creating layer conv7_2_mbox_loc
I0517 12:06:55.099123 10114 net.cpp:91] Creating Layer conv7_2_mbox_loc
I0517 12:06:55.099128 10114 net.cpp:425] conv7_2_mbox_loc <- conv7_2_conv7_2_relu_0_split_1
I0517 12:06:55.099134 10114 net.cpp:399] conv7_2_mbox_loc -> conv7_2_mbox_loc
I0517 12:06:55.100644 10114 net.cpp:141] Setting up conv7_2_mbox_loc
I0517 12:06:55.100672 10114 net.cpp:148] Top shape: 1 24 5 5 (600)
I0517 12:06:55.100677 10114 net.cpp:156] Memory required for data: 248095640
I0517 12:06:55.100683 10114 layer_factory.hpp:77] Creating layer conv7_2_mbox_loc_perm
I0517 12:06:55.100697 10114 net.cpp:91] Creating Layer conv7_2_mbox_loc_perm
I0517 12:06:55.100703 10114 net.cpp:425] conv7_2_mbox_loc_perm <- conv7_2_mbox_loc
I0517 12:06:55.100711 10114 net.cpp:399] conv7_2_mbox_loc_perm -> conv7_2_mbox_loc_perm
I0517 12:06:55.100867 10114 net.cpp:141] Setting up conv7_2_mbox_loc_perm
I0517 12:06:55.100884 10114 net.cpp:148] Top shape: 1 5 5 24 (600)
I0517 12:06:55.100888 10114 net.cpp:156] Memory required for data: 248098040
I0517 12:06:55.100893 10114 layer_factory.hpp:77] Creating layer conv7_2_mbox_loc_flat
I0517 12:06:55.100901 10114 net.cpp:91] Creating Layer conv7_2_mbox_loc_flat
I0517 12:06:55.100905 10114 net.cpp:425] conv7_2_mbox_loc_flat <- conv7_2_mbox_loc_perm
I0517 12:06:55.100911 10114 net.cpp:399] conv7_2_mbox_loc_flat -> conv7_2_mbox_loc_flat
I0517 12:06:55.100950 10114 net.cpp:141] Setting up conv7_2_mbox_loc_flat
I0517 12:06:55.100960 10114 net.cpp:148] Top shape: 1 600 (600)
I0517 12:06:55.100962 10114 net.cpp:156] Memory required for data: 248100440
I0517 12:06:55.100966 10114 layer_factory.hpp:77] Creating layer conv7_2_mbox_conf
I0517 12:06:55.100978 10114 net.cpp:91] Creating Layer conv7_2_mbox_conf
I0517 12:06:55.100982 10114 net.cpp:425] conv7_2_mbox_conf <- conv7_2_conv7_2_relu_0_split_2
I0517 12:06:55.100991 10114 net.cpp:399] conv7_2_mbox_conf -> conv7_2_mbox_conf
I0517 12:06:55.103068 10114 net.cpp:141] Setting up conv7_2_mbox_conf
I0517 12:06:55.103083 10114 net.cpp:148] Top shape: 1 30 5 5 (750)
I0517 12:06:55.103087 10114 net.cpp:156] Memory required for data: 248103440
I0517 12:06:55.103094 10114 layer_factory.hpp:77] Creating layer conv7_2_mbox_conf_perm
I0517 12:06:55.103106 10114 net.cpp:91] Creating Layer conv7_2_mbox_conf_perm
I0517 12:06:55.103109 10114 net.cpp:425] conv7_2_mbox_conf_perm <- conv7_2_mbox_conf
I0517 12:06:55.103116 10114 net.cpp:399] conv7_2_mbox_conf_perm -> conv7_2_mbox_conf_perm
I0517 12:06:55.103269 10114 net.cpp:141] Setting up conv7_2_mbox_conf_perm
I0517 12:06:55.103279 10114 net.cpp:148] Top shape: 1 5 5 30 (750)
I0517 12:06:55.103283 10114 net.cpp:156] Memory required for data: 248106440
I0517 12:06:55.103287 10114 layer_factory.hpp:77] Creating layer conv7_2_mbox_conf_flat
I0517 12:06:55.103296 10114 net.cpp:91] Creating Layer conv7_2_mbox_conf_flat
I0517 12:06:55.103299 10114 net.cpp:425] conv7_2_mbox_conf_flat <- conv7_2_mbox_conf_perm
I0517 12:06:55.103307 10114 net.cpp:399] conv7_2_mbox_conf_flat -> conv7_2_mbox_conf_flat
I0517 12:06:55.103341 10114 net.cpp:141] Setting up conv7_2_mbox_conf_flat
I0517 12:06:55.103363 10114 net.cpp:148] Top shape: 1 750 (750)
I0517 12:06:55.103368 10114 net.cpp:156] Memory required for data: 248109440
I0517 12:06:55.103371 10114 layer_factory.hpp:77] Creating layer conv7_2_mbox_priorbox
I0517 12:06:55.103379 10114 net.cpp:91] Creating Layer conv7_2_mbox_priorbox
I0517 12:06:55.103382 10114 net.cpp:425] conv7_2_mbox_priorbox <- conv7_2_conv7_2_relu_0_split_3
I0517 12:06:55.103389 10114 net.cpp:425] conv7_2_mbox_priorbox <- data_data_0_split_4
I0517 12:06:55.103394 10114 net.cpp:399] conv7_2_mbox_priorbox -> conv7_2_mbox_priorbox
I0517 12:06:55.103446 10114 net.cpp:141] Setting up conv7_2_mbox_priorbox
I0517 12:06:55.103454 10114 net.cpp:148] Top shape: 1 2 600 (1200)
I0517 12:06:55.103458 10114 net.cpp:156] Memory required for data: 248114240
I0517 12:06:55.103462 10114 layer_factory.hpp:77] Creating layer conv8_2_mbox_loc
I0517 12:06:55.103473 10114 net.cpp:91] Creating Layer conv8_2_mbox_loc
I0517 12:06:55.103478 10114 net.cpp:425] conv8_2_mbox_loc <- conv8_2_conv8_2_relu_0_split_1
I0517 12:06:55.103487 10114 net.cpp:399] conv8_2_mbox_loc -> conv8_2_mbox_loc
I0517 12:06:55.105491 10114 net.cpp:141] Setting up conv8_2_mbox_loc
I0517 12:06:55.105506 10114 net.cpp:148] Top shape: 1 24 3 3 (216)
I0517 12:06:55.105510 10114 net.cpp:156] Memory required for data: 248115104
I0517 12:06:55.105516 10114 layer_factory.hpp:77] Creating layer conv8_2_mbox_loc_perm
I0517 12:06:55.105526 10114 net.cpp:91] Creating Layer conv8_2_mbox_loc_perm
I0517 12:06:55.105533 10114 net.cpp:425] conv8_2_mbox_loc_perm <- conv8_2_mbox_loc
I0517 12:06:55.105540 10114 net.cpp:399] conv8_2_mbox_loc_perm -> conv8_2_mbox_loc_perm
I0517 12:06:55.105692 10114 net.cpp:141] Setting up conv8_2_mbox_loc_perm
I0517 12:06:55.105708 10114 net.cpp:148] Top shape: 1 3 3 24 (216)
I0517 12:06:55.105712 10114 net.cpp:156] Memory required for data: 248115968
I0517 12:06:55.105716 10114 layer_factory.hpp:77] Creating layer conv8_2_mbox_loc_flat
I0517 12:06:55.105723 10114 net.cpp:91] Creating Layer conv8_2_mbox_loc_flat
I0517 12:06:55.105728 10114 net.cpp:425] conv8_2_mbox_loc_flat <- conv8_2_mbox_loc_perm
I0517 12:06:55.105733 10114 net.cpp:399] conv8_2_mbox_loc_flat -> conv8_2_mbox_loc_flat
I0517 12:06:55.105770 10114 net.cpp:141] Setting up conv8_2_mbox_loc_flat
I0517 12:06:55.105778 10114 net.cpp:148] Top shape: 1 216 (216)
I0517 12:06:55.105782 10114 net.cpp:156] Memory required for data: 248116832
I0517 12:06:55.105785 10114 layer_factory.hpp:77] Creating layer conv8_2_mbox_conf
I0517 12:06:55.105798 10114 net.cpp:91] Creating Layer conv8_2_mbox_conf
I0517 12:06:55.105803 10114 net.cpp:425] conv8_2_mbox_conf <- conv8_2_conv8_2_relu_0_split_2
I0517 12:06:55.105811 10114 net.cpp:399] conv8_2_mbox_conf -> conv8_2_mbox_conf
I0517 12:06:55.107323 10114 net.cpp:141] Setting up conv8_2_mbox_conf
I0517 12:06:55.107348 10114 net.cpp:148] Top shape: 1 30 3 3 (270)
I0517 12:06:55.107352 10114 net.cpp:156] Memory required for data: 248117912
I0517 12:06:55.107365 10114 layer_factory.hpp:77] Creating layer conv8_2_mbox_conf_perm
I0517 12:06:55.107375 10114 net.cpp:91] Creating Layer conv8_2_mbox_conf_perm
I0517 12:06:55.107380 10114 net.cpp:425] conv8_2_mbox_conf_perm <- conv8_2_mbox_conf
I0517 12:06:55.107388 10114 net.cpp:399] conv8_2_mbox_conf_perm -> conv8_2_mbox_conf_perm
I0517 12:06:55.107532 10114 net.cpp:141] Setting up conv8_2_mbox_conf_perm
I0517 12:06:55.107542 10114 net.cpp:148] Top shape: 1 3 3 30 (270)
I0517 12:06:55.107544 10114 net.cpp:156] Memory required for data: 248118992
I0517 12:06:55.107548 10114 layer_factory.hpp:77] Creating layer conv8_2_mbox_conf_flat
I0517 12:06:55.107558 10114 net.cpp:91] Creating Layer conv8_2_mbox_conf_flat
I0517 12:06:55.107563 10114 net.cpp:425] conv8_2_mbox_conf_flat <- conv8_2_mbox_conf_perm
I0517 12:06:55.107579 10114 net.cpp:399] conv8_2_mbox_conf_flat -> conv8_2_mbox_conf_flat
I0517 12:06:55.107623 10114 net.cpp:141] Setting up conv8_2_mbox_conf_flat
I0517 12:06:55.107632 10114 net.cpp:148] Top shape: 1 270 (270)
I0517 12:06:55.107636 10114 net.cpp:156] Memory required for data: 248120072
I0517 12:06:55.107651 10114 layer_factory.hpp:77] Creating layer conv8_2_mbox_priorbox
I0517 12:06:55.107658 10114 net.cpp:91] Creating Layer conv8_2_mbox_priorbox
I0517 12:06:55.107663 10114 net.cpp:425] conv8_2_mbox_priorbox <- conv8_2_conv8_2_relu_0_split_3
I0517 12:06:55.107668 10114 net.cpp:425] conv8_2_mbox_priorbox <- data_data_0_split_5
I0517 12:06:55.107677 10114 net.cpp:399] conv8_2_mbox_priorbox -> conv8_2_mbox_priorbox
I0517 12:06:55.107718 10114 net.cpp:141] Setting up conv8_2_mbox_priorbox
I0517 12:06:55.107728 10114 net.cpp:148] Top shape: 1 2 216 (432)
I0517 12:06:55.107731 10114 net.cpp:156] Memory required for data: 248121800
I0517 12:06:55.107735 10114 layer_factory.hpp:77] Creating layer pool6_mbox_loc
I0517 12:06:55.107748 10114 net.cpp:91] Creating Layer pool6_mbox_loc
I0517 12:06:55.107753 10114 net.cpp:425] pool6_mbox_loc <- pool6_pool6_0_split_0
I0517 12:06:55.107763 10114 net.cpp:399] pool6_mbox_loc -> pool6_mbox_loc
I0517 12:06:55.109336 10114 net.cpp:141] Setting up pool6_mbox_loc
I0517 12:06:55.109364 10114 net.cpp:148] Top shape: 1 24 1 1 (24)
I0517 12:06:55.109369 10114 net.cpp:156] Memory required for data: 248121896
I0517 12:06:55.109390 10114 layer_factory.hpp:77] Creating layer pool6_mbox_loc_perm
I0517 12:06:55.109401 10114 net.cpp:91] Creating Layer pool6_mbox_loc_perm
I0517 12:06:55.109406 10114 net.cpp:425] pool6_mbox_loc_perm <- pool6_mbox_loc
I0517 12:06:55.109414 10114 net.cpp:399] pool6_mbox_loc_perm -> pool6_mbox_loc_perm
I0517 12:06:55.109563 10114 net.cpp:141] Setting up pool6_mbox_loc_perm
I0517 12:06:55.109573 10114 net.cpp:148] Top shape: 1 1 1 24 (24)
I0517 12:06:55.109577 10114 net.cpp:156] Memory required for data: 248121992
I0517 12:06:55.109582 10114 layer_factory.hpp:77] Creating layer pool6_mbox_loc_flat
I0517 12:06:55.109599 10114 net.cpp:91] Creating Layer pool6_mbox_loc_flat
I0517 12:06:55.109606 10114 net.cpp:425] pool6_mbox_loc_flat <- pool6_mbox_loc_perm
I0517 12:06:55.109611 10114 net.cpp:399] pool6_mbox_loc_flat -> pool6_mbox_loc_flat
I0517 12:06:55.109652 10114 net.cpp:141] Setting up pool6_mbox_loc_flat
I0517 12:06:55.109660 10114 net.cpp:148] Top shape: 1 24 (24)
I0517 12:06:55.109664 10114 net.cpp:156] Memory required for data: 248122088
I0517 12:06:55.109668 10114 layer_factory.hpp:77] Creating layer pool6_mbox_conf
I0517 12:06:55.109680 10114 net.cpp:91] Creating Layer pool6_mbox_conf
I0517 12:06:55.109684 10114 net.cpp:425] pool6_mbox_conf <- pool6_pool6_0_split_1
I0517 12:06:55.109694 10114 net.cpp:399] pool6_mbox_conf -> pool6_mbox_conf
I0517 12:06:55.111292 10114 net.cpp:141] Setting up pool6_mbox_conf
I0517 12:06:55.111309 10114 net.cpp:148] Top shape: 1 30 1 1 (30)
I0517 12:06:55.111312 10114 net.cpp:156] Memory required for data: 248122208
I0517 12:06:55.111320 10114 layer_factory.hpp:77] Creating layer pool6_mbox_conf_perm
I0517 12:06:55.111326 10114 net.cpp:91] Creating Layer pool6_mbox_conf_perm
I0517 12:06:55.111330 10114 net.cpp:425] pool6_mbox_conf_perm <- pool6_mbox_conf
I0517 12:06:55.111336 10114 net.cpp:399] pool6_mbox_conf_perm -> pool6_mbox_conf_perm
I0517 12:06:55.111488 10114 net.cpp:141] Setting up pool6_mbox_conf_perm
I0517 12:06:55.111498 10114 net.cpp:148] Top shape: 1 1 1 30 (30)
I0517 12:06:55.111502 10114 net.cpp:156] Memory required for data: 248122328
I0517 12:06:55.111505 10114 layer_factory.hpp:77] Creating layer pool6_mbox_conf_flat
I0517 12:06:55.111515 10114 net.cpp:91] Creating Layer pool6_mbox_conf_flat
I0517 12:06:55.111521 10114 net.cpp:425] pool6_mbox_conf_flat <- pool6_mbox_conf_perm
I0517 12:06:55.111526 10114 net.cpp:399] pool6_mbox_conf_flat -> pool6_mbox_conf_flat
I0517 12:06:55.111562 10114 net.cpp:141] Setting up pool6_mbox_conf_flat
I0517 12:06:55.111570 10114 net.cpp:148] Top shape: 1 30 (30)
I0517 12:06:55.111574 10114 net.cpp:156] Memory required for data: 248122448
I0517 12:06:55.111577 10114 layer_factory.hpp:77] Creating layer pool6_mbox_priorbox
I0517 12:06:55.111584 10114 net.cpp:91] Creating Layer pool6_mbox_priorbox
I0517 12:06:55.111594 10114 net.cpp:425] pool6_mbox_priorbox <- pool6_pool6_0_split_2
I0517 12:06:55.111611 10114 net.cpp:425] pool6_mbox_priorbox <- data_data_0_split_6
I0517 12:06:55.111620 10114 net.cpp:399] pool6_mbox_priorbox -> pool6_mbox_priorbox
I0517 12:06:55.111662 10114 net.cpp:141] Setting up pool6_mbox_priorbox
I0517 12:06:55.111671 10114 net.cpp:148] Top shape: 1 2 24 (48)
I0517 12:06:55.111675 10114 net.cpp:156] Memory required for data: 248122640
I0517 12:06:55.111680 10114 layer_factory.hpp:77] Creating layer mbox_loc
I0517 12:06:55.111688 10114 net.cpp:91] Creating Layer mbox_loc
I0517 12:06:55.111693 10114 net.cpp:425] mbox_loc <- conv4_3_norm_mbox_loc_flat
I0517 12:06:55.111698 10114 net.cpp:425] mbox_loc <- fc7_mbox_loc_flat
I0517 12:06:55.111704 10114 net.cpp:425] mbox_loc <- conv6_2_mbox_loc_flat
I0517 12:06:55.111708 10114 net.cpp:425] mbox_loc <- conv7_2_mbox_loc_flat
I0517 12:06:55.111712 10114 net.cpp:425] mbox_loc <- conv8_2_mbox_loc_flat
I0517 12:06:55.111717 10114 net.cpp:425] mbox_loc <- pool6_mbox_loc_flat
I0517 12:06:55.111724 10114 net.cpp:399] mbox_loc -> mbox_loc
I0517 12:06:55.111763 10114 net.cpp:141] Setting up mbox_loc
I0517 12:06:55.111773 10114 net.cpp:148] Top shape: 1 29232 (29232)
I0517 12:06:55.111776 10114 net.cpp:156] Memory required for data: 248239568
I0517 12:06:55.111780 10114 layer_factory.hpp:77] Creating layer mbox_conf
I0517 12:06:55.111788 10114 net.cpp:91] Creating Layer mbox_conf
I0517 12:06:55.111791 10114 net.cpp:425] mbox_conf <- conv4_3_norm_mbox_conf_flat
I0517 12:06:55.111796 10114 net.cpp:425] mbox_conf <- fc7_mbox_conf_flat
I0517 12:06:55.111801 10114 net.cpp:425] mbox_conf <- conv6_2_mbox_conf_flat
I0517 12:06:55.111806 10114 net.cpp:425] mbox_conf <- conv7_2_mbox_conf_flat
I0517 12:06:55.111809 10114 net.cpp:425] mbox_conf <- conv8_2_mbox_conf_flat
I0517 12:06:55.111814 10114 net.cpp:425] mbox_conf <- pool6_mbox_conf_flat
I0517 12:06:55.111819 10114 net.cpp:399] mbox_conf -> mbox_conf
I0517 12:06:55.111857 10114 net.cpp:141] Setting up mbox_conf
I0517 12:06:55.111865 10114 net.cpp:148] Top shape: 1 36540 (36540)
I0517 12:06:55.111868 10114 net.cpp:156] Memory required for data: 248385728
I0517 12:06:55.111871 10114 layer_factory.hpp:77] Creating layer mbox_priorbox
I0517 12:06:55.111878 10114 net.cpp:91] Creating Layer mbox_priorbox
I0517 12:06:55.111882 10114 net.cpp:425] mbox_priorbox <- conv4_3_norm_mbox_priorbox
I0517 12:06:55.111887 10114 net.cpp:425] mbox_priorbox <- fc7_mbox_priorbox
I0517 12:06:55.111891 10114 net.cpp:425] mbox_priorbox <- conv6_2_mbox_priorbox
I0517 12:06:55.111896 10114 net.cpp:425] mbox_priorbox <- conv7_2_mbox_priorbox
I0517 12:06:55.111899 10114 net.cpp:425] mbox_priorbox <- conv8_2_mbox_priorbox
I0517 12:06:55.111904 10114 net.cpp:425] mbox_priorbox <- pool6_mbox_priorbox
I0517 12:06:55.111909 10114 net.cpp:399] mbox_priorbox -> mbox_priorbox
I0517 12:06:55.111945 10114 net.cpp:141] Setting up mbox_priorbox
I0517 12:06:55.111953 10114 net.cpp:148] Top shape: 1 2 29232 (58464)
I0517 12:06:55.111956 10114 net.cpp:156] Memory required for data: 248619584
I0517 12:06:55.111959 10114 layer_factory.hpp:77] Creating layer mbox_conf_reshape
I0517 12:06:55.111968 10114 net.cpp:91] Creating Layer mbox_conf_reshape
I0517 12:06:55.111973 10114 net.cpp:425] mbox_conf_reshape <- mbox_conf
I0517 12:06:55.111979 10114 net.cpp:399] mbox_conf_reshape -> mbox_conf_reshape
I0517 12:06:55.112025 10114 net.cpp:141] Setting up mbox_conf_reshape
I0517 12:06:55.112033 10114 net.cpp:148] Top shape: 1 7308 5 (36540)
I0517 12:06:55.112037 10114 net.cpp:156] Memory required for data: 248765744
I0517 12:06:55.112041 10114 layer_factory.hpp:77] Creating layer mbox_conf_softmax
I0517 12:06:55.112051 10114 net.cpp:91] Creating Layer mbox_conf_softmax
I0517 12:06:55.112056 10114 net.cpp:425] mbox_conf_softmax <- mbox_conf_reshape
I0517 12:06:55.112061 10114 net.cpp:399] mbox_conf_softmax -> mbox_conf_softmax
I0517 12:06:55.112334 10114 net.cpp:141] Setting up mbox_conf_softmax
I0517 12:06:55.112347 10114 net.cpp:148] Top shape: 1 7308 5 (36540)
I0517 12:06:55.112350 10114 net.cpp:156] Memory required for data: 248911904
I0517 12:06:55.112365 10114 layer_factory.hpp:77] Creating layer mbox_conf_flatten
I0517 12:06:55.112371 10114 net.cpp:91] Creating Layer mbox_conf_flatten
I0517 12:06:55.112375 10114 net.cpp:425] mbox_conf_flatten <- mbox_conf_softmax
I0517 12:06:55.112381 10114 net.cpp:399] mbox_conf_flatten -> mbox_conf_flatten
I0517 12:06:55.112421 10114 net.cpp:141] Setting up mbox_conf_flatten
I0517 12:06:55.112429 10114 net.cpp:148] Top shape: 1 36540 (36540)
I0517 12:06:55.112433 10114 net.cpp:156] Memory required for data: 249058064
I0517 12:06:55.112437 10114 layer_factory.hpp:77] Creating layer detection_out
I0517 12:06:55.112452 10114 net.cpp:91] Creating Layer detection_out
I0517 12:06:55.112457 10114 net.cpp:425] detection_out <- mbox_loc
I0517 12:06:55.112460 10114 net.cpp:425] detection_out <- mbox_conf_flatten
I0517 12:06:55.112467 10114 net.cpp:425] detection_out <- mbox_priorbox
I0517 12:06:55.112473 10114 net.cpp:399] detection_out -> detection_out
I0517 12:06:55.128293 10114 net.cpp:141] Setting up detection_out
I0517 12:06:55.128340 10114 net.cpp:148] Top shape: 1 1 1 7 (7)
I0517 12:06:55.128351 10114 net.cpp:156] Memory required for data: 249058092
I0517 12:06:55.128370 10114 layer_factory.hpp:77] Creating layer detection_eval
I0517 12:06:55.128387 10114 net.cpp:91] Creating Layer detection_eval
I0517 12:06:55.128399 10114 net.cpp:425] detection_eval <- detection_out
I0517 12:06:55.128412 10114 net.cpp:425] detection_eval <- label
I0517 12:06:55.128435 10114 net.cpp:399] detection_eval -> detection_eval
I0517 12:06:55.130700 10114 net.cpp:141] Setting up detection_eval
I0517 12:06:55.130728 10114 net.cpp:148] Top shape: 1 1 5 5 (25)
I0517 12:06:55.130738 10114 net.cpp:156] Memory required for data: 249058192
I0517 12:06:55.130749 10114 net.cpp:219] detection_eval does not need backward computation.
I0517 12:06:55.130761 10114 net.cpp:219] detection_out does not need backward computation.
I0517 12:06:55.130774 10114 net.cpp:219] mbox_conf_flatten does not need backward computation.
I0517 12:06:55.130784 10114 net.cpp:219] mbox_conf_softmax does not need backward computation.
…
