I0305 14:52:53.840744  8781 caffe.cpp:212] Use GPU with device ID 0
I0305 14:52:54.912533  8781 net.cpp:42] Initializing net from parameters: 
name: "GoogleNet"
input: "data"
state {
  phase: TRAIN
}
input_shape {
  dim: 1
  dim: 3
  dim: 480
  dim: 640
}
layer {
  name: "conv1/7x7_s2"
  type: "Convolution"
  bottom: "data"
  top: "conv1/7x7_s2"
  param {
    lr_mult: 1
    decay_mult: 1
  }
  param {
    lr_mult: 2
    decay_mult: 0
  }
  convolution_param {
    num_output: 32
    pad: 3
    kernel_size: 7
    stride: 2
    weight_filler {
      type: "xavier"
      std: 0.1
    }
    bias_filler {
      type: "constant"
      value: 0.2
    }
  }
}
layer {
  name: "conv1/relu_7x7"
  type: "ReLU"
  bottom: "conv1/7x7_s2"
  top: "conv1/7x7_s2"
}
layer {
  name: "pool1/3x3_s2"
  type: "Pooling"
  bottom: "conv1/7x7_s2"
  top: "pool1/3x3_s2"
  pooling_param {
    pool: MAX
    kernel_size: 3
    stride: 2
  }
}
layer {
  name: "pool1/norm1"
  type: "LRN"
  bottom: "pool1/3x3_s2"
  top: "pool1/norm1"
  lrn_param {
    local_size: 5
    alpha: 0.0001
    beta: 0.75
  }
}
layer {
  name: "conv2/3x3_reduce"
  type: "Convolution"
  bottom: "pool1/norm1"
  top: "conv2/3x3_reduce"
  param {
    lr_mult: 1
    decay_mult: 1
  }
  param {
    lr_mult: 2
    decay_mult: 0
  }
  convolution_param {
    num_output: 32
    kernel_size: 1
    weight_filler {
      type: "xavier"
      std: 0.1
    }
    bias_filler {
      type: "constant"
      value: 0.2
    }
  }
}
layer {
  name: "conv2/relu_3x3_reduce"
  type: "ReLU"
  bottom: "conv2/3x3_reduce"
  top: "conv2/3x3_reduce"
}
layer {
  name: "conv2/3x3"
  type: "Convolution"
  bottom: "conv2/3x3_reduce"
  top: "conv2/3x3"
  param {
    lr_mult: 1
    decay_mult: 1
  }
  param {
    lr_mult: 2
    decay_mult: 0
  }
  convolution_param {
    num_output: 96
    pad: 1
    kernel_size: 3
    weight_filler {
      type: "xavier"
      std: 0.03
    }
    bias_filler {
      type: "constant"
      value: 0.2
    }
  }
}
layer {
  name: "conv2/relu_3x3"
  type: "ReLU"
  bottom: "conv2/3x3"
  top: "conv2/3x3"
}
layer {
  name: "conv2/norm2"
  type: "LRN"
  bottom: "conv2/3x3"
  top: "conv2/norm2"
  lrn_param {
    local_size: 5
    alpha: 0.0001
    beta: 0.75
  }
}
layer {
  name: "pool2/3x3_s2"
  type: "Pooling"
  bottom: "conv2/norm2"
  top: "pool2/3x3_s2"
  pooling_param {
    pool: MAX
    kernel_size: 3
    stride: 2
  }
}
layer {
  name: "inception_3a/1x1"
  type: "Convolution"
  bottom: "pool2/3x3_s2"
  top: "inception_3a/1x1"
  param {
    lr_mult: 1
    decay_mult: 1
  }
  param {
    lr_mult: 2
    decay_mult: 0
  }
  convolution_param {
    num_output: 32
    kernel_size: 1
    weight_filler {
      type: "xavier"
      std: 0.03
    }
    bias_filler {
      type: "constant"
      value: 0.2
    }
  }
}
layer {
  name: "inception_3a/relu_1x1"
  type: "ReLU"
  bottom: "inception_3a/1x1"
  top: "inception_3a/1x1"
}
layer {
  name: "inception_3a/3x3_reduce"
  type: "Convolution"
  bottom: "pool2/3x3_s2"
  top: "inception_3a/3x3_reduce"
  param {
    lr_mult: 1
    decay_mult: 1
  }
  param {
    lr_mult: 2
    decay_mult: 0
  }
  convolution_param {
    num_output: 48
    kernel_size: 1
    weight_filler {
      type: "xavier"
      std: 0.09
    }
    bias_filler {
      type: "constant"
      value: 0.2
    }
  }
}
layer {
  name: "inception_3a/relu_3x3_reduce"
  type: "ReLU"
  bottom: "inception_3a/3x3_reduce"
  top: "inception_3a/3x3_reduce"
}
layer {
  name: "inception_3a/3x3"
  type: "Convolution"
  bottom: "inception_3a/3x3_reduce"
  top: "inception_3a/3x3"
  param {
    lr_mult: 1
    decay_mult: 1
  }
  param {
    lr_mult: 2
    decay_mult: 0
  }
  convolution_param {
    num_output: 64
    pad: 1
    kernel_size: 3
    weight_filler {
      type: "xavier"
      std: 0.03
    }
    bias_filler {
      type: "constant"
      value: 0.2
    }
  }
}
layer {
  name: "inception_3a/relu_3x3"
  type: "ReLU"
  bottom: "inception_3a/3x3"
  top: "inception_3a/3x3"
}
layer {
  name: "inception_3a/5x5_reduce"
  type: "Convolution"
  bottom: "pool2/3x3_s2"
  top: "inception_3a/5x5_reduce"
  param {
    lr_mult: 1
    decay_mult: 1
  }
  param {
    lr_mult: 2
    decay_mult: 0
  }
  convolution_param {
    num_output: 8
    kernel_size: 1
    weight_filler {
      type: "xavier"
      std: 0.2
    }
    bias_filler {
      type: "constant"
      value: 0.2
    }
  }
}
layer {
  name: "inception_3a/relu_5x5_reduce"
  type: "ReLU"
  bottom: "inception_3a/5x5_reduce"
  top: "inception_3a/5x5_reduce"
}
layer {
  name: "inception_3a/5x5"
  type: "Convolution"
  bottom: "inception_3a/5x5_reduce"
  top: "inception_3a/5x5"
  param {
    lr_mult: 1
    decay_mult: 1
  }
  param {
    lr_mult: 2
    decay_mult: 0
  }
  convolution_param {
    num_output: 16
    pad: 2
    kernel_size: 5
    weight_filler {
      type: "xavier"
      std: 0.03
    }
    bias_filler {
      type: "constant"
      value: 0.2
    }
  }
}
layer {
  name: "inception_3a/relu_5x5"
  type: "ReLU"
  bottom: "inception_3a/5x5"
  top: "inception_3a/5x5"
}
layer {
  name: "inception_3a/pool"
  type: "Pooling"
  bottom: "pool2/3x3_s2"
  top: "inception_3a/pool"
  pooling_param {
    pool: MAX
    kernel_size: 3
    stride: 1
    pad: 1
  }
}
layer {
  name: "inception_3a/pool_proj"
  type: "Convolution"
  bottom: "inception_3a/pool"
  top: "inception_3a/pool_proj"
  param {
    lr_mult: 1
    decay_mult: 1
  }
  param {
    lr_mult: 2
    decay_mult: 0
  }
  convolution_param {
    num_output: 16
    kernel_size: 1
    weight_filler {
      type: "xavier"
      std: 0.1
    }
    bias_filler {
      type: "constant"
      value: 0.2
    }
  }
}
layer {
  name: "inception_3a/relu_pool_proj"
  type: "ReLU"
  bottom: "inception_3a/pool_proj"
  top: "inception_3a/pool_proj"
}
layer {
  name: "inception_3a/output"
  type: "Concat"
  bottom: "inception_3a/1x1"
  bottom: "inception_3a/3x3"
  bottom: "inception_3a/5x5"
  bottom: "inception_3a/pool_proj"
  top: "inception_3a/output"
}
layer {
  name: "inception_3b/1x1"
  type: "Convolution"
  bottom: "inception_3a/output"
  top: "inception_3b/1x1"
  param {
    lr_mult: 1
    decay_mult: 1
  }
  param {
    lr_mult: 2
    decay_mult: 0
  }
  convolution_param {
    num_output: 64
    kernel_size: 1
    weight_filler {
      type: "xavier"
      std: 0.03
    }
    bias_filler {
      type: "constant"
      value: 0.2
    }
  }
}
layer {
  name: "inception_3b/relu_1x1"
  type: "ReLU"
  bottom: "inception_3b/1x1"
  top: "inception_3b/1x1"
}
layer {
  name: "inception_3b/3x3_reduce"
  type: "Convolution"
  bottom: "inception_3a/output"
  top: "inception_3b/3x3_reduce"
  param {
    lr_mult: 1
    decay_mult: 1
  }
  param {
    lr_mult: 2
    decay_mult: 0
  }
  convolution_param {
    num_output: 64
    kernel_size: 1
    weight_filler {
      type: "xavier"
      std: 0.09
    }
    bias_filler {
      type: "constant"
      value: 0.2
    }
  }
}
layer {
  name: "inception_3b/relu_3x3_reduce"
  type: "ReLU"
  bottom: "inception_3b/3x3_reduce"
  top: "inception_3b/3x3_reduce"
}
layer {
  name: "inception_3b/3x3"
  type: "Convolution"
  bottom: "inception_3b/3x3_reduce"
  top: "inception_3b/3x3"
  param {
    lr_mult: 1
    decay_mult: 1
  }
  param {
    lr_mult: 2
    decay_mult: 0
  }
  convolution_param {
    num_output: 96
    pad: 1
    kernel_size: 3
    weight_filler {
      type: "xavier"
      std: 0.03
    }
    bias_filler {
      type: "constant"
      value: 0.2
    }
  }
}
layer {
  name: "inception_3b/relu_3x3"
  type: "ReLU"
  bottom: "inception_3b/3x3"
  top: "inception_3b/3x3"
}
layer {
  name: "inception_3b/5x5_reduce"
  type: "Convolution"
  bottom: "inception_3a/output"
  top: "inception_3b/5x5_reduce"
  param {
    lr_mult: 1
    decay_mult: 1
  }
  param {
    lr_mult: 2
    decay_mult: 0
  }
  convolution_param {
    num_output: 16
    kernel_size: 1
    weight_filler {
      type: "xavier"
      std: 0.2
    }
    bias_filler {
      type: "constant"
      value: 0.2
    }
  }
}
layer {
  name: "inception_3b/relu_5x5_reduce"
  type: "ReLU"
  bottom: "inception_3b/5x5_reduce"
  top: "inception_3b/5x5_reduce"
}
layer {
  name: "inception_3b/5x5"
  type: "Convolution"
  bottom: "inception_3b/5x5_reduce"
  top: "inception_3b/5x5"
  param {
    lr_mult: 1
    decay_mult: 1
  }
  param {
    lr_mult: 2
    decay_mult: 0
  }
  convolution_param {
    num_output: 48
    pad: 2
    kernel_size: 5
    weight_filler {
      type: "xavier"
      std: 0.03
    }
    bias_filler {
      type: "constant"
      value: 0.2
    }
  }
}
layer {
  name: "inception_3b/relu_5x5"
  type: "ReLU"
  bottom: "inception_3b/5x5"
  top: "inception_3b/5x5"
}
layer {
  name: "inception_3b/pool"
  type: "Pooling"
  bottom: "inception_3a/output"
  top: "inception_3b/pool"
  pooling_param {
    pool: MAX
    kernel_size: 3
    stride: 1
    pad: 1
  }
}
layer {
  name: "inception_3b/pool_proj"
  type: "Convolution"
  bottom: "inception_3b/pool"
  top: "inception_3b/pool_proj"
  param {
    lr_mult: 1
    decay_mult: 1
  }
  param {
    lr_mult: 2
    decay_mult: 0
  }
  convolution_param {
    num_output: 32
    kernel_size: 1
    weight_filler {
      type: "xavier"
      std: 0.1
    }
    bias_filler {
      type: "constant"
      value: 0.2
    }
  }
}
layer {
  name: "inception_3b/relu_pool_proj"
  type: "ReLU"
  bottom: "inception_3b/pool_proj"
  top: "inception_3b/pool_proj"
}
layer {
  name: "inception_3b/output"
  type: "Concat"
  bottom: "inception_3b/1x1"
  bottom: "inception_3b/3x3"
  bottom: "inception_3b/5x5"
  bottom: "inception_3b/pool_proj"
  top: "inception_3b/output"
}
layer {
  name: "pool3/3x3_s2"
  type: "Pooling"
  bottom: "inception_3b/output"
  top: "pool3/3x3_s2"
  pooling_param {
    pool: MAX
    kernel_size: 3
    stride: 2
  }
}
layer {
  name: "inception_4a/1x1"
  type: "Convolution"
  bottom: "pool3/3x3_s2"
  top: "inception_4a/1x1"
  param {
    lr_mult: 1
    decay_mult: 1
  }
  param {
    lr_mult: 2
    decay_mult: 0
  }
  convolution_param {
    num_output: 96
    kernel_size: 1
    weight_filler {
      type: "xavier"
      std: 0.03
    }
    bias_filler {
      type: "constant"
      value: 0.2
    }
  }
}
layer {
  name: "inception_4a/relu_1x1"
  type: "ReLU"
  bottom: "inception_4a/1x1"
  top: "inception_4a/1x1"
}
layer {
  name: "inception_4a/3x3_reduce"
  type: "Convolution"
  bottom: "pool3/3x3_s2"
  top: "inception_4a/3x3_reduce"
  param {
    lr_mult: 1
    decay_mult: 1
  }
  param {
    lr_mult: 2
    decay_mult: 0
  }
  convolution_param {
    num_output: 48
    kernel_size: 1
    weight_filler {
      type: "xavier"
      std: 0.09
    }
    bias_filler {
      type: "constant"
      value: 0.2
    }
  }
}
layer {
  name: "inception_4a/relu_3x3_reduce"
  type: "ReLU"
  bottom: "inception_4a/3x3_reduce"
  top: "inception_4a/3x3_reduce"
}
layer {
  name: "inception_4a/3x3"
  type: "Convolution"
  bottom: "inception_4a/3x3_reduce"
  top: "inception_4a/3x3"
  param {
    lr_mult: 1
    decay_mult: 1
  }
  param {
    lr_mult: 2
    decay_mult: 0
  }
  convolution_param {
    num_output: 208
    pad: 1
    kernel_size: 3
    weight_filler {
      type: "xavier"
      std: 0.03
    }
    bias_filler {
      type: "constant"
      value: 0.2
    }
  }
}
layer {
  name: "inception_4a/relu_3x3"
  type: "ReLU"
  bottom: "inception_4a/3x3"
  top: "inception_4a/3x3"
}
layer {
  name: "inception_4a/5x5_reduce"
  type: "Convolution"
  bottom: "pool3/3x3_s2"
  top: "inception_4a/5x5_reduce"
  param {
    lr_mult: 1
    decay_mult: 1
  }
  param {
    lr_mult: 2
    decay_mult: 0
  }
  convolution_param {
    num_output: 8
    kernel_size: 1
    weight_filler {
      type: "xavier"
      std: 0.2
    }
    bias_filler {
      type: "constant"
      value: 0.2
    }
  }
}
layer {
  name: "inception_4a/relu_5x5_reduce"
  type: "ReLU"
  bottom: "inception_4a/5x5_reduce"
  top: "inception_4a/5x5_reduce"
}
layer {
  name: "inception_4a/5x5"
  type: "Convolution"
  bottom: "inception_4a/5x5_reduce"
  top: "inception_4a/5x5"
  param {
    lr_mult: 1
    decay_mult: 1
  }
  param {
    lr_mult: 2
    decay_mult: 0
  }
  convolution_param {
    num_output: 24
    pad: 2
    kernel_size: 5
    weight_filler {
      type: "xavier"
      std: 0.03
    }
    bias_filler {
      type: "constant"
      value: 0.2
    }
  }
}
layer {
  name: "inception_4a/relu_5x5"
  type: "ReLU"
  bottom: "inception_4a/5x5"
  top: "inception_4a/5x5"
}
layer {
  name: "inception_4a/pool"
  type: "Pooling"
  bottom: "pool3/3x3_s2"
  top: "inception_4a/pool"
  pooling_param {
    pool: MAX
    kernel_size: 3
    stride: 1
    pad: 1
  }
}
layer {
  name: "inception_4a/pool_proj"
  type: "Convolution"
  bottom: "inception_4a/pool"
  top: "inception_4a/pool_proj"
  param {
    lr_mult: 1
    decay_mult: 1
  }
  param {
    lr_mult: 2
    decay_mult: 0
  }
  convolution_param {
    num_output: 32
    kernel_size: 1
    weight_filler {
      type: "xavier"
      std: 0.1
    }
    bias_filler {
      type: "constant"
      value: 0.2
    }
  }
}
layer {
  name: "inception_4a/relu_pool_proj"
  type: "ReLU"
  bottom: "inception_4a/pool_proj"
  top: "inception_4a/pool_proj"
}
layer {
  name: "inception_4a/output"
  type: "Concat"
  bottom: "inception_4a/1x1"
  bottom: "inception_4a/3x3"
  bottom: "inception_4a/5x5"
  bottom: "inception_4a/pool_proj"
  top: "inception_4a/output"
}
layer {
  name: "inception_4b/1x1"
  type: "Convolution"
  bottom: "inception_4a/output"
  top: "inception_4b/1x1"
  param {
    lr_mult: 1
    decay_mult: 1
  }
  param {
    lr_mult: 2
    decay_mult: 0
  }
  convolution_param {
    num_output: 80
    kernel_size: 1
    weight_filler {
      type: "xavier"
      std: 0.03
    }
    bias_filler {
      type: "constant"
      value: 0.2
    }
  }
}
layer {
  name: "inception_4b/relu_1x1"
  type: "ReLU"
  bottom: "inception_4b/1x1"
  top: "inception_4b/1x1"
}
layer {
  name: "inception_4b/3x3_reduce"
  type: "Convolution"
  bottom: "inception_4a/output"
  top: "inception_4b/3x3_reduce"
  param {
    lr_mult: 1
    decay_mult: 1
  }
  param {
    lr_mult: 2
    decay_mult: 0
  }
  convolution_param {
    num_output: 56
    kernel_size: 1
    weight_filler {
      type: "xavier"
      std: 0.09
    }
    bias_filler {
      type: "constant"
      value: 0.2
    }
  }
}
layer {
  name: "inception_4b/relu_3x3_reduce"
  type: "ReLU"
  bottom: "inception_4b/3x3_reduce"
  top: "inception_4b/3x3_reduce"
}
layer {
  name: "inception_4b/3x3"
  type: "Convolution"
  bottom: "inception_4b/3x3_reduce"
  top: "inception_4b/3x3"
  param {
    lr_mult: 1
    decay_mult: 1
  }
  param {
    lr_mult: 2
    decay_mult: 0
  }
  convolution_param {
    num_output: 112
    pad: 1
    kernel_size: 3
    weight_filler {
      type: "xavier"
      std: 0.03
    }
    bias_filler {
      type: "constant"
      value: 0.2
    }
  }
}
layer {
  name: "inception_4b/relu_3x3"
  type: "ReLU"
  bottom: "inception_4b/3x3"
  top: "inception_4b/3x3"
}
layer {
  name: "inception_4b/5x5_reduce"
  type: "Convolution"
  bottom: "inception_4a/output"
  top: "inception_4b/5x5_reduce"
  param {
    lr_mult: 1
    decay_mult: 1
  }
  param {
    lr_mult: 2
    decay_mult: 0
  }
  convolution_param {
    num_output: 12
    kernel_size: 1
    weight_filler {
      type: "xavier"
      std: 0.2
    }
    bias_filler {
      type: "constant"
      value: 0.2
    }
  }
}
layer {
  name: "inception_4b/relu_5x5_reduce"
  type: "ReLU"
  bottom: "inception_4b/5x5_reduce"
  top: "inception_4b/5x5_reduce"
}
layer {
  name: "inception_4b/5x5"
  type: "Convolution"
  bottom: "inception_4b/5x5_reduce"
  top: "inception_4b/5x5"
  param {
    lr_mult: 1
    decay_mult: 1
  }
  param {
    lr_mult: 2
    decay_mult: 0
  }
  convolution_param {
    num_output: 32
    pad: 2
    kernel_size: 5
    weight_filler {
      type: "xavier"
      std: 0.03
    }
    bias_filler {
      type: "constant"
      value: 0.2
    }
  }
}
layer {
  name: "inception_4b/relu_5x5"
  type: "ReLU"
  bottom: "inception_4b/5x5"
  top: "inception_4b/5x5"
}
layer {
  name: "inception_4b/pool"
  type: "Pooling"
  bottom: "inception_4a/output"
  top: "inception_4b/pool"
  pooling_param {
    pool: MAX
    kernel_size: 3
    stride: 1
    pad: 1
  }
}
layer {
  name: "inception_4b/pool_proj"
  type: "Convolution"
  bottom: "inception_4b/pool"
  top: "inception_4b/pool_proj"
  param {
    lr_mult: 1
    decay_mult: 1
  }
  param {
    lr_mult: 2
    decay_mult: 0
  }
  convolution_param {
    num_output: 32
    kernel_size: 1
    weight_filler {
      type: "xavier"
      std: 0.1
    }
    bias_filler {
      type: "constant"
      value: 0.2
    }
  }
}
layer {
  name: "inception_4b/relu_pool_proj"
  type: "ReLU"
  bottom: "inception_4b/pool_proj"
  top: "inception_4b/pool_proj"
}
layer {
  name: "inception_4b/output"
  type: "Concat"
  bottom: "inception_4b/1x1"
  bottom: "inception_4b/3x3"
  bottom: "inception_4b/5x5"
  bottom: "inception_4b/pool_proj"
  top: "inception_4b/output"
}
layer {
  name: "inception_4c/1x1"
  type: "Convolution"
  bottom: "inception_4b/output"
  top: "inception_4c/1x1"
  param {
    lr_mult: 1
    decay_mult: 1
  }
  param {
    lr_mult: 2
    decay_mult: 0
  }
  convolution_param {
    num_output: 64
    kernel_size: 1
    weight_filler {
      type: "xavier"
      std: 0.03
    }
    bias_filler {
      type: "constant"
      value: 0.2
    }
  }
}
layer {
  name: "inception_4c/relu_1x1"
  type: "ReLU"
  bottom: "inception_4c/1x1"
  top: "inception_4c/1x1"
}
layer {
  name: "inception_4c/3x3_reduce"
  type: "Convolution"
  bottom: "inception_4b/output"
  top: "inception_4c/3x3_reduce"
  param {
    lr_mult: 1
    decay_mult: 1
  }
  param {
    lr_mult: 2
    decay_mult: 0
  }
  convolution_param {
    num_output: 64
    kernel_size: 1
    weight_filler {
      type: "xavier"
      std: 0.09
    }
    bias_filler {
      type: "constant"
      value: 0.2
    }
  }
}
layer {
  name: "inception_4c/relu_3x3_reduce"
  type: "ReLU"
  bottom: "inception_4c/3x3_reduce"
  top: "inception_4c/3x3_reduce"
}
layer {
  name: "inception_4c/3x3"
  type: "Convolution"
  bottom: "inception_4c/3x3_reduce"
  top: "inception_4c/3x3"
  param {
    lr_mult: 1
    decay_mult: 1
  }
  param {
    lr_mult: 2
    decay_mult: 0
  }
  convolution_param {
    num_output: 128
    pad: 1
    kernel_size: 3
    weight_filler {
      type: "xavier"
      std: 0.03
    }
    bias_filler {
      type: "constant"
      value: 0.2
    }
  }
}
layer {
  name: "inception_4c/relu_3x3"
  type: "ReLU"
  bottom: "inception_4c/3x3"
  top: "inception_4c/3x3"
}
layer {
  name: "inception_4c/5x5_reduce"
  type: "Convolution"
  bottom: "inception_4b/output"
  top: "inception_4c/5x5_reduce"
  param {
    lr_mult: 1
    decay_mult: 1
  }
  param {
    lr_mult: 2
    decay_mult: 0
  }
  convolution_param {
    num_output: 12
    kernel_size: 1
    weight_filler {
      type: "xavier"
      std: 0.2
    }
    bias_filler {
      type: "constant"
      value: 0.2
    }
  }
}
layer {
  name: "inception_4c/relu_5x5_reduce"
  type: "ReLU"
  bottom: "inception_4c/5x5_reduce"
  top: "inception_4c/5x5_reduce"
}
layer {
  name: "inception_4c/5x5"
  type: "Convolution"
  bottom: "inception_4c/5x5_reduce"
  top: "inception_4c/5x5"
  param {
    lr_mult: 1
    decay_mult: 1
  }
  param {
    lr_mult: 2
    decay_mult: 0
  }
  convolution_param {
    num_output: 32
    pad: 2
    kernel_size: 5
    weight_filler {
      type: "xavier"
      std: 0.03
    }
    bias_filler {
      type: "constant"
      value: 0.2
    }
  }
}
layer {
  name: "inception_4c/relu_5x5"
  type: "ReLU"
  bottom: "inception_4c/5x5"
  top: "inception_4c/5x5"
}
layer {
  name: "inception_4c/pool"
  type: "Pooling"
  bottom: "inception_4b/output"
  top: "inception_4c/pool"
  pooling_param {
    pool: MAX
    kernel_size: 3
    stride: 1
    pad: 1
  }
}
layer {
  name: "inception_4c/pool_proj"
  type: "Convolution"
  bottom: "inception_4c/pool"
  top: "inception_4c/pool_proj"
  param {
    lr_mult: 1
    decay_mult: 1
  }
  param {
    lr_mult: 2
    decay_mult: 0
  }
  convolution_param {
    num_output: 32
    kernel_size: 1
    weight_filler {
      type: "xavier"
      std: 0.1
    }
    bias_filler {
      type: "constant"
      value: 0.2
    }
  }
}
layer {
  name: "inception_4c/relu_pool_proj"
  type: "ReLU"
  bottom: "inception_4c/pool_proj"
  top: "inception_4c/pool_proj"
}
layer {
  name: "inception_4c/output"
  type: "Concat"
  bottom: "inception_4c/1x1"
  bottom: "inception_4c/3x3"
  bottom: "inception_4c/5x5"
  bottom: "inception_4c/pool_proj"
  top: "inception_4c/output"
}
layer {
  name: "inception_4d/1x1"
  type: "Convolution"
  bottom: "inception_4c/output"
  top: "inception_4d/1x1"
  param {
    lr_mult: 1
    decay_mult: 1
  }
  param {
    lr_mult: 2
    decay_mult: 0
  }
  convolution_param {
    num_output: 56
    kernel_size: 1
    weight_filler {
      type: "xavier"
      std: 0.03
    }
    bias_filler {
      type: "constant"
      value: 0.2
    }
  }
}
layer {
  name: "inception_4d/relu_1x1"
  type: "ReLU"
  bottom: "inception_4d/1x1"
  top: "inception_4d/1x1"
}
layer {
  name: "inception_4d/3x3_reduce"
  type: "Convolution"
  bottom: "inception_4c/output"
  top: "inception_4d/3x3_reduce"
  param {
    lr_mult: 1
    decay_mult: 1
  }
  param {
    lr_mult: 2
    decay_mult: 0
  }
  convolution_param {
    num_output: 72
    kernel_size: 1
    weight_filler {
      type: "xavier"
      std: 0.09
    }
    bias_filler {
      type: "constant"
      value: 0.2
    }
  }
}
layer {
  name: "inception_4d/relu_3x3_reduce"
  type: "ReLU"
  bottom: "inception_4d/3x3_reduce"
  top: "inception_4d/3x3_reduce"
}
layer {
  name: "inception_4d/3x3"
  type: "Convolution"
  bottom: "inception_4d/3x3_reduce"
  top: "inception_4d/3x3"
  param {
    lr_mult: 1
    decay_mult: 1
  }
  param {
    lr_mult: 2
    decay_mult: 0
  }
  convolution_param {
    num_output: 144
    pad: 1
    kernel_size: 3
    weight_filler {
      type: "xavier"
      std: 0.03
    }
    bias_filler {
      type: "constant"
      value: 0.2
    }
  }
}
layer {
  name: "inception_4d/relu_3x3"
  type: "ReLU"
  bottom: "inception_4d/3x3"
  top: "inception_4d/3x3"
}
layer {
  name: "inception_4d/5x5_reduce"
  type: "Convolution"
  bottom: "inception_4c/output"
  top: "inception_4d/5x5_reduce"
  param {
    lr_mult: 1
    decay_mult: 1
  }
  param {
    lr_mult: 2
    decay_mult: 0
  }
  convolution_param {
    num_output: 16
    kernel_size: 1
    weight_filler {
      type: "xavier"
      std: 0.2
    }
    bias_filler {
      type: "constant"
      value: 0.2
    }
  }
}
layer {
  name: "inception_4d/relu_5x5_reduce"
  type: "ReLU"
  bottom: "inception_4d/5x5_reduce"
  top: "inception_4d/5x5_reduce"
}
layer {
  name: "inception_4d/5x5"
  type: "Convolution"
  bottom: "inception_4d/5x5_reduce"
  top: "inception_4d/5x5"
  param {
    lr_mult: 1
    decay_mult: 1
  }
  param {
    lr_mult: 2
    decay_mult: 0
  }
  convolution_param {
    num_output: 32
    pad: 2
    kernel_size: 5
    weight_filler {
      type: "xavier"
      std: 0.03
    }
    bias_filler {
      type: "constant"
      value: 0.2
    }
  }
}
layer {
  name: "inception_4d/relu_5x5"
  type: "ReLU"
  bottom: "inception_4d/5x5"
  top: "inception_4d/5x5"
}
layer {
  name: "inception_4d/pool"
  type: "Pooling"
  bottom: "inception_4c/output"
  top: "inception_4d/pool"
  pooling_param {
    pool: MAX
    kernel_size: 3
    stride: 1
    pad: 1
  }
}
layer {
  name: "inception_4d/pool_proj"
  type: "Convolution"
  bottom: "inception_4d/pool"
  top: "inception_4d/pool_proj"
  param {
    lr_mult: 1
    decay_mult: 1
  }
  param {
    lr_mult: 2
    decay_mult: 0
  }
  convolution_param {
    num_output: 32
    kernel_size: 1
    weight_filler {
      type: "xavier"
      std: 0.1
    }
    bias_filler {
      type: "constant"
      value: 0.2
    }
  }
}
layer {
  name: "inception_4d/relu_pool_proj"
  type: "ReLU"
  bottom: "inception_4d/pool_proj"
  top: "inception_4d/pool_proj"
}
layer {
  name: "inception_4d/output"
  type: "Concat"
  bottom: "inception_4d/1x1"
  bottom: "inception_4d/3x3"
  bottom: "inception_4d/5x5"
  bottom: "inception_4d/pool_proj"
  top: "inception_4d/output"
}
layer {
  name: "inception_4e/1x1"
  type: "Convolution"
  bottom: "inception_4d/output"
  top: "inception_4e/1x1"
  param {
    lr_mult: 1
    decay_mult: 1
  }
  param {
    lr_mult: 2
    decay_mult: 0
  }
  convolution_param {
    num_output: 128
    kernel_size: 1
    weight_filler {
      type: "xavier"
      std: 0.03
    }
    bias_filler {
      type: "constant"
      value: 0.2
    }
  }
}
layer {
  name: "inception_4e/relu_1x1"
  type: "ReLU"
  bottom: "inception_4e/1x1"
  top: "inception_4e/1x1"
}
layer {
  name: "inception_4e/3x3_reduce"
  type: "Convolution"
  bottom: "inception_4d/output"
  top: "inception_4e/3x3_reduce"
  param {
    lr_mult: 1
    decay_mult: 1
  }
  param {
    lr_mult: 2
    decay_mult: 0
  }
  convolution_param {
    num_output: 80
    kernel_size: 1
    weight_filler {
      type: "xavier"
      std: 0.09
    }
    bias_filler {
      type: "constant"
      value: 0.2
    }
  }
}
layer {
  name: "inception_4e/relu_3x3_reduce"
  type: "ReLU"
  bottom: "inception_4e/3x3_reduce"
  top: "inception_4e/3x3_reduce"
}
layer {
  name: "inception_4e/3x3"
  type: "Convolution"
  bottom: "inception_4e/3x3_reduce"
  top: "inception_4e/3x3"
  param {
    lr_mult: 1
    decay_mult: 1
  }
  param {
    lr_mult: 2
    decay_mult: 0
  }
  convolution_param {
    num_output: 160
    pad: 1
    kernel_size: 3
    weight_filler {
      type: "xavier"
      std: 0.03
    }
    bias_filler {
      type: "constant"
      value: 0.2
    }
  }
}
layer {
  name: "inception_4e/relu_3x3"
  type: "ReLU"
  bottom: "inception_4e/3x3"
  top: "inception_4e/3x3"
}
layer {
  name: "inception_4e/5x5_reduce"
  type: "Convolution"
  bottom: "inception_4d/output"
  top: "inception_4e/5x5_reduce"
  param {
    lr_mult: 1
    decay_mult: 1
  }
  param {
    lr_mult: 2
    decay_mult: 0
  }
  convolution_param {
    num_output: 16
    kernel_size: 1
    weight_filler {
      type: "xavier"
      std: 0.2
    }
    bias_filler {
      type: "constant"
      value: 0.2
    }
  }
}
layer {
  name: "inception_4e/relu_5x5_reduce"
  type: "ReLU"
  bottom: "inception_4e/5x5_reduce"
  top: "inception_4e/5x5_reduce"
}
layer {
  name: "inception_4e/5x5"
  type: "Convolution"
  bottom: "inception_4e/5x5_reduce"
  top: "inception_4e/5x5"
  param {
    lr_mult: 1
    decay_mult: 1
  }
  param {
    lr_mult: 2
    decay_mult: 0
  }
  convolution_param {
    num_output: 64
    pad: 2
    kernel_size: 5
    weight_filler {
      type: "xavier"
      std: 0.03
    }
    bias_filler {
      type: "constant"
      value: 0.2
    }
  }
}
layer {
  name: "inception_4e/relu_5x5"
  type: "ReLU"
  bottom: "inception_4e/5x5"
  top: "inception_4e/5x5"
}
layer {
  name: "inception_4e/pool"
  type: "Pooling"
  bottom: "inception_4d/output"
  top: "inception_4e/pool"
  pooling_param {
    pool: MAX
    kernel_size: 3
    stride: 1
    pad: 1
  }
}
layer {
  name: "inception_4e/pool_proj"
  type: "Convolution"
  bottom: "inception_4e/pool"
  top: "inception_4e/pool_proj"
  param {
    lr_mult: 1
    decay_mult: 1
  }
  param {
    lr_mult: 2
    decay_mult: 0
  }
  convolution_param {
    num_output: 64
    kernel_size: 1
    weight_filler {
      type: "xavier"
      std: 0.1
    }
    bias_filler {
      type: "constant"
      value: 0.2
    }
  }
}
layer {
  name: "inception_4e/relu_pool_proj"
  type: "ReLU"
  bottom: "inception_4e/pool_proj"
  top: "inception_4e/pool_proj"
}
layer {
  name: "inception_4e/output"
  type: "Concat"
  bottom: "inception_4e/1x1"
  bottom: "inception_4e/3x3"
  bottom: "inception_4e/5x5"
  bottom: "inception_4e/pool_proj"
  top: "inception_4e/output"
}
layer {
  name: "pool4/3x3_s2"
  type: "Pooling"
  bottom: "inception_4e/output"
  top: "pool4/3x3_s2"
  pooling_param {
    pool: MAX
    kernel_size: 3
    stride: 2
  }
}
I0305 14:52:54.916299  8781 net.cpp:340] Input 0 -> data
I0305 14:52:54.916424  8781 layer_factory.hpp:74] Creating layer conv1/7x7_s2
I0305 14:52:54.916466  8781 net.cpp:84] Creating Layer conv1/7x7_s2
I0305 14:52:54.916492  8781 net.cpp:380] conv1/7x7_s2 <- data
I0305 14:52:54.916529  8781 net.cpp:338] conv1/7x7_s2 -> conv1/7x7_s2
I0305 14:52:54.916602  8781 net.cpp:113] Setting up conv1/7x7_s2
I0305 14:52:55.360064  8781 net.cpp:120] Top shape: 1 32 240 320 (2457600)
I0305 14:52:55.360188  8781 layer_factory.hpp:74] Creating layer conv1/relu_7x7
I0305 14:52:55.360229  8781 net.cpp:84] Creating Layer conv1/relu_7x7
I0305 14:52:55.360254  8781 net.cpp:380] conv1/relu_7x7 <- conv1/7x7_s2
I0305 14:52:55.360309  8781 net.cpp:327] conv1/relu_7x7 -> conv1/7x7_s2 (in-place)
I0305 14:52:55.360369  8781 net.cpp:113] Setting up conv1/relu_7x7
I0305 14:52:55.360746  8781 net.cpp:120] Top shape: 1 32 240 320 (2457600)
I0305 14:52:55.360785  8781 layer_factory.hpp:74] Creating layer pool1/3x3_s2
I0305 14:52:55.360826  8781 net.cpp:84] Creating Layer pool1/3x3_s2
I0305 14:52:55.360849  8781 net.cpp:380] pool1/3x3_s2 <- conv1/7x7_s2
I0305 14:52:55.360877  8781 net.cpp:338] pool1/3x3_s2 -> pool1/3x3_s2
I0305 14:52:55.360908  8781 net.cpp:113] Setting up pool1/3x3_s2
I0305 14:52:55.361441  8781 net.cpp:120] Top shape: 1 32 120 160 (614400)
I0305 14:52:55.361479  8781 layer_factory.hpp:74] Creating layer pool1/norm1
I0305 14:52:55.361512  8781 net.cpp:84] Creating Layer pool1/norm1
I0305 14:52:55.361536  8781 net.cpp:380] pool1/norm1 <- pool1/3x3_s2
I0305 14:52:55.361564  8781 net.cpp:338] pool1/norm1 -> pool1/norm1
I0305 14:52:55.361611  8781 net.cpp:113] Setting up pool1/norm1
I0305 14:52:55.361644  8781 net.cpp:120] Top shape: 1 32 120 160 (614400)
I0305 14:52:55.361675  8781 layer_factory.hpp:74] Creating layer conv2/3x3_reduce
I0305 14:52:55.361716  8781 net.cpp:84] Creating Layer conv2/3x3_reduce
I0305 14:52:55.361738  8781 net.cpp:380] conv2/3x3_reduce <- pool1/norm1
I0305 14:52:55.361768  8781 net.cpp:338] conv2/3x3_reduce -> conv2/3x3_reduce
I0305 14:52:55.361800  8781 net.cpp:113] Setting up conv2/3x3_reduce
I0305 14:52:55.363154  8781 net.cpp:120] Top shape: 1 32 120 160 (614400)
I0305 14:52:55.363209  8781 layer_factory.hpp:74] Creating layer conv2/relu_3x3_reduce
I0305 14:52:55.363237  8781 net.cpp:84] Creating Layer conv2/relu_3x3_reduce
I0305 14:52:55.363260  8781 net.cpp:380] conv2/relu_3x3_reduce <- conv2/3x3_reduce
I0305 14:52:55.363292  8781 net.cpp:327] conv2/relu_3x3_reduce -> conv2/3x3_reduce (in-place)
I0305 14:52:55.363319  8781 net.cpp:113] Setting up conv2/relu_3x3_reduce
I0305 14:52:55.363652  8781 net.cpp:120] Top shape: 1 32 120 160 (614400)
I0305 14:52:55.363688  8781 layer_factory.hpp:74] Creating layer conv2/3x3
I0305 14:52:55.363719  8781 net.cpp:84] Creating Layer conv2/3x3
I0305 14:52:55.363742  8781 net.cpp:380] conv2/3x3 <- conv2/3x3_reduce
I0305 14:52:55.363770  8781 net.cpp:338] conv2/3x3 -> conv2/3x3
I0305 14:52:55.363801  8781 net.cpp:113] Setting up conv2/3x3
I0305 14:52:55.365811  8781 net.cpp:120] Top shape: 1 96 120 160 (1843200)
I0305 14:52:55.365910  8781 layer_factory.hpp:74] Creating layer conv2/relu_3x3
I0305 14:52:55.365950  8781 net.cpp:84] Creating Layer conv2/relu_3x3
I0305 14:52:55.365979  8781 net.cpp:380] conv2/relu_3x3 <- conv2/3x3
I0305 14:52:55.366014  8781 net.cpp:327] conv2/relu_3x3 -> conv2/3x3 (in-place)
I0305 14:52:55.366050  8781 net.cpp:113] Setting up conv2/relu_3x3
I0305 14:52:55.366456  8781 net.cpp:120] Top shape: 1 96 120 160 (1843200)
I0305 14:52:55.366503  8781 layer_factory.hpp:74] Creating layer conv2/norm2
I0305 14:52:55.366547  8781 net.cpp:84] Creating Layer conv2/norm2
I0305 14:52:55.366593  8781 net.cpp:380] conv2/norm2 <- conv2/3x3
I0305 14:52:55.366637  8781 net.cpp:338] conv2/norm2 -> conv2/norm2
I0305 14:52:55.366675  8781 net.cpp:113] Setting up conv2/norm2
I0305 14:52:55.366717  8781 net.cpp:120] Top shape: 1 96 120 160 (1843200)
I0305 14:52:55.366753  8781 layer_factory.hpp:74] Creating layer pool2/3x3_s2
I0305 14:52:55.366789  8781 net.cpp:84] Creating Layer pool2/3x3_s2
I0305 14:52:55.366818  8781 net.cpp:380] pool2/3x3_s2 <- conv2/norm2
I0305 14:52:55.366852  8781 net.cpp:338] pool2/3x3_s2 -> pool2/3x3_s2
I0305 14:52:55.366890  8781 net.cpp:113] Setting up pool2/3x3_s2
I0305 14:52:55.367280  8781 net.cpp:120] Top shape: 1 96 60 80 (460800)
I0305 14:52:55.367329  8781 layer_factory.hpp:74] Creating layer pool2/3x3_s2_pool2/3x3_s2_0_split
I0305 14:52:55.367374  8781 net.cpp:84] Creating Layer pool2/3x3_s2_pool2/3x3_s2_0_split
I0305 14:52:55.367404  8781 net.cpp:380] pool2/3x3_s2_pool2/3x3_s2_0_split <- pool2/3x3_s2
I0305 14:52:55.367440  8781 net.cpp:338] pool2/3x3_s2_pool2/3x3_s2_0_split -> pool2/3x3_s2_pool2/3x3_s2_0_split_0
I0305 14:52:55.367514  8781 net.cpp:338] pool2/3x3_s2_pool2/3x3_s2_0_split -> pool2/3x3_s2_pool2/3x3_s2_0_split_1
I0305 14:52:55.367624  8781 net.cpp:338] pool2/3x3_s2_pool2/3x3_s2_0_split -> pool2/3x3_s2_pool2/3x3_s2_0_split_2
I0305 14:52:55.367669  8781 net.cpp:338] pool2/3x3_s2_pool2/3x3_s2_0_split -> pool2/3x3_s2_pool2/3x3_s2_0_split_3
I0305 14:52:55.367704  8781 net.cpp:113] Setting up pool2/3x3_s2_pool2/3x3_s2_0_split
I0305 14:52:55.367746  8781 net.cpp:120] Top shape: 1 96 60 80 (460800)
I0305 14:52:55.367784  8781 net.cpp:120] Top shape: 1 96 60 80 (460800)
I0305 14:52:55.367817  8781 net.cpp:120] Top shape: 1 96 60 80 (460800)
I0305 14:52:55.367853  8781 net.cpp:120] Top shape: 1 96 60 80 (460800)
I0305 14:52:55.367887  8781 layer_factory.hpp:74] Creating layer inception_3a/1x1
I0305 14:52:55.367928  8781 net.cpp:84] Creating Layer inception_3a/1x1
I0305 14:52:55.367956  8781 net.cpp:380] inception_3a/1x1 <- pool2/3x3_s2_pool2/3x3_s2_0_split_0
I0305 14:52:55.368006  8781 net.cpp:338] inception_3a/1x1 -> inception_3a/1x1
I0305 14:52:55.368051  8781 net.cpp:113] Setting up inception_3a/1x1
I0305 14:52:55.369848  8781 net.cpp:120] Top shape: 1 32 60 80 (153600)
I0305 14:52:55.369928  8781 layer_factory.hpp:74] Creating layer inception_3a/relu_1x1
I0305 14:52:55.369967  8781 net.cpp:84] Creating Layer inception_3a/relu_1x1
I0305 14:52:55.369997  8781 net.cpp:380] inception_3a/relu_1x1 <- inception_3a/1x1
I0305 14:52:55.370039  8781 net.cpp:327] inception_3a/relu_1x1 -> inception_3a/1x1 (in-place)
I0305 14:52:55.370076  8781 net.cpp:113] Setting up inception_3a/relu_1x1
I0305 14:52:55.370884  8781 net.cpp:120] Top shape: 1 32 60 80 (153600)
I0305 14:52:55.370942  8781 layer_factory.hpp:74] Creating layer inception_3a/3x3_reduce
I0305 14:52:55.370986  8781 net.cpp:84] Creating Layer inception_3a/3x3_reduce
I0305 14:52:55.371016  8781 net.cpp:380] inception_3a/3x3_reduce <- pool2/3x3_s2_pool2/3x3_s2_0_split_1
I0305 14:52:55.371060  8781 net.cpp:338] inception_3a/3x3_reduce -> inception_3a/3x3_reduce
I0305 14:52:55.371101  8781 net.cpp:113] Setting up inception_3a/3x3_reduce
I0305 14:52:55.372958  8781 net.cpp:120] Top shape: 1 48 60 80 (230400)
I0305 14:52:55.373054  8781 layer_factory.hpp:74] Creating layer inception_3a/relu_3x3_reduce
I0305 14:52:55.373095  8781 net.cpp:84] Creating Layer inception_3a/relu_3x3_reduce
I0305 14:52:55.373126  8781 net.cpp:380] inception_3a/relu_3x3_reduce <- inception_3a/3x3_reduce
I0305 14:52:55.373163  8781 net.cpp:327] inception_3a/relu_3x3_reduce -> inception_3a/3x3_reduce (in-place)
I0305 14:52:55.373200  8781 net.cpp:113] Setting up inception_3a/relu_3x3_reduce
I0305 14:52:55.373584  8781 net.cpp:120] Top shape: 1 48 60 80 (230400)
I0305 14:52:55.373637  8781 layer_factory.hpp:74] Creating layer inception_3a/3x3
I0305 14:52:55.373677  8781 net.cpp:84] Creating Layer inception_3a/3x3
I0305 14:52:55.373706  8781 net.cpp:380] inception_3a/3x3 <- inception_3a/3x3_reduce
I0305 14:52:55.373745  8781 net.cpp:338] inception_3a/3x3 -> inception_3a/3x3
I0305 14:52:55.373787  8781 net.cpp:113] Setting up inception_3a/3x3
I0305 14:52:55.376121  8781 net.cpp:120] Top shape: 1 64 60 80 (307200)
I0305 14:52:55.376214  8781 layer_factory.hpp:74] Creating layer inception_3a/relu_3x3
I0305 14:52:55.376266  8781 net.cpp:84] Creating Layer inception_3a/relu_3x3
I0305 14:52:55.376296  8781 net.cpp:380] inception_3a/relu_3x3 <- inception_3a/3x3
I0305 14:52:55.376332  8781 net.cpp:327] inception_3a/relu_3x3 -> inception_3a/3x3 (in-place)
I0305 14:52:55.376368  8781 net.cpp:113] Setting up inception_3a/relu_3x3
I0305 14:52:55.376755  8781 net.cpp:120] Top shape: 1 64 60 80 (307200)
I0305 14:52:55.376814  8781 layer_factory.hpp:74] Creating layer inception_3a/5x5_reduce
I0305 14:52:55.376857  8781 net.cpp:84] Creating Layer inception_3a/5x5_reduce
I0305 14:52:55.376888  8781 net.cpp:380] inception_3a/5x5_reduce <- pool2/3x3_s2_pool2/3x3_s2_0_split_2
I0305 14:52:55.376926  8781 net.cpp:338] inception_3a/5x5_reduce -> inception_3a/5x5_reduce
I0305 14:52:55.376967  8781 net.cpp:113] Setting up inception_3a/5x5_reduce
I0305 14:52:55.378746  8781 net.cpp:120] Top shape: 1 8 60 80 (38400)
I0305 14:52:55.378875  8781 layer_factory.hpp:74] Creating layer inception_3a/relu_5x5_reduce
I0305 14:52:55.378916  8781 net.cpp:84] Creating Layer inception_3a/relu_5x5_reduce
I0305 14:52:55.378947  8781 net.cpp:380] inception_3a/relu_5x5_reduce <- inception_3a/5x5_reduce
I0305 14:52:55.378983  8781 net.cpp:327] inception_3a/relu_5x5_reduce -> inception_3a/5x5_reduce (in-place)
I0305 14:52:55.379021  8781 net.cpp:113] Setting up inception_3a/relu_5x5_reduce
I0305 14:52:55.379854  8781 net.cpp:120] Top shape: 1 8 60 80 (38400)
I0305 14:52:55.379914  8781 layer_factory.hpp:74] Creating layer inception_3a/5x5
I0305 14:52:55.379963  8781 net.cpp:84] Creating Layer inception_3a/5x5
I0305 14:52:55.379992  8781 net.cpp:380] inception_3a/5x5 <- inception_3a/5x5_reduce
I0305 14:52:55.380031  8781 net.cpp:338] inception_3a/5x5 -> inception_3a/5x5
I0305 14:52:55.380084  8781 net.cpp:113] Setting up inception_3a/5x5
I0305 14:52:55.381865  8781 net.cpp:120] Top shape: 1 16 60 80 (76800)
I0305 14:52:55.381939  8781 layer_factory.hpp:74] Creating layer inception_3a/relu_5x5
I0305 14:52:55.381979  8781 net.cpp:84] Creating Layer inception_3a/relu_5x5
I0305 14:52:55.382009  8781 net.cpp:380] inception_3a/relu_5x5 <- inception_3a/5x5
I0305 14:52:55.382045  8781 net.cpp:327] inception_3a/relu_5x5 -> inception_3a/5x5 (in-place)
I0305 14:52:55.382079  8781 net.cpp:113] Setting up inception_3a/relu_5x5
I0305 14:52:55.382436  8781 net.cpp:120] Top shape: 1 16 60 80 (76800)
I0305 14:52:55.382483  8781 layer_factory.hpp:74] Creating layer inception_3a/pool
I0305 14:52:55.382513  8781 layer_factory.cpp:55] CUDNN does not support padding or multiple tops. Using Caffe's own pooling layer.
I0305 14:52:55.382555  8781 net.cpp:84] Creating Layer inception_3a/pool
I0305 14:52:55.382601  8781 net.cpp:380] inception_3a/pool <- pool2/3x3_s2_pool2/3x3_s2_0_split_3
I0305 14:52:55.382642  8781 net.cpp:338] inception_3a/pool -> inception_3a/pool
I0305 14:52:55.382680  8781 net.cpp:113] Setting up inception_3a/pool
I0305 14:52:55.382715  8781 net.cpp:120] Top shape: 1 96 60 80 (460800)
I0305 14:52:55.382755  8781 layer_factory.hpp:74] Creating layer inception_3a/pool_proj
I0305 14:52:55.382794  8781 net.cpp:84] Creating Layer inception_3a/pool_proj
I0305 14:52:55.382823  8781 net.cpp:380] inception_3a/pool_proj <- inception_3a/pool
I0305 14:52:55.382861  8781 net.cpp:338] inception_3a/pool_proj -> inception_3a/pool_proj
I0305 14:52:55.382901  8781 net.cpp:113] Setting up inception_3a/pool_proj
I0305 14:52:55.384685  8781 net.cpp:120] Top shape: 1 16 60 80 (76800)
I0305 14:52:55.384775  8781 layer_factory.hpp:74] Creating layer inception_3a/relu_pool_proj
I0305 14:52:55.384832  8781 net.cpp:84] Creating Layer inception_3a/relu_pool_proj
I0305 14:52:55.384865  8781 net.cpp:380] inception_3a/relu_pool_proj <- inception_3a/pool_proj
I0305 14:52:55.384902  8781 net.cpp:327] inception_3a/relu_pool_proj -> inception_3a/pool_proj (in-place)
I0305 14:52:55.384940  8781 net.cpp:113] Setting up inception_3a/relu_pool_proj
I0305 14:52:55.385326  8781 net.cpp:120] Top shape: 1 16 60 80 (76800)
I0305 14:52:55.385376  8781 layer_factory.hpp:74] Creating layer inception_3a/output
I0305 14:52:55.385424  8781 net.cpp:84] Creating Layer inception_3a/output
I0305 14:52:55.385457  8781 net.cpp:380] inception_3a/output <- inception_3a/1x1
I0305 14:52:55.385489  8781 net.cpp:380] inception_3a/output <- inception_3a/3x3
I0305 14:52:55.385519  8781 net.cpp:380] inception_3a/output <- inception_3a/5x5
I0305 14:52:55.385548  8781 net.cpp:380] inception_3a/output <- inception_3a/pool_proj
I0305 14:52:55.385596  8781 net.cpp:338] inception_3a/output -> inception_3a/output
I0305 14:52:55.385642  8781 net.cpp:113] Setting up inception_3a/output
I0305 14:52:55.385685  8781 net.cpp:120] Top shape: 1 128 60 80 (614400)
I0305 14:52:55.385722  8781 layer_factory.hpp:74] Creating layer inception_3a/output_inception_3a/output_0_split
I0305 14:52:55.385766  8781 net.cpp:84] Creating Layer inception_3a/output_inception_3a/output_0_split
I0305 14:52:55.385820  8781 net.cpp:380] inception_3a/output_inception_3a/output_0_split <- inception_3a/output
I0305 14:52:55.385895  8781 net.cpp:338] inception_3a/output_inception_3a/output_0_split -> inception_3a/output_inception_3a/output_0_split_0
I0305 14:52:55.385936  8781 net.cpp:338] inception_3a/output_inception_3a/output_0_split -> inception_3a/output_inception_3a/output_0_split_1
I0305 14:52:55.385980  8781 net.cpp:338] inception_3a/output_inception_3a/output_0_split -> inception_3a/output_inception_3a/output_0_split_2
I0305 14:52:55.386026  8781 net.cpp:338] inception_3a/output_inception_3a/output_0_split -> inception_3a/output_inception_3a/output_0_split_3
I0305 14:52:55.386066  8781 net.cpp:113] Setting up inception_3a/output_inception_3a/output_0_split
I0305 14:52:55.386101  8781 net.cpp:120] Top shape: 1 128 60 80 (614400)
I0305 14:52:55.386135  8781 net.cpp:120] Top shape: 1 128 60 80 (614400)
I0305 14:52:55.386170  8781 net.cpp:120] Top shape: 1 128 60 80 (614400)
I0305 14:52:55.386204  8781 net.cpp:120] Top shape: 1 128 60 80 (614400)
I0305 14:52:55.386240  8781 layer_factory.hpp:74] Creating layer inception_3b/1x1
I0305 14:52:55.386279  8781 net.cpp:84] Creating Layer inception_3b/1x1
I0305 14:52:55.386307  8781 net.cpp:380] inception_3b/1x1 <- inception_3a/output_inception_3a/output_0_split_0
I0305 14:52:55.386353  8781 net.cpp:338] inception_3b/1x1 -> inception_3b/1x1
I0305 14:52:55.386394  8781 net.cpp:113] Setting up inception_3b/1x1
I0305 14:52:55.388356  8781 net.cpp:120] Top shape: 1 64 60 80 (307200)
I0305 14:52:55.388438  8781 layer_factory.hpp:74] Creating layer inception_3b/relu_1x1
I0305 14:52:55.388476  8781 net.cpp:84] Creating Layer inception_3b/relu_1x1
I0305 14:52:55.388507  8781 net.cpp:380] inception_3b/relu_1x1 <- inception_3b/1x1
I0305 14:52:55.388547  8781 net.cpp:327] inception_3b/relu_1x1 -> inception_3b/1x1 (in-place)
I0305 14:52:55.388602  8781 net.cpp:113] Setting up inception_3b/relu_1x1
I0305 14:52:55.389008  8781 net.cpp:120] Top shape: 1 64 60 80 (307200)
I0305 14:52:55.389070  8781 layer_factory.hpp:74] Creating layer inception_3b/3x3_reduce
I0305 14:52:55.389111  8781 net.cpp:84] Creating Layer inception_3b/3x3_reduce
I0305 14:52:55.389143  8781 net.cpp:380] inception_3b/3x3_reduce <- inception_3a/output_inception_3a/output_0_split_1
I0305 14:52:55.389190  8781 net.cpp:338] inception_3b/3x3_reduce -> inception_3b/3x3_reduce
I0305 14:52:55.389233  8781 net.cpp:113] Setting up inception_3b/3x3_reduce
I0305 14:52:55.391193  8781 net.cpp:120] Top shape: 1 64 60 80 (307200)
I0305 14:52:55.391275  8781 layer_factory.hpp:74] Creating layer inception_3b/relu_3x3_reduce
I0305 14:52:55.391314  8781 net.cpp:84] Creating Layer inception_3b/relu_3x3_reduce
I0305 14:52:55.391345  8781 net.cpp:380] inception_3b/relu_3x3_reduce <- inception_3b/3x3_reduce
I0305 14:52:55.391381  8781 net.cpp:327] inception_3b/relu_3x3_reduce -> inception_3b/3x3_reduce (in-place)
I0305 14:52:55.391417  8781 net.cpp:113] Setting up inception_3b/relu_3x3_reduce
I0305 14:52:55.392266  8781 net.cpp:120] Top shape: 1 64 60 80 (307200)
I0305 14:52:55.392326  8781 layer_factory.hpp:74] Creating layer inception_3b/3x3
I0305 14:52:55.392367  8781 net.cpp:84] Creating Layer inception_3b/3x3
I0305 14:52:55.392398  8781 net.cpp:380] inception_3b/3x3 <- inception_3b/3x3_reduce
I0305 14:52:55.392436  8781 net.cpp:338] inception_3b/3x3 -> inception_3b/3x3
I0305 14:52:55.392478  8781 net.cpp:113] Setting up inception_3b/3x3
I0305 14:52:55.395431  8781 net.cpp:120] Top shape: 1 96 60 80 (460800)
I0305 14:52:55.395517  8781 layer_factory.hpp:74] Creating layer inception_3b/relu_3x3
I0305 14:52:55.395557  8781 net.cpp:84] Creating Layer inception_3b/relu_3x3
I0305 14:52:55.395602  8781 net.cpp:380] inception_3b/relu_3x3 <- inception_3b/3x3
I0305 14:52:55.395642  8781 net.cpp:327] inception_3b/relu_3x3 -> inception_3b/3x3 (in-place)
I0305 14:52:55.395680  8781 net.cpp:113] Setting up inception_3b/relu_3x3
I0305 14:52:55.396061  8781 net.cpp:120] Top shape: 1 96 60 80 (460800)
I0305 14:52:55.396108  8781 layer_factory.hpp:74] Creating layer inception_3b/5x5_reduce
I0305 14:52:55.396234  8781 net.cpp:84] Creating Layer inception_3b/5x5_reduce
I0305 14:52:55.396267  8781 net.cpp:380] inception_3b/5x5_reduce <- inception_3a/output_inception_3a/output_0_split_2
I0305 14:52:55.396314  8781 net.cpp:338] inception_3b/5x5_reduce -> inception_3b/5x5_reduce
I0305 14:52:55.396358  8781 net.cpp:113] Setting up inception_3b/5x5_reduce
I0305 14:52:55.398243  8781 net.cpp:120] Top shape: 1 16 60 80 (76800)
I0305 14:52:55.398329  8781 layer_factory.hpp:74] Creating layer inception_3b/relu_5x5_reduce
I0305 14:52:55.398368  8781 net.cpp:84] Creating Layer inception_3b/relu_5x5_reduce
I0305 14:52:55.398399  8781 net.cpp:380] inception_3b/relu_5x5_reduce <- inception_3b/5x5_reduce
I0305 14:52:55.398435  8781 net.cpp:327] inception_3b/relu_5x5_reduce -> inception_3b/5x5_reduce (in-place)
I0305 14:52:55.398473  8781 net.cpp:113] Setting up inception_3b/relu_5x5_reduce
I0305 14:52:55.398844  8781 net.cpp:120] Top shape: 1 16 60 80 (76800)
I0305 14:52:55.398905  8781 layer_factory.hpp:74] Creating layer inception_3b/5x5
I0305 14:52:55.398950  8781 net.cpp:84] Creating Layer inception_3b/5x5
I0305 14:52:55.398980  8781 net.cpp:380] inception_3b/5x5 <- inception_3b/5x5_reduce
I0305 14:52:55.399026  8781 net.cpp:338] inception_3b/5x5 -> inception_3b/5x5
I0305 14:52:55.399070  8781 net.cpp:113] Setting up inception_3b/5x5
I0305 14:52:55.401298  8781 net.cpp:120] Top shape: 1 48 60 80 (230400)
I0305 14:52:55.401383  8781 layer_factory.hpp:74] Creating layer inception_3b/relu_5x5
I0305 14:52:55.401423  8781 net.cpp:84] Creating Layer inception_3b/relu_5x5
I0305 14:52:55.401455  8781 net.cpp:380] inception_3b/relu_5x5 <- inception_3b/5x5
I0305 14:52:55.401494  8781 net.cpp:327] inception_3b/relu_5x5 -> inception_3b/5x5 (in-place)
I0305 14:52:55.401532  8781 net.cpp:113] Setting up inception_3b/relu_5x5
I0305 14:52:55.401937  8781 net.cpp:120] Top shape: 1 48 60 80 (230400)
I0305 14:52:55.401991  8781 layer_factory.hpp:74] Creating layer inception_3b/pool
I0305 14:52:55.402024  8781 layer_factory.cpp:55] CUDNN does not support padding or multiple tops. Using Caffe's own pooling layer.
I0305 14:52:55.402061  8781 net.cpp:84] Creating Layer inception_3b/pool
I0305 14:52:55.402089  8781 net.cpp:380] inception_3b/pool <- inception_3a/output_inception_3a/output_0_split_3
I0305 14:52:55.402124  8781 net.cpp:338] inception_3b/pool -> inception_3b/pool
I0305 14:52:55.402163  8781 net.cpp:113] Setting up inception_3b/pool
I0305 14:52:55.402199  8781 net.cpp:120] Top shape: 1 128 60 80 (614400)
I0305 14:52:55.402235  8781 layer_factory.hpp:74] Creating layer inception_3b/pool_proj
I0305 14:52:55.402281  8781 net.cpp:84] Creating Layer inception_3b/pool_proj
I0305 14:52:55.402312  8781 net.cpp:380] inception_3b/pool_proj <- inception_3b/pool
I0305 14:52:55.402350  8781 net.cpp:338] inception_3b/pool_proj -> inception_3b/pool_proj
I0305 14:52:55.402390  8781 net.cpp:113] Setting up inception_3b/pool_proj
I0305 14:52:55.404255  8781 net.cpp:120] Top shape: 1 32 60 80 (153600)
I0305 14:52:55.404338  8781 layer_factory.hpp:74] Creating layer inception_3b/relu_pool_proj
I0305 14:52:55.404379  8781 net.cpp:84] Creating Layer inception_3b/relu_pool_proj
I0305 14:52:55.404412  8781 net.cpp:380] inception_3b/relu_pool_proj <- inception_3b/pool_proj
I0305 14:52:55.404448  8781 net.cpp:327] inception_3b/relu_pool_proj -> inception_3b/pool_proj (in-place)
I0305 14:52:55.404485  8781 net.cpp:113] Setting up inception_3b/relu_pool_proj
I0305 14:52:55.405328  8781 net.cpp:120] Top shape: 1 32 60 80 (153600)
I0305 14:52:55.405388  8781 layer_factory.hpp:74] Creating layer inception_3b/output
I0305 14:52:55.405429  8781 net.cpp:84] Creating Layer inception_3b/output
I0305 14:52:55.405460  8781 net.cpp:380] inception_3b/output <- inception_3b/1x1
I0305 14:52:55.405494  8781 net.cpp:380] inception_3b/output <- inception_3b/3x3
I0305 14:52:55.405526  8781 net.cpp:380] inception_3b/output <- inception_3b/5x5
I0305 14:52:55.405558  8781 net.cpp:380] inception_3b/output <- inception_3b/pool_proj
I0305 14:52:55.405637  8781 net.cpp:338] inception_3b/output -> inception_3b/output
I0305 14:52:55.405717  8781 net.cpp:113] Setting up inception_3b/output
I0305 14:52:55.405753  8781 net.cpp:120] Top shape: 1 240 60 80 (1152000)
I0305 14:52:55.405791  8781 layer_factory.hpp:74] Creating layer pool3/3x3_s2
I0305 14:52:55.405828  8781 net.cpp:84] Creating Layer pool3/3x3_s2
I0305 14:52:55.405858  8781 net.cpp:380] pool3/3x3_s2 <- inception_3b/output
I0305 14:52:55.405897  8781 net.cpp:338] pool3/3x3_s2 -> pool3/3x3_s2
I0305 14:52:55.405962  8781 net.cpp:113] Setting up pool3/3x3_s2
I0305 14:52:55.406352  8781 net.cpp:120] Top shape: 1 240 30 40 (288000)
I0305 14:52:55.406401  8781 layer_factory.hpp:74] Creating layer pool3/3x3_s2_pool3/3x3_s2_0_split
I0305 14:52:55.406440  8781 net.cpp:84] Creating Layer pool3/3x3_s2_pool3/3x3_s2_0_split
I0305 14:52:55.406469  8781 net.cpp:380] pool3/3x3_s2_pool3/3x3_s2_0_split <- pool3/3x3_s2
I0305 14:52:55.406504  8781 net.cpp:338] pool3/3x3_s2_pool3/3x3_s2_0_split -> pool3/3x3_s2_pool3/3x3_s2_0_split_0
I0305 14:52:55.406548  8781 net.cpp:338] pool3/3x3_s2_pool3/3x3_s2_0_split -> pool3/3x3_s2_pool3/3x3_s2_0_split_1
I0305 14:52:55.406623  8781 net.cpp:338] pool3/3x3_s2_pool3/3x3_s2_0_split -> pool3/3x3_s2_pool3/3x3_s2_0_split_2
I0305 14:52:55.406673  8781 net.cpp:338] pool3/3x3_s2_pool3/3x3_s2_0_split -> pool3/3x3_s2_pool3/3x3_s2_0_split_3
I0305 14:52:55.406710  8781 net.cpp:113] Setting up pool3/3x3_s2_pool3/3x3_s2_0_split
I0305 14:52:55.406746  8781 net.cpp:120] Top shape: 1 240 30 40 (288000)
I0305 14:52:55.406797  8781 net.cpp:120] Top shape: 1 240 30 40 (288000)
I0305 14:52:55.406833  8781 net.cpp:120] Top shape: 1 240 30 40 (288000)
I0305 14:52:55.406867  8781 net.cpp:120] Top shape: 1 240 30 40 (288000)
I0305 14:52:55.406903  8781 layer_factory.hpp:74] Creating layer inception_4a/1x1
I0305 14:52:55.406944  8781 net.cpp:84] Creating Layer inception_4a/1x1
I0305 14:52:55.406972  8781 net.cpp:380] inception_4a/1x1 <- pool3/3x3_s2_pool3/3x3_s2_0_split_0
I0305 14:52:55.407011  8781 net.cpp:338] inception_4a/1x1 -> inception_4a/1x1
I0305 14:52:55.407052  8781 net.cpp:113] Setting up inception_4a/1x1
I0305 14:52:55.409279  8781 net.cpp:120] Top shape: 1 96 30 40 (115200)
I0305 14:52:55.409363  8781 layer_factory.hpp:74] Creating layer inception_4a/relu_1x1
I0305 14:52:55.409404  8781 net.cpp:84] Creating Layer inception_4a/relu_1x1
I0305 14:52:55.409433  8781 net.cpp:380] inception_4a/relu_1x1 <- inception_4a/1x1
I0305 14:52:55.409468  8781 net.cpp:327] inception_4a/relu_1x1 -> inception_4a/1x1 (in-place)
I0305 14:52:55.409505  8781 net.cpp:113] Setting up inception_4a/relu_1x1
I0305 14:52:55.409911  8781 net.cpp:120] Top shape: 1 96 30 40 (115200)
I0305 14:52:55.409966  8781 layer_factory.hpp:74] Creating layer inception_4a/3x3_reduce
I0305 14:52:55.410022  8781 net.cpp:84] Creating Layer inception_4a/3x3_reduce
I0305 14:52:55.410053  8781 net.cpp:380] inception_4a/3x3_reduce <- pool3/3x3_s2_pool3/3x3_s2_0_split_1
I0305 14:52:55.410094  8781 net.cpp:338] inception_4a/3x3_reduce -> inception_4a/3x3_reduce
I0305 14:52:55.410135  8781 net.cpp:113] Setting up inception_4a/3x3_reduce
I0305 14:52:55.412475  8781 net.cpp:120] Top shape: 1 48 30 40 (57600)
I0305 14:52:55.412597  8781 layer_factory.hpp:74] Creating layer inception_4a/relu_3x3_reduce
I0305 14:52:55.412645  8781 net.cpp:84] Creating Layer inception_4a/relu_3x3_reduce
I0305 14:52:55.412678  8781 net.cpp:380] inception_4a/relu_3x3_reduce <- inception_4a/3x3_reduce
I0305 14:52:55.412713  8781 net.cpp:327] inception_4a/relu_3x3_reduce -> inception_4a/3x3_reduce (in-place)
I0305 14:52:55.412751  8781 net.cpp:113] Setting up inception_4a/relu_3x3_reduce
I0305 14:52:55.413126  8781 net.cpp:120] Top shape: 1 48 30 40 (57600)
I0305 14:52:55.413173  8781 layer_factory.hpp:74] Creating layer inception_4a/3x3
I0305 14:52:55.413216  8781 net.cpp:84] Creating Layer inception_4a/3x3
I0305 14:52:55.413254  8781 net.cpp:380] inception_4a/3x3 <- inception_4a/3x3_reduce
I0305 14:52:55.413293  8781 net.cpp:338] inception_4a/3x3 -> inception_4a/3x3
I0305 14:52:55.413359  8781 net.cpp:113] Setting up inception_4a/3x3
I0305 14:52:55.417039  8781 net.cpp:120] Top shape: 1 208 30 40 (249600)
I0305 14:52:55.417142  8781 layer_factory.hpp:74] Creating layer inception_4a/relu_3x3
I0305 14:52:55.417186  8781 net.cpp:84] Creating Layer inception_4a/relu_3x3
I0305 14:52:55.417217  8781 net.cpp:380] inception_4a/relu_3x3 <- inception_4a/3x3
I0305 14:52:55.417254  8781 net.cpp:327] inception_4a/relu_3x3 -> inception_4a/3x3 (in-place)
I0305 14:52:55.417294  8781 net.cpp:113] Setting up inception_4a/relu_3x3
I0305 14:52:55.418102  8781 net.cpp:120] Top shape: 1 208 30 40 (249600)
I0305 14:52:55.418162  8781 layer_factory.hpp:74] Creating layer inception_4a/5x5_reduce
I0305 14:52:55.418206  8781 net.cpp:84] Creating Layer inception_4a/5x5_reduce
I0305 14:52:55.418237  8781 net.cpp:380] inception_4a/5x5_reduce <- pool3/3x3_s2_pool3/3x3_s2_0_split_2
I0305 14:52:55.418282  8781 net.cpp:338] inception_4a/5x5_reduce -> inception_4a/5x5_reduce
I0305 14:52:55.418324  8781 net.cpp:113] Setting up inception_4a/5x5_reduce
I0305 14:52:55.420084  8781 net.cpp:120] Top shape: 1 8 30 40 (9600)
I0305 14:52:55.420162  8781 layer_factory.hpp:74] Creating layer inception_4a/relu_5x5_reduce
I0305 14:52:55.420202  8781 net.cpp:84] Creating Layer inception_4a/relu_5x5_reduce
I0305 14:52:55.420233  8781 net.cpp:380] inception_4a/relu_5x5_reduce <- inception_4a/5x5_reduce
I0305 14:52:55.420276  8781 net.cpp:327] inception_4a/relu_5x5_reduce -> inception_4a/5x5_reduce (in-place)
I0305 14:52:55.420315  8781 net.cpp:113] Setting up inception_4a/relu_5x5_reduce
I0305 14:52:55.420706  8781 net.cpp:120] Top shape: 1 8 30 40 (9600)
I0305 14:52:55.420760  8781 layer_factory.hpp:74] Creating layer inception_4a/5x5
I0305 14:52:55.420810  8781 net.cpp:84] Creating Layer inception_4a/5x5
I0305 14:52:55.420842  8781 net.cpp:380] inception_4a/5x5 <- inception_4a/5x5_reduce
I0305 14:52:55.420883  8781 net.cpp:338] inception_4a/5x5 -> inception_4a/5x5
I0305 14:52:55.420925  8781 net.cpp:113] Setting up inception_4a/5x5
I0305 14:52:55.422783  8781 net.cpp:120] Top shape: 1 24 30 40 (28800)
I0305 14:52:55.422870  8781 layer_factory.hpp:74] Creating layer inception_4a/relu_5x5
I0305 14:52:55.422911  8781 net.cpp:84] Creating Layer inception_4a/relu_5x5
I0305 14:52:55.422943  8781 net.cpp:380] inception_4a/relu_5x5 <- inception_4a/5x5
I0305 14:52:55.422979  8781 net.cpp:327] inception_4a/relu_5x5 -> inception_4a/5x5 (in-place)
I0305 14:52:55.423017  8781 net.cpp:113] Setting up inception_4a/relu_5x5
I0305 14:52:55.423377  8781 net.cpp:120] Top shape: 1 24 30 40 (28800)
I0305 14:52:55.423424  8781 layer_factory.hpp:74] Creating layer inception_4a/pool
I0305 14:52:55.423455  8781 layer_factory.cpp:55] CUDNN does not support padding or multiple tops. Using Caffe's own pooling layer.
I0305 14:52:55.423492  8781 net.cpp:84] Creating Layer inception_4a/pool
I0305 14:52:55.423522  8781 net.cpp:380] inception_4a/pool <- pool3/3x3_s2_pool3/3x3_s2_0_split_3
I0305 14:52:55.423568  8781 net.cpp:338] inception_4a/pool -> inception_4a/pool
I0305 14:52:55.423627  8781 net.cpp:113] Setting up inception_4a/pool
I0305 14:52:55.423666  8781 net.cpp:120] Top shape: 1 240 30 40 (288000)
I0305 14:52:55.423703  8781 layer_factory.hpp:74] Creating layer inception_4a/pool_proj
I0305 14:52:55.423743  8781 net.cpp:84] Creating Layer inception_4a/pool_proj
I0305 14:52:55.423774  8781 net.cpp:380] inception_4a/pool_proj <- inception_4a/pool
I0305 14:52:55.423817  8781 net.cpp:338] inception_4a/pool_proj -> inception_4a/pool_proj
I0305 14:52:55.423858  8781 net.cpp:113] Setting up inception_4a/pool_proj
I0305 14:52:55.425757  8781 net.cpp:120] Top shape: 1 32 30 40 (38400)
I0305 14:52:55.425842  8781 layer_factory.hpp:74] Creating layer inception_4a/relu_pool_proj
I0305 14:52:55.425881  8781 net.cpp:84] Creating Layer inception_4a/relu_pool_proj
I0305 14:52:55.425915  8781 net.cpp:380] inception_4a/relu_pool_proj <- inception_4a/pool_proj
I0305 14:52:55.425956  8781 net.cpp:327] inception_4a/relu_pool_proj -> inception_4a/pool_proj (in-place)
I0305 14:52:55.426022  8781 net.cpp:113] Setting up inception_4a/relu_pool_proj
I0305 14:52:55.426887  8781 net.cpp:120] Top shape: 1 32 30 40 (38400)
I0305 14:52:55.426947  8781 layer_factory.hpp:74] Creating layer inception_4a/output
I0305 14:52:55.426995  8781 net.cpp:84] Creating Layer inception_4a/output
I0305 14:52:55.427027  8781 net.cpp:380] inception_4a/output <- inception_4a/1x1
I0305 14:52:55.427060  8781 net.cpp:380] inception_4a/output <- inception_4a/3x3
I0305 14:52:55.427093  8781 net.cpp:380] inception_4a/output <- inception_4a/5x5
I0305 14:52:55.427124  8781 net.cpp:380] inception_4a/output <- inception_4a/pool_proj
I0305 14:52:55.427160  8781 net.cpp:338] inception_4a/output -> inception_4a/output
I0305 14:52:55.427198  8781 net.cpp:113] Setting up inception_4a/output
I0305 14:52:55.427232  8781 net.cpp:120] Top shape: 1 360 30 40 (432000)
I0305 14:52:55.427269  8781 layer_factory.hpp:74] Creating layer inception_4a/output_inception_4a/output_0_split
I0305 14:52:55.427307  8781 net.cpp:84] Creating Layer inception_4a/output_inception_4a/output_0_split
I0305 14:52:55.427336  8781 net.cpp:380] inception_4a/output_inception_4a/output_0_split <- inception_4a/output
I0305 14:52:55.427374  8781 net.cpp:338] inception_4a/output_inception_4a/output_0_split -> inception_4a/output_inception_4a/output_0_split_0
I0305 14:52:55.427415  8781 net.cpp:338] inception_4a/output_inception_4a/output_0_split -> inception_4a/output_inception_4a/output_0_split_1
I0305 14:52:55.427459  8781 net.cpp:338] inception_4a/output_inception_4a/output_0_split -> inception_4a/output_inception_4a/output_0_split_2
I0305 14:52:55.427500  8781 net.cpp:338] inception_4a/output_inception_4a/output_0_split -> inception_4a/output_inception_4a/output_0_split_3
I0305 14:52:55.427539  8781 net.cpp:113] Setting up inception_4a/output_inception_4a/output_0_split
I0305 14:52:55.427582  8781 net.cpp:120] Top shape: 1 360 30 40 (432000)
I0305 14:52:55.427625  8781 net.cpp:120] Top shape: 1 360 30 40 (432000)
I0305 14:52:55.427659  8781 net.cpp:120] Top shape: 1 360 30 40 (432000)
I0305 14:52:55.427695  8781 net.cpp:120] Top shape: 1 360 30 40 (432000)
I0305 14:52:55.427731  8781 layer_factory.hpp:74] Creating layer inception_4b/1x1
I0305 14:52:55.427777  8781 net.cpp:84] Creating Layer inception_4b/1x1
I0305 14:52:55.427805  8781 net.cpp:380] inception_4b/1x1 <- inception_4a/output_inception_4a/output_0_split_0
I0305 14:52:55.427847  8781 net.cpp:338] inception_4b/1x1 -> inception_4b/1x1
I0305 14:52:55.427887  8781 net.cpp:113] Setting up inception_4b/1x1
I0305 14:52:55.430229  8781 net.cpp:120] Top shape: 1 80 30 40 (96000)
I0305 14:52:55.430315  8781 layer_factory.hpp:74] Creating layer inception_4b/relu_1x1
I0305 14:52:55.430354  8781 net.cpp:84] Creating Layer inception_4b/relu_1x1
I0305 14:52:55.430384  8781 net.cpp:380] inception_4b/relu_1x1 <- inception_4b/1x1
I0305 14:52:55.430419  8781 net.cpp:327] inception_4b/relu_1x1 -> inception_4b/1x1 (in-place)
I0305 14:52:55.430456  8781 net.cpp:113] Setting up inception_4b/relu_1x1
I0305 14:52:55.430858  8781 net.cpp:120] Top shape: 1 80 30 40 (96000)
I0305 14:52:55.430912  8781 layer_factory.hpp:74] Creating layer inception_4b/3x3_reduce
I0305 14:52:55.430959  8781 net.cpp:84] Creating Layer inception_4b/3x3_reduce
I0305 14:52:55.430989  8781 net.cpp:380] inception_4b/3x3_reduce <- inception_4a/output_inception_4a/output_0_split_1
I0305 14:52:55.431027  8781 net.cpp:338] inception_4b/3x3_reduce -> inception_4b/3x3_reduce
I0305 14:52:55.431071  8781 net.cpp:113] Setting up inception_4b/3x3_reduce
I0305 14:52:55.433233  8781 net.cpp:120] Top shape: 1 56 30 40 (67200)
I0305 14:52:55.433316  8781 layer_factory.hpp:74] Creating layer inception_4b/relu_3x3_reduce
I0305 14:52:55.433357  8781 net.cpp:84] Creating Layer inception_4b/relu_3x3_reduce
I0305 14:52:55.433390  8781 net.cpp:380] inception_4b/relu_3x3_reduce <- inception_4b/3x3_reduce
I0305 14:52:55.433426  8781 net.cpp:327] inception_4b/relu_3x3_reduce -> inception_4b/3x3_reduce (in-place)
I0305 14:52:55.433462  8781 net.cpp:113] Setting up inception_4b/relu_3x3_reduce
I0305 14:52:55.433871  8781 net.cpp:120] Top shape: 1 56 30 40 (67200)
I0305 14:52:55.433962  8781 layer_factory.hpp:74] Creating layer inception_4b/3x3
I0305 14:52:55.434011  8781 net.cpp:84] Creating Layer inception_4b/3x3
I0305 14:52:55.434042  8781 net.cpp:380] inception_4b/3x3 <- inception_4b/3x3_reduce
I0305 14:52:55.434082  8781 net.cpp:338] inception_4b/3x3 -> inception_4b/3x3
I0305 14:52:55.434123  8781 net.cpp:113] Setting up inception_4b/3x3
I0305 14:52:55.437147  8781 net.cpp:120] Top shape: 1 112 30 40 (134400)
I0305 14:52:55.437242  8781 layer_factory.hpp:74] Creating layer inception_4b/relu_3x3
I0305 14:52:55.437283  8781 net.cpp:84] Creating Layer inception_4b/relu_3x3
I0305 14:52:55.437314  8781 net.cpp:380] inception_4b/relu_3x3 <- inception_4b/3x3
I0305 14:52:55.437350  8781 net.cpp:327] inception_4b/relu_3x3 -> inception_4b/3x3 (in-place)
I0305 14:52:55.437388  8781 net.cpp:113] Setting up inception_4b/relu_3x3
I0305 14:52:55.437796  8781 net.cpp:120] Top shape: 1 112 30 40 (134400)
I0305 14:52:55.437856  8781 layer_factory.hpp:74] Creating layer inception_4b/5x5_reduce
I0305 14:52:55.437901  8781 net.cpp:84] Creating Layer inception_4b/5x5_reduce
I0305 14:52:55.437929  8781 net.cpp:380] inception_4b/5x5_reduce <- inception_4a/output_inception_4a/output_0_split_2
I0305 14:52:55.437970  8781 net.cpp:338] inception_4b/5x5_reduce -> inception_4b/5x5_reduce
I0305 14:52:55.438014  8781 net.cpp:113] Setting up inception_4b/5x5_reduce
I0305 14:52:55.439839  8781 net.cpp:120] Top shape: 1 12 30 40 (14400)
I0305 14:52:55.439919  8781 layer_factory.hpp:74] Creating layer inception_4b/relu_5x5_reduce
I0305 14:52:55.440006  8781 net.cpp:84] Creating Layer inception_4b/relu_5x5_reduce
I0305 14:52:55.440042  8781 net.cpp:380] inception_4b/relu_5x5_reduce <- inception_4b/5x5_reduce
I0305 14:52:55.440079  8781 net.cpp:327] inception_4b/relu_5x5_reduce -> inception_4b/5x5_reduce (in-place)
I0305 14:52:55.440119  8781 net.cpp:113] Setting up inception_4b/relu_5x5_reduce
I0305 14:52:55.440955  8781 net.cpp:120] Top shape: 1 12 30 40 (14400)
I0305 14:52:55.441017  8781 layer_factory.hpp:74] Creating layer inception_4b/5x5
I0305 14:52:55.441066  8781 net.cpp:84] Creating Layer inception_4b/5x5
I0305 14:52:55.441099  8781 net.cpp:380] inception_4b/5x5 <- inception_4b/5x5_reduce
I0305 14:52:55.441139  8781 net.cpp:338] inception_4b/5x5 -> inception_4b/5x5
I0305 14:52:55.441182  8781 net.cpp:113] Setting up inception_4b/5x5
I0305 14:52:55.443111  8781 net.cpp:120] Top shape: 1 32 30 40 (38400)
I0305 14:52:55.443199  8781 layer_factory.hpp:74] Creating layer inception_4b/relu_5x5
I0305 14:52:55.443238  8781 net.cpp:84] Creating Layer inception_4b/relu_5x5
I0305 14:52:55.443270  8781 net.cpp:380] inception_4b/relu_5x5 <- inception_4b/5x5
I0305 14:52:55.443305  8781 net.cpp:327] inception_4b/relu_5x5 -> inception_4b/5x5 (in-place)
I0305 14:52:55.443344  8781 net.cpp:113] Setting up inception_4b/relu_5x5
I0305 14:52:55.443724  8781 net.cpp:120] Top shape: 1 32 30 40 (38400)
I0305 14:52:55.443775  8781 layer_factory.hpp:74] Creating layer inception_4b/pool
I0305 14:52:55.443807  8781 layer_factory.cpp:55] CUDNN does not support padding or multiple tops. Using Caffe's own pooling layer.
I0305 14:52:55.443845  8781 net.cpp:84] Creating Layer inception_4b/pool
I0305 14:52:55.443873  8781 net.cpp:380] inception_4b/pool <- inception_4a/output_inception_4a/output_0_split_3
I0305 14:52:55.443910  8781 net.cpp:338] inception_4b/pool -> inception_4b/pool
I0305 14:52:55.443949  8781 net.cpp:113] Setting up inception_4b/pool
I0305 14:52:55.443986  8781 net.cpp:120] Top shape: 1 360 30 40 (432000)
I0305 14:52:55.444025  8781 layer_factory.hpp:74] Creating layer inception_4b/pool_proj
I0305 14:52:55.444069  8781 net.cpp:84] Creating Layer inception_4b/pool_proj
I0305 14:52:55.444102  8781 net.cpp:380] inception_4b/pool_proj <- inception_4b/pool
I0305 14:52:55.444141  8781 net.cpp:338] inception_4b/pool_proj -> inception_4b/pool_proj
I0305 14:52:55.444181  8781 net.cpp:113] Setting up inception_4b/pool_proj
I0305 14:52:55.446262  8781 net.cpp:120] Top shape: 1 32 30 40 (38400)
I0305 14:52:55.446374  8781 layer_factory.hpp:74] Creating layer inception_4b/relu_pool_proj
I0305 14:52:55.446460  8781 net.cpp:84] Creating Layer inception_4b/relu_pool_proj
I0305 14:52:55.446493  8781 net.cpp:380] inception_4b/relu_pool_proj <- inception_4b/pool_proj
I0305 14:52:55.446528  8781 net.cpp:327] inception_4b/relu_pool_proj -> inception_4b/pool_proj (in-place)
I0305 14:52:55.446566  8781 net.cpp:113] Setting up inception_4b/relu_pool_proj
I0305 14:52:55.446974  8781 net.cpp:120] Top shape: 1 32 30 40 (38400)
I0305 14:52:55.447024  8781 layer_factory.hpp:74] Creating layer inception_4b/output
I0305 14:52:55.447064  8781 net.cpp:84] Creating Layer inception_4b/output
I0305 14:52:55.447093  8781 net.cpp:380] inception_4b/output <- inception_4b/1x1
I0305 14:52:55.447127  8781 net.cpp:380] inception_4b/output <- inception_4b/3x3
I0305 14:52:55.447159  8781 net.cpp:380] inception_4b/output <- inception_4b/5x5
I0305 14:52:55.447190  8781 net.cpp:380] inception_4b/output <- inception_4b/pool_proj
I0305 14:52:55.447226  8781 net.cpp:338] inception_4b/output -> inception_4b/output
I0305 14:52:55.447263  8781 net.cpp:113] Setting up inception_4b/output
I0305 14:52:55.447298  8781 net.cpp:120] Top shape: 1 256 30 40 (307200)
I0305 14:52:55.447332  8781 layer_factory.hpp:74] Creating layer inception_4b/output_inception_4b/output_0_split
I0305 14:52:55.447370  8781 net.cpp:84] Creating Layer inception_4b/output_inception_4b/output_0_split
I0305 14:52:55.447398  8781 net.cpp:380] inception_4b/output_inception_4b/output_0_split <- inception_4b/output
I0305 14:52:55.447434  8781 net.cpp:338] inception_4b/output_inception_4b/output_0_split -> inception_4b/output_inception_4b/output_0_split_0
I0305 14:52:55.447476  8781 net.cpp:338] inception_4b/output_inception_4b/output_0_split -> inception_4b/output_inception_4b/output_0_split_1
I0305 14:52:55.447520  8781 net.cpp:338] inception_4b/output_inception_4b/output_0_split -> inception_4b/output_inception_4b/output_0_split_2
I0305 14:52:55.447563  8781 net.cpp:338] inception_4b/output_inception_4b/output_0_split -> inception_4b/output_inception_4b/output_0_split_3
I0305 14:52:55.447619  8781 net.cpp:113] Setting up inception_4b/output_inception_4b/output_0_split
I0305 14:52:55.447664  8781 net.cpp:120] Top shape: 1 256 30 40 (307200)
I0305 14:52:55.447702  8781 net.cpp:120] Top shape: 1 256 30 40 (307200)
I0305 14:52:55.447736  8781 net.cpp:120] Top shape: 1 256 30 40 (307200)
I0305 14:52:55.447772  8781 net.cpp:120] Top shape: 1 256 30 40 (307200)
I0305 14:52:55.447808  8781 layer_factory.hpp:74] Creating layer inception_4c/1x1
I0305 14:52:55.447849  8781 net.cpp:84] Creating Layer inception_4c/1x1
I0305 14:52:55.447877  8781 net.cpp:380] inception_4c/1x1 <- inception_4b/output_inception_4b/output_0_split_0
I0305 14:52:55.447921  8781 net.cpp:338] inception_4c/1x1 -> inception_4c/1x1
I0305 14:52:55.447962  8781 net.cpp:113] Setting up inception_4c/1x1
I0305 14:52:55.450096  8781 net.cpp:120] Top shape: 1 64 30 40 (76800)
I0305 14:52:55.450188  8781 layer_factory.hpp:74] Creating layer inception_4c/relu_1x1
I0305 14:52:55.450228  8781 net.cpp:84] Creating Layer inception_4c/relu_1x1
I0305 14:52:55.450260  8781 net.cpp:380] inception_4c/relu_1x1 <- inception_4c/1x1
I0305 14:52:55.450295  8781 net.cpp:327] inception_4c/relu_1x1 -> inception_4c/1x1 (in-place)
I0305 14:52:55.450332  8781 net.cpp:113] Setting up inception_4c/relu_1x1
I0305 14:52:55.450712  8781 net.cpp:120] Top shape: 1 64 30 40 (76800)
I0305 14:52:55.450767  8781 layer_factory.hpp:74] Creating layer inception_4c/3x3_reduce
I0305 14:52:55.450816  8781 net.cpp:84] Creating Layer inception_4c/3x3_reduce
I0305 14:52:55.450846  8781 net.cpp:380] inception_4c/3x3_reduce <- inception_4b/output_inception_4b/output_0_split_1
I0305 14:52:55.450887  8781 net.cpp:338] inception_4c/3x3_reduce -> inception_4c/3x3_reduce
I0305 14:52:55.450929  8781 net.cpp:113] Setting up inception_4c/3x3_reduce
I0305 14:52:55.453011  8781 net.cpp:120] Top shape: 1 64 30 40 (76800)
I0305 14:52:55.453091  8781 layer_factory.hpp:74] Creating layer inception_4c/relu_3x3_reduce
I0305 14:52:55.453189  8781 net.cpp:84] Creating Layer inception_4c/relu_3x3_reduce
I0305 14:52:55.453220  8781 net.cpp:380] inception_4c/relu_3x3_reduce <- inception_4c/3x3_reduce
I0305 14:52:55.453258  8781 net.cpp:327] inception_4c/relu_3x3_reduce -> inception_4c/3x3_reduce (in-place)
I0305 14:52:55.453295  8781 net.cpp:113] Setting up inception_4c/relu_3x3_reduce
I0305 14:52:55.454138  8781 net.cpp:120] Top shape: 1 64 30 40 (76800)
I0305 14:52:55.454198  8781 layer_factory.hpp:74] Creating layer inception_4c/3x3
I0305 14:52:55.454242  8781 net.cpp:84] Creating Layer inception_4c/3x3
I0305 14:52:55.454273  8781 net.cpp:380] inception_4c/3x3 <- inception_4c/3x3_reduce
I0305 14:52:55.454313  8781 net.cpp:338] inception_4c/3x3 -> inception_4c/3x3
I0305 14:52:55.454356  8781 net.cpp:113] Setting up inception_4c/3x3
I0305 14:52:55.457648  8781 net.cpp:120] Top shape: 1 128 30 40 (153600)
I0305 14:52:55.457736  8781 layer_factory.hpp:74] Creating layer inception_4c/relu_3x3
I0305 14:52:55.457775  8781 net.cpp:84] Creating Layer inception_4c/relu_3x3
I0305 14:52:55.457816  8781 net.cpp:380] inception_4c/relu_3x3 <- inception_4c/3x3
I0305 14:52:55.457854  8781 net.cpp:327] inception_4c/relu_3x3 -> inception_4c/3x3 (in-place)
I0305 14:52:55.457890  8781 net.cpp:113] Setting up inception_4c/relu_3x3
I0305 14:52:55.458271  8781 net.cpp:120] Top shape: 1 128 30 40 (153600)
I0305 14:52:55.458318  8781 layer_factory.hpp:74] Creating layer inception_4c/5x5_reduce
I0305 14:52:55.458360  8781 net.cpp:84] Creating Layer inception_4c/5x5_reduce
I0305 14:52:55.458391  8781 net.cpp:380] inception_4c/5x5_reduce <- inception_4b/output_inception_4b/output_0_split_2
I0305 14:52:55.458431  8781 net.cpp:338] inception_4c/5x5_reduce -> inception_4c/5x5_reduce
I0305 14:52:55.458526  8781 net.cpp:113] Setting up inception_4c/5x5_reduce
I0305 14:52:55.460337  8781 net.cpp:120] Top shape: 1 12 30 40 (14400)
I0305 14:52:55.460428  8781 layer_factory.hpp:74] Creating layer inception_4c/relu_5x5_reduce
I0305 14:52:55.460469  8781 net.cpp:84] Creating Layer inception_4c/relu_5x5_reduce
I0305 14:52:55.460502  8781 net.cpp:380] inception_4c/relu_5x5_reduce <- inception_4c/5x5_reduce
I0305 14:52:55.460539  8781 net.cpp:327] inception_4c/relu_5x5_reduce -> inception_4c/5x5_reduce (in-place)
I0305 14:52:55.460590  8781 net.cpp:113] Setting up inception_4c/relu_5x5_reduce
I0305 14:52:55.460964  8781 net.cpp:120] Top shape: 1 12 30 40 (14400)
I0305 14:52:55.461012  8781 layer_factory.hpp:74] Creating layer inception_4c/5x5
I0305 14:52:55.461055  8781 net.cpp:84] Creating Layer inception_4c/5x5
I0305 14:52:55.461086  8781 net.cpp:380] inception_4c/5x5 <- inception_4c/5x5_reduce
I0305 14:52:55.461127  8781 net.cpp:338] inception_4c/5x5 -> inception_4c/5x5
I0305 14:52:55.461169  8781 net.cpp:113] Setting up inception_4c/5x5
I0305 14:52:55.463116  8781 net.cpp:120] Top shape: 1 32 30 40 (38400)
I0305 14:52:55.463198  8781 layer_factory.hpp:74] Creating layer inception_4c/relu_5x5
I0305 14:52:55.463239  8781 net.cpp:84] Creating Layer inception_4c/relu_5x5
I0305 14:52:55.463274  8781 net.cpp:380] inception_4c/relu_5x5 <- inception_4c/5x5
I0305 14:52:55.463307  8781 net.cpp:327] inception_4c/relu_5x5 -> inception_4c/5x5 (in-place)
I0305 14:52:55.463346  8781 net.cpp:113] Setting up inception_4c/relu_5x5
I0305 14:52:55.463747  8781 net.cpp:120] Top shape: 1 32 30 40 (38400)
I0305 14:52:55.463801  8781 layer_factory.hpp:74] Creating layer inception_4c/pool
I0305 14:52:55.463834  8781 layer_factory.cpp:55] CUDNN does not support padding or multiple tops. Using Caffe's own pooling layer.
I0305 14:52:55.463876  8781 net.cpp:84] Creating Layer inception_4c/pool
I0305 14:52:55.463910  8781 net.cpp:380] inception_4c/pool <- inception_4b/output_inception_4b/output_0_split_3
I0305 14:52:55.463946  8781 net.cpp:338] inception_4c/pool -> inception_4c/pool
I0305 14:52:55.463984  8781 net.cpp:113] Setting up inception_4c/pool
I0305 14:52:55.464020  8781 net.cpp:120] Top shape: 1 256 30 40 (307200)
I0305 14:52:55.464082  8781 layer_factory.hpp:74] Creating layer inception_4c/pool_proj
I0305 14:52:55.464159  8781 net.cpp:84] Creating Layer inception_4c/pool_proj
I0305 14:52:55.464190  8781 net.cpp:380] inception_4c/pool_proj <- inception_4c/pool
I0305 14:52:55.464228  8781 net.cpp:338] inception_4c/pool_proj -> inception_4c/pool_proj
I0305 14:52:55.464269  8781 net.cpp:113] Setting up inception_4c/pool_proj
I0305 14:52:55.466183  8781 net.cpp:120] Top shape: 1 32 30 40 (38400)
I0305 14:52:55.466325  8781 layer_factory.hpp:74] Creating layer inception_4c/relu_pool_proj
I0305 14:52:55.466368  8781 net.cpp:84] Creating Layer inception_4c/relu_pool_proj
I0305 14:52:55.466401  8781 net.cpp:380] inception_4c/relu_pool_proj <- inception_4c/pool_proj
I0305 14:52:55.466439  8781 net.cpp:327] inception_4c/relu_pool_proj -> inception_4c/pool_proj (in-place)
I0305 14:52:55.466480  8781 net.cpp:113] Setting up inception_4c/relu_pool_proj
I0305 14:52:55.467288  8781 net.cpp:120] Top shape: 1 32 30 40 (38400)
I0305 14:52:55.467355  8781 layer_factory.hpp:74] Creating layer inception_4c/output
I0305 14:52:55.467394  8781 net.cpp:84] Creating Layer inception_4c/output
I0305 14:52:55.467425  8781 net.cpp:380] inception_4c/output <- inception_4c/1x1
I0305 14:52:55.467458  8781 net.cpp:380] inception_4c/output <- inception_4c/3x3
I0305 14:52:55.467489  8781 net.cpp:380] inception_4c/output <- inception_4c/5x5
I0305 14:52:55.467521  8781 net.cpp:380] inception_4c/output <- inception_4c/pool_proj
I0305 14:52:55.467555  8781 net.cpp:338] inception_4c/output -> inception_4c/output
I0305 14:52:55.467607  8781 net.cpp:113] Setting up inception_4c/output
I0305 14:52:55.467646  8781 net.cpp:120] Top shape: 1 256 30 40 (307200)
I0305 14:52:55.467684  8781 layer_factory.hpp:74] Creating layer inception_4c/output_inception_4c/output_0_split
I0305 14:52:55.467720  8781 net.cpp:84] Creating Layer inception_4c/output_inception_4c/output_0_split
I0305 14:52:55.467748  8781 net.cpp:380] inception_4c/output_inception_4c/output_0_split <- inception_4c/output
I0305 14:52:55.467785  8781 net.cpp:338] inception_4c/output_inception_4c/output_0_split -> inception_4c/output_inception_4c/output_0_split_0
I0305 14:52:55.467836  8781 net.cpp:338] inception_4c/output_inception_4c/output_0_split -> inception_4c/output_inception_4c/output_0_split_1
I0305 14:52:55.467881  8781 net.cpp:338] inception_4c/output_inception_4c/output_0_split -> inception_4c/output_inception_4c/output_0_split_2
I0305 14:52:55.467924  8781 net.cpp:338] inception_4c/output_inception_4c/output_0_split -> inception_4c/output_inception_4c/output_0_split_3
I0305 14:52:55.467963  8781 net.cpp:113] Setting up inception_4c/output_inception_4c/output_0_split
I0305 14:52:55.467998  8781 net.cpp:120] Top shape: 1 256 30 40 (307200)
I0305 14:52:55.468034  8781 net.cpp:120] Top shape: 1 256 30 40 (307200)
I0305 14:52:55.468070  8781 net.cpp:120] Top shape: 1 256 30 40 (307200)
I0305 14:52:55.468106  8781 net.cpp:120] Top shape: 1 256 30 40 (307200)
I0305 14:52:55.468143  8781 layer_factory.hpp:74] Creating layer inception_4d/1x1
I0305 14:52:55.468183  8781 net.cpp:84] Creating Layer inception_4d/1x1
I0305 14:52:55.468212  8781 net.cpp:380] inception_4d/1x1 <- inception_4c/output_inception_4c/output_0_split_0
I0305 14:52:55.468252  8781 net.cpp:338] inception_4d/1x1 -> inception_4d/1x1
I0305 14:52:55.468291  8781 net.cpp:113] Setting up inception_4d/1x1
I0305 14:52:55.470301  8781 net.cpp:120] Top shape: 1 56 30 40 (67200)
I0305 14:52:55.470382  8781 layer_factory.hpp:74] Creating layer inception_4d/relu_1x1
I0305 14:52:55.470422  8781 net.cpp:84] Creating Layer inception_4d/relu_1x1
I0305 14:52:55.470453  8781 net.cpp:380] inception_4d/relu_1x1 <- inception_4d/1x1
I0305 14:52:55.470489  8781 net.cpp:327] inception_4d/relu_1x1 -> inception_4d/1x1 (in-place)
I0305 14:52:55.470528  8781 net.cpp:113] Setting up inception_4d/relu_1x1
I0305 14:52:55.470902  8781 net.cpp:120] Top shape: 1 56 30 40 (67200)
I0305 14:52:55.470957  8781 layer_factory.hpp:74] Creating layer inception_4d/3x3_reduce
I0305 14:52:55.471030  8781 net.cpp:84] Creating Layer inception_4d/3x3_reduce
I0305 14:52:55.471158  8781 net.cpp:380] inception_4d/3x3_reduce <- inception_4c/output_inception_4c/output_0_split_1
I0305 14:52:55.471204  8781 net.cpp:338] inception_4d/3x3_reduce -> inception_4d/3x3_reduce
I0305 14:52:55.471246  8781 net.cpp:113] Setting up inception_4d/3x3_reduce
I0305 14:52:55.473352  8781 net.cpp:120] Top shape: 1 72 30 40 (86400)
I0305 14:52:55.473439  8781 layer_factory.hpp:74] Creating layer inception_4d/relu_3x3_reduce
I0305 14:52:55.473479  8781 net.cpp:84] Creating Layer inception_4d/relu_3x3_reduce
I0305 14:52:55.473510  8781 net.cpp:380] inception_4d/relu_3x3_reduce <- inception_4d/3x3_reduce
I0305 14:52:55.473546  8781 net.cpp:327] inception_4d/relu_3x3_reduce -> inception_4d/3x3_reduce (in-place)
I0305 14:52:55.473598  8781 net.cpp:113] Setting up inception_4d/relu_3x3_reduce
I0305 14:52:55.473989  8781 net.cpp:120] Top shape: 1 72 30 40 (86400)
I0305 14:52:55.474036  8781 layer_factory.hpp:74] Creating layer inception_4d/3x3
I0305 14:52:55.474082  8781 net.cpp:84] Creating Layer inception_4d/3x3
I0305 14:52:55.474115  8781 net.cpp:380] inception_4d/3x3 <- inception_4d/3x3_reduce
I0305 14:52:55.474155  8781 net.cpp:338] inception_4d/3x3 -> inception_4d/3x3
I0305 14:52:55.474197  8781 net.cpp:113] Setting up inception_4d/3x3
I0305 14:52:55.477886  8781 net.cpp:120] Top shape: 1 144 30 40 (172800)
I0305 14:52:55.477987  8781 layer_factory.hpp:74] Creating layer inception_4d/relu_3x3
I0305 14:52:55.478029  8781 net.cpp:84] Creating Layer inception_4d/relu_3x3
I0305 14:52:55.478063  8781 net.cpp:380] inception_4d/relu_3x3 <- inception_4d/3x3
I0305 14:52:55.478099  8781 net.cpp:327] inception_4d/relu_3x3 -> inception_4d/3x3 (in-place)
I0305 14:52:55.478138  8781 net.cpp:113] Setting up inception_4d/relu_3x3
I0305 14:52:55.478984  8781 net.cpp:120] Top shape: 1 144 30 40 (172800)
I0305 14:52:55.479046  8781 layer_factory.hpp:74] Creating layer inception_4d/5x5_reduce
I0305 14:52:55.479090  8781 net.cpp:84] Creating Layer inception_4d/5x5_reduce
I0305 14:52:55.479120  8781 net.cpp:380] inception_4d/5x5_reduce <- inception_4c/output_inception_4c/output_0_split_2
I0305 14:52:55.479168  8781 net.cpp:338] inception_4d/5x5_reduce -> inception_4d/5x5_reduce
I0305 14:52:55.479210  8781 net.cpp:113] Setting up inception_4d/5x5_reduce
I0305 14:52:55.481009  8781 net.cpp:120] Top shape: 1 16 30 40 (19200)
I0305 14:52:55.481096  8781 layer_factory.hpp:74] Creating layer inception_4d/relu_5x5_reduce
I0305 14:52:55.481135  8781 net.cpp:84] Creating Layer inception_4d/relu_5x5_reduce
I0305 14:52:55.481166  8781 net.cpp:380] inception_4d/relu_5x5_reduce <- inception_4d/5x5_reduce
I0305 14:52:55.481201  8781 net.cpp:327] inception_4d/relu_5x5_reduce -> inception_4d/5x5_reduce (in-place)
I0305 14:52:55.481240  8781 net.cpp:113] Setting up inception_4d/relu_5x5_reduce
I0305 14:52:55.481632  8781 net.cpp:120] Top shape: 1 16 30 40 (19200)
I0305 14:52:55.481684  8781 layer_factory.hpp:74] Creating layer inception_4d/5x5
I0305 14:52:55.481727  8781 net.cpp:84] Creating Layer inception_4d/5x5
I0305 14:52:55.481760  8781 net.cpp:380] inception_4d/5x5 <- inception_4d/5x5_reduce
I0305 14:52:55.481798  8781 net.cpp:338] inception_4d/5x5 -> inception_4d/5x5
I0305 14:52:55.481840  8781 net.cpp:113] Setting up inception_4d/5x5
I0305 14:52:55.483846  8781 net.cpp:120] Top shape: 1 32 30 40 (38400)
I0305 14:52:55.483925  8781 layer_factory.hpp:74] Creating layer inception_4d/relu_5x5
I0305 14:52:55.483964  8781 net.cpp:84] Creating Layer inception_4d/relu_5x5
I0305 14:52:55.483997  8781 net.cpp:380] inception_4d/relu_5x5 <- inception_4d/5x5
I0305 14:52:55.484035  8781 net.cpp:327] inception_4d/relu_5x5 -> inception_4d/5x5 (in-place)
I0305 14:52:55.484072  8781 net.cpp:113] Setting up inception_4d/relu_5x5
I0305 14:52:55.484453  8781 net.cpp:120] Top shape: 1 32 30 40 (38400)
I0305 14:52:55.484503  8781 layer_factory.hpp:74] Creating layer inception_4d/pool
I0305 14:52:55.484535  8781 layer_factory.cpp:55] CUDNN does not support padding or multiple tops. Using Caffe's own pooling layer.
I0305 14:52:55.484611  8781 net.cpp:84] Creating Layer inception_4d/pool
I0305 14:52:55.484688  8781 net.cpp:380] inception_4d/pool <- inception_4c/output_inception_4c/output_0_split_3
I0305 14:52:55.484733  8781 net.cpp:338] inception_4d/pool -> inception_4d/pool
I0305 14:52:55.484774  8781 net.cpp:113] Setting up inception_4d/pool
I0305 14:52:55.484812  8781 net.cpp:120] Top shape: 1 256 30 40 (307200)
I0305 14:52:55.484849  8781 layer_factory.hpp:74] Creating layer inception_4d/pool_proj
I0305 14:52:55.484890  8781 net.cpp:84] Creating Layer inception_4d/pool_proj
I0305 14:52:55.484920  8781 net.cpp:380] inception_4d/pool_proj <- inception_4d/pool
I0305 14:52:55.484966  8781 net.cpp:338] inception_4d/pool_proj -> inception_4d/pool_proj
I0305 14:52:55.485008  8781 net.cpp:113] Setting up inception_4d/pool_proj
I0305 14:52:55.486975  8781 net.cpp:120] Top shape: 1 32 30 40 (38400)
I0305 14:52:55.487062  8781 layer_factory.hpp:74] Creating layer inception_4d/relu_pool_proj
I0305 14:52:55.487103  8781 net.cpp:84] Creating Layer inception_4d/relu_pool_proj
I0305 14:52:55.487136  8781 net.cpp:380] inception_4d/relu_pool_proj <- inception_4d/pool_proj
I0305 14:52:55.487174  8781 net.cpp:327] inception_4d/relu_pool_proj -> inception_4d/pool_proj (in-place)
I0305 14:52:55.487213  8781 net.cpp:113] Setting up inception_4d/relu_pool_proj
I0305 14:52:55.487597  8781 net.cpp:120] Top shape: 1 32 30 40 (38400)
I0305 14:52:55.487651  8781 layer_factory.hpp:74] Creating layer inception_4d/output
I0305 14:52:55.487692  8781 net.cpp:84] Creating Layer inception_4d/output
I0305 14:52:55.487723  8781 net.cpp:380] inception_4d/output <- inception_4d/1x1
I0305 14:52:55.487756  8781 net.cpp:380] inception_4d/output <- inception_4d/3x3
I0305 14:52:55.487788  8781 net.cpp:380] inception_4d/output <- inception_4d/5x5
I0305 14:52:55.487820  8781 net.cpp:380] inception_4d/output <- inception_4d/pool_proj
I0305 14:52:55.487864  8781 net.cpp:338] inception_4d/output -> inception_4d/output
I0305 14:52:55.487903  8781 net.cpp:113] Setting up inception_4d/output
I0305 14:52:55.487936  8781 net.cpp:120] Top shape: 1 264 30 40 (316800)
I0305 14:52:55.487975  8781 layer_factory.hpp:74] Creating layer inception_4d/output_inception_4d/output_0_split
I0305 14:52:55.488010  8781 net.cpp:84] Creating Layer inception_4d/output_inception_4d/output_0_split
I0305 14:52:55.488040  8781 net.cpp:380] inception_4d/output_inception_4d/output_0_split <- inception_4d/output
I0305 14:52:55.488077  8781 net.cpp:338] inception_4d/output_inception_4d/output_0_split -> inception_4d/output_inception_4d/output_0_split_0
I0305 14:52:55.488121  8781 net.cpp:338] inception_4d/output_inception_4d/output_0_split -> inception_4d/output_inception_4d/output_0_split_1
I0305 14:52:55.488164  8781 net.cpp:338] inception_4d/output_inception_4d/output_0_split -> inception_4d/output_inception_4d/output_0_split_2
I0305 14:52:55.488205  8781 net.cpp:338] inception_4d/output_inception_4d/output_0_split -> inception_4d/output_inception_4d/output_0_split_3
I0305 14:52:55.488250  8781 net.cpp:113] Setting up inception_4d/output_inception_4d/output_0_split
I0305 14:52:55.488286  8781 net.cpp:120] Top shape: 1 264 30 40 (316800)
I0305 14:52:55.488322  8781 net.cpp:120] Top shape: 1 264 30 40 (316800)
I0305 14:52:55.488358  8781 net.cpp:120] Top shape: 1 264 30 40 (316800)
I0305 14:52:55.488394  8781 net.cpp:120] Top shape: 1 264 30 40 (316800)
I0305 14:52:55.488430  8781 layer_factory.hpp:74] Creating layer inception_4e/1x1
I0305 14:52:55.488469  8781 net.cpp:84] Creating Layer inception_4e/1x1
I0305 14:52:55.488500  8781 net.cpp:380] inception_4e/1x1 <- inception_4d/output_inception_4d/output_0_split_0
I0305 14:52:55.488538  8781 net.cpp:338] inception_4e/1x1 -> inception_4e/1x1
I0305 14:52:55.488592  8781 net.cpp:113] Setting up inception_4e/1x1
I0305 14:52:55.491106  8781 net.cpp:120] Top shape: 1 128 30 40 (153600)
I0305 14:52:55.491194  8781 layer_factory.hpp:74] Creating layer inception_4e/relu_1x1
I0305 14:52:55.491235  8781 net.cpp:84] Creating Layer inception_4e/relu_1x1
I0305 14:52:55.491291  8781 net.cpp:380] inception_4e/relu_1x1 <- inception_4e/1x1
I0305 14:52:55.491365  8781 net.cpp:327] inception_4e/relu_1x1 -> inception_4e/1x1 (in-place)
I0305 14:52:55.491407  8781 net.cpp:113] Setting up inception_4e/relu_1x1
I0305 14:52:55.492251  8781 net.cpp:120] Top shape: 1 128 30 40 (153600)
I0305 14:52:55.492313  8781 layer_factory.hpp:74] Creating layer inception_4e/3x3_reduce
I0305 14:52:55.492363  8781 net.cpp:84] Creating Layer inception_4e/3x3_reduce
I0305 14:52:55.492396  8781 net.cpp:380] inception_4e/3x3_reduce <- inception_4d/output_inception_4d/output_0_split_1
I0305 14:52:55.492436  8781 net.cpp:338] inception_4e/3x3_reduce -> inception_4e/3x3_reduce
I0305 14:52:55.492480  8781 net.cpp:113] Setting up inception_4e/3x3_reduce
I0305 14:52:55.494722  8781 net.cpp:120] Top shape: 1 80 30 40 (96000)
I0305 14:52:55.494809  8781 layer_factory.hpp:74] Creating layer inception_4e/relu_3x3_reduce
I0305 14:52:55.494850  8781 net.cpp:84] Creating Layer inception_4e/relu_3x3_reduce
I0305 14:52:55.494884  8781 net.cpp:380] inception_4e/relu_3x3_reduce <- inception_4e/3x3_reduce
I0305 14:52:55.494918  8781 net.cpp:327] inception_4e/relu_3x3_reduce -> inception_4e/3x3_reduce (in-place)
I0305 14:52:55.494957  8781 net.cpp:113] Setting up inception_4e/relu_3x3_reduce
I0305 14:52:55.495326  8781 net.cpp:120] Top shape: 1 80 30 40 (96000)
I0305 14:52:55.495373  8781 layer_factory.hpp:74] Creating layer inception_4e/3x3
I0305 14:52:55.495412  8781 net.cpp:84] Creating Layer inception_4e/3x3
I0305 14:52:55.495443  8781 net.cpp:380] inception_4e/3x3 <- inception_4e/3x3_reduce
I0305 14:52:55.495491  8781 net.cpp:338] inception_4e/3x3 -> inception_4e/3x3
I0305 14:52:55.495533  8781 net.cpp:113] Setting up inception_4e/3x3
I0305 14:52:55.499763  8781 net.cpp:120] Top shape: 1 160 30 40 (192000)
I0305 14:52:55.499860  8781 layer_factory.hpp:74] Creating layer inception_4e/relu_3x3
I0305 14:52:55.499900  8781 net.cpp:84] Creating Layer inception_4e/relu_3x3
I0305 14:52:55.499935  8781 net.cpp:380] inception_4e/relu_3x3 <- inception_4e/3x3
I0305 14:52:55.499971  8781 net.cpp:327] inception_4e/relu_3x3 -> inception_4e/3x3 (in-place)
I0305 14:52:55.500010  8781 net.cpp:113] Setting up inception_4e/relu_3x3
I0305 14:52:55.500385  8781 net.cpp:120] Top shape: 1 160 30 40 (192000)
I0305 14:52:55.500433  8781 layer_factory.hpp:74] Creating layer inception_4e/5x5_reduce
I0305 14:52:55.500475  8781 net.cpp:84] Creating Layer inception_4e/5x5_reduce
I0305 14:52:55.500506  8781 net.cpp:380] inception_4e/5x5_reduce <- inception_4d/output_inception_4d/output_0_split_2
I0305 14:52:55.500551  8781 net.cpp:338] inception_4e/5x5_reduce -> inception_4e/5x5_reduce
I0305 14:52:55.500607  8781 net.cpp:113] Setting up inception_4e/5x5_reduce
I0305 14:52:55.502447  8781 net.cpp:120] Top shape: 1 16 30 40 (19200)
I0305 14:52:55.502531  8781 layer_factory.hpp:74] Creating layer inception_4e/relu_5x5_reduce
I0305 14:52:55.502570  8781 net.cpp:84] Creating Layer inception_4e/relu_5x5_reduce
I0305 14:52:55.502620  8781 net.cpp:380] inception_4e/relu_5x5_reduce <- inception_4e/5x5_reduce
I0305 14:52:55.502656  8781 net.cpp:327] inception_4e/relu_5x5_reduce -> inception_4e/5x5_reduce (in-place)
I0305 14:52:55.502692  8781 net.cpp:113] Setting up inception_4e/relu_5x5_reduce
I0305 14:52:55.503077  8781 net.cpp:120] Top shape: 1 16 30 40 (19200)
I0305 14:52:55.503128  8781 layer_factory.hpp:74] Creating layer inception_4e/5x5
I0305 14:52:55.503170  8781 net.cpp:84] Creating Layer inception_4e/5x5
I0305 14:52:55.503201  8781 net.cpp:380] inception_4e/5x5 <- inception_4e/5x5_reduce
I0305 14:52:55.503242  8781 net.cpp:338] inception_4e/5x5 -> inception_4e/5x5
I0305 14:52:55.503283  8781 net.cpp:113] Setting up inception_4e/5x5
I0305 14:52:55.505599  8781 net.cpp:120] Top shape: 1 64 30 40 (76800)
I0305 14:52:55.505686  8781 layer_factory.hpp:74] Creating layer inception_4e/relu_5x5
I0305 14:52:55.505728  8781 net.cpp:84] Creating Layer inception_4e/relu_5x5
I0305 14:52:55.505759  8781 net.cpp:380] inception_4e/relu_5x5 <- inception_4e/5x5
I0305 14:52:55.505826  8781 net.cpp:327] inception_4e/relu_5x5 -> inception_4e/5x5 (in-place)
I0305 14:52:55.505908  8781 net.cpp:113] Setting up inception_4e/relu_5x5
I0305 14:52:55.506834  8781 net.cpp:120] Top shape: 1 64 30 40 (76800)
I0305 14:52:55.506901  8781 layer_factory.hpp:74] Creating layer inception_4e/pool
I0305 14:52:55.506933  8781 layer_factory.cpp:55] CUDNN does not support padding or multiple tops. Using Caffe's own pooling layer.
I0305 14:52:55.506971  8781 net.cpp:84] Creating Layer inception_4e/pool
I0305 14:52:55.507001  8781 net.cpp:380] inception_4e/pool <- inception_4d/output_inception_4d/output_0_split_3
I0305 14:52:55.507040  8781 net.cpp:338] inception_4e/pool -> inception_4e/pool
I0305 14:52:55.507081  8781 net.cpp:113] Setting up inception_4e/pool
I0305 14:52:55.507118  8781 net.cpp:120] Top shape: 1 264 30 40 (316800)
I0305 14:52:55.507164  8781 layer_factory.hpp:74] Creating layer inception_4e/pool_proj
I0305 14:52:55.507203  8781 net.cpp:84] Creating Layer inception_4e/pool_proj
I0305 14:52:55.507232  8781 net.cpp:380] inception_4e/pool_proj <- inception_4e/pool
I0305 14:52:55.507272  8781 net.cpp:338] inception_4e/pool_proj -> inception_4e/pool_proj
I0305 14:52:55.507311  8781 net.cpp:113] Setting up inception_4e/pool_proj
I0305 14:52:55.509469  8781 net.cpp:120] Top shape: 1 64 30 40 (76800)
I0305 14:52:55.509552  8781 layer_factory.hpp:74] Creating layer inception_4e/relu_pool_proj
I0305 14:52:55.509608  8781 net.cpp:84] Creating Layer inception_4e/relu_pool_proj
I0305 14:52:55.509645  8781 net.cpp:380] inception_4e/relu_pool_proj <- inception_4e/pool_proj
I0305 14:52:55.509683  8781 net.cpp:327] inception_4e/relu_pool_proj -> inception_4e/pool_proj (in-place)
I0305 14:52:55.509721  8781 net.cpp:113] Setting up inception_4e/relu_pool_proj
I0305 14:52:55.510102  8781 net.cpp:120] Top shape: 1 64 30 40 (76800)
I0305 14:52:55.510152  8781 layer_factory.hpp:74] Creating layer inception_4e/output
I0305 14:52:55.510190  8781 net.cpp:84] Creating Layer inception_4e/output
I0305 14:52:55.510220  8781 net.cpp:380] inception_4e/output <- inception_4e/1x1
I0305 14:52:55.510253  8781 net.cpp:380] inception_4e/output <- inception_4e/3x3
I0305 14:52:55.510284  8781 net.cpp:380] inception_4e/output <- inception_4e/5x5
I0305 14:52:55.510316  8781 net.cpp:380] inception_4e/output <- inception_4e/pool_proj
I0305 14:52:55.510359  8781 net.cpp:338] inception_4e/output -> inception_4e/output
I0305 14:52:55.510399  8781 net.cpp:113] Setting up inception_4e/output
I0305 14:52:55.510435  8781 net.cpp:120] Top shape: 1 416 30 40 (499200)
I0305 14:52:55.510473  8781 layer_factory.hpp:74] Creating layer pool4/3x3_s2
I0305 14:52:55.510509  8781 net.cpp:84] Creating Layer pool4/3x3_s2
I0305 14:52:55.510536  8781 net.cpp:380] pool4/3x3_s2 <- inception_4e/output
I0305 14:52:55.510586  8781 net.cpp:338] pool4/3x3_s2 -> pool4/3x3_s2
I0305 14:52:55.510629  8781 net.cpp:113] Setting up pool4/3x3_s2
I0305 14:52:55.511016  8781 net.cpp:120] Top shape: 1 416 15 20 (124800)
I0305 14:52:55.511066  8781 net.cpp:169] pool4/3x3_s2 does not need backward computation.
I0305 14:52:55.511096  8781 net.cpp:169] inception_4e/output does not need backward computation.
I0305 14:52:55.511121  8781 net.cpp:169] inception_4e/relu_pool_proj does not need backward computation.
I0305 14:52:55.511145  8781 net.cpp:169] inception_4e/pool_proj does not need backward computation.
…
