…
      sampler {
        min_scale: 0.3
        max_scale: 1
        min_aspect_ratio: 0.5
        max_aspect_ratio: 2
      }
      sample_constraint {
        min_jaccard_overlap: 0.9
      }
      max_sample: 1
      max_trials: 50
    }
    batch_sampler {
      sampler {
        min_scale: 0.3
        max_scale: 1
        min_aspect_ratio: 0.5
        max_aspect_ratio: 2
      }
      sample_constraint {
        max_jaccard_overlap: 1
      }
      max_sample: 1
      max_trials: 50
    }
    label_map_file: "data/VOC0712/labelmap_voc.prototxt"
  }
}
layer {
  name: "conv1_1"
  type: "Convolution"
  bottom: "data"
  top: "conv1_1"
  param {
    lr_mult: 0
    decay_mult: 0
  }
  param {
    lr_mult: 0
    decay_mult: 0
  }
  convolution_param {
    num_output: 64
    pad: 1
    kernel_size: 3
    weight_filler {
      type: "xavier"
    }
    bias_filler {
      type: "constant"
      value: 0
    }
  }
}
layer {
  name: "relu1_1"
  type: "ReLU"
  bottom: "conv1_1"
  top: "conv1_1"
}
layer {
  name: "conv1_2"
  type: "Convolution"
  bottom: "conv1_1"
  top: "conv1_2"
  param {
    lr_mult: 0
    decay_mult: 0
  }
  param {
    lr_mult: 0
    decay_mult: 0
  }
  convolution_param {
    num_output: 64
    pad: 1
    kernel_size: 3
    weight_filler {
      type: "xavier"
    }
    bias_filler {
      type: "constant"
      value: 0
    }
  }
}
layer {
  name: "relu1_2"
  type: "ReLU"
  bottom: "conv1_2"
  top: "conv1_2"
}
layer {
  name: "pool1"
  type: "Pooling"
  bottom: "conv1_2"
  top: "pool1"
  pooling_param {
    pool: MAX
    kernel_size: 2
    stride: 2
  }
}
layer {
  name: "conv2_1"
  type: "Convolution"
  bottom: "pool1"
  top: "conv2_1"
  param {
    lr_mult: 0
    decay_mult: 0
  }
  param {
    lr_mult: 0
    decay_mult: 0
  }
  convolution_param {
    num_output: 128
    pad: 1
    kernel_size: 3
    weight_filler {
      type: "xavier"
    }
    bias_filler {
      type: "constant"
      value: 0
    }
  }
}
layer {
  name: "relu2_1"
  type: "ReLU"
  bottom: "conv2_1"
  top: "conv2_1"
}
layer {
  name: "conv2_2"
  type: "Convolution"
  bottom: "conv2_1"
  top: "conv2_2"
  param {
    lr_mult: 0
    decay_mult: 0
  }
  param {
    lr_mult: 0
    decay_mult: 0
  }
  convolution_param {
    num_output: 128
    pad: 1
    kernel_size: 3
    weight_filler {
      type: "xavier"
    }
    bias_filler {
      type: "constant"
      value: 0
    }
  }
}
layer {
  name: "relu2_2"
  type: "ReLU"
  bottom: "conv2_2"
  top: "conv2_2"
}
layer {
  name: "pool2"
  type: "Pooling"
  bottom: "conv2_2"
  top: "pool2"
  pooling_param {
    pool: MAX
    kernel_size: 2
    stride: 2
  }
}
layer {
  name: "conv3_1"
  type: "Convolution"
  bottom: "pool2"
  top: "conv3_1"
  param {
    lr_mult: 1
    decay_mult: 1
  }
  param {
    lr_mult: 2
    decay_mult: 0
  }
  convolution_param {
    num_output: 256
    pad: 1
    kernel_size: 3
    weight_filler {
      type: "xavier"
    }
    bias_filler {
      type: "constant"
      value: 0
    }
  }
}
layer {
  name: "relu3_1"
  type: "ReLU"
  bottom: "conv3_1"
  top: "conv3_1"
}
layer {
  name: "conv3_2"
  type: "Convolution"
  bottom: "conv3_1"
  top: "conv3_2"
  param {
    lr_mult: 1
    decay_mult: 1
  }
  param {
    lr_mult: 2
    decay_mult: 0
  }
  convolution_param {
    num_output: 256
    pad: 1
    kernel_size: 3
    weight_filler {
      type: "xavier"
    }
    bias_filler {
      type: "constant"
      value: 0
    }
  }
}
layer {
  name: "relu3_2"
  type: "ReLU"
  bottom: "conv3_2"
  top: "conv3_2"
}
layer {
  name: "conv3_3"
  type: "Convolution"
  bottom: "conv3_2"
  top: "conv3_3"
  param {
    lr_mult: 1
    decay_mult: 1
  }
  param {
    lr_mult: 2
    decay_mult: 0
  }
  convolution_param {
    num_output: 256
    pad: 1
    kernel_size: 3
    weight_filler {
      type: "xavier"
    }
    bias_filler {
      type: "constant"
      value: 0
    }
  }
}
layer {
  name: "relu3_3"
  type: "ReLU"
  bottom: "conv3_3"
  top: "conv3_3"
}
layer {
  name: "pool3"
  type: "Pooling"
  bottom: "conv3_3"
  top: "pool3"
  pooling_param {
    pool: MAX
    kernel_size: 2
    stride: 2
  }
}
layer {
  name: "conv4_1"
  type: "Convolution"
  bottom: "pool3"
  top: "conv4_1"
  param {
    lr_mult: 1
    decay_mult: 1
  }
  param {
    lr_mult: 2
    decay_mult: 0
  }
  convolution_param {
    num_output: 512
    pad: 1
    kernel_size: 3
    weight_filler {
      type: "xavier"
    }
    bias_filler {
      type: "constant"
      value: 0
    }
  }
}
layer {
  name: "relu4_1"
  type: "ReLU"
  bottom: "conv4_1"
  top: "conv4_1"
}
layer {
  name: "conv4_2"
  type: "Convolution"
  bottom: "conv4_1"
  top: "conv4_2"
  param {
    lr_mult: 1
    decay_mult: 1
  }
  param {
    lr_mult: 2
    decay_mult: 0
  }
  convolution_param {
    num_output: 512
    pad: 1
    kernel_size: 3
    weight_filler {
      type: "xavier"
    }
    bias_filler {
      type: "constant"
      value: 0
    }
  }
}
layer {
  name: "relu4_2"
  type: "ReLU"
  bottom: "conv4_2"
  top: "conv4_2"
}
layer {
  name: "conv4_3"
  type: "Convolution"
  bottom: "conv4_2"
  top: "conv4_3"
  param {
    lr_mult: 1
    decay_mult: 1
  }
  param {
    lr_mult: 2
    decay_mult: 0
  }
  convolution_param {
    num_output: 512
    pad: 1
    kernel_size: 3
    weight_filler {
      type: "xavier"
    }
    bias_filler {
      type: "constant"
      value: 0
    }
  }
}
layer {
  name: "relu4_3"
  type: "ReLU"
  bottom: "conv4_3"
  top: "conv4_3"
}
layer {
  name: "pool4"
  type: "Pooling"
  bottom: "conv4_3"
  top: "pool4"
  pooling_param {
    pool: MAX
    kernel_size: 2
    stride: 2
  }
}
layer {
  name: "conv5_1"
  type: "Convolution"
  bottom: "pool4"
  top: "conv5_1"
  param {
    lr_mult: 1
    decay_mult: 1
  }
  param {
    lr_mult: 2
    decay_mult: 0
  }
  convolution_param {
    num_output: 512
    pad: 1
    kernel_size: 3
    weight_filler {
      type: "xavier"
    }
    bias_filler {
      type: "constant"
      value: 0
    }
  }
}
layer {
  name: "relu5_1"
  type: "ReLU"
  bottom: "conv5_1"
  top: "conv5_1"
}
layer {
  name: "conv5_2"
  type: "Convolution"
  bottom: "conv5_1"
  top: "conv5_2"
  param {
    lr_mult: 1
    decay_mult: 1
  }
  param {
    lr_mult: 2
    decay_mult: 0
  }
  convolution_param {
    num_output: 512
    pad: 1
    kernel_size: 3
    weight_filler {
      type: "xavier"
    }
    bias_filler {
      type: "constant"
      value: 0
    }
  }
}
layer {
  name: "relu5_2"
  type: "ReLU"
  bottom: "conv5_2"
  top: "conv5_2"
}
layer {
  name: "conv5_3"
  type: "Convolution"
  bottom: "conv5_2"
  top: "conv5_3"
  param {
    lr_mult: 1
    decay_mult: 1
  }
  param {
    lr_mult: 2
    decay_mult: 0
  }
  convolution_param {
    num_output: 512
    pad: 1
    kernel_size: 3
    weight_filler {
      type: "xavier"
    }
    bias_filler {
      type: "constant"
      value: 0
    }
  }
}
layer {
  name: "relu5_3"
  type: "ReLU"
  bottom: "conv5_3"
  top: "conv5_3"
}
layer {
  name: "pool5"
  type: "Pooling"
  bottom: "conv5_3"
  top: "pool5"
  pooling_param {
    pool: MAX
    kernel_size: 3
    stride: 1
    pad: 1
  }
}
layer {
  name: "fc6"
  type: "Convolution"
  bottom: "pool5"
  top: "fc6"
  param {
    lr_mult: 1
    decay_mult: 1
  }
  param {
    lr_mult: 2
    decay_mult: 0
  }
  convolution_param {
    num_output: 1024
    pad: 6
    kernel_size: 3
    weight_filler {
      type: "xavier"
    }
    bias_filler {
      type: "constant"
      value: 0
    }
    dilation: 6
  }
}
layer {
  name: "relu6"
  type: "ReLU"
  bottom: "fc6"
  top: "fc6"
}
layer {
  name: "fc7"
  type: "Convolution"
  bottom: "fc6"
  top: "fc7"
  param {
    lr_mult: 1
    decay_mult: 1
  }
  param {
    lr_mult: 2
    decay_mult: 0
  }
  convolution_param {
    num_output: 1024
    kernel_size: 1
    weight_filler {
      type: "xavier"
    }
    bias_filler {
      type: "constant"
      value: 0
    }
  }
}
layer {
  name: "relu7"
  type: "ReLU"
  bottom: "fc7"
  top: "fc7"
}
layer {
  name: "conv6_1"
  type: "Convolution"
  bottom: "fc7"
  top: "conv6_1"
  param {
    lr_mult: 1
    decay_mult: 1
  }
  param {
    lr_mult: 2
    decay_mult: 0
  }
  convolution_param {
    num_output: 256
    pad: 0
    kernel_size: 1
    stride: 1
    weight_filler {
      type: "xavier"
    }
    bias_filler {
      type: "constant"
      value: 0
    }
  }
}
layer {
  name: "conv6_1_relu"
  type: "ReLU"
  bottom: "conv6_1"
  top: "conv6_1"
}
layer {
  name: "conv6_2"
  type: "Convolution"
  bottom: "conv6_1"
  top: "conv6_2"
  param {
    lr_mult: 1
    decay_mult: 1
  }
  param {
    lr_mult: 2
    decay_mult: 0
  }
  convolution_param {
    num_output: 512
    pad: 1
    kernel_size: 3
    stride: 2
    weight_filler {
      type: "xavier"
    }
    bias_filler {
      type: "constant"
      value: 0
    }
  }
}
layer {
  name: "conv6_2_relu"
  type: "ReLU"
  bottom: "conv6_2"
  top: "conv6_2"
}
layer {
  name: "conv7_1"
  type: "Convolution"
  bottom: "conv6_2"
  top: "conv7_1"
  param {
    lr_mult: 1
    decay_mult: 1
  }
  param {
    lr_mult: 2
    decay_mult: 0
  }
  convolution_param {
    num_output: 128
    pad: 0
    kernel_size: 1
    stride: 1
    weight_filler {
      type: "xavier"
    }
    bias_filler {
      type: "constant"
      value: 0
    }
  }
}
layer {
  name: "conv7_1_relu"
  type: "ReLU"
  bottom: "conv7_1"
  top: "conv7_1"
}
layer {
  name: "conv7_2"
  type: "Convolution"
  bottom: "conv7_1"
  top: "conv7_2"
  param {
    lr_mult: 1
    decay_mult: 1
  }
  param {
    lr_mult: 2
    decay_mult: 0
  }
  convolution_param {
    num_output: 256
    pad: 1
    kernel_size: 3
    stride: 2
    weight_filler {
      type: "xavier"
    }
    bias_filler {
      type: "constant"
      value: 0
    }
  }
}
layer {
  name: "conv7_2_relu"
  type: "ReLU"
  bottom: "conv7_2"
  top: "conv7_2"
}
layer {
  name: "conv8_1"
  type: "Convolution"
  bottom: "conv7_2"
  top: "conv8_1"
  param {
    lr_mult: 1
    decay_mult: 1
  }
  param {
    lr_mult: 2
    decay_mult: 0
  }
  convolution_param {
    num_output: 128
    pad: 0
    kernel_size: 1
    stride: 1
    weight_filler {
      type: "xavier"
    }
    bias_filler {
      type: "constant"
      value: 0
    }
  }
}
layer {
  name: "conv8_1_relu"
  type: "ReLU"
  bottom: "conv8_1"
  top: "conv8_1"
}
layer {
  name: "conv8_2"
  type: "Convolution"
  bottom: "conv8_1"
  top: "conv8_2"
  param {
    lr_mult: 1
    decay_mult: 1
  }
  param {
    lr_mult: 2
    decay_mult: 0
  }
  convolution_param {
    num_output: 256
    pad: 1
    kernel_size: 3
    stride: 2
    weight_filler {
      type: "xavier"
    }
    bias_filler {
      type: "constant"
      value: 0
    }
  }
}
layer {
  name: "conv8_2_relu"
  type: "ReLU"
  bottom: "conv8_2"
  top: "conv8_2"
}
layer {
  name: "pool6"
  type: "Pooling"
  bottom: "conv8_2"
  top: "pool6"
  pooling_param {
    pool: AVE
    global_pooling: true
  }
}
layer {
  name: "conv4_3_norm"
  type: "Normalize"
  bottom: "conv4_3"
  top: "conv4_3_norm"
  norm_param {
    across_spatial: false
    scale_filler {
      type: "constant"
      value: 20
    }
    channel_shared: false
  }
}
layer {
  name: "conv4_3_norm_mbox_loc"
  type: "Convolution"
  bottom: "conv4_3_norm"
  top: "conv4_3_norm_mbox_loc"
  param {
    lr_mult: 1
    decay_mult: 1
  }
  param {
    lr_mult: 2
    decay_mult: 0
  }
  convolution_param {
    num_output: 12
    pad: 1
    kernel_size: 3
    stride: 1
    weight_filler {
      type: "xavier"
    }
    bias_filler {
      type: "constant"
      value: 0
    }
  }
}
layer {
  name: "conv4_3_norm_mbox_loc_perm"
  type: "Permute"
  bottom: "conv4_3_norm_mbox_loc"
  top: "conv4_3_norm_mbox_loc_perm"
  permute_param {
    order: 0
    order: 2
    order: 3
    order: 1
  }
}
layer {
  name: "conv4_3_norm_mbox_loc_flat"
  type: "Flatten"
  bottom: "conv4_3_norm_mbox_loc_perm"
  top: "conv4_3_norm_mbox_loc_flat"
  flatten_param {
    axis: 1
  }
}
layer {
  name: "conv4_3_norm_mbox_conf"
  type: "Convolution"
  bottom: "conv4_3_norm"
  top: "conv4_3_norm_mbox_conf"
  param {
    lr_mult: 1
    decay_mult: 1
  }
  param {
    lr_mult: 2
    decay_mult: 0
  }
  convolution_param {
    num_output: 63
    pad: 1
    kernel_size: 3
    stride: 1
    weight_filler {
      type: "xavier"
    }
    bias_filler {
      type: "constant"
      value: 0
    }
  }
}
layer {
  name: "conv4_3_norm_mbox_conf_perm"
  type: "Permute"
  bottom: "conv4_3_norm_mbox_conf"
  top: "conv4_3_norm_mbox_conf_perm"
  permute_param {
    order: 0
    order: 2
    order: 3
    order: 1
  }
}
layer {
  name: "conv4_3_norm_mbox_conf_flat"
  type: "Flatten"
  bottom: "conv4_3_norm_mbox_conf_perm"
  top: "conv4_3_norm_mbox_conf_flat"
  flatten_param {
    axis: 1
  }
}
layer {
  name: "conv4_3_norm_mbox_priorbox"
  type: "PriorBox"
  bottom: "conv4_3_norm"
  bottom: "data"
  top: "conv4_3_norm_mbox_priorbox"
  prior_box_param {
    min_size: 30
    aspect_ratio: 2
    flip: true
    clip: true
    variance: 0.1
    variance: 0.1
    variance: 0.2
    variance: 0.2
  }
}
layer {
  name: "fc7_mbox_loc"
  type: "Convolution"
  bottom: "fc7"
  top: "fc7_mbox_loc"
  param {
    lr_mult: 1
    decay_mult: 1
  }
  param {
    lr_mult: 2
    decay_mult: 0
  }
  convolution_param {
    num_output: 24
    pad: 1
    kernel_size: 3
    stride: 1
    weight_filler {
      type: "xavier"
    }
    bias_filler {
      type: "constant"
      value: 0
    }
  }
}
layer {
  name: "fc7_mbox_loc_perm"
  type: "Permute"
  bottom: "fc7_mbox_loc"
  top: "fc7_mbox_loc_perm"
  permute_param {
    order: 0
    order: 2
    order: 3
    order: 1
  }
}
layer {
  name: "fc7_mbox_loc_flat"
  type: "Flatten"
  bottom: "fc7_mbox_loc_perm"
  top: "fc7_mbox_loc_flat"
  flatten_param {
    axis: 1
  }
}
layer {
  name: "fc7_mbox_conf"
  type: "Convolution"
  bottom: "fc7"
  top: "fc7_mbox_conf"
  param {
    lr_mult: 1
    decay_mult: 1
  }
  param {
    lr_mult: 2
    decay_mult: 0
  }
  convolution_param {
    num_output: 126
    pad: 1
    kernel_size: 3
    stride: 1
    weight_filler {
      type: "xavier"
    }
    bias_filler {
      type: "constant"
      value: 0
    }
  }
}
layer {
  name: "fc7_mbox_conf_perm"
  type: "Permute"
  bottom: "fc7_mbox_conf"
  top: "fc7_mbox_conf_perm"
  permute_param {
    order: 0
    order: 2
    order: 3
    order: 1
  }
}
layer {
  name: "fc7_mbox_conf_flat"
  type: "Flatten"
  bottom: "fc7_mbox_conf_perm"
  top: "fc7_mbox_conf_flat"
  flatten_param {
    axis: 1
  }
}
layer {
  name: "fc7_mbox_priorbox"
  type: "PriorBox"
  bottom: "fc7"
  bottom: "data"
  top: "fc7_mbox_priorbox"
  prior_box_param {
    min_size: 60
    max_size: 114
    aspect_ratio: 2
    aspect_ratio: 3
    flip: true
    clip: true
    variance: 0.1
    variance: 0.1
    variance: 0.2
    variance: 0.2
  }
}
layer {
  name: "conv6_2_mbox_loc"
  type: "Convolution"
  bottom: "conv6_2"
  top: "conv6_2_mbox_loc"
  param {
    lr_mult: 1
    decay_mult: 1
  }
  param {
    lr_mult: 2
    decay_mult: 0
  }
  convolution_param {
    num_output: 24
    pad: 1
    kernel_size: 3
    stride: 1
    weight_filler {
      type: "xavier"
    }
    bias_filler {
      type: "constant"
      value: 0
    }
  }
}
layer {
  name: "conv6_2_mbox_loc_perm"
  type: "Permute"
  bottom: "conv6_2_mbox_loc"
  top: "conv6_2_mbox_loc_perm"
  permute_param {
    order: 0
    order: 2
    order: 3
    order: 1
  }
}
layer {
  name: "conv6_2_mbox_loc_flat"
  type: "Flatten"
  bottom: "conv6_2_mbox_loc_perm"
  top: "conv6_2_mbox_loc_flat"
  flatten_param {
    axis: 1
  }
}
layer {
  name: "conv6_2_mbox_conf"
  type: "Convolution"
  bottom: "conv6_2"
  top: "conv6_2_mbox_conf"
  param {
    lr_mult: 1
    decay_mult: 1
  }
  param {
    lr_mult: 2
    decay_mult: 0
  }
  convolution_param {
    num_output: 126
    pad: 1
    kernel_size: 3
    stride: 1
    weight_filler {
      type: "xavier"
    }
    bias_filler {
      type: "constant"
      value: 0
    }
  }
}
layer {
  name: "conv6_2_mbox_conf_perm"
  type: "Permute"
  bottom: "conv6_2_mbox_conf"
  top: "conv6_2_mbox_conf_perm"
  permute_param {
    order: 0
    order: 2
    order: 3
    order: 1
  }
}
layer {
  name: "conv6_2_mbox_conf_flat"
  type: "Flatten"
  bottom: "conv6_2_mbox_conf_perm"
  top: "conv6_2_mbox_conf_flat"
  flatten_param {
    axis: 1
  }
}
layer {
  name: "conv6_2_mbox_priorbox"
  type: "PriorBox"
  bottom: "conv6_2"
  bottom: "data"
  top: "conv6_2_mbox_priorbox"
  prior_box_param {
    min_size: 114
    max_size: 168
    aspect_ratio: 2
    aspect_ratio: 3
    flip: true
    clip: true
    variance: 0.1
    variance: 0.1
    variance: 0.2
    variance: 0.2
  }
}
layer {
  name: "conv7_2_mbox_loc"
  type: "Convolution"
  bottom: "conv7_2"
  top: "conv7_2_mbox_loc"
  param {
    lr_mult: 1
    decay_mult: 1
  }
  param {
    lr_mult: 2
    decay_mult: 0
  }
  convolution_param {
    num_output: 24
    pad: 1
    kernel_size: 3
    stride: 1
    weight_filler {
      type: "xavier"
    }
    bias_filler {
      type: "constant"
      value: 0
    }
  }
}
layer {
  name: "conv7_2_mbox_loc_perm"
  type: "Permute"
  bottom: "conv7_2_mbox_loc"
  top: "conv7_2_mbox_loc_perm"
  permute_param {
    order: 0
    order: 2
    order: 3
    order: 1
  }
}
layer {
  name: "conv7_2_mbox_loc_flat"
  type: "Flatten"
  bottom: "conv7_2_mbox_loc_perm"
  top: "conv7_2_mbox_loc_flat"
  flatten_param {
    axis: 1
  }
}
layer {
  name: "conv7_2_mbox_conf"
  type: "Convolution"
  bottom: "conv7_2"
  top: "conv7_2_mbox_conf"
  param {
    lr_mult: 1
    decay_mult: 1
  }
  param {
    lr_mult: 2
    decay_mult: 0
  }
  convolution_param {
    num_output: 126
    pad: 1
    kernel_size: 3
    stride: 1
    weight_filler {
      type: "xavier"
    }
    bias_filler {
      type: "constant"
      value: 0
    }
  }
}
layer {
  name: "conv7_2_mbox_conf_perm"
  type: "Permute"
  bottom: "conv7_2_mbox_conf"
  top: "conv7_2_mbox_conf_perm"
  permute_param {
    order: 0
    order: 2
    order: 3
    order: 1
  }
}
layer {
  name: "conv7_2_mbox_conf_flat"
  type: "Flatten"
  bottom: "conv7_2_mbox_conf_perm"
  top: "conv7_2_mbox_conf_flat"
  flatten_param {
    axis: 1
  }
}
layer {
  name: "conv7_2_mbox_priorbox"
  type: "PriorBox"
  bottom: "conv7_2"
  bottom: "data"
  top: "conv7_2_mbox_priorbox"
  prior_box_param {
    min_size: 168
    max_size: 222
    aspect_ratio: 2
    aspect_ratio: 3
    flip: true
    clip: true
    variance: 0.1
    variance: 0.1
    variance: 0.2
    variance: 0.2
  }
}
layer {
  name: "conv8_2_mbox_loc"
  type: "Convolution"
  bottom: "conv8_2"
  top: "conv8_2_mbox_loc"
  param {
    lr_mult: 1
    decay_mult: 1
  }
  param {
    lr_mult: 2
    decay_mult: 0
  }
  convolution_param {
    num_output: 24
    pad: 1
    kernel_size: 3
    stride: 1
    weight_filler {
      type: "xavier"
    }
    bias_filler {
      type: "constant"
      value: 0
    }
  }
}
layer {
  name: "conv8_2_mbox_loc_perm"
  type: "Permute"
  bottom: "conv8_2_mbox_loc"
  top: "conv8_2_mbox_loc_perm"
  permute_param {
    order: 0
    order: 2
    order: 3
    order: 1
  }
}
layer {
  name: "conv8_2_mbox_loc_flat"
  type: "Flatten"
  bottom: "conv8_2_mbox_loc_perm"
  top: "conv8_2_mbox_loc_flat"
  flatten_param {
    axis: 1
  }
}
layer {
  name: "conv8_2_mbox_conf"
  type: "Convolution"
  bottom: "conv8_2"
  top: "conv8_2_mbox_conf"
  param {
    lr_mult: 1
    decay_mult: 1
  }
  param {
    lr_mult: 2
    decay_mult: 0
  }
  convolution_param {
    num_output: 126
    pad: 1
    kernel_size: 3
    stride: 1
    weight_filler {
      type: "xavier"
    }
    bias_filler {
      type: "constant"
      value: 0
    }
  }
}
layer {
  name: "conv8_2_mbox_conf_perm"
  type: "Permute"
  bottom: "conv8_2_mbox_conf"
  top: "conv8_2_mbox_conf_perm"
  permute_param {
    order: 0
    order: 2
    order: 3
    order: 1
  }
}
layer {
  name: "conv8_2_mbox_conf_flat"
  type: "Flatten"
  bottom: "conv8_2_mbox_conf_perm"
  top: "conv8_2_mbox_conf_flat"
  flatten_param {
    axis: 1
  }
}
layer {
  name: "conv8_2_mbox_priorbox"
  type: "PriorBox"
  bottom: "conv8_2"
  bottom: "data"
  top: "conv8_2_mbox_priorbox"
  prior_box_param {
    min_size: 222
    max_size: 276
    aspect_ratio: 2
    aspect_ratio: 3
    flip: true
    clip: true
    variance: 0.1
    variance: 0.1
    variance: 0.2
    variance: 0.2
  }
}
layer {
  name: "pool6_mbox_loc"
  type: "Convolution"
  bottom: "pool6"
  top: "pool6_mbox_loc"
  param {
    lr_mult: 1
    decay_mult: 1
  }
  param {
    lr_mult: 2
    decay_mult: 0
  }
  convolution_param {
    num_output: 24
    pad: 1
    kernel_size: 3
    stride: 1
    weight_filler {
      type: "xavier"
    }
    bias_filler {
      type: "constant"
      value: 0
    }
  }
}
layer {
  name: "pool6_mbox_loc_perm"
  type: "Permute"
  bottom: "pool6_mbox_loc"
  top: "pool6_mbox_loc_perm"
  permute_param {
    order: 0
    order: 2
    order: 3
    order: 1
  }
}
layer {
  name: "pool6_mbox_loc_flat"
  type: "Flatten"
  bottom: "pool6_mbox_loc_perm"
  top: "pool6_mbox_loc_flat"
  flatten_param {
    axis: 1
  }
}
layer {
  name: "pool6_mbox_conf"
  type: "Convolution"
  bottom: "pool6"
  top: "pool6_mbox_conf"
  param {
    lr_mult: 1
    decay_mult: 1
  }
  param {
    lr_mult: 2
    decay_mult: 0
  }
  convolution_param {
    num_output: 126
    pad: 1
    kernel_size: 3
    stride: 1
    weight_filler {
      type: "xavier"
    }
    bias_filler {
      type: "constant"
      value: 0
    }
  }
}
layer {
  name: "pool6_mbox_conf_perm"
  type: "Permute"
  bottom: "pool6_mbox_conf"
  top: "pool6_mbox_conf_perm"
  permute_param {
    order: 0
    order: 2
    order: 3
    order: 1
  }
}
layer {
  name: "pool6_mbox_conf_flat"
  type: "Flatten"
  bottom: "pool6_mbox_conf_perm"
  top: "pool6_mbox_conf_flat"
  flatten_param {
    axis: 1
  }
}
layer {
  name: "pool6_mbox_priorbox"
  type: "PriorBox"
  bottom: "pool6"
  bottom: "data"
  top: "pool6_mbox_priorbox"
  prior_box_param {
    min_size: 276
    max_size: 330
    aspect_ratio: 2
    aspect_ratio: 3
    flip: true
    clip: true
    variance: 0.1
    variance: 0.1
    variance: 0.2
    variance: 0.2
  }
}
layer {
  name: "mbox_loc"
  type: "Concat"
  bottom: "conv4_3_norm_mbox_loc_flat"
  bottom: "fc7_mbox_loc_flat"
  bottom: "conv6_2_mbox_loc_flat"
  bottom: "conv7_2_mbox_loc_flat"
  bottom: "conv8_2_mbox_loc_flat"
  bottom: "pool6_mbox_loc_flat"
  top: "mbox_loc"
  concat_param {
    axis: 1
  }
}
layer {
  name: "mbox_conf"
  type: "Concat"
  bottom: "conv4_3_norm_mbox_conf_flat"
  bottom: "fc7_mbox_conf_flat"
  bottom: "conv6_2_mbox_conf_flat"
  bottom: "conv7_2_mbox_conf_flat"
  bottom: "conv8_2_mbox_conf_flat"
  bottom: "pool6_mbox_conf_flat"
  top: "mbox_conf"
  concat_param {
    axis: 1
  }
}
layer {
  name: "mbox_priorbox"
  type: "Concat"
  bottom: "conv4_3_norm_mbox_priorbox"
  bottom: "fc7_mbox_priorbox"
  bottom: "conv6_2_mbox_priorbox"
  bottom: "conv7_2_mbox_priorbox"
  bottom: "conv8_2_mbox_priorbox"
  bottom: "pool6_mbox_priorbox"
  top: "mbox_priorbox"
  concat_param {
    axis: 2
  }
}
layer {
  name: "mbox_loss"
  type: "MultiBoxLoss"
  bottom: "mbox_loc"
  bottom: "mbox_conf"
  bottom: "mbox_priorbox"
  bottom: "label"
  top: "mbox_loss"
  include {
    phase: TRAIN
  }
  propagate_down: true
  propagate_down: true
  propagate_down: false
  propagate_down: false
  loss_param {
    normalization: VALID
  }
  multibox_loss_param {
    loc_loss_type: SMOOTH_L1
    conf_loss_type: SOFTMAX
    loc_weight: 1
    num_classes: 21
    share_location: true
    match_type: PER_PREDICTION
    overlap_threshold: 0.5
    use_prior_for_matching: true
    background_label_id: 0
    use_difficult_gt: true
    do_neg_mining: true
    neg_pos_ratio: 3
    neg_overlap: 0.5
    code_type: CENTER_SIZE
  }
}
I0509 16:57:24.269884 11100 layer_factory.hpp:77] Creating layer data
I0509 16:57:24.270444 11100 net.cpp:91] Creating Layer data
I0509 16:57:24.270469 11100 net.cpp:399] data -> data
I0509 16:57:24.270527 11100 net.cpp:399] data -> label
I0509 16:57:24.272287 11108 db_lmdb.cpp:35] Opened lmdb examples/VOC0712/VOC0712_trainval_lmdb
I0509 16:57:24.287369 11100 annotated_data_layer.cpp:52] output data size: 8,3,300,300
I0509 16:57:24.307509 11100 net.cpp:141] Setting up data
I0509 16:57:24.307559 11100 net.cpp:148] Top shape: 8 3 300 300 (2160000)
I0509 16:57:24.307569 11100 net.cpp:148] Top shape: 1 1 2 8 (16)
I0509 16:57:24.307577 11100 net.cpp:156] Memory required for data: 8640064
I0509 16:57:24.307596 11100 layer_factory.hpp:77] Creating layer data_data_0_split
I0509 16:57:24.307628 11100 net.cpp:91] Creating Layer data_data_0_split
I0509 16:57:24.307646 11100 net.cpp:425] data_data_0_split <- data
I0509 16:57:24.307670 11100 net.cpp:399] data_data_0_split -> data_data_0_split_0
I0509 16:57:24.307687 11100 net.cpp:399] data_data_0_split -> data_data_0_split_1
I0509 16:57:24.307694 11100 net.cpp:399] data_data_0_split -> data_data_0_split_2
I0509 16:57:24.307706 11100 net.cpp:399] data_data_0_split -> data_data_0_split_3
I0509 16:57:24.307714 11100 net.cpp:399] data_data_0_split -> data_data_0_split_4
I0509 16:57:24.307723 11100 net.cpp:399] data_data_0_split -> data_data_0_split_5
I0509 16:57:24.307729 11100 net.cpp:399] data_data_0_split -> data_data_0_split_6
I0509 16:57:24.307905 11100 net.cpp:141] Setting up data_data_0_split
I0509 16:57:24.307919 11100 net.cpp:148] Top shape: 8 3 300 300 (2160000)
I0509 16:57:24.307925 11100 net.cpp:148] Top shape: 8 3 300 300 (2160000)
I0509 16:57:24.307930 11100 net.cpp:148] Top shape: 8 3 300 300 (2160000)
I0509 16:57:24.307936 11100 net.cpp:148] Top shape: 8 3 300 300 (2160000)
I0509 16:57:24.307941 11100 net.cpp:148] Top shape: 8 3 300 300 (2160000)
I0509 16:57:24.307946 11100 net.cpp:148] Top shape: 8 3 300 300 (2160000)
I0509 16:57:24.307952 11100 net.cpp:148] Top shape: 8 3 300 300 (2160000)
I0509 16:57:24.307978 11100 net.cpp:156] Memory required for data: 69120064
I0509 16:57:24.307984 11100 layer_factory.hpp:77] Creating layer conv1_1
I0509 16:57:24.308019 11100 net.cpp:91] Creating Layer conv1_1
I0509 16:57:24.308029 11100 net.cpp:425] conv1_1 <- data_data_0_split_0
I0509 16:57:24.308040 11100 net.cpp:399] conv1_1 -> conv1_1
I0509 16:57:24.343473 11109 blocking_queue.cpp:50] Waiting for data
I0509 16:57:24.587252 11100 net.cpp:141] Setting up conv1_1
I0509 16:57:24.587299 11100 net.cpp:148] Top shape: 8 64 300 300 (46080000)
I0509 16:57:24.587307 11100 net.cpp:156] Memory required for data: 253440064
I0509 16:57:24.587333 11100 layer_factory.hpp:77] Creating layer relu1_1
I0509 16:57:24.587353 11100 net.cpp:91] Creating Layer relu1_1
I0509 16:57:24.587360 11100 net.cpp:425] relu1_1 <- conv1_1
I0509 16:57:24.587369 11100 net.cpp:386] relu1_1 -> conv1_1 (in-place)
I0509 16:57:24.587687 11100 net.cpp:141] Setting up relu1_1
I0509 16:57:24.587704 11100 net.cpp:148] Top shape: 8 64 300 300 (46080000)
I0509 16:57:24.587710 11100 net.cpp:156] Memory required for data: 437760064
I0509 16:57:24.587715 11100 layer_factory.hpp:77] Creating layer conv1_2
I0509 16:57:24.587736 11100 net.cpp:91] Creating Layer conv1_2
I0509 16:57:24.587743 11100 net.cpp:425] conv1_2 <- conv1_1
I0509 16:57:24.587750 11100 net.cpp:399] conv1_2 -> conv1_2
I0509 16:57:24.589844 11100 net.cpp:141] Setting up conv1_2
I0509 16:57:24.589867 11100 net.cpp:148] Top shape: 8 64 300 300 (46080000)
I0509 16:57:24.589874 11100 net.cpp:156] Memory required for data: 622080064
I0509 16:57:24.589885 11100 layer_factory.hpp:77] Creating layer relu1_2
I0509 16:57:24.589895 11100 net.cpp:91] Creating Layer relu1_2
I0509 16:57:24.589901 11100 net.cpp:425] relu1_2 <- conv1_2
I0509 16:57:24.589908 11100 net.cpp:386] relu1_2 -> conv1_2 (in-place)
I0509 16:57:24.590206 11100 net.cpp:141] Setting up relu1_2
I0509 16:57:24.590224 11100 net.cpp:148] Top shape: 8 64 300 300 (46080000)
I0509 16:57:24.590230 11100 net.cpp:156] Memory required for data: 806400064
I0509 16:57:24.590235 11100 layer_factory.hpp:77] Creating layer pool1
I0509 16:57:24.590247 11100 net.cpp:91] Creating Layer pool1
I0509 16:57:24.590252 11100 net.cpp:425] pool1 <- conv1_2
I0509 16:57:24.590260 11100 net.cpp:399] pool1 -> pool1
I0509 16:57:24.590329 11100 net.cpp:141] Setting up pool1
I0509 16:57:24.590342 11100 net.cpp:148] Top shape: 8 64 150 150 (11520000)
I0509 16:57:24.590348 11100 net.cpp:156] Memory required for data: 852480064
I0509 16:57:24.590353 11100 layer_factory.hpp:77] Creating layer conv2_1
I0509 16:57:24.590364 11100 net.cpp:91] Creating Layer conv2_1
I0509 16:57:24.590369 11100 net.cpp:425] conv2_1 <- pool1
I0509 16:57:24.590378 11100 net.cpp:399] conv2_1 -> conv2_1
I0509 16:57:24.592103 11100 net.cpp:141] Setting up conv2_1
I0509 16:57:24.592123 11100 net.cpp:148] Top shape: 8 128 150 150 (23040000)
I0509 16:57:24.592128 11100 net.cpp:156] Memory required for data: 944640064
I0509 16:57:24.592140 11100 layer_factory.hpp:77] Creating layer relu2_1
I0509 16:57:24.592151 11100 net.cpp:91] Creating Layer relu2_1
I0509 16:57:24.592156 11100 net.cpp:425] relu2_1 <- conv2_1
I0509 16:57:24.592164 11100 net.cpp:386] relu2_1 -> conv2_1 (in-place)
I0509 16:57:24.592360 11100 net.cpp:141] Setting up relu2_1
I0509 16:57:24.592375 11100 net.cpp:148] Top shape: 8 128 150 150 (23040000)
I0509 16:57:24.592381 11100 net.cpp:156] Memory required for data: 1036800064
I0509 16:57:24.592386 11100 layer_factory.hpp:77] Creating layer conv2_2
I0509 16:57:24.592399 11100 net.cpp:91] Creating Layer conv2_2
I0509 16:57:24.592404 11100 net.cpp:425] conv2_2 <- conv2_1
I0509 16:57:24.592412 11100 net.cpp:399] conv2_2 -> conv2_2
I0509 16:57:24.595408 11100 net.cpp:141] Setting up conv2_2
I0509 16:57:24.595430 11100 net.cpp:148] Top shape: 8 128 150 150 (23040000)
I0509 16:57:24.595441 11100 net.cpp:156] Memory required for data: 1128960064
I0509 16:57:24.595451 11100 layer_factory.hpp:77] Creating layer relu2_2
I0509 16:57:24.595461 11100 net.cpp:91] Creating Layer relu2_2
I0509 16:57:24.596674 11100 net.cpp:425] relu2_2 <- conv2_2
I0509 16:57:24.596693 11100 net.cpp:386] relu2_2 -> conv2_2 (in-place)
I0509 16:57:24.597029 11100 net.cpp:141] Setting up relu2_2
I0509 16:57:24.597048 11100 net.cpp:148] Top shape: 8 128 150 150 (23040000)
I0509 16:57:24.597053 11100 net.cpp:156] Memory required for data: 1221120064
I0509 16:57:24.597057 11100 layer_factory.hpp:77] Creating layer pool2
I0509 16:57:24.597067 11100 net.cpp:91] Creating Layer pool2
I0509 16:57:24.597072 11100 net.cpp:425] pool2 <- conv2_2
I0509 16:57:24.597082 11100 net.cpp:399] pool2 -> pool2
I0509 16:57:24.597136 11100 net.cpp:141] Setting up pool2
I0509 16:57:24.597144 11100 net.cpp:148] Top shape: 8 128 75 75 (5760000)
I0509 16:57:24.597149 11100 net.cpp:156] Memory required for data: 1244160064
I0509 16:57:24.597153 11100 layer_factory.hpp:77] Creating layer conv3_1
I0509 16:57:24.597174 11100 net.cpp:91] Creating Layer conv3_1
I0509 16:57:24.597180 11100 net.cpp:425] conv3_1 <- pool2
I0509 16:57:24.597188 11100 net.cpp:399] conv3_1 -> conv3_1
I0509 16:57:24.602043 11100 net.cpp:141] Setting up conv3_1
I0509 16:57:24.602064 11100 net.cpp:148] Top shape: 8 256 75 75 (11520000)
I0509 16:57:24.602069 11100 net.cpp:156] Memory required for data: 1290240064
I0509 16:57:24.602085 11100 layer_factory.hpp:77] Creating layer relu3_1
I0509 16:57:24.602095 11100 net.cpp:91] Creating Layer relu3_1
I0509 16:57:24.602100 11100 net.cpp:425] relu3_1 <- conv3_1
I0509 16:57:24.602108 11100 net.cpp:386] relu3_1 -> conv3_1 (in-place)
I0509 16:57:24.602434 11100 net.cpp:141] Setting up relu3_1
I0509 16:57:24.602452 11100 net.cpp:148] Top shape: 8 256 75 75 (11520000)
I0509 16:57:24.602457 11100 net.cpp:156] Memory required for data: 1336320064
I0509 16:57:24.602461 11100 layer_factory.hpp:77] Creating layer conv3_2
I0509 16:57:24.602478 11100 net.cpp:91] Creating Layer conv3_2
I0509 16:57:24.602483 11100 net.cpp:425] conv3_2 <- conv3_1
I0509 16:57:24.602493 11100 net.cpp:399] conv3_2 -> conv3_2
I0509 16:57:24.609421 11100 net.cpp:141] Setting up conv3_2
I0509 16:57:24.609442 11100 net.cpp:148] Top shape: 8 256 75 75 (11520000)
I0509 16:57:24.609447 11100 net.cpp:156] Memory required for data: 1382400064
I0509 16:57:24.609457 11100 layer_factory.hpp:77] Creating layer relu3_2
I0509 16:57:24.609468 11100 net.cpp:91] Creating Layer relu3_2
I0509 16:57:24.609474 11100 net.cpp:425] relu3_2 <- conv3_2
I0509 16:57:24.609482 11100 net.cpp:386] relu3_2 -> conv3_2 (in-place)
I0509 16:57:24.609684 11100 net.cpp:141] Setting up relu3_2
I0509 16:57:24.609699 11100 net.cpp:148] Top shape: 8 256 75 75 (11520000)
I0509 16:57:24.609704 11100 net.cpp:156] Memory required for data: 1428480064
I0509 16:57:24.609709 11100 layer_factory.hpp:77] Creating layer conv3_3
I0509 16:57:24.609726 11100 net.cpp:91] Creating Layer conv3_3
I0509 16:57:24.609732 11100 net.cpp:425] conv3_3 <- conv3_2
I0509 16:57:24.609742 11100 net.cpp:399] conv3_3 -> conv3_3
I0509 16:57:24.616619 11100 net.cpp:141] Setting up conv3_3
I0509 16:57:24.616641 11100 net.cpp:148] Top shape: 8 256 75 75 (11520000)
I0509 16:57:24.616654 11100 net.cpp:156] Memory required for data: 1474560064
I0509 16:57:24.616664 11100 layer_factory.hpp:77] Creating layer relu3_3
I0509 16:57:24.616677 11100 net.cpp:91] Creating Layer relu3_3
I0509 16:57:24.616682 11100 net.cpp:425] relu3_3 <- conv3_3
I0509 16:57:24.616688 11100 net.cpp:386] relu3_3 -> conv3_3 (in-place)
I0509 16:57:24.617024 11100 net.cpp:141] Setting up relu3_3
I0509 16:57:24.617043 11100 net.cpp:148] Top shape: 8 256 75 75 (11520000)
I0509 16:57:24.617048 11100 net.cpp:156] Memory required for data: 1520640064
I0509 16:57:24.617053 11100 layer_factory.hpp:77] Creating layer pool3
I0509 16:57:24.617064 11100 net.cpp:91] Creating Layer pool3
I0509 16:57:24.617070 11100 net.cpp:425] pool3 <- conv3_3
I0509 16:57:24.617077 11100 net.cpp:399] pool3 -> pool3
I0509 16:57:24.617135 11100 net.cpp:141] Setting up pool3
I0509 16:57:24.617147 11100 net.cpp:148] Top shape: 8 256 38 38 (2957312)
I0509 16:57:24.617151 11100 net.cpp:156] Memory required for data: 1532469312
I0509 16:57:24.617175 11100 layer_factory.hpp:77] Creating layer conv4_1
I0509 16:57:24.617192 11100 net.cpp:91] Creating Layer conv4_1
I0509 16:57:24.617197 11100 net.cpp:425] conv4_1 <- pool3
I0509 16:57:24.617207 11100 net.cpp:399] conv4_1 -> conv4_1
I0509 16:57:24.630385 11100 net.cpp:141] Setting up conv4_1
I0509 16:57:24.630410 11100 net.cpp:148] Top shape: 8 512 38 38 (5914624)
I0509 16:57:24.630416 11100 net.cpp:156] Memory required for data: 1556127808
I0509 16:57:24.630426 11100 layer_factory.hpp:77] Creating layer relu4_1
I0509 16:57:24.630437 11100 net.cpp:91] Creating Layer relu4_1
I0509 16:57:24.630442 11100 net.cpp:425] relu4_1 <- conv4_1
I0509 16:57:24.630450 11100 net.cpp:386] relu4_1 -> conv4_1 (in-place)
I0509 16:57:24.630787 11100 net.cpp:141] Setting up relu4_1
I0509 16:57:24.630805 11100 net.cpp:148] Top shape: 8 512 38 38 (5914624)
I0509 16:57:24.630810 11100 net.cpp:156] Memory required for data: 1579786304
I0509 16:57:24.630815 11100 layer_factory.hpp:77] Creating layer conv4_2
I0509 16:57:24.630831 11100 net.cpp:91] Creating Layer conv4_2
I0509 16:57:24.630836 11100 net.cpp:425] conv4_2 <- conv4_1
I0509 16:57:24.630846 11100 net.cpp:399] conv4_2 -> conv4_2
I0509 16:57:24.654737 11100 net.cpp:141] Setting up conv4_2
I0509 16:57:24.654764 11100 net.cpp:148] Top shape: 8 512 38 38 (5914624)
I0509 16:57:24.654770 11100 net.cpp:156] Memory required for data: 1603444800
I0509 16:57:24.654789 11100 layer_factory.hpp:77] Creating layer relu4_2
I0509 16:57:24.654801 11100 net.cpp:91] Creating Layer relu4_2
I0509 16:57:24.654808 11100 net.cpp:425] relu4_2 <- conv4_2
I0509 16:57:24.654814 11100 net.cpp:386] relu4_2 -> conv4_2 (in-place)
I0509 16:57:24.655021 11100 net.cpp:141] Setting up relu4_2
I0509 16:57:24.655036 11100 net.cpp:148] Top shape: 8 512 38 38 (5914624)
I0509 16:57:24.655041 11100 net.cpp:156] Memory required for data: 1627103296
I0509 16:57:24.655046 11100 layer_factory.hpp:77] Creating layer conv4_3
I0509 16:57:24.655062 11100 net.cpp:91] Creating Layer conv4_3
I0509 16:57:24.655067 11100 net.cpp:425] conv4_3 <- conv4_2
I0509 16:57:24.655077 11100 net.cpp:399] conv4_3 -> conv4_3
I0509 16:57:24.679183 11100 net.cpp:141] Setting up conv4_3
I0509 16:57:24.679222 11100 net.cpp:148] Top shape: 8 512 38 38 (5914624)
I0509 16:57:24.679229 11100 net.cpp:156] Memory required for data: 1650761792
I0509 16:57:24.679239 11100 layer_factory.hpp:77] Creating layer relu4_3
I0509 16:57:24.679252 11100 net.cpp:91] Creating Layer relu4_3
I0509 16:57:24.679260 11100 net.cpp:425] relu4_3 <- conv4_3
I0509 16:57:24.679270 11100 net.cpp:386] relu4_3 -> conv4_3 (in-place)
I0509 16:57:24.679606 11100 net.cpp:141] Setting up relu4_3
I0509 16:57:24.679623 11100 net.cpp:148] Top shape: 8 512 38 38 (5914624)
I0509 16:57:24.679630 11100 net.cpp:156] Memory required for data: 1674420288
I0509 16:57:24.679635 11100 layer_factory.hpp:77] Creating layer conv4_3_relu4_3_0_split
I0509 16:57:24.679646 11100 net.cpp:91] Creating Layer conv4_3_relu4_3_0_split
I0509 16:57:24.679651 11100 net.cpp:425] conv4_3_relu4_3_0_split <- conv4_3
I0509 16:57:24.679658 11100 net.cpp:399] conv4_3_relu4_3_0_split -> conv4_3_relu4_3_0_split_0
I0509 16:57:24.679667 11100 net.cpp:399] conv4_3_relu4_3_0_split -> conv4_3_relu4_3_0_split_1
I0509 16:57:24.679723 11100 net.cpp:141] Setting up conv4_3_relu4_3_0_split
I0509 16:57:24.679733 11100 net.cpp:148] Top shape: 8 512 38 38 (5914624)
I0509 16:57:24.679738 11100 net.cpp:148] Top shape: 8 512 38 38 (5914624)
I0509 16:57:24.679743 11100 net.cpp:156] Memory required for data: 1721737280
I0509 16:57:24.679747 11100 layer_factory.hpp:77] Creating layer pool4
I0509 16:57:24.679759 11100 net.cpp:91] Creating Layer pool4
I0509 16:57:24.679764 11100 net.cpp:425] pool4 <- conv4_3_relu4_3_0_split_0
I0509 16:57:24.679771 11100 net.cpp:399] pool4 -> pool4
I0509 16:57:24.679818 11100 net.cpp:141] Setting up pool4
I0509 16:57:24.679829 11100 net.cpp:148] Top shape: 8 512 19 19 (1478656)
I0509 16:57:24.679833 11100 net.cpp:156] Memory required for data: 1727651904
I0509 16:57:24.679863 11100 layer_factory.hpp:77] Creating layer conv5_1
I0509 16:57:24.679882 11100 net.cpp:91] Creating Layer conv5_1
I0509 16:57:24.679886 11100 net.cpp:425] conv5_1 <- pool4
I0509 16:57:24.679898 11100 net.cpp:399] conv5_1 -> conv5_1
I0509 16:57:24.705730 11100 net.cpp:141] Setting up conv5_1
I0509 16:57:24.705760 11100 net.cpp:148] Top shape: 8 512 19 19 (1478656)
I0509 16:57:24.705767 11100 net.cpp:156] Memory required for data: 1733566528
I0509 16:57:24.705781 11100 layer_factory.hpp:77] Creating layer relu5_1
I0509 16:57:24.705793 11100 net.cpp:91] Creating Layer relu5_1
I0509 16:57:24.705801 11100 net.cpp:425] relu5_1 <- conv5_1
I0509 16:57:24.705812 11100 net.cpp:386] relu5_1 -> conv5_1 (in-place)
I0509 16:57:24.706145 11100 net.cpp:141] Setting up relu5_1
I0509 16:57:24.706162 11100 net.cpp:148] Top shape: 8 512 19 19 (1478656)
I0509 16:57:24.706167 11100 net.cpp:156] Memory required for data: 1739481152
I0509 16:57:24.706173 11100 layer_factory.hpp:77] Creating layer conv5_2
I0509 16:57:24.706190 11100 net.cpp:91] Creating Layer conv5_2
I0509 16:57:24.706195 11100 net.cpp:425] conv5_2 <- conv5_1
I0509 16:57:24.706205 11100 net.cpp:399] conv5_2 -> conv5_2
I0509 16:57:24.730216 11100 net.cpp:141] Setting up conv5_2
I0509 16:57:24.730244 11100 net.cpp:148] Top shape: 8 512 19 19 (1478656)
I0509 16:57:24.730249 11100 net.cpp:156] Memory required for data: 1745395776
I0509 16:57:24.730259 11100 layer_factory.hpp:77] Creating layer relu5_2
I0509 16:57:24.730270 11100 net.cpp:91] Creating Layer relu5_2
I0509 16:57:24.730276 11100 net.cpp:425] relu5_2 <- conv5_2
I0509 16:57:24.730284 11100 net.cpp:386] relu5_2 -> conv5_2 (in-place)
I0509 16:57:24.730487 11100 net.cpp:141] Setting up relu5_2
I0509 16:57:24.730501 11100 net.cpp:148] Top shape: 8 512 19 19 (1478656)
I0509 16:57:24.730506 11100 net.cpp:156] Memory required for data: 1751310400
I0509 16:57:24.730511 11100 layer_factory.hpp:77] Creating layer conv5_3
I0509 16:57:24.730527 11100 net.cpp:91] Creating Layer conv5_3
I0509 16:57:24.730532 11100 net.cpp:425] conv5_3 <- conv5_2
I0509 16:57:24.730543 11100 net.cpp:399] conv5_3 -> conv5_3
I0509 16:57:24.755669 11100 net.cpp:141] Setting up conv5_3
I0509 16:57:24.755699 11100 net.cpp:148] Top shape: 8 512 19 19 (1478656)
I0509 16:57:24.755705 11100 net.cpp:156] Memory required for data: 1757225024
I0509 16:57:24.755717 11100 layer_factory.hpp:77] Creating layer relu5_3
I0509 16:57:24.755738 11100 net.cpp:91] Creating Layer relu5_3
I0509 16:57:24.755745 11100 net.cpp:425] relu5_3 <- conv5_3
I0509 16:57:24.755755 11100 net.cpp:386] relu5_3 -> conv5_3 (in-place)
I0509 16:57:24.756088 11100 net.cpp:141] Setting up relu5_3
I0509 16:57:24.756106 11100 net.cpp:148] Top shape: 8 512 19 19 (1478656)
I0509 16:57:24.756111 11100 net.cpp:156] Memory required for data: 1763139648
I0509 16:57:24.756116 11100 layer_factory.hpp:77] Creating layer pool5
I0509 16:57:24.756129 11100 net.cpp:91] Creating Layer pool5
I0509 16:57:24.756134 11100 net.cpp:425] pool5 <- conv5_3
I0509 16:57:24.756147 11100 net.cpp:399] pool5 -> pool5
I0509 16:57:24.756208 11100 net.cpp:141] Setting up pool5
I0509 16:57:24.756220 11100 net.cpp:148] Top shape: 8 512 19 19 (1478656)
I0509 16:57:24.756225 11100 net.cpp:156] Memory required for data: 1769054272
I0509 16:57:24.756229 11100 layer_factory.hpp:77] Creating layer fc6
I0509 16:57:24.756245 11100 net.cpp:91] Creating Layer fc6
I0509 16:57:24.756252 11100 net.cpp:425] fc6 <- pool5
I0509 16:57:24.756259 11100 net.cpp:399] fc6 -> fc6
I0509 16:57:24.804101 11100 net.cpp:141] Setting up fc6
I0509 16:57:24.804147 11100 net.cpp:148] Top shape: 8 1024 19 19 (2957312)
I0509 16:57:24.804152 11100 net.cpp:156] Memory required for data: 1780883520
I0509 16:57:24.804167 11100 layer_factory.hpp:77] Creating layer relu6
I0509 16:57:24.804186 11100 net.cpp:91] Creating Layer relu6
I0509 16:57:24.804194 11100 net.cpp:425] relu6 <- fc6
I0509 16:57:24.804204 11100 net.cpp:386] relu6 -> fc6 (in-place)
I0509 16:57:24.804502 11100 net.cpp:141] Setting up relu6
I0509 16:57:24.804517 11100 net.cpp:148] Top shape: 8 1024 19 19 (2957312)
I0509 16:57:24.804543 11100 net.cpp:156] Memory required for data: 1792712768
I0509 16:57:24.804548 11100 layer_factory.hpp:77] Creating layer fc7
I0509 16:57:24.804568 11100 net.cpp:91] Creating Layer fc7
I0509 16:57:24.804572 11100 net.cpp:425] fc7 <- fc6
I0509 16:57:24.804584 11100 net.cpp:399] fc7 -> fc7
I0509 16:57:24.816042 11100 net.cpp:141] Setting up fc7
I0509 16:57:24.816063 11100 net.cpp:148] Top shape: 8 1024 19 19 (2957312)
I0509 16:57:24.816069 11100 net.cpp:156] Memory required for data: 1804542016
I0509 16:57:24.816078 11100 layer_factory.hpp:77] Creating layer relu7
I0509 16:57:24.816088 11100 net.cpp:91] Creating Layer relu7
I0509 16:57:24.816093 11100 net.cpp:425] relu7 <- fc7
I0509 16:57:24.816102 11100 net.cpp:386] relu7 -> fc7 (in-place)
I0509 16:57:24.816308 11100 net.cpp:141] Setting up relu7
I0509 16:57:24.816323 11100 net.cpp:148] Top shape: 8 1024 19 19 (2957312)
I0509 16:57:24.816328 11100 net.cpp:156] Memory required for data: 1816371264
I0509 16:57:24.816332 11100 layer_factory.hpp:77] Creating layer fc7_relu7_0_split
I0509 16:57:24.816346 11100 net.cpp:91] Creating Layer fc7_relu7_0_split
I0509 16:57:24.816351 11100 net.cpp:425] fc7_relu7_0_split <- fc7
I0509 16:57:24.816359 11100 net.cpp:399] fc7_relu7_0_split -> fc7_relu7_0_split_0
I0509 16:57:24.816367 11100 net.cpp:399] fc7_relu7_0_split -> fc7_relu7_0_split_1
I0509 16:57:24.816385 11100 net.cpp:399] fc7_relu7_0_split -> fc7_relu7_0_split_2
I0509 16:57:24.816392 11100 net.cpp:399] fc7_relu7_0_split -> fc7_relu7_0_split_3
I0509 16:57:24.816473 11100 net.cpp:141] Setting up fc7_relu7_0_split
I0509 16:57:24.816485 11100 net.cpp:148] Top shape: 8 1024 19 19 (2957312)
I0509 16:57:24.816493 11100 net.cpp:148] Top shape: 8 1024 19 19 (2957312)
I0509 16:57:24.816498 11100 net.cpp:148] Top shape: 8 1024 19 19 (2957312)
I0509 16:57:24.816504 11100 net.cpp:148] Top shape: 8 1024 19 19 (2957312)
I0509 16:57:24.816507 11100 net.cpp:156] Memory required for data: 1863688256
I0509 16:57:24.816512 11100 layer_factory.hpp:77] Creating layer conv6_1
I0509 16:57:24.816527 11100 net.cpp:91] Creating Layer conv6_1
I0509 16:57:24.816532 11100 net.cpp:425] conv6_1 <- fc7_relu7_0_split_0
I0509 16:57:24.816541 11100 net.cpp:399] conv6_1 -> conv6_1
I0509 16:57:24.820539 11100 net.cpp:141] Setting up conv6_1
I0509 16:57:24.820564 11100 net.cpp:148] Top shape: 8 256 19 19 (739328)
I0509 16:57:24.820569 11100 net.cpp:156] Memory required for data: 1866645568
I0509 16:57:24.820579 11100 layer_factory.hpp:77] Creating layer conv6_1_relu
I0509 16:57:24.820591 11100 net.cpp:91] Creating Layer conv6_1_relu
I0509 16:57:24.820597 11100 net.cpp:425] conv6_1_relu <- conv6_1
I0509 16:57:24.820605 11100 net.cpp:386] conv6_1_relu -> conv6_1 (in-place)
I0509 16:57:24.820961 11100 net.cpp:141] Setting up conv6_1_relu
I0509 16:57:24.820982 11100 net.cpp:148] Top shape: 8 256 19 19 (739328)
I0509 16:57:24.820987 11100 net.cpp:156] Memory required for data: 1869602880
I0509 16:57:24.820992 11100 layer_factory.hpp:77] Creating layer conv6_2
I0509 16:57:24.821008 11100 net.cpp:91] Creating Layer conv6_2
I0509 16:57:24.821014 11100 net.cpp:425] conv6_2 <- conv6_1
I0509 16:57:24.821022 11100 net.cpp:399] conv6_2 -> conv6_2
I0509 16:57:24.833709 11100 net.cpp:141] Setting up conv6_2
I0509 16:57:24.833734 11100 net.cpp:148] Top shape: 8 512 10 10 (409600)
I0509 16:57:24.833739 11100 net.cpp:156] Memory required for data: 1871241280
I0509 16:57:24.833760 11100 layer_factory.hpp:77] Creating layer conv6_2_relu
I0509 16:57:24.833770 11100 net.cpp:91] Creating Layer conv6_2_relu
I0509 16:57:24.833775 11100 net.cpp:425] conv6_2_relu <- conv6_2
I0509 16:57:24.833786 11100 net.cpp:386] conv6_2_relu -> conv6_2 (in-place)
I0509 16:57:24.833995 11100 net.cpp:141] Setting up conv6_2_relu
I0509 16:57:24.834012 11100 net.cpp:148] Top shape: 8 512 10 10 (409600)
I0509 16:57:24.834017 11100 net.cpp:156] Memory required for data: 1872879680
I0509 16:57:24.834022 11100 layer_factory.hpp:77] Creating layer conv6_2_conv6_2_relu_0_split
I0509 16:57:24.834030 11100 net.cpp:91] Creating Layer conv6_2_conv6_2_relu_0_split
I0509 16:57:24.834051 11100 net.cpp:425] conv6_2_conv6_2_relu_0_split <- conv6_2
I0509 16:57:24.834059 11100 net.cpp:399] conv6_2_conv6_2_relu_0_split -> conv6_2_conv6_2_relu_0_split_0
I0509 16:57:24.834069 11100 net.cpp:399] conv6_2_conv6_2_relu_0_split -> conv6_2_conv6_2_relu_0_split_1
I0509 16:57:24.834079 11100 net.cpp:399] conv6_2_conv6_2_relu_0_split -> conv6_2_conv6_2_relu_0_split_2
I0509 16:57:24.834090 11100 net.cpp:399] conv6_2_conv6_2_relu_0_split -> conv6_2_conv6_2_relu_0_split_3
I0509 16:57:24.834177 11100 net.cpp:141] Setting up conv6_2_conv6_2_relu_0_split
I0509 16:57:24.834188 11100 net.cpp:148] Top shape: 8 512 10 10 (409600)
I0509 16:57:24.834193 11100 net.cpp:148] Top shape: 8 512 10 10 (409600)
I0509 16:57:24.834198 11100 net.cpp:148] Top shape: 8 512 10 10 (409600)
I0509 16:57:24.834203 11100 net.cpp:148] Top shape: 8 512 10 10 (409600)
I0509 16:57:24.834208 11100 net.cpp:156] Memory required for data: 1879433280
I0509 16:57:24.834213 11100 layer_factory.hpp:77] Creating layer conv7_1
I0509 16:57:24.834226 11100 net.cpp:91] Creating Layer conv7_1
I0509 16:57:24.834234 11100 net.cpp:425] conv7_1 <- conv6_2_conv6_2_relu_0_split_0
I0509 16:57:24.834242 11100 net.cpp:399] conv7_1 -> conv7_1
I0509 16:57:24.835994 11100 net.cpp:141] Setting up conv7_1
I0509 16:57:24.836012 11100 net.cpp:148] Top shape: 8 128 10 10 (102400)
I0509 16:57:24.836019 11100 net.cpp:156] Memory required for data: 1879842880
I0509 16:57:24.836027 11100 layer_factory.hpp:77] Creating layer conv7_1_relu
I0509 16:57:24.836038 11100 net.cpp:91] Creating Layer conv7_1_relu
I0509 16:57:24.836043 11100 net.cpp:425] conv7_1_relu <- conv7_1
I0509 16:57:24.836052 11100 net.cpp:386] conv7_1_relu -> conv7_1 (in-place)
I0509 16:57:24.836261 11100 net.cpp:141] Setting up conv7_1_relu
I0509 16:57:24.836274 11100 net.cpp:148] Top shape: 8 128 10 10 (102400)
I0509 16:57:24.836279 11100 net.cpp:156] Memory required for data: 1880252480
I0509 16:57:24.836284 11100 layer_factory.hpp:77] Creating layer conv7_2
I0509 16:57:24.836299 11100 net.cpp:91] Creating Layer conv7_2
I0509 16:57:24.836307 11100 net.cpp:425] conv7_2 <- conv7_1
I0509 16:57:24.836315 11100 net.cpp:399] conv7_2 -> conv7_2
I0509 16:57:24.840468 11100 net.cpp:141] Setting up conv7_2
I0509 16:57:24.840490 11100 net.cpp:148] Top shape: 8 256 5 5 (51200)
I0509 16:57:24.840497 11100 net.cpp:156] Memory required for data: 1880457280
I0509 16:57:24.840505 11100 layer_factory.hpp:77] Creating layer conv7_2_relu
I0509 16:57:24.840514 11100 net.cpp:91] Creating Layer conv7_2_relu
I0509 16:57:24.840520 11100 net.cpp:425] conv7_2_relu <- conv7_2
I0509 16:57:24.840528 11100 net.cpp:386] conv7_2_relu -> conv7_2 (in-place)
I0509 16:57:24.840867 11100 net.cpp:141] Setting up conv7_2_relu
I0509 16:57:24.840888 11100 net.cpp:148] Top shape: 8 256 5 5 (51200)
I0509 16:57:24.840893 11100 net.cpp:156] Memory required for data: 1880662080
I0509 16:57:24.840898 11100 layer_factory.hpp:77] Creating layer conv7_2_conv7_2_relu_0_split
I0509 16:57:24.840906 11100 net.cpp:91] Creating Layer conv7_2_conv7_2_relu_0_split
I0509 16:57:24.840911 11100 net.cpp:425] conv7_2_conv7_2_relu_0_split <- conv7_2
I0509 16:57:24.840919 11100 net.cpp:399] conv7_2_conv7_2_relu_0_split -> conv7_2_conv7_2_relu_0_split_0
I0509 16:57:24.840930 11100 net.cpp:399] conv7_2_conv7_2_relu_0_split -> conv7_2_conv7_2_relu_0_split_1
I0509 16:57:24.840939 11100 net.cpp:399] conv7_2_conv7_2_relu_0_split -> conv7_2_conv7_2_relu_0_split_2
I0509 16:57:24.840946 11100 net.cpp:399] conv7_2_conv7_2_relu_0_split -> conv7_2_conv7_2_relu_0_split_3
I0509 16:57:24.841037 11100 net.cpp:141] Setting up conv7_2_conv7_2_relu_0_split
I0509 16:57:24.841048 11100 net.cpp:148] Top shape: 8 256 5 5 (51200)
I0509 16:57:24.841053 11100 net.cpp:148] Top shape: 8 256 5 5 (51200)
I0509 16:57:24.841058 11100 net.cpp:148] Top shape: 8 256 5 5 (51200)
I0509 16:57:24.841064 11100 net.cpp:148] Top shape: 8 256 5 5 (51200)
I0509 16:57:24.841068 11100 net.cpp:156] Memory required for data: 1881481280
I0509 16:57:24.841073 11100 layer_factory.hpp:77] Creating layer conv8_1
I0509 16:57:24.841104 11100 net.cpp:91] Creating Layer conv8_1
I0509 16:57:24.841110 11100 net.cpp:425] conv8_1 <- conv7_2_conv7_2_relu_0_split_0
I0509 16:57:24.841119 11100 net.cpp:399] conv8_1 -> conv8_1
I0509 16:57:24.842638 11100 net.cpp:141] Setting up conv8_1
I0509 16:57:24.842658 11100 net.cpp:148] Top shape: 8 128 5 5 (25600)
I0509 16:57:24.842664 11100 net.cpp:156] Memory required for data: 1881583680
I0509 16:57:24.842674 11100 layer_factory.hpp:77] Creating layer conv8_1_relu
I0509 16:57:24.842684 11100 net.cpp:91] Creating Layer conv8_1_relu
I0509 16:57:24.842689 11100 net.cpp:425] conv8_1_relu <- conv8_1
I0509 16:57:24.842696 11100 net.cpp:386] conv8_1_relu -> conv8_1 (in-place)
I0509 16:57:24.842917 11100 net.cpp:141] Setting up conv8_1_relu
I0509 16:57:24.842931 11100 net.cpp:148] Top shape: 8 128 5 5 (25600)
I0509 16:57:24.842936 11100 net.cpp:156] Memory required for data: 1881686080
I0509 16:57:24.842941 11100 layer_factory.hpp:77] Creating layer conv8_2
I0509 16:57:24.842960 11100 net.cpp:91] Creating Layer conv8_2
I0509 16:57:24.842967 11100 net.cpp:425] conv8_2 <- conv8_1
I0509 16:57:24.842974 11100 net.cpp:399] conv8_2 -> conv8_2
I0509 16:57:24.847198 11100 net.cpp:141] Setting up conv8_2
I0509 16:57:24.847220 11100 net.cpp:148] Top shape: 8 256 3 3 (18432)
I0509 16:57:24.847226 11100 net.cpp:156] Memory required for data: 1881759808
I0509 16:57:24.847235 11100 layer_factory.hpp:77] Creating layer conv8_2_relu
I0509 16:57:24.847247 11100 net.cpp:91] Creating Layer conv8_2_relu
I0509 16:57:24.847254 11100 net.cpp:425] conv8_2_relu <- conv8_2
I0509 16:57:24.847259 11100 net.cpp:386] conv8_2_relu -> conv8_2 (in-place)
I0509 16:57:24.847491 11100 net.cpp:141] Setting up conv8_2_relu
I0509 16:57:24.847506 11100 net.cpp:148] Top shape: 8 256 3 3 (18432)
I0509 16:57:24.847512 11100 net.cpp:156] Memory required for data: 1881833536
I0509 16:57:24.847517 11100 layer_factory.hpp:77] Creating layer conv8_2_conv8_2_relu_0_split
I0509 16:57:24.847525 11100 net.cpp:91] Creating Layer conv8_2_conv8_2_relu_0_split
I0509 16:57:24.847530 11100 net.cpp:425] conv8_2_conv8_2_relu_0_split <- conv8_2
I0509 16:57:24.847539 11100 net.cpp:399] conv8_2_conv8_2_relu_0_split -> conv8_2_conv8_2_relu_0_split_0
I0509 16:57:24.847548 11100 net.cpp:399] conv8_2_conv8_2_relu_0_split -> conv8_2_conv8_2_relu_0_split_1
I0509 16:57:24.847558 11100 net.cpp:399] conv8_2_conv8_2_relu_0_split -> conv8_2_conv8_2_relu_0_split_2
I0509 16:57:24.847564 11100 net.cpp:399] conv8_2_conv8_2_relu_0_split -> conv8_2_conv8_2_relu_0_split_3
I0509 16:57:24.847652 11100 net.cpp:141] Setting up conv8_2_conv8_2_relu_0_split
I0509 16:57:24.847666 11100 net.cpp:148] Top shape: 8 256 3 3 (18432)
I0509 16:57:24.847672 11100 net.cpp:148] Top shape: 8 256 3 3 (18432)
I0509 16:57:24.847677 11100 net.cpp:148] Top shape: 8 256 3 3 (18432)
I0509 16:57:24.847682 11100 net.cpp:148] Top shape: 8 256 3 3 (18432)
I0509 16:57:24.847687 11100 net.cpp:156] Memory required for data: 1882128448
I0509 16:57:24.847690 11100 layer_factory.hpp:77] Creating layer pool6
I0509 16:57:24.847700 11100 net.cpp:91] Creating Layer pool6
I0509 16:57:24.847705 11100 net.cpp:425] pool6 <- conv8_2_conv8_2_relu_0_split_0
I0509 16:57:24.847713 11100 net.cpp:399] pool6 -> pool6
I0509 16:57:24.848104 11100 net.cpp:141] Setting up pool6
I0509 16:57:24.848121 11100 net.cpp:148] Top shape: 8 256 1 1 (2048)
I0509 16:57:24.848126 11100 net.cpp:156] Memory required for data: 1882136640
I0509 16:57:24.848131 11100 layer_factory.hpp:77] Creating layer pool6_pool6_0_split
I0509 16:57:24.848140 11100 net.cpp:91] Creating Layer pool6_pool6_0_split
I0509 16:57:24.848145 11100 net.cpp:425] pool6_pool6_0_split <- pool6
I0509 16:57:24.848155 11100 net.cpp:399] pool6_pool6_0_split -> pool6_pool6_0_split_0
I0509 16:57:24.848163 11100 net.cpp:399] pool6_pool6_0_split -> pool6_pool6_0_split_1
I0509 16:57:24.848170 11100 net.cpp:399] pool6_pool6_0_split -> pool6_pool6_0_split_2
I0509 16:57:24.848234 11100 net.cpp:141] Setting up pool6_pool6_0_split
I0509 16:57:24.848248 11100 net.cpp:148] Top shape: 8 256 1 1 (2048)
I0509 16:57:24.848266 11100 net.cpp:148] Top shape: 8 256 1 1 (2048)
I0509 16:57:24.848273 11100 net.cpp:148] Top shape: 8 256 1 1 (2048)
I0509 16:57:24.848276 11100 net.cpp:156] Memory required for data: 1882161216
I0509 16:57:24.848281 11100 layer_factory.hpp:77] Creating layer conv4_3_norm
I0509 16:57:24.848294 11100 net.cpp:91] Creating Layer conv4_3_norm
I0509 16:57:24.848299 11100 net.cpp:425] conv4_3_norm <- conv4_3_relu4_3_0_split_1
I0509 16:57:24.848309 11100 net.cpp:399] conv4_3_norm -> conv4_3_norm
I0509 16:57:24.848515 11100 net.cpp:141] Setting up conv4_3_norm
I0509 16:57:24.848527 11100 net.cpp:148] Top shape: 8 512 38 38 (5914624)
I0509 16:57:24.848532 11100 net.cpp:156] Memory required for data: 1905819712
I0509 16:57:24.848539 11100 layer_factory.hpp:77] Creating layer conv4_3_norm_conv4_3_norm_0_split
I0509 16:57:24.848548 11100 net.cpp:91] Creating Layer conv4_3_norm_conv4_3_norm_0_split
I0509 16:57:24.848553 11100 net.cpp:425] conv4_3_norm_conv4_3_norm_0_split <- conv4_3_norm
I0509 16:57:24.848559 11100 net.cpp:399] conv4_3_norm_conv4_3_norm_0_split -> conv4_3_norm_conv4_3_norm_0_split_0
I0509 16:57:24.848567 11100 net.cpp:399] conv4_3_norm_conv4_3_norm_0_split -> conv4_3_norm_conv4_3_norm_0_split_1
I0509 16:57:24.848575 11100 net.cpp:399] conv4_3_norm_conv4_3_norm_0_split -> conv4_3_norm_conv4_3_norm_0_split_2
I0509 16:57:24.848639 11100 net.cpp:141] Setting up conv4_3_norm_conv4_3_norm_0_split
I0509 16:57:24.848655 11100 net.cpp:148] Top shape: 8 512 38 38 (5914624)
I0509 16:57:24.848662 11100 net.cpp:148] Top shape: 8 512 38 38 (5914624)
I0509 16:57:24.848667 11100 net.cpp:148] Top shape: 8 512 38 38 (5914624)
I0509 16:57:24.848671 11100 net.cpp:156] Memory required for data: 1976795200
I0509 16:57:24.848675 11100 layer_factory.hpp:77] Creating layer conv4_3_norm_mbox_loc
I0509 16:57:24.848690 11100 net.cpp:91] Creating Layer conv4_3_norm_mbox_loc
I0509 16:57:24.848695 11100 net.cpp:425] conv4_3_norm_mbox_loc <- conv4_3_norm_conv4_3_norm_0_split_0
I0509 16:57:24.848703 11100 net.cpp:399] conv4_3_norm_mbox_loc -> conv4_3_norm_mbox_loc
I0509 16:57:24.850405 11100 net.cpp:141] Setting up conv4_3_norm_mbox_loc
I0509 16:57:24.850424 11100 net.cpp:148] Top shape: 8 12 38 38 (138624)
I0509 16:57:24.850430 11100 net.cpp:156] Memory required for data: 1977349696
I0509 16:57:24.850437 11100 layer_factory.hpp:77] Creating layer conv4_3_norm_mbox_loc_perm
I0509 16:57:24.850451 11100 net.cpp:91] Creating Layer conv4_3_norm_mbox_loc_perm
I0509 16:57:24.850457 11100 net.cpp:425] conv4_3_norm_mbox_loc_perm <- conv4_3_norm_mbox_loc
I0509 16:57:24.850466 11100 net.cpp:399] conv4_3_norm_mbox_loc_perm -> conv4_3_norm_mbox_loc_perm
I0509 16:57:24.850606 11100 net.cpp:141] Setting up conv4_3_norm_mbox_loc_perm
I0509 16:57:24.850618 11100 net.cpp:148] Top shape: 8 38 38 12 (138624)
I0509 16:57:24.850623 11100 net.cpp:156] Memory required for data: 1977904192
I0509 16:57:24.850628 11100 layer_factory.hpp:77] Creating layer conv4_3_norm_mbox_loc_flat
I0509 16:57:24.850644 11100 net.cpp:91] Creating Layer conv4_3_norm_mbox_loc_flat
I0509 16:57:24.850649 11100 net.cpp:425] conv4_3_norm_mbox_loc_flat <- conv4_3_norm_mbox_loc_perm
I0509 16:57:24.850661 11100 net.cpp:399] conv4_3_norm_mbox_loc_flat -> conv4_3_norm_mbox_loc_flat
I0509 16:57:24.850698 11100 net.cpp:141] Setting up conv4_3_norm_mbox_loc_flat
I0509 16:57:24.850708 11100 net.cpp:148] Top shape: 8 17328 (138624)
I0509 16:57:24.850713 11100 net.cpp:156] Memory required for data: 1978458688
I0509 16:57:24.850718 11100 layer_factory.hpp:77] Creating layer conv4_3_norm_mbox_conf
I0509 16:57:24.850733 11100 net.cpp:91] Creating Layer conv4_3_norm_mbox_conf
I0509 16:57:24.850738 11100 net.cpp:425] conv4_3_norm_mbox_conf <- conv4_3_norm_conv4_3_norm_0_split_1
I0509 16:57:24.850749 11100 net.cpp:399] conv4_3_norm_mbox_conf -> conv4_3_norm_mbox_conf
I0509 16:57:24.854913 11100 net.cpp:141] Setting up conv4_3_norm_mbox_conf
I0509 16:57:24.854936 11100 net.cpp:148] Top shape: 8 63 38 38 (727776)
I0509 16:57:24.854943 11100 net.cpp:156] Memory required for data: 1981369792
I0509 16:57:24.854964 11100 layer_factory.hpp:77] Creating layer conv4_3_norm_mbox_conf_perm
I0509 16:57:24.854975 11100 net.cpp:91] Creating Layer conv4_3_norm_mbox_conf_perm
I0509 16:57:24.854981 11100 net.cpp:425] conv4_3_norm_mbox_conf_perm <- conv4_3_norm_mbox_conf
I0509 16:57:24.854991 11100 net.cpp:399] conv4_3_norm_mbox_conf_perm -> conv4_3_norm_mbox_conf_perm
I0509 16:57:24.855126 11100 net.cpp:141] Setting up conv4_3_norm_mbox_conf_perm
I0509 16:57:24.855139 11100 net.cpp:148] Top shape: 8 38 38 63 (727776)
I0509 16:57:24.855144 11100 net.cpp:156] Memory required for data: 1984280896
I0509 16:57:24.855149 11100 layer_factory.hpp:77] Creating layer conv4_3_norm_mbox_conf_flat
I0509 16:57:24.855161 11100 net.cpp:91] Creating Layer conv4_3_norm_mbox_conf_flat
I0509 16:57:24.855166 11100 net.cpp:425] conv4_3_norm_mbox_conf_flat <- conv4_3_norm_mbox_conf_perm
I0509 16:57:24.855173 11100 net.cpp:399] conv4_3_norm_mbox_conf_flat -> conv4_3_norm_mbox_conf_flat
I0509 16:57:24.855216 11100 net.cpp:141] Setting up conv4_3_norm_mbox_conf_flat
I0509 16:57:24.855226 11100 net.cpp:148] Top shape: 8 90972 (727776)
I0509 16:57:24.855231 11100 net.cpp:156] Memory required for data: 1987192000
I0509 16:57:24.855235 11100 layer_factory.hpp:77] Creating layer conv4_3_norm_mbox_priorbox
I0509 16:57:24.855268 11100 net.cpp:91] Creating Layer conv4_3_norm_mbox_priorbox
I0509 16:57:24.855276 11100 net.cpp:425] conv4_3_norm_mbox_priorbox <- conv4_3_norm_conv4_3_norm_0_split_2
I0509 16:57:24.855283 11100 net.cpp:425] conv4_3_norm_mbox_priorbox <- data_data_0_split_1
I0509 16:57:24.855291 11100 net.cpp:399] conv4_3_norm_mbox_priorbox -> conv4_3_norm_mbox_priorbox
I0509 16:57:24.855329 11100 net.cpp:141] Setting up conv4_3_norm_mbox_priorbox
I0509 16:57:24.855340 11100 net.cpp:148] Top shape: 1 2 17328 (34656)
I0509 16:57:24.855345 11100 net.cpp:156] Memory required for data: 1987330624
I0509 16:57:24.855350 11100 layer_factory.hpp:77] Creating layer fc7_mbox_loc
I0509 16:57:24.855366 11100 net.cpp:91] Creating Layer fc7_mbox_loc
I0509 16:57:24.855371 11100 net.cpp:425] fc7_mbox_loc <- fc7_relu7_0_split_1
I0509 16:57:24.855379 11100 net.cpp:399] fc7_mbox_loc -> fc7_mbox_loc
I0509 16:57:24.858938 11100 net.cpp:141] Setting up fc7_mbox_loc
I0509 16:57:24.858958 11100 net.cpp:148] Top shape: 8 24 19 19 (69312)
I0509 16:57:24.858963 11100 net.cpp:156] Memory required for data: 1987607872
I0509 16:57:24.858973 11100 layer_factory.hpp:77] Creating layer fc7_mbox_loc_perm
I0509 16:57:24.858985 11100 net.cpp:91] Creating Layer fc7_mbox_loc_perm
I0509 16:57:24.858991 11100 net.cpp:425] fc7_mbox_loc_perm <- fc7_mbox_loc
I0509 16:57:24.859001 11100 net.cpp:399] fc7_mbox_loc_perm -> fc7_mbox_loc_perm
I0509 16:57:24.859133 11100 net.cpp:141] Setting up fc7_mbox_loc_perm
I0509 16:57:24.859144 11100 net.cpp:148] Top shape: 8 19 19 24 (69312)
I0509 16:57:24.859148 11100 net.cpp:156] Memory required for data: 1987885120
I0509 16:57:24.859153 11100 layer_factory.hpp:77] Creating layer fc7_mbox_loc_flat
I0509 16:57:24.859163 11100 net.cpp:91] Creating Layer fc7_mbox_loc_flat
I0509 16:57:24.859169 11100 net.cpp:425] fc7_mbox_loc_flat <- fc7_mbox_loc_perm
I0509 16:57:24.859174 11100 net.cpp:399] fc7_mbox_loc_flat -> fc7_mbox_loc_flat
I0509 16:57:24.859208 11100 net.cpp:141] Setting up fc7_mbox_loc_flat
I0509 16:57:24.859217 11100 net.cpp:148] Top shape: 8 8664 (69312)
I0509 16:57:24.859222 11100 net.cpp:156] Memory required for data: 1988162368
I0509 16:57:24.859226 11100 layer_factory.hpp:77] Creating layer fc7_mbox_conf
I0509 16:57:24.859241 11100 net.cpp:91] Creating Layer fc7_mbox_conf
I0509 16:57:24.859246 11100 net.cpp:425] fc7_mbox_conf <- fc7_relu7_0_split_2
I0509 16:57:24.859256 11100 net.cpp:399] fc7_mbox_conf -> fc7_mbox_conf
I0509 16:57:24.871676 11100 net.cpp:141] Setting up fc7_mbox_conf
I0509 16:57:24.871702 11100 net.cpp:148] Top shape: 8 126 19 19 (363888)
I0509 16:57:24.871708 11100 net.cpp:156] Memory required for data: 1989617920
I0509 16:57:24.871717 11100 layer_factory.hpp:77] Creating layer fc7_mbox_conf_perm
I0509 16:57:24.871742 11100 net.cpp:91] Creating Layer fc7_mbox_conf_perm
I0509 16:57:24.871748 11100 net.cpp:425] fc7_mbox_conf_perm <- fc7_mbox_conf
I0509 16:57:24.871758 11100 net.cpp:399] fc7_mbox_conf_perm -> fc7_mbox_conf_perm
I0509 16:57:24.871899 11100 net.cpp:141] Setting up fc7_mbox_conf_perm
I0509 16:57:24.871912 11100 net.cpp:148] Top shape: 8 19 19 126 (363888)
I0509 16:57:24.871917 11100 net.cpp:156] Memory required for data: 1991073472
I0509 16:57:24.871920 11100 layer_factory.hpp:77] Creating layer fc7_mbox_conf_flat
I0509 16:57:24.871929 11100 net.cpp:91] Creating Layer fc7_mbox_conf_flat
I0509 16:57:24.871933 11100 net.cpp:425] fc7_mbox_conf_flat <- fc7_mbox_conf_perm
I0509 16:57:24.871940 11100 net.cpp:399] fc7_mbox_conf_flat -> fc7_mbox_conf_flat
I0509 16:57:24.871976 11100 net.cpp:141] Setting up fc7_mbox_conf_flat
I0509 16:57:24.871986 11100 net.cpp:148] Top shape: 8 45486 (363888)
I0509 16:57:24.871991 11100 net.cpp:156] Memory required for data: 1992529024
I0509 16:57:24.871996 11100 layer_factory.hpp:77] Creating layer fc7_mbox_priorbox
I0509 16:57:24.872009 11100 net.cpp:91] Creating Layer fc7_mbox_priorbox
I0509 16:57:24.872012 11100 net.cpp:425] fc7_mbox_priorbox <- fc7_relu7_0_split_3
I0509 16:57:24.872019 11100 net.cpp:425] fc7_mbox_priorbox <- data_data_0_split_2
I0509 16:57:24.872025 11100 net.cpp:399] fc7_mbox_priorbox -> fc7_mbox_priorbox
I0509 16:57:24.872063 11100 net.cpp:141] Setting up fc7_mbox_priorbox
I0509 16:57:24.872073 11100 net.cpp:148] Top shape: 1 2 8664 (17328)
I0509 16:57:24.872078 11100 net.cpp:156] Memory required for data: 1992598336
I0509 16:57:24.872082 11100 layer_factory.hpp:77] Creating layer conv6_2_mbox_loc
I0509 16:57:24.872102 11100 net.cpp:91] Creating Layer conv6_2_mbox_loc
I0509 16:57:24.872109 11100 net.cpp:425] conv6_2_mbox_loc <- conv6_2_conv6_2_relu_0_split_1
I0509 16:57:24.872123 11100 net.cpp:399] conv6_2_mbox_loc -> conv6_2_mbox_loc
I0509 16:57:24.874336 11100 net.cpp:141] Setting up conv6_2_mbox_loc
I0509 16:57:24.874358 11100 net.cpp:148] Top shape: 8 24 10 10 (19200)
I0509 16:57:24.874364 11100 net.cpp:156] Memory required for data: 1992675136
I0509 16:57:24.874373 11100 layer_factory.hpp:77] Creating layer conv6_2_mbox_loc_perm
I0509 16:57:24.874383 11100 net.cpp:91] Creating Layer conv6_2_mbox_loc_perm
I0509 16:57:24.874389 11100 net.cpp:425] conv6_2_mbox_loc_perm <- conv6_2_mbox_loc
I0509 16:57:24.874397 11100 net.cpp:399] conv6_2_mbox_loc_perm -> conv6_2_mbox_loc_perm
I0509 16:57:24.874538 11100 net.cpp:141] Setting up conv6_2_mbox_loc_perm
I0509 16:57:24.874550 11100 net.cpp:148] Top shape: 8 10 10 24 (19200)
I0509 16:57:24.874555 11100 net.cpp:156] Memory required for data: 1992751936
I0509 16:57:24.874560 11100 layer_factory.hpp:77] Creating layer conv6_2_mbox_loc_flat
I0509 16:57:24.874570 11100 net.cpp:91] Creating Layer conv6_2_mbox_loc_flat
I0509 16:57:24.874575 11100 net.cpp:425] conv6_2_mbox_loc_flat <- conv6_2_mbox_loc_perm
I0509 16:57:24.874583 11100 net.cpp:399] conv6_2_mbox_loc_flat -> conv6_2_mbox_loc_flat
I0509 16:57:24.874617 11100 net.cpp:141] Setting up conv6_2_mbox_loc_flat
I0509 16:57:24.874632 11100 net.cpp:148] Top shape: 8 2400 (19200)
I0509 16:57:24.874636 11100 net.cpp:156] Memory required for data: 1992828736
I0509 16:57:24.874641 11100 layer_factory.hpp:77] Creating layer conv6_2_mbox_conf
I0509 16:57:24.874657 11100 net.cpp:91] Creating Layer conv6_2_mbox_conf
I0509 16:57:24.874663 11100 net.cpp:425] conv6_2_mbox_conf <- conv6_2_conv6_2_relu_0_split_2
I0509 16:57:24.874673 11100 net.cpp:399] conv6_2_mbox_conf -> conv6_2_mbox_conf
I0509 16:57:24.881561 11100 net.cpp:141] Setting up conv6_2_mbox_conf
I0509 16:57:24.881582 11100 net.cpp:148] Top shape: 8 126 10 10 (100800)
I0509 16:57:24.881587 11100 net.cpp:156] Memory required for data: 1993231936
I0509 16:57:24.881597 11100 layer_factory.hpp:77] Creating layer conv6_2_mbox_conf_perm
I0509 16:57:24.881606 11100 net.cpp:91] Creating Layer conv6_2_mbox_conf_perm
I0509 16:57:24.881613 11100 net.cpp:425] conv6_2_mbox_conf_perm <- conv6_2_mbox_conf
I0509 16:57:24.881623 11100 net.cpp:399] conv6_2_mbox_conf_perm -> conv6_2_mbox_conf_perm
I0509 16:57:24.881778 11100 net.cpp:141] Setting up conv6_2_mbox_conf_perm
I0509 16:57:24.881790 11100 net.cpp:148] Top shape: 8 10 10 126 (100800)
I0509 16:57:24.881795 11100 net.cpp:156] Memory required for data: 1993635136
I0509 16:57:24.881800 11100 layer_factory.hpp:77] Creating layer conv6_2_mbox_conf_flat
I0509 16:57:24.881811 11100 net.cpp:91] Creating Layer conv6_2_mbox_conf_flat
I0509 16:57:24.881816 11100 net.cpp:425] conv6_2_mbox_conf_flat <- conv6_2_mbox_conf_perm
I0509 16:57:24.881825 11100 net.cpp:399] conv6_2_mbox_conf_flat -> conv6_2_mbox_conf_flat
I0509 16:57:24.881858 11100 net.cpp:141] Setting up conv6_2_mbox_conf_flat
I0509 16:57:24.881868 11100 net.cpp:148] Top shape: 8 12600 (100800)
I0509 16:57:24.881872 11100 net.cpp:156] Memory required for data: 1994038336
I0509 16:57:24.881877 11100 layer_factory.hpp:77] Creating layer conv6_2_mbox_priorbox
I0509 16:57:24.881888 11100 net.cpp:91] Creating Layer conv6_2_mbox_priorbox
I0509 16:57:24.881893 11100 net.cpp:425] conv6_2_mbox_priorbox <- conv6_2_conv6_2_relu_0_split_3
I0509 16:57:24.881901 11100 net.cpp:425] conv6_2_mbox_priorbox <- data_data_0_split_3
I0509 16:57:24.881907 11100 net.cpp:399] conv6_2_mbox_priorbox -> conv6_2_mbox_priorbox
I0509 16:57:24.881943 11100 net.cpp:141] Setting up conv6_2_mbox_priorbox
I0509 16:57:24.881953 11100 net.cpp:148] Top shape: 1 2 2400 (4800)
I0509 16:57:24.881958 11100 net.cpp:156] Memory required for data: 1994057536
I0509 16:57:24.881963 11100 layer_factory.hpp:77] Creating layer conv7_2_mbox_loc
I0509 16:57:24.881976 11100 net.cpp:91] Creating Layer conv7_2_mbox_loc
I0509 16:57:24.881983 11100 net.cpp:425] conv7_2_mbox_loc <- conv7_2_conv7_2_relu_0_split_1
I0509 16:57:24.881992 11100 net.cpp:399] conv7_2_mbox_loc -> conv7_2_mbox_loc
I0509 16:57:24.884244 11100 net.cpp:141] Setting up conv7_2_mbox_loc
I0509 16:57:24.884263 11100 net.cpp:148] Top shape: 8 24 5 5 (4800)
I0509 16:57:24.884269 11100 net.cpp:156] Memory required for data: 1994076736
I0509 16:57:24.884279 11100 layer_factory.hpp:77] Creating layer conv7_2_mbox_loc_perm
I0509 16:57:24.884287 11100 net.cpp:91] Creating Layer conv7_2_mbox_loc_perm
I0509 16:57:24.884294 11100 net.cpp:425] conv7_2_mbox_loc_perm <- conv7_2_mbox_loc
I0509 16:57:24.884304 11100 net.cpp:399] conv7_2_mbox_loc_perm -> conv7_2_mbox_loc_perm
I0509 16:57:24.884454 11100 net.cpp:141] Setting up conv7_2_mbox_loc_perm
I0509 16:57:24.884467 11100 net.cpp:148] Top shape: 8 5 5 24 (4800)
I0509 16:57:24.884471 11100 net.cpp:156] Memory required for data: 1994095936
I0509 16:57:24.884476 11100 layer_factory.hpp:77] Creating layer conv7_2_mbox_loc_flat
I0509 16:57:24.884485 11100 net.cpp:91] Creating Layer conv7_2_mbox_loc_flat
I0509 16:57:24.884490 11100 net.cpp:425] conv7_2_mbox_loc_flat <- conv7_2_mbox_loc_perm
I0509 16:57:24.884498 11100 net.cpp:399] conv7_2_mbox_loc_flat -> conv7_2_mbox_loc_flat
I0509 16:57:24.884532 11100 net.cpp:141] Setting up conv7_2_mbox_loc_flat
I0509 16:57:24.884542 11100 net.cpp:148] Top shape: 8 600 (4800)
I0509 16:57:24.884546 11100 net.cpp:156] Memory required for data: 1994115136
I0509 16:57:24.884552 11100 layer_factory.hpp:77] Creating layer conv7_2_mbox_conf
I0509 16:57:24.884568 11100 net.cpp:91] Creating Layer conv7_2_mbox_conf
I0509 16:57:24.884574 11100 net.cpp:425] conv7_2_mbox_conf <- conv7_2_conv7_2_relu_0_split_2
I0509 16:57:24.884582 11100 net.cpp:399] conv7_2_mbox_conf -> conv7_2_mbox_conf
I0509 16:57:24.888614 11100 net.cpp:141] Setting up conv7_2_mbox_conf
I0509 16:57:24.888634 11100 net.cpp:148] Top shape: 8 126 5 5 (25200)
I0509 16:57:24.888640 11100 net.cpp:156] Memory required for data: 1994215936
I0509 16:57:24.888656 11100 layer_factory.hpp:77] Creating layer conv7_2_mbox_conf_perm
I0509 16:57:24.888670 11100 net.cpp:91] Creating Layer conv7_2_mbox_conf_perm
I0509 16:57:24.888676 11100 net.cpp:425] conv7_2_mbox_conf_perm <- conv7_2_mbox_conf
I0509 16:57:24.888684 11100 net.cpp:399] conv7_2_mbox_conf_perm -> conv7_2_mbox_conf_perm
I0509 16:57:24.888828 11100 net.cpp:141] Setting up conv7_2_mbox_conf_perm
I0509 16:57:24.888852 11100 net.cpp:148] Top shape: 8 5 5 126 (25200)
I0509 16:57:24.888859 11100 net.cpp:156] Memory required for data: 1994316736
I0509 16:57:24.888862 11100 layer_factory.hpp:77] Creating layer conv7_2_mbox_conf_flat
I0509 16:57:24.888871 11100 net.cpp:91] Creating Layer conv7_2_mbox_conf_flat
I0509 16:57:24.888876 11100 net.cpp:425] conv7_2_mbox_conf_flat <- conv7_2_mbox_conf_perm
I0509 16:57:24.888885 11100 net.cpp:399] conv7_2_mbox_conf_flat -> conv7_2_mbox_conf_flat
I0509 16:57:24.888921 11100 net.cpp:141] Setting up conv7_2_mbox_conf_flat
I0509 16:57:24.888938 11100 net.cpp:148] Top shape: 8 3150 (25200)
I0509 16:57:24.888943 11100 net.cpp:156] Memory required for data: 1994417536
I0509 16:57:24.888947 11100 layer_factory.hpp:77] Creating layer conv7_2_mbox_priorbox
I0509 16:57:24.888957 11100 net.cpp:91] Creating Layer conv7_2_mbox_priorbox
I0509 16:57:24.888962 11100 net.cpp:425] conv7_2_mbox_priorbox <- conv7_2_conv7_2_relu_0_split_3
I0509 16:57:24.888967 11100 net.cpp:425] conv7_2_mbox_priorbox <- data_data_0_split_4
I0509 16:57:24.888973 11100 net.cpp:399] conv7_2_mbox_priorbox -> conv7_2_mbox_priorbox
I0509 16:57:24.889011 11100 net.cpp:141] Setting up conv7_2_mbox_priorbox
I0509 16:57:24.889027 11100 net.cpp:148] Top shape: 1 2 600 (1200)
I0509 16:57:24.889031 11100 net.cpp:156] Memory required for data: 1994422336
I0509 16:57:24.889036 11100 layer_factory.hpp:77] Creating layer conv8_2_mbox_loc
I0509 16:57:24.889050 11100 net.cpp:91] Creating Layer conv8_2_mbox_loc
I0509 16:57:24.889055 11100 net.cpp:425] conv8_2_mbox_loc <- conv8_2_conv8_2_relu_0_split_1
I0509 16:57:24.889065 11100 net.cpp:399] conv8_2_mbox_loc -> conv8_2_mbox_loc
I0509 16:57:24.890885 11100 net.cpp:141] Setting up conv8_2_mbox_loc
I0509 16:57:24.890904 11100 net.cpp:148] Top shape: 8 24 3 3 (1728)
I0509 16:57:24.890910 11100 net.cpp:156] Memory required for data: 1994429248
I0509 16:57:24.890919 11100 layer_factory.hpp:77] Creating layer conv8_2_mbox_loc_perm
I0509 16:57:24.890933 11100 net.cpp:91] Creating Layer conv8_2_mbox_loc_perm
I0509 16:57:24.890938 11100 net.cpp:425] conv8_2_mbox_loc_perm <- conv8_2_mbox_loc
I0509 16:57:24.890945 11100 net.cpp:399] conv8_2_mbox_loc_perm -> conv8_2_mbox_loc_perm
I0509 16:57:24.891100 11100 net.cpp:141] Setting up conv8_2_mbox_loc_perm
I0509 16:57:24.891113 11100 net.cpp:148] Top shape: 8 3 3 24 (1728)
I0509 16:57:24.891118 11100 net.cpp:156] Memory required for data: 1994436160
I0509 16:57:24.891122 11100 layer_factory.hpp:77] Creating layer conv8_2_mbox_loc_flat
I0509 16:57:24.891130 11100 net.cpp:91] Creating Layer conv8_2_mbox_loc_flat
I0509 16:57:24.891135 11100 net.cpp:425] conv8_2_mbox_loc_flat <- conv8_2_mbox_loc_perm
I0509 16:57:24.891144 11100 net.cpp:399] conv8_2_mbox_loc_flat -> conv8_2_mbox_loc_flat
I0509 16:57:24.891177 11100 net.cpp:141] Setting up conv8_2_mbox_loc_flat
I0509 16:57:24.891191 11100 net.cpp:148] Top shape: 8 216 (1728)
I0509 16:57:24.891196 11100 net.cpp:156] Memory required for data: 1994443072
I0509 16:57:24.891201 11100 layer_factory.hpp:77] Creating layer conv8_2_mbox_conf
I0509 16:57:24.891214 11100 net.cpp:91] Creating Layer conv8_2_mbox_conf
I0509 16:57:24.891221 11100 net.cpp:425] conv8_2_mbox_conf <- conv8_2_conv8_2_relu_0_split_2
I0509 16:57:24.891228 11100 net.cpp:399] conv8_2_mbox_conf -> conv8_2_mbox_conf
I0509 16:57:24.895560 11100 net.cpp:141] Setting up conv8_2_mbox_conf
I0509 16:57:24.895583 11100 net.cpp:148] Top shape: 8 126 3 3 (9072)
I0509 16:57:24.895589 11100 net.cpp:156] Memory required for data: 1994479360
I0509 16:57:24.895599 11100 layer_factory.hpp:77] Creating layer conv8_2_mbox_conf_perm
I0509 16:57:24.895609 11100 net.cpp:91] Creating Layer conv8_2_mbox_conf_perm
I0509 16:57:24.895615 11100 net.cpp:425] conv8_2_mbox_conf_perm <- conv8_2_mbox_conf
I0509 16:57:24.895623 11100 net.cpp:399] conv8_2_mbox_conf_perm -> conv8_2_mbox_conf_perm
I0509 16:57:24.895772 11100 net.cpp:141] Setting up conv8_2_mbox_conf_perm
I0509 16:57:24.895784 11100 net.cpp:148] Top shape: 8 3 3 126 (9072)
I0509 16:57:24.895788 11100 net.cpp:156] Memory required for data: 1994515648
I0509 16:57:24.895807 11100 layer_factory.hpp:77] Creating layer conv8_2_mbox_conf_flat
I0509 16:57:24.895823 11100 net.cpp:91] Creating Layer conv8_2_mbox_conf_flat
I0509 16:57:24.895829 11100 net.cpp:425] conv8_2_mbox_conf_flat <- conv8_2_mbox_conf_perm
I0509 16:57:24.895836 11100 net.cpp:399] conv8_2_mbox_conf_flat -> conv8_2_mbox_conf_flat
I0509 16:57:24.895875 11100 net.cpp:141] Setting up conv8_2_mbox_conf_flat
I0509 16:57:24.895886 11100 net.cpp:148] Top shape: 8 1134 (9072)
I0509 16:57:24.895890 11100 net.cpp:156] Memory required for data: 1994551936
I0509 16:57:24.895895 11100 layer_factory.hpp:77] Creating layer conv8_2_mbox_priorbox
I0509 16:57:24.895903 11100 net.cpp:91] Creating Layer conv8_2_mbox_priorbox
I0509 16:57:24.895908 11100 net.cpp:425] conv8_2_mbox_priorbox <- conv8_2_conv8_2_relu_0_split_3
I0509 16:57:24.895915 11100 net.cpp:425] conv8_2_mbox_priorbox <- data_data_0_split_5
I0509 16:57:24.895925 11100 net.cpp:399] conv8_2_mbox_priorbox -> conv8_2_mbox_priorbox
I0509 16:57:24.895963 11100 net.cpp:141] Setting up conv8_2_mbox_priorbox
I0509 16:57:24.895973 11100 net.cpp:148] Top shape: 1 2 216 (432)
I0509 16:57:24.895978 11100 net.cpp:156] Memory required for data: 1994553664
I0509 16:57:24.895982 11100 layer_factory.hpp:77] Creating layer pool6_mbox_loc
I0509 16:57:24.895998 11100 net.cpp:91] Creating Layer pool6_mbox_loc
I0509 16:57:24.896003 11100 net.cpp:425] pool6_mbox_loc <- pool6_pool6_0_split_0
I0509 16:57:24.896013 11100 net.cpp:399] pool6_mbox_loc -> pool6_mbox_loc
I0509 16:57:24.897775 11100 net.cpp:141] Setting up pool6_mbox_loc
I0509 16:57:24.897795 11100 net.cpp:148] Top shape: 8 24 1 1 (192)
I0509 16:57:24.897801 11100 net.cpp:156] Memory required for data: 1994554432
I0509 16:57:24.897827 11100 layer_factory.hpp:77] Creating layer pool6_mbox_loc_perm
I0509 16:57:24.897838 11100 net.cpp:91] Creating Layer pool6_mbox_loc_perm
I0509 16:57:24.897843 11100 net.cpp:425] pool6_mbox_loc_perm <- pool6_mbox_loc
I0509 16:57:24.897855 11100 net.cpp:399] pool6_mbox_loc_perm -> pool6_mbox_loc_perm
I0509 16:57:24.898003 11100 net.cpp:141] Setting up pool6_mbox_loc_perm
I0509 16:57:24.898016 11100 net.cpp:148] Top shape: 8 1 1 24 (192)
I0509 16:57:24.898022 11100 net.cpp:156] Memory required for data: 1994555200
I0509 16:57:24.898027 11100 layer_factory.hpp:77] Creating layer pool6_mbox_loc_flat
I0509 16:57:24.898036 11100 net.cpp:91] Creating Layer pool6_mbox_loc_flat
I0509 16:57:24.898041 11100 net.cpp:425] pool6_mbox_loc_flat <- pool6_mbox_loc_perm
I0509 16:57:24.898047 11100 net.cpp:399] pool6_mbox_loc_flat -> pool6_mbox_loc_flat
I0509 16:57:24.898083 11100 net.cpp:141] Setting up pool6_mbox_loc_flat
I0509 16:57:24.898092 11100 net.cpp:148] Top shape: 8 24 (192)
I0509 16:57:24.898097 11100 net.cpp:156] Memory required for data: 1994555968
I0509 16:57:24.898102 11100 layer_factory.hpp:77] Creating layer pool6_mbox_conf
I0509 16:57:24.898116 11100 net.cpp:91] Creating Layer pool6_mbox_conf
I0509 16:57:24.898121 11100 net.cpp:425] pool6_mbox_conf <- pool6_pool6_0_split_1
I0509 16:57:24.898131 11100 net.cpp:399] pool6_mbox_conf -> pool6_mbox_conf
I0509 16:57:24.902377 11100 net.cpp:141] Setting up pool6_mbox_conf
I0509 16:57:24.902397 11100 net.cpp:148] Top shape: 8 126 1 1 (1008)
I0509 16:57:24.902403 11100 net.cpp:156] Memory required for data: 1994560000
I0509 16:57:24.902412 11100 layer_factory.hpp:77] Creating layer pool6_mbox_conf_perm
I0509 16:57:24.902426 11100 net.cpp:91] Creating Layer pool6_mbox_conf_perm
I0509 16:57:24.902432 11100 net.cpp:425] pool6_mbox_conf_perm <- pool6_mbox_conf
I0509 16:57:24.902442 11100 net.cpp:399] pool6_mbox_conf_perm -> pool6_mbox_conf_perm
I0509 16:57:24.902590 11100 net.cpp:141] Setting up pool6_mbox_conf_perm
I0509 16:57:24.902603 11100 net.cpp:148] Top shape: 8 1 1 126 (1008)
I0509 16:57:24.902608 11100 net.cpp:156] Memory required for data: 1994564032
I0509 16:57:24.902613 11100 layer_factory.hpp:77] Creating layer pool6_mbox_conf_flat
I0509 16:57:24.902621 11100 net.cpp:91] Creating Layer pool6_mbox_conf_flat
I0509 16:57:24.902639 11100 net.cpp:425] pool6_mbox_conf_flat <- pool6_mbox_conf_perm
I0509 16:57:24.902647 11100 net.cpp:399] pool6_mbox_conf_flat -> pool6_mbox_conf_flat
I0509 16:57:24.902688 11100 net.cpp:141] Setting up pool6_mbox_conf_flat
I0509 16:57:24.902698 11100 net.cpp:148] Top shape: 8 126 (1008)
I0509 16:57:24.902703 11100 net.cpp:156] Memory required for data: 1994568064
I0509 16:57:24.902707 11100 layer_factory.hpp:77] Creating layer pool6_mbox_priorbox
I0509 16:57:24.902719 11100 net.cpp:91] Creating Layer pool6_mbox_priorbox
I0509 16:57:24.902724 11100 net.cpp:425] pool6_mbox_priorbox <- pool6_pool6_0_split_2
I0509 16:57:24.902729 11100 net.cpp:425] pool6_mbox_priorbox <- data_data_0_split_6
I0509 16:57:24.902736 11100 net.cpp:399] pool6_mbox_priorbox -> pool6_mbox_priorbox
I0509 16:57:24.902775 11100 net.cpp:141] Setting up pool6_mbox_priorbox
I0509 16:57:24.902784 11100 net.cpp:148] Top shape: 1 2 24 (48)
I0509 16:57:24.902789 11100 net.cpp:156] Memory required for data: 1994568256
I0509 16:57:24.902794 11100 layer_factory.hpp:77] Creating layer mbox_loc
I0509 16:57:24.902804 11100 net.cpp:91] Creating Layer mbox_loc
I0509 16:57:24.902811 11100 net.cpp:425] mbox_loc <- conv4_3_norm_mbox_loc_flat
I0509 16:57:24.902817 11100 net.cpp:425] mbox_loc <- fc7_mbox_loc_flat
I0509 16:57:24.902822 11100 net.cpp:425] mbox_loc <- conv6_2_mbox_loc_flat
I0509 16:57:24.902828 11100 net.cpp:425] mbox_loc <- conv7_2_mbox_loc_flat
I0509 16:57:24.902833 11100 net.cpp:425] mbox_loc <- conv8_2_mbox_loc_flat
I0509 16:57:24.902839 11100 net.cpp:425] mbox_loc <- pool6_mbox_loc_flat
I0509 16:57:24.902851 11100 net.cpp:399] mbox_loc -> mbox_loc
I0509 16:57:24.902907 11100 net.cpp:141] Setting up mbox_loc
I0509 16:57:24.902917 11100 net.cpp:148] Top shape: 8 29232 (233856)
I0509 16:57:24.902921 11100 net.cpp:156] Memory required for data: 1995503680
I0509 16:57:24.902926 11100 layer_factory.hpp:77] Creating layer mbox_conf
I0509 16:57:24.902940 11100 net.cpp:91] Creating Layer mbox_conf
I0509 16:57:24.902946 11100 net.cpp:425] mbox_conf <- conv4_3_norm_mbox_conf_flat
I0509 16:57:24.902953 11100 net.cpp:425] mbox_conf <- fc7_mbox_conf_flat
I0509 16:57:24.902959 11100 net.cpp:425] mbox_conf <- conv6_2_mbox_conf_flat
I0509 16:57:24.902964 11100 net.cpp:425] mbox_conf <- conv7_2_mbox_conf_flat
I0509 16:57:24.902969 11100 net.cpp:425] mbox_conf <- conv8_2_mbox_conf_flat
I0509 16:57:24.902976 11100 net.cpp:425] mbox_conf <- pool6_mbox_conf_flat
I0509 16:57:24.902981 11100 net.cpp:399] mbox_conf -> mbox_conf
I0509 16:57:24.903017 11100 net.cpp:141] Setting up mbox_conf
I0509 16:57:24.903026 11100 net.cpp:148] Top shape: 8 153468 (1227744)
I0509 16:57:24.903030 11100 net.cpp:156] Memory required for data: 2000414656
I0509 16:57:24.903035 11100 layer_factory.hpp:77] Creating layer mbox_priorbox
I0509 16:57:24.903046 11100 net.cpp:91] Creating Layer mbox_priorbox
I0509 16:57:24.903051 11100 net.cpp:425] mbox_priorbox <- conv4_3_norm_mbox_priorbox
I0509 16:57:24.903058 11100 net.cpp:425] mbox_priorbox <- fc7_mbox_priorbox
I0509 16:57:24.903064 11100 net.cpp:425] mbox_priorbox <- conv6_2_mbox_priorbox
I0509 16:57:24.903069 11100 net.cpp:425] mbox_priorbox <- conv7_2_mbox_priorbox
I0509 16:57:24.903074 11100 net.cpp:425] mbox_priorbox <- conv8_2_mbox_priorbox
I0509 16:57:24.903079 11100 net.cpp:425] mbox_priorbox <- pool6_mbox_priorbox
I0509 16:57:24.903085 11100 net.cpp:399] mbox_priorbox -> mbox_priorbox
I0509 16:57:24.903118 11100 net.cpp:141] Setting up mbox_priorbox
I0509 16:57:24.903126 11100 net.cpp:148] Top shape: 1 2 29232 (58464)
I0509 16:57:24.903131 11100 net.cpp:156] Memory required for data: 2000648512
I0509 16:57:24.903134 11100 layer_factory.hpp:77] Creating layer mbox_loss
I0509 16:57:24.903151 11100 net.cpp:91] Creating Layer mbox_loss
I0509 16:57:24.903156 11100 net.cpp:425] mbox_loss <- mbox_loc
I0509 16:57:24.903161 11100 net.cpp:425] mbox_loss <- mbox_conf
I0509 16:57:24.903165 11100 net.cpp:425] mbox_loss <- mbox_priorbox
…
state {
  phase: TEST
}
layer {
  name: "data"
  type: "AnnotatedData"
  top: "data"
  top: "label"
  include {
    phase: TEST
  }
  transform_param {
    mean_value: 104
    mean_value: 117
    mean_value: 123
    resize_param {
      prob: 1
      resize_mode: WARP
      height: 300
      width: 300
      interp_mode: LINEAR
    }
  }
  data_param {
    source: "examples/VOC0712/VOC0712_test_lmdb"
    batch_size: 1
    backend: LMDB
  }
  annotated_data_param {
    batch_sampler {
    }
    label_map_file: "data/VOC0712/labelmap_voc.prototxt"
  }
}
layer {
  name: "conv1_1"
  type: "Convolution"
  bottom: "data"
  top: "conv1_1"
  param {
    lr_mult: 0
    decay_mult: 0
  }
  param {
    lr_mult: 0
    decay_mult: 0
  }
  convolution_param {
    num_output: 64
    pad: 1
    kernel_size: 3
    weight_filler {
      type: "xavier"
    }
    bias_filler {
      type: "constant"
      value: 0
    }
  }
}
layer {
  name: "relu1_1"
  type: "ReLU"
  bottom: "conv1_1"
  top: "conv1_1"
}
layer {
  name: "conv1_2"
  type: "Convolution"
  bottom: "conv1_1"
  top: "conv1_2"
  param {
    lr_mult: 0
    decay_mult: 0
  }
  param {
    lr_mult: 0
    decay_mult: 0
  }
  convolution_param {
    num_output: 64
    pad: 1
    kernel_size: 3
    weight_filler {
      type: "xavier"
    }
    bias_filler {
      type: "constant"
      value: 0
    }
  }
}
layer {
  name: "relu1_2"
  type: "ReLU"
  bottom: "conv1_2"
  top: "conv1_2"
}
layer {
  name: "pool1"
  type: "Pooling"
  bottom: "conv1_2"
  top: "pool1"
  pooling_param {
    pool: MAX
    kernel_size: 2
    stride: 2
  }
}
layer {
  name: "conv2_1"
  type: "Convolution"
  bottom: "pool1"
  top: "conv2_1"
  param {
    lr_mult: 0
    decay_mult: 0
  }
  param {
    lr_mult: 0
    decay_mult: 0
  }
  convolution_param {
    num_output: 128
    pad: 1
    kernel_size: 3
    weight_filler {
      type: "xavier"
    }
    bias_filler {
      type: "constant"
      value: 0
    }
  }
}
layer {
  name: "relu2_1"
  type: "ReLU"
  bottom: "conv2_1"
  top: "conv2_1"
}
layer {
  name: "conv2_2"
  type: "Convolution"
  bottom: "conv2_1"
  top: "conv2_2"
  param {
    lr_mult: 0
    decay_mult: 0
  }
  param {
    lr_mult: 0
    decay_mult: 0
  }
  convolution_param {
    num_output: 128
    pad: 1
    kernel_size: 3
    weight_filler {
      type: "xavier"
    }
    bias_filler {
      type: "constant"
      value: 0
    }
  }
}
layer {
  name: "relu2_2"
  type: "ReLU"
  bottom: "conv2_2"
  top: "conv2_2"
}
layer {
  name: "pool2"
  type: "Pooling"
  bottom: "conv2_2"
  top: "pool2"
  pooling_param {
    pool: MAX
    kernel_size: 2
    stride: 2
  }
}
layer {
  name: "conv3_1"
  type: "Convolution"
  bottom: "pool2"
  top: "conv3_1"
  param {
    lr_mult: 1
    decay_mult: 1
  }
  param {
    lr_mult: 2
    decay_mult: 0
  }
  convolution_param {
    num_output: 256
    pad: 1
    kernel_size: 3
    weight_filler {
      type: "xavier"
    }
    bias_filler {
      type: "constant"
      value: 0
    }
  }
}
layer {
  name: "relu3_1"
  type: "ReLU"
  bottom: "conv3_1"
  top: "conv3_1"
}
layer {
  name: "conv3_2"
  type: "Convolution"
  bottom: "conv3_1"
  top: "conv3_2"
  param {
    lr_mult: 1
    decay_mult: 1
  }
  param {
    lr_mult: 2
    decay_mult: 0
  }
  convolution_param {
    num_output: 256
    pad: 1
    kernel_size: 3
    weight_filler {
      type: "xavier"
    }
    bias_filler {
      type: "constant"
      value: 0
    }
  }
}
layer {
  name: "relu3_2"
  type: "ReLU"
  bottom: "conv3_2"
  top: "conv3_2"
}
layer {
  name: "conv3_3"
  type: "Convolution"
  bottom: "conv3_2"
  top: "conv3_3"
  param {
    lr_mult: 1
    decay_mult: 1
  }
  param {
    lr_mult: 2
    decay_mult: 0
  }
  convolution_param {
    num_output: 256
    pad: 1
    kernel_size: 3
    weight_filler {
      type: "xavier"
    }
    bias_filler {
      type: "constant"
      value: 0
    }
  }
}
layer {
  name: "relu3_3"
  type: "ReLU"
  bottom: "conv3_3"
  top: "conv3_3"
}
layer {
  name: "pool3"
  type: "Pooling"
  bottom: "conv3_3"
  top: "pool3"
  pooling_param {
    pool: MAX
    kernel_size: 2
    stride: 2
  }
}
layer {
  name: "conv4_1"
  type: "Convolution"
  bottom: "pool3"
  top: "conv4_1"
  param {
    lr_mult: 1
    decay_mult: 1
  }
  param {
    lr_mult: 2
    decay_mult: 0
  }
  convolution_param {
    num_output: 512
    pad: 1
    kernel_size: 3
    weight_filler {
      type: "xavier"
    }
    bias_filler {
      type: "constant"
      value: 0
    }
  }
}
layer {
  name: "relu4_1"
  type: "ReLU"
  bottom: "conv4_1"
  top: "conv4_1"
}
layer {
  name: "conv4_2"
  type: "Convolution"
  bottom: "conv4_1"
  top: "conv4_2"
  param {
    lr_mult: 1
    decay_mult: 1
  }
  param {
    lr_mult: 2
    decay_mult: 0
  }
  convolution_param {
    num_output: 512
    pad: 1
    kernel_size: 3
    weight_filler {
      type: "xavier"
    }
    bias_filler {
      type: "constant"
      value: 0
    }
  }
}
layer {
  name: "relu4_2"
  type: "ReLU"
  bottom: "conv4_2"
  top: "conv4_2"
}
layer {
  name: "conv4_3"
  type: "Convolution"
  bottom: "conv4_2"
  top: "conv4_3"
  param {
    lr_mult: 1
    decay_mult: 1
  }
  param {
    lr_mult: 2
    decay_mult: 0
  }
  convolution_param {
    num_output: 512
    pad: 1
    kernel_size: 3
    weight_filler {
      type: "xavier"
    }
    bias_filler {
      type: "constant"
      value: 0
    }
  }
}
layer {
  name: "relu4_3"
  type: "ReLU"
  bottom: "conv4_3"
  top: "conv4_3"
}
layer {
  name: "pool4"
  type: "Pooling"
  bottom: "conv4_3"
  top: "pool4"
  pooling_param {
    pool: MAX
    kernel_size: 2
    stride: 2
  }
}
layer {
  name: "conv5_1"
  type: "Convolution"
  bottom: "pool4"
  top: "conv5_1"
  param {
    lr_mult: 1
    decay_mult: 1
  }
  param {
    lr_mult: 2
    decay_mult: 0
  }
  convolution_param {
    num_output: 512
    pad: 1
    kernel_size: 3
    weight_filler {
      type: "xavier"
    }
    bias_filler {
      type: "constant"
      value: 0
    }
  }
}
layer {
  name: "relu5_1"
  type: "ReLU"
  bottom: "conv5_1"
  top: "conv5_1"
}
layer {
  name: "conv5_2"
  type: "Convolution"
  bottom: "conv5_1"
  top: "conv5_2"
  param {
    lr_mult: 1
    decay_mult: 1
  }
  param {
    lr_mult: 2
    decay_mult: 0
  }
  convolution_param {
    num_output: 512
    pad: 1
    kernel_size: 3
    weight_filler {
      type: "xavier"
    }
    bias_filler {
      type: "constant"
      value: 0
    }
  }
}
layer {
  name: "relu5_2"
  type: "ReLU"
  bottom: "conv5_2"
  top: "conv5_2"
}
layer {
  name: "conv5_3"
  type: "Convolution"
  bottom: "conv5_2"
  top: "conv5_3"
  param {
    lr_mult: 1
    decay_mult: 1
  }
  param {
    lr_mult: 2
    decay_mult: 0
  }
  convolution_param {
    num_output: 512
    pad: 1
    kernel_size: 3
    weight_filler {
      type: "xavier"
    }
    bias_filler {
      type: "constant"
      value: 0
    }
  }
}
layer {
  name: "relu5_3"
  type: "ReLU"
  bottom: "conv5_3"
  top: "conv5_3"
}
layer {
  name: "pool5"
  type: "Pooling"
  bottom: "conv5_3"
  top: "pool5"
  pooling_param {
    pool: MAX
    kernel_size: 3
    stride: 1
    pad: 1
  }
}
layer {
  name: "fc6"
  type: "Convolution"
  bottom: "pool5"
  top: "fc6"
  param {
    lr_mult: 1
    decay_mult: 1
  }
  param {
    lr_mult: 2
    decay_mult: 0
  }
  convolution_param {
    num_output: 1024
    pad: 6
    kernel_size: 3
    weight_filler {
      type: "xavier"
    }
    bias_filler {
      type: "constant"
      value: 0
    }
    dilation: 6
  }
}
layer {
  name: "relu6"
  type: "ReLU"
  bottom: "fc6"
  top: "fc6"
}
layer {
  name: "fc7"
  type: "Convolution"
  bottom: "fc6"
  top: "fc7"
  param {
    lr_mult: 1
    decay_mult: 1
  }
  param {
    lr_mult: 2
    decay_mult: 0
  }
  convolution_param {
    num_output: 1024
    kernel_size: 1
    weight_filler {
      type: "xavier"
    }
    bias_filler {
      type: "constant"
      value: 0
    }
  }
}
layer {
  name: "relu7"
  type: "ReLU"
  bottom: "fc7"
  top: "fc7"
}
layer {
  name: "conv6_1"
  type: "Convolution"
  bottom: "fc7"
  top: "conv6_1"
  param {
    lr_mult: 1
    decay_mult: 1
  }
  param {
    lr_mult: 2
    decay_mult: 0
  }
  convolution_param {
    num_output: 256
    pad: 0
    kernel_size: 1
    stride: 1
    weight_filler {
      type: "xavier"
    }
    bias_filler {
      type: "constant"
      value: 0
    }
  }
}
layer {
  name: "conv6_1_relu"
  type: "ReLU"
  bottom: "conv6_1"
  top: "conv6_1"
}
layer {
  name: "conv6_2"
  type: "Convolution"
  bottom: "conv6_1"
  top: "conv6_2"
  param {
    lr_mult: 1
    decay_mult: 1
  }
  param {
    lr_mult: 2
    decay_mult: 0
  }
  convolution_param {
    num_output: 512
    pad: 1
    kernel_size: 3
    stride: 2
    weight_filler {
      type: "xavier"
    }
    bias_filler {
      type: "constant"
      value: 0
    }
  }
}
layer {
  name: "conv6_2_relu"
  type: "ReLU"
  bottom: "conv6_2"
  top: "conv6_2"
}
layer {
  name: "conv7_1"
  type: "Convolution"
  bottom: "conv6_2"
  top: "conv7_1"
  param {
    lr_mult: 1
    decay_mult: 1
  }
  param {
    lr_mult: 2
    decay_mult: 0
  }
  convolution_param {
    num_output: 128
    pad: 0
    kernel_size: 1
    stride: 1
    weight_filler {
      type: "xavier"
    }
    bias_filler {
      type: "constant"
      value: 0
    }
  }
}
layer {
  name: "conv7_1_relu"
  type: "ReLU"
  bottom: "conv7_1"
  top: "conv7_1"
}
layer {
  name: "conv7_2"
  type: "Convolution"
  bottom: "conv7_1"
  top: "conv7_2"
  param {
    lr_mult: 1
    decay_mult: 1
  }
  param {
    lr_mult: 2
    decay_mult: 0
  }
  convolution_param {
    num_output: 256
    pad: 1
    kernel_size: 3
    stride: 2
    weight_filler {
      type: "xavier"
    }
    bias_filler {
      type: "constant"
      value: 0
    }
  }
}
layer {
  name: "conv7_2_relu"
  type: "ReLU"
  bottom: "conv7_2"
  top: "conv7_2"
}
layer {
  name: "conv8_1"
  type: "Convolution"
  bottom: "conv7_2"
  top: "conv8_1"
  param {
    lr_mult: 1
    decay_mult: 1
  }
  param {
    lr_mult: 2
    decay_mult: 0
  }
  convolution_param {
    num_output: 128
    pad: 0
    kernel_size: 1
    stride: 1
    weight_filler {
      type: "xavier"
    }
    bias_filler {
      type: "constant"
      value: 0
    }
  }
}
layer {
  name: "conv8_1_relu"
  type: "ReLU"
  bottom: "conv8_1"
  top: "conv8_1"
}
layer {
  name: "conv8_2"
  type: "Convolution"
  bottom: "conv8_1"
  top: "conv8_2"
  param {
    lr_mult: 1
    decay_mult: 1
  }
  param {
    lr_mult: 2
    decay_mult: 0
  }
  convolution_param {
    num_output: 256
    pad: 1
    kernel_size: 3
    stride: 2
    weight_filler {
      type: "xavier"
    }
    bias_filler {
      type: "constant"
      value: 0
    }
  }
}
layer {
  name: "conv8_2_relu"
  type: "ReLU"
  bottom: "conv8_2"
  top: "conv8_2"
}
layer {
  name: "pool6"
  type: "Pooling"
  bottom: "conv8_2"
  top: "pool6"
  pooling_param {
    pool: AVE
    global_pooling: true
  }
}
layer {
  name: "conv4_3_norm"
  type: "Normalize"
  bottom: "conv4_3"
  top: "conv4_3_norm"
  norm_param {
    across_spatial: false
    scale_filler {
      type: "constant"
      value: 20
    }
    channel_shared: false
  }
}
layer {
  name: "conv4_3_norm_mbox_loc"
  type: "Convolution"
  bottom: "conv4_3_norm"
  top: "conv4_3_norm_mbox_loc"
  param {
    lr_mult: 1
    decay_mult: 1
  }
  param {
    lr_mult: 2
    decay_mult: 0
  }
  convolution_param {
    num_output: 12
    pad: 1
    kernel_size: 3
    stride: 1
    weight_filler {
      type: "xavier"
    }
    bias_filler {
      type: "constant"
      value: 0
    }
  }
}
layer {
  name: "conv4_3_norm_mbox_loc_perm"
  type: "Permute"
  bottom: "conv4_3_norm_mbox_loc"
  top: "conv4_3_norm_mbox_loc_perm"
  permute_param {
    order: 0
    order: 2
    order: 3
    order: 1
  }
}
layer {
  name: "conv4_3_norm_mbox_loc_flat"
  type: "Flatten"
  bottom: "conv4_3_norm_mbox_loc_perm"
  top: "conv4_3_norm_mbox_loc_flat"
  flatten_param {
    axis: 1
  }
}
layer {
  name: "conv4_3_norm_mbox_conf"
  type: "Convolution"
  bottom: "conv4_3_norm"
  top: "conv4_3_norm_mbox_conf"
  param {
    lr_mult: 1
    decay_mult: 1
  }
  param {
    lr_mult: 2
    decay_mult: 0
  }
  convolution_param {
    num_output: 63
    pad: 1
    kernel_size: 3
    stride: 1
    weight_filler {
      type: "xavier"
    }
    bias_filler {
      type: "constant"
      value: 0
    }
  }
}
layer {
  name: "conv4_3_norm_mbox_conf_perm"
  type: "Permute"
  bottom: "conv4_3_norm_mbox_conf"
  top: "conv4_3_norm_mbox_conf_perm"
  permute_param {
    order: 0
    order: 2
    order: 3
    order: 1
  }
}
layer {
  name: "conv4_3_norm_mbox_conf_flat"
  type: "Flatten"
  bottom: "conv4_3_norm_mbox_conf_perm"
  top: "conv4_3_norm_mbox_conf_flat"
  flatten_param {
    axis: 1
  }
}
layer {
  name: "conv4_3_norm_mbox_priorbox"
  type: "PriorBox"
  bottom: "conv4_3_norm"
  bottom: "data"
  top: "conv4_3_norm_mbox_priorbox"
  prior_box_param {
    min_size: 30
    aspect_ratio: 2
    flip: true
    clip: true
    variance: 0.1
    variance: 0.1
    variance: 0.2
    variance: 0.2
  }
}
layer {
  name: "fc7_mbox_loc"
  type: "Convolution"
  bottom: "fc7"
  top: "fc7_mbox_loc"
  param {
    lr_mult: 1
    decay_mult: 1
  }
  param {
    lr_mult: 2
    decay_mult: 0
  }
  convolution_param {
    num_output: 24
    pad: 1
    kernel_size: 3
    stride: 1
    weight_filler {
      type: "xavier"
    }
    bias_filler {
      type: "constant"
      value: 0
    }
  }
}
layer {
  name: "fc7_mbox_loc_perm"
  type: "Permute"
  bottom: "fc7_mbox_loc"
  top: "fc7_mbox_loc_perm"
  permute_param {
    order: 0
    order: 2
    order: 3
    order: 1
  }
}
layer {
  name: "fc7_mbox_loc_flat"
  type: "Flatten"
  bottom: "fc7_mbox_loc_perm"
  top: "fc7_mbox_loc_flat"
  flatten_param {
    axis: 1
  }
}
layer {
  name: "fc7_mbox_conf"
  type: "Convolution"
  bottom: "fc7"
  top: "fc7_mbox_conf"
  param {
    lr_mult: 1
    decay_mult: 1
  }
  param {
    lr_mult: 2
    decay_mult: 0
  }
  convolution_param {
    num_output: 126
    pad: 1
    kernel_size: 3
    stride: 1
    weight_filler {
      type: "xavier"
    }
    bias_filler {
      type: "constant"
      value: 0
    }
  }
}
layer {
  name: "fc7_mbox_conf_perm"
  type: "Permute"
  bottom: "fc7_mbox_conf"
  top: "fc7_mbox_conf_perm"
  permute_param {
    order: 0
    order: 2
    order: 3
    order: 1
  }
}
layer {
  name: "fc7_mbox_conf_flat"
  type: "Flatten"
  bottom: "fc7_mbox_conf_perm"
  top: "fc7_mbox_conf_flat"
  flatten_param {
    axis: 1
  }
}
layer {
  name: "fc7_mbox_priorbox"
  type: "PriorBox"
  bottom: "fc7"
  bottom: "data"
  top: "fc7_mbox_priorbox"
  prior_box_param {
    min_size: 60
    max_size: 114
    aspect_ratio: 2
    aspect_ratio: 3
    flip: true
    clip: true
    variance: 0.1
    variance: 0.1
    variance: 0.2
    variance: 0.2
  }
}
layer {
  name: "conv6_2_mbox_loc"
  type: "Convolution"
  bottom: "conv6_2"
  top: "conv6_2_mbox_loc"
  param {
    lr_mult: 1
    decay_mult: 1
  }
  param {
    lr_mult: 2
    decay_mult: 0
  }
  convolution_param {
    num_output: 24
    pad: 1
    kernel_size: 3
    stride: 1
    weight_filler {
      type: "xavier"
    }
    bias_filler {
      type: "constant"
      value: 0
    }
  }
}
layer {
  name: "conv6_2_mbox_loc_perm"
  type: "Permute"
  bottom: "conv6_2_mbox_loc"
  top: "conv6_2_mbox_loc_perm"
  permute_param {
    order: 0
    order: 2
    order: 3
    order: 1
  }
}
layer {
  name: "conv6_2_mbox_loc_flat"
  type: "Flatten"
  bottom: "conv6_2_mbox_loc_perm"
  top: "conv6_2_mbox_loc_flat"
  flatten_param {
    axis: 1
  }
}
layer {
  name: "conv6_2_mbox_conf"
  type: "Convolution"
  bottom: "conv6_2"
  top: "conv6_2_mbox_conf"
  param {
    lr_mult: 1
    decay_mult: 1
  }
  param {
    lr_mult: 2
    decay_mult: 0
  }
  convolution_param {
    num_output: 126
    pad: 1
    kernel_size: 3
    stride: 1
    weight_filler {
      type: "xavier"
    }
    bias_filler {
      type: "constant"
      value: 0
    }
  }
}
layer {
  name: "conv6_2_mbox_conf_perm"
  type: "Permute"
  bottom: "conv6_2_mbox_conf"
  top: "conv6_2_mbox_conf_perm"
  permute_param {
    order: 0
    order: 2
    order: 3
    order: 1
  }
}
layer {
  name: "conv6_2_mbox_conf_flat"
  type: "Flatten"
  bottom: "conv6_2_mbox_conf_perm"
  top: "conv6_2_mbox_conf_flat"
  flatten_param {
    axis: 1
  }
}
layer {
  name: "conv6_2_mbox_priorbox"
  type: "PriorBox"
  bottom: "conv6_2"
  bottom: "data"
  top: "conv6_2_mbox_priorbox"
  prior_box_param {
    min_size: 114
    max_size: 168
    aspect_ratio: 2
    aspect_ratio: 3
    flip: true
    clip: true
    variance: 0.1
    variance: 0.1
    variance: 0.2
    variance: 0.2
  }
}
layer {
  name: "conv7_2_mbox_loc"
  type: "Convolution"
  bottom: "conv7_2"
  top: "conv7_2_mbox_loc"
  param {
    lr_mult: 1
    decay_mult: 1
  }
  param {
    lr_mult: 2
    decay_mult: 0
  }
  convolution_param {
    num_output: 24
    pad: 1
    kernel_size: 3
    stride: 1
    weight_filler {
      type: "xavier"
    }
    bias_filler {
      type: "constant"
      value: 0
    }
  }
}
layer {
  name: "conv7_2_mbox_loc_perm"
  type: "Permute"
  bottom: "conv7_2_mbox_loc"
  top: "conv7_2_mbox_loc_perm"
  permute_param {
    order: 0
    order: 2
    order: 3
    order: 1
  }
}
layer {
  name: "conv7_2_mbox_loc_flat"
  type: "Flatten"
  bottom: "conv7_2_mbox_loc_perm"
  top: "conv7_2_mbox_loc_flat"
  flatten_param {
    axis: 1
  }
}
layer {
  name: "conv7_2_mbox_conf"
  type: "Convolution"
  bottom: "conv7_2"
  top: "conv7_2_mbox_conf"
  param {
    lr_mult: 1
    decay_mult: 1
  }
  param {
    lr_mult: 2
    decay_mult: 0
  }
  convolution_param {
    num_output: 126
    pad: 1
    kernel_size: 3
    stride: 1
    weight_filler {
      type: "xavier"
    }
    bias_filler {
      type: "constant"
      value: 0
    }
  }
}
layer {
  name: "conv7_2_mbox_conf_perm"
  type: "Permute"
  bottom: "conv7_2_mbox_conf"
  top: "conv7_2_mbox_conf_perm"
  permute_param {
    order: 0
    order: 2
    order: 3
    order: 1
  }
}
layer {
  name: "conv7_2_mbox_conf_flat"
  type: "Flatten"
  bottom: "conv7_2_mbox_conf_perm"
  top: "conv7_2_mbox_conf_flat"
  flatten_param {
    axis: 1
  }
}
layer {
  name: "conv7_2_mbox_priorbox"
  type: "PriorBox"
  bottom: "conv7_2"
  bottom: "data"
  top: "conv7_2_mbox_priorbox"
  prior_box_param {
    min_size: 168
    max_size: 222
    aspect_ratio: 2
    aspect_ratio: 3
    flip: true
    clip: true
    variance: 0.1
    variance: 0.1
    variance: 0.2
    variance: 0.2
  }
}
layer {
  name: "conv8_2_mbox_loc"
  type: "Convolution"
  bottom: "conv8_2"
  top: "conv8_2_mbox_loc"
  param {
    lr_mult: 1
    decay_mult: 1
  }
  param {
    lr_mult: 2
    decay_mult: 0
  }
  convolution_param {
    num_output: 24
    pad: 1
    kernel_size: 3
    stride: 1
    weight_filler {
      type: "xavier"
    }
    bias_filler {
      type: "constant"
      value: 0
    }
  }
}
layer {
  name: "conv8_2_mbox_loc_perm"
  type: "Permute"
  bottom: "conv8_2_mbox_loc"
  top: "conv8_2_mbox_loc_perm"
  permute_param {
    order: 0
    order: 2
    order: 3
    order: 1
  }
}
layer {
  name: "conv8_2_mbox_loc_flat"
  type: "Flatten"
  bottom: "conv8_2_mbox_loc_perm"
  top: "conv8_2_mbox_loc_flat"
  flatten_param {
    axis: 1
  }
}
layer {
  name: "conv8_2_mbox_conf"
  type: "Convolution"
  bottom: "conv8_2"
  top: "conv8_2_mbox_conf"
  param {
    lr_mult: 1
    decay_mult: 1
  }
  param {
    lr_mult: 2
    decay_mult: 0
  }
  convolution_param {
    num_output: 126
    pad: 1
    kernel_size: 3
    stride: 1
    weight_filler {
      type: "xavier"
    }
    bias_filler {
      type: "constant"
      value: 0
    }
  }
}
layer {
  name: "conv8_2_mbox_conf_perm"
  type: "Permute"
  bottom: "conv8_2_mbox_conf"
  top: "conv8_2_mbox_conf_perm"
  permute_param {
    order: 0
    order: 2
    order: 3
    order: 1
  }
}
layer {
  name: "conv8_2_mbox_conf_flat"
  type: "Flatten"
  bottom: "conv8_2_mbox_conf_perm"
  top: "conv8_2_mbox_conf_flat"
  flatten_param {
    axis: 1
  }
}
layer {
  name: "conv8_2_mbox_priorbox"
  type: "PriorBox"
  bottom: "conv8_2"
  bottom: "data"
  top: "conv8_2_mbox_priorbox"
  prior_box_param {
    min_size: 222
    max_size: 276
    aspect_ratio: 2
    aspect_ratio: 3
    flip: true
    clip: true
    variance: 0.1
    variance: 0.1
    variance: 0.2
    variance: 0.2
  }
}
layer {
  name: "pool6_mbox_loc"
  type: "Convolution"
  bottom: "pool6"
  top: "pool6_mbox_loc"
  param {
    lr_mult: 1
    decay_mult: 1
  }
  param {
    lr_mult: 2
    decay_mult: 0
  }
  convolution_param {
    num_output: 24
    pad: 1
    kernel_size: 3
    stride: 1
    weight_filler {
      type: "xavier"
    }
    bias_filler {
      type: "constant"
      value: 0
    }
  }
}
layer {
  name: "pool6_mbox_loc_perm"
  type: "Permute"
  bottom: "pool6_mbox_loc"
  top: "pool6_mbox_loc_perm"
  permute_param {
    order: 0
    order: 2
    order: 3
    order: 1
  }
}
layer {
  name: "pool6_mbox_loc_flat"
  type: "Flatten"
  bottom: "pool6_mbox_loc_perm"
  top: "pool6_mbox_loc_flat"
  flatten_param {
    axis: 1
  }
}
layer {
  name: "pool6_mbox_conf"
  type: "Convolution"
  bottom: "pool6"
  top: "pool6_mbox_conf"
  param {
    lr_mult: 1
    decay_mult: 1
  }
  param {
    lr_mult: 2
    decay_mult: 0
  }
  convolution_param {
    num_output: 126
    pad: 1
    kernel_size: 3
    stride: 1
    weight_filler {
      type: "xavier"
    }
    bias_filler {
      type: "constant"
      value: 0
    }
  }
}
layer {
  name: "pool6_mbox_conf_perm"
  type: "Permute"
  bottom: "pool6_mbox_conf"
  top: "pool6_mbox_conf_perm"
  permute_param {
    order: 0
    order: 2
    order: 3
    order: 1
  }
}
layer {
  name: "pool6_mbox_conf_flat"
  type: "Flatten"
  bottom: "pool6_mbox_conf_perm"
  top: "pool6_mbox_conf_flat"
  flatten_param {
    axis: 1
  }
}
layer {
  name: "pool6_mbox_priorbox"
  type: "PriorBox"
  bottom: "pool6"
  bottom: "data"
  top: "pool6_mbox_priorbox"
  prior_box_param {
    min_size: 276
    max_size: 330
    aspect_ratio: 2
    aspect_ratio: 3
    flip: true
    clip: true
    variance: 0.1
    variance: 0.1
    variance: 0.2
    variance: 0.2
  }
}
layer {
  name: "mbox_loc"
  type: "Concat"
  bottom: "conv4_3_norm_mbox_loc_flat"
  bottom: "fc7_mbox_loc_flat"
  bottom: "conv6_2_mbox_loc_flat"
  bottom: "conv7_2_mbox_loc_flat"
  bottom: "conv8_2_mbox_loc_flat"
  bottom: "pool6_mbox_loc_flat"
  top: "mbox_loc"
  concat_param {
    axis: 1
  }
}
layer {
  name: "mbox_conf"
  type: "Concat"
  bottom: "conv4_3_norm_mbox_conf_flat"
  bottom: "fc7_mbox_conf_flat"
  bottom: "conv6_2_mbox_conf_flat"
  bottom: "conv7_2_mbox_conf_flat"
  bottom: "conv8_2_mbox_conf_flat"
  bottom: "pool6_mbox_conf_flat"
  top: "mbox_conf"
  concat_param {
    axis: 1
  }
}
layer {
  name: "mbox_priorbox"
  type: "Concat"
  bottom: "conv4_3_norm_mbox_priorbox"
  bottom: "fc7_mbox_priorbox"
  bottom: "conv6_2_mbox_priorbox"
  bottom: "conv7_2_mbox_priorbox"
  bottom: "conv8_2_mbox_priorbox"
  bottom: "pool6_mbox_priorbox"
  top: "mbox_priorbox"
  concat_param {
    axis: 2
  }
}
layer {
  name: "mbox_conf_reshape"
  type: "Reshape"
  bottom: "mbox_conf"
  top: "mbox_conf_reshape"
  reshape_param {
    shape {
      dim: 0
      dim: -1
      dim: 21
    }
  }
}
layer {
  name: "mbox_conf_softmax"
  type: "Softmax"
  bottom: "mbox_conf_reshape"
  top: "mbox_conf_softmax"
  softmax_param {
    axis: 2
  }
}
layer {
  name: "mbox_conf_flatten"
  type: "Flatten"
  bottom: "mbox_conf_softmax"
  top: "mbox_conf_flatten"
  flatten_param {
    axis: 1
  }
}
layer {
  name: "detection_out"
  type: "DetectionOutput"
  bottom: "mbox_loc"
  bottom: "mbox_conf_flatten"
  bottom: "mbox_priorbox"
  top: "detection_out"
  include {
    phase: TEST
  }
  detection_output_param {
    num_classes: 21
    share_location: true
    background_label_id: 0
    nms_param {
      nms_threshold: 0.45
      top_k: 400
    }
    save_output_param {
      output_directory: "/home/zdb/data/VOCdevkit/results/VOC2007/SSD_300x300/Main"
      output_name_prefix: "comp4_det_test_"
      output_format: "VOC"
      label_map_file: "data/VOC0712/labelmap_voc.prototxt"
      name_size_file: "data/VOC0712/test_name_size.txt"
      num_test_image: 4952
    }
    code_type: CENTER_SIZE
    keep_top_k: 200
    confidence_threshold: 0.01
  }
}
layer {
  name: "detection_eval"
  type: "DetectionEvaluate"
  bottom: "detection_out"
  bottom: "label"
  top: "detection_eval"
  include {
    phase: TEST
  }
  detection_evaluate_param {
    num_classes: 21
    background_label_id: 0
    overlap_threshold: 0.5
    evaluate_difficult_gt: false
    name_size_file: "data/VOC0712/test_name_size.txt"
  }
}
I0509 16:57:24.909404 11100 layer_factory.hpp:77] Creating layer data
I0509 16:57:24.909485 11100 net.cpp:91] Creating Layer data
I0509 16:57:24.909498 11100 net.cpp:399] data -> data
I0509 16:57:24.909512 11100 net.cpp:399] data -> label
I0509 16:57:24.911356 11110 db_lmdb.cpp:35] Opened lmdb examples/VOC0712/VOC0712_test_lmdb
I0509 16:57:24.914724 11100 annotated_data_layer.cpp:52] output data size: 1,3,300,300
I0509 16:57:24.918086 11100 net.cpp:141] Setting up data
I0509 16:57:24.918107 11100 net.cpp:148] Top shape: 1 3 300 300 (270000)
I0509 16:57:24.918114 11100 net.cpp:148] Top shape: 1 1 2 8 (16)
I0509 16:57:24.918118 11100 net.cpp:156] Memory required for data: 1080064
I0509 16:57:24.918124 11100 layer_factory.hpp:77] Creating layer data_data_0_split
I0509 16:57:24.918134 11100 net.cpp:91] Creating Layer data_data_0_split
I0509 16:57:24.918139 11100 net.cpp:425] data_data_0_split <- data
I0509 16:57:24.918146 11100 net.cpp:399] data_data_0_split -> data_data_0_split_0
I0509 16:57:24.918159 11100 net.cpp:399] data_data_0_split -> data_data_0_split_1
I0509 16:57:24.918167 11100 net.cpp:399] data_data_0_split -> data_data_0_split_2
I0509 16:57:24.918176 11100 net.cpp:399] data_data_0_split -> data_data_0_split_3
I0509 16:57:24.918187 11100 net.cpp:399] data_data_0_split -> data_data_0_split_4
I0509 16:57:24.918195 11100 net.cpp:399] data_data_0_split -> data_data_0_split_5
I0509 16:57:24.918201 11100 net.cpp:399] data_data_0_split -> data_data_0_split_6
I0509 16:57:24.918457 11100 net.cpp:141] Setting up data_data_0_split
I0509 16:57:24.918472 11100 net.cpp:148] Top shape: 1 3 300 300 (270000)
I0509 16:57:24.918478 11100 net.cpp:148] Top shape: 1 3 300 300 (270000)
I0509 16:57:24.918483 11100 net.cpp:148] Top shape: 1 3 300 300 (270000)
I0509 16:57:24.918488 11100 net.cpp:148] Top shape: 1 3 300 300 (270000)
I0509 16:57:24.918493 11100 net.cpp:148] Top shape: 1 3 300 300 (270000)
I0509 16:57:24.918498 11100 net.cpp:148] Top shape: 1 3 300 300 (270000)
I0509 16:57:24.918503 11100 net.cpp:148] Top shape: 1 3 300 300 (270000)
I0509 16:57:24.918509 11100 net.cpp:156] Memory required for data: 8640064
I0509 16:57:24.918514 11100 layer_factory.hpp:77] Creating layer conv1_1
I0509 16:57:24.918527 11100 net.cpp:91] Creating Layer conv1_1
I0509 16:57:24.918532 11100 net.cpp:425] conv1_1 <- data_data_0_split_0
I0509 16:57:24.918540 11100 net.cpp:399] conv1_1 -> conv1_1
I0509 16:57:24.921260 11100 net.cpp:141] Setting up conv1_1
I0509 16:57:24.921298 11100 net.cpp:148] Top shape: 1 64 300 300 (5760000)
I0509 16:57:24.921304 11100 net.cpp:156] Memory required for data: 31680064
I0509 16:57:24.921319 11100 layer_factory.hpp:77] Creating layer relu1_1
I0509 16:57:24.921327 11100 net.cpp:91] Creating Layer relu1_1
I0509 16:57:24.921334 11100 net.cpp:425] relu1_1 <- conv1_1
I0509 16:57:24.921339 11100 net.cpp:386] relu1_1 -> conv1_1 (in-place)
I0509 16:57:24.921710 11100 net.cpp:141] Setting up relu1_1
I0509 16:57:24.921728 11100 net.cpp:148] Top shape: 1 64 300 300 (5760000)
I0509 16:57:24.921733 11100 net.cpp:156] Memory required for data: 54720064
I0509 16:57:24.921738 11100 layer_factory.hpp:77] Creating layer conv1_2
I0509 16:57:24.921751 11100 net.cpp:91] Creating Layer conv1_2
I0509 16:57:24.921756 11100 net.cpp:425] conv1_2 <- conv1_1
I0509 16:57:24.921764 11100 net.cpp:399] conv1_2 -> conv1_2
I0509 16:57:24.923336 11100 net.cpp:141] Setting up conv1_2
I0509 16:57:24.923354 11100 net.cpp:148] Top shape: 1 64 300 300 (5760000)
I0509 16:57:24.923359 11100 net.cpp:156] Memory required for data: 77760064
I0509 16:57:24.923372 11100 layer_factory.hpp:77] Creating layer relu1_2
I0509 16:57:24.923382 11100 net.cpp:91] Creating Layer relu1_2
I0509 16:57:24.923388 11100 net.cpp:425] relu1_2 <- conv1_2
I0509 16:57:24.923394 11100 net.cpp:386] relu1_2 -> conv1_2 (in-place)
I0509 16:57:24.923737 11100 net.cpp:141] Setting up relu1_2
I0509 16:57:24.923754 11100 net.cpp:148] Top shape: 1 64 300 300 (5760000)
I0509 16:57:24.923759 11100 net.cpp:156] Memory required for data: 100800064
I0509 16:57:24.923764 11100 layer_factory.hpp:77] Creating layer pool1
I0509 16:57:24.923774 11100 net.cpp:91] Creating Layer pool1
I0509 16:57:24.923780 11100 net.cpp:425] pool1 <- conv1_2
I0509 16:57:24.923787 11100 net.cpp:399] pool1 -> pool1
I0509 16:57:24.923854 11100 net.cpp:141] Setting up pool1
I0509 16:57:24.923871 11100 net.cpp:148] Top shape: 1 64 150 150 (1440000)
I0509 16:57:24.923874 11100 net.cpp:156] Memory required for data: 106560064
I0509 16:57:24.923878 11100 layer_factory.hpp:77] Creating layer conv2_1
I0509 16:57:24.923890 11100 net.cpp:91] Creating Layer conv2_1
I0509 16:57:24.923895 11100 net.cpp:425] conv2_1 <- pool1
I0509 16:57:24.923903 11100 net.cpp:399] conv2_1 -> conv2_1
I0509 16:57:24.925879 11100 net.cpp:141] Setting up conv2_1
I0509 16:57:24.925899 11100 net.cpp:148] Top shape: 1 128 150 150 (2880000)
I0509 16:57:24.925904 11100 net.cpp:156] Memory required for data: 118080064
I0509 16:57:24.925917 11100 layer_factory.hpp:77] Creating layer relu2_1
I0509 16:57:24.925928 11100 net.cpp:91] Creating Layer relu2_1
I0509 16:57:24.925933 11100 net.cpp:425] relu2_1 <- conv2_1
I0509 16:57:24.925940 11100 net.cpp:386] relu2_1 -> conv2_1 (in-place)
I0509 16:57:24.926163 11100 net.cpp:141] Setting up relu2_1
I0509 16:57:24.926178 11100 net.cpp:148] Top shape: 1 128 150 150 (2880000)
I0509 16:57:24.926183 11100 net.cpp:156] Memory required for data: 129600064
I0509 16:57:24.926188 11100 layer_factory.hpp:77] Creating layer conv2_2
I0509 16:57:24.926201 11100 net.cpp:91] Creating Layer conv2_2
I0509 16:57:24.926206 11100 net.cpp:425] conv2_2 <- conv2_1
I0509 16:57:24.926215 11100 net.cpp:399] conv2_2 -> conv2_2
I0509 16:57:24.932190 11100 net.cpp:141] Setting up conv2_2
I0509 16:57:24.932245 11100 net.cpp:148] Top shape: 1 128 150 150 (2880000)
I0509 16:57:24.932255 11100 net.cpp:156] Memory required for data: 141120064
I0509 16:57:24.932273 11100 layer_factory.hpp:77] Creating layer relu2_2
I0509 16:57:24.932297 11100 net.cpp:91] Creating Layer relu2_2
I0509 16:57:24.932307 11100 net.cpp:425] relu2_2 <- conv2_2
I0509 16:57:24.932327 11100 net.cpp:386] relu2_2 -> conv2_2 (in-place)
I0509 16:57:24.932947 11100 net.cpp:141] Setting up relu2_2
I0509 16:57:24.932981 11100 net.cpp:148] Top shape: 1 128 150 150 (2880000)
I0509 16:57:24.932991 11100 net.cpp:156] Memory required for data: 152640064
I0509 16:57:24.932999 11100 layer_factory.hpp:77] Creating layer pool2
I0509 16:57:24.933019 11100 net.cpp:91] Creating Layer pool2
I0509 16:57:24.933063 11100 net.cpp:425] pool2 <- conv2_2
I0509 16:57:24.933079 11100 net.cpp:399] pool2 -> pool2
I0509 16:57:24.933209 11100 net.cpp:141] Setting up pool2
I0509 16:57:24.933229 11100 net.cpp:148] Top shape: 1 128 75 75 (720000)
I0509 16:57:24.933238 11100 net.cpp:156] Memory required for data: 155520064
I0509 16:57:24.933248 11100 layer_factory.hpp:77] Creating layer conv3_1
I0509 16:57:24.933274 11100 net.cpp:91] Creating Layer conv3_1
I0509 16:57:24.933286 11100 net.cpp:425] conv3_1 <- pool2
I0509 16:57:24.933303 11100 net.cpp:399] conv3_1 -> conv3_1
I0509 16:57:24.940338 11100 net.cpp:141] Setting up conv3_1
I0509 16:57:24.940374 11100 net.cpp:148] Top shape: 1 256 75 75 (1440000)
I0509 16:57:24.940383 11100 net.cpp:156] Memory required for data: 161280064
I0509 16:57:24.940410 11100 layer_factory.hpp:77] Creating layer relu3_1
I0509 16:57:24.940426 11100 net.cpp:91] Creating Layer relu3_1
I0509 16:57:24.940440 11100 net.cpp:425] relu3_1 <- conv3_1
I0509 16:57:24.940454 11100 net.cpp:386] relu3_1 -> conv3_1 (in-place)
I0509 16:57:24.941088 11100 net.cpp:141] Setting up relu3_1
I0509 16:57:24.941119 11100 net.cpp:148] Top shape: 1 256 75 75 (1440000)
I0509 16:57:24.941128 11100 net.cpp:156] Memory required for data: 167040064
I0509 16:57:24.941135 11100 layer_factory.hpp:77] Creating layer conv3_2
I0509 16:57:24.941157 11100 net.cpp:91] Creating Layer conv3_2
I0509 16:57:24.941166 11100 net.cpp:425] conv3_2 <- conv3_1
I0509 16:57:24.941182 11100 net.cpp:399] conv3_2 -> conv3_2
I0509 16:57:24.952451 11100 net.cpp:141] Setting up conv3_2
I0509 16:57:24.952486 11100 net.cpp:148] Top shape: 1 256 75 75 (1440000)
I0509 16:57:24.952494 11100 net.cpp:156] Memory required for data: 172800064
I0509 16:57:24.952508 11100 layer_factory.hpp:77] Creating layer relu3_2
I0509 16:57:24.952524 11100 net.cpp:91] Creating Layer relu3_2
I0509 16:57:24.952533 11100 net.cpp:425] relu3_2 <- conv3_2
I0509 16:57:24.952548 11100 net.cpp:386] relu3_2 -> conv3_2 (in-place)
I0509 16:57:24.952922 11100 net.cpp:141] Setting up relu3_2
I0509 16:57:24.952950 11100 net.cpp:148] Top shape: 1 256 75 75 (1440000)
I0509 16:57:24.952957 11100 net.cpp:156] Memory required for data: 178560064
I0509 16:57:24.952965 11100 layer_factory.hpp:77] Creating layer conv3_3
I0509 16:57:24.952989 11100 net.cpp:91] Creating Layer conv3_3
I0509 16:57:24.952997 11100 net.cpp:425] conv3_3 <- conv3_2
I0509 16:57:24.953013 11100 net.cpp:399] conv3_3 -> conv3_3
I0509 16:57:24.963667 11100 net.cpp:141] Setting up conv3_3
I0509 16:57:24.963704 11100 net.cpp:148] Top shape: 1 256 75 75 (1440000)
I0509 16:57:24.963713 11100 net.cpp:156] Memory required for data: 184320064
I0509 16:57:24.963731 11100 layer_factory.hpp:77] Creating layer relu3_3
I0509 16:57:24.963745 11100 net.cpp:91] Creating Layer relu3_3
I0509 16:57:24.963753 11100 net.cpp:425] relu3_3 <- conv3_3
I0509 16:57:24.963765 11100 net.cpp:386] relu3_3 -> conv3_3 (in-place)
I0509 16:57:24.964330 11100 net.cpp:141] Setting up relu3_3
I0509 16:57:24.964357 11100 net.cpp:148] Top shape: 1 256 75 75 (1440000)
I0509 16:57:24.964365 11100 net.cpp:156] Memory required for data: 190080064
I0509 16:57:24.964373 11100 layer_factory.hpp:77] Creating layer pool3
I0509 16:57:24.964387 11100 net.cpp:91] Creating Layer pool3
I0509 16:57:24.964397 11100 net.cpp:425] pool3 <- conv3_3
I0509 16:57:24.964412 11100 net.cpp:399] pool3 -> pool3
I0509 16:57:24.964517 11100 net.cpp:141] Setting up pool3
I0509 16:57:24.964534 11100 net.cpp:148] Top shape: 1 256 38 38 (369664)
I0509 16:57:24.964540 11100 net.cpp:156] Memory required for data: 191558720
I0509 16:57:24.964548 11100 layer_factory.hpp:77] Creating layer conv4_1
I0509 16:57:24.964575 11100 net.cpp:91] Creating Layer conv4_1
I0509 16:57:24.964584 11100 net.cpp:425] conv4_1 <- pool3
I0509 16:57:24.964596 11100 net.cpp:399] conv4_1 -> conv4_1
I0509 16:57:24.982183 11100 net.cpp:141] Setting up conv4_1
I0509 16:57:24.982221 11100 net.cpp:148] Top shape: 1 512 38 38 (739328)
I0509 16:57:24.982229 11100 net.cpp:156] Memory required for data: 194516032
I0509 16:57:24.982242 11100 layer_factory.hpp:77] Creating layer relu4_1
I0509 16:57:24.982280 11100 net.cpp:91] Creating Layer relu4_1
I0509 16:57:24.982295 11100 net.cpp:425] relu4_1 <- conv4_1
I0509 16:57:24.982306 11100 net.cpp:386] relu4_1 -> conv4_1 (in-place)
I0509 16:57:24.982816 11100 net.cpp:141] Setting up relu4_1
I0509 16:57:24.982841 11100 net.cpp:148] Top shape: 1 512 38 38 (739328)
I0509 16:57:24.982848 11100 net.cpp:156] Memory required for data: 197473344
I0509 16:57:24.982854 11100 layer_factory.hpp:77] Creating layer conv4_2
I0509 16:57:24.982875 11100 net.cpp:91] Creating Layer conv4_2
I0509 16:57:24.982882 11100 net.cpp:425] conv4_2 <- conv4_1
I0509 16:57:24.982895 11100 net.cpp:399] conv4_2 -> conv4_2
I0509 16:57:25.013639 11100 net.cpp:141] Setting up conv4_2
I0509 16:57:25.013684 11100 net.cpp:148] Top shape: 1 512 38 38 (739328)
I0509 16:57:25.013690 11100 net.cpp:156] Memory required for data: 200430656
I0509 16:57:25.013715 11100 layer_factory.hpp:77] Creating layer relu4_2
I0509 16:57:25.013736 11100 net.cpp:91] Creating Layer relu4_2
I0509 16:57:25.013744 11100 net.cpp:425] relu4_2 <- conv4_2
I0509 16:57:25.013753 11100 net.cpp:386] relu4_2 -> conv4_2 (in-place)
I0509 16:57:25.014029 11100 net.cpp:141] Setting up relu4_2
I0509 16:57:25.014046 11100 net.cpp:148] Top shape: 1 512 38 38 (739328)
I0509 16:57:25.014051 11100 net.cpp:156] Memory required for data: 203387968
I0509 16:57:25.014057 11100 layer_factory.hpp:77] Creating layer conv4_3
I0509 16:57:25.014078 11100 net.cpp:91] Creating Layer conv4_3
I0509 16:57:25.014088 11100 net.cpp:425] conv4_3 <- conv4_2
I0509 16:57:25.014098 11100 net.cpp:399] conv4_3 -> conv4_3
I0509 16:57:25.042081 11100 net.cpp:141] Setting up conv4_3
I0509 16:57:25.042131 11100 net.cpp:148] Top shape: 1 512 38 38 (739328)
I0509 16:57:25.042138 11100 net.cpp:156] Memory required for data: 206345280
I0509 16:57:25.042151 11100 layer_factory.hpp:77] Creating layer relu4_3
I0509 16:57:25.042167 11100 net.cpp:91] Creating Layer relu4_3
I0509 16:57:25.042176 11100 net.cpp:425] relu4_3 <- conv4_3
I0509 16:57:25.042187 11100 net.cpp:386] relu4_3 -> conv4_3 (in-place)
I0509 16:57:25.042589 11100 net.cpp:141] Setting up relu4_3
I0509 16:57:25.042609 11100 net.cpp:148] Top shape: 1 512 38 38 (739328)
I0509 16:57:25.042614 11100 net.cpp:156] Memory required for data: 209302592
I0509 16:57:25.042620 11100 layer_factory.hpp:77] Creating layer conv4_3_relu4_3_0_split
I0509 16:57:25.042629 11100 net.cpp:91] Creating Layer conv4_3_relu4_3_0_split
I0509 16:57:25.042634 11100 net.cpp:425] conv4_3_relu4_3_0_split <- conv4_3
I0509 16:57:25.042645 11100 net.cpp:399] conv4_3_relu4_3_0_split -> conv4_3_relu4_3_0_split_0
I0509 16:57:25.042659 11100 net.cpp:399] conv4_3_relu4_3_0_split -> conv4_3_relu4_3_0_split_1
I0509 16:57:25.042733 11100 net.cpp:141] Setting up conv4_3_relu4_3_0_split
I0509 16:57:25.042744 11100 net.cpp:148] Top shape: 1 512 38 38 (739328)
I0509 16:57:25.042752 11100 net.cpp:148] Top shape: 1 512 38 38 (739328)
I0509 16:57:25.042755 11100 net.cpp:156] Memory required for data: 215217216
I0509 16:57:25.042760 11100 layer_factory.hpp:77] Creating layer pool4
I0509 16:57:25.042770 11100 net.cpp:91] Creating Layer pool4
I0509 16:57:25.042778 11100 net.cpp:425] pool4 <- conv4_3_relu4_3_0_split_0
I0509 16:57:25.042788 11100 net.cpp:399] pool4 -> pool4
I0509 16:57:25.042851 11100 net.cpp:141] Setting up pool4
I0509 16:57:25.042865 11100 net.cpp:148] Top shape: 1 512 19 19 (184832)
I0509 16:57:25.042870 11100 net.cpp:156] Memory required for data: 215956544
I0509 16:57:25.042875 11100 layer_factory.hpp:77] Creating layer conv5_1
I0509 16:57:25.042894 11100 net.cpp:91] Creating Layer conv5_1
I0509 16:57:25.042901 11100 net.cpp:425] conv5_1 <- pool4
I0509 16:57:25.042911 11100 net.cpp:399] conv5_1 -> conv5_1
I0509 16:57:25.067999 11100 net.cpp:141] Setting up conv5_1
I0509 16:57:25.068042 11100 net.cpp:148] Top shape: 1 512 19 19 (184832)
I0509 16:57:25.068048 11100 net.cpp:156] Memory required for data: 216695872
I0509 16:57:25.068061 11100 layer_factory.hpp:77] Creating layer relu5_1
I0509 16:57:25.068079 11100 net.cpp:91] Creating Layer relu5_1
I0509 16:57:25.068109 11100 net.cpp:425] relu5_1 <- conv5_1
I0509 16:57:25.068120 11100 net.cpp:386] relu5_1 -> conv5_1 (in-place)
I0509 16:57:25.068537 11100 net.cpp:141] Setting up relu5_1
I0509 16:57:25.068558 11100 net.cpp:148] Top shape: 1 512 19 19 (184832)
I0509 16:57:25.068563 11100 net.cpp:156] Memory required for data: 217435200
I0509 16:57:25.068568 11100 layer_factory.hpp:77] Creating layer conv5_2
I0509 16:57:25.068586 11100 net.cpp:91] Creating Layer conv5_2
I0509 16:57:25.068593 11100 net.cpp:425] conv5_2 <- conv5_1
I0509 16:57:25.068601 11100 net.cpp:399] conv5_2 -> conv5_2
I0509 16:57:25.094388 11100 net.cpp:141] Setting up conv5_2
I0509 16:57:25.094439 11100 net.cpp:148] Top shape: 1 512 19 19 (184832)
I0509 16:57:25.094445 11100 net.cpp:156] Memory required for data: 218174528
I0509 16:57:25.094457 11100 layer_factory.hpp:77] Creating layer relu5_2
I0509 16:57:25.094475 11100 net.cpp:91] Creating Layer relu5_2
I0509 16:57:25.094482 11100 net.cpp:425] relu5_2 <- conv5_2
I0509 16:57:25.094493 11100 net.cpp:386] relu5_2 -> conv5_2 (in-place)
I0509 16:57:25.094729 11100 net.cpp:141] Setting up relu5_2
I0509 16:57:25.094744 11100 net.cpp:148] Top shape: 1 512 19 19 (184832)
I0509 16:57:25.094750 11100 net.cpp:156] Memory required for data: 218913856
I0509 16:57:25.094755 11100 layer_factory.hpp:77] Creating layer conv5_3
I0509 16:57:25.094772 11100 net.cpp:91] Creating Layer conv5_3
I0509 16:57:25.094781 11100 net.cpp:425] conv5_3 <- conv5_2
I0509 16:57:25.094790 11100 net.cpp:399] conv5_3 -> conv5_3
I0509 16:57:25.120043 11100 net.cpp:141] Setting up conv5_3
I0509 16:57:25.120087 11100 net.cpp:148] Top shape: 1 512 19 19 (184832)
I0509 16:57:25.120093 11100 net.cpp:156] Memory required for data: 219653184
I0509 16:57:25.120105 11100 layer_factory.hpp:77] Creating layer relu5_3
I0509 16:57:25.120124 11100 net.cpp:91] Creating Layer relu5_3
I0509 16:57:25.120131 11100 net.cpp:425] relu5_3 <- conv5_3
I0509 16:57:25.120141 11100 net.cpp:386] relu5_3 -> conv5_3 (in-place)
I0509 16:57:25.120517 11100 net.cpp:141] Setting up relu5_3
I0509 16:57:25.120535 11100 net.cpp:148] Top shape: 1 512 19 19 (184832)
I0509 16:57:25.120540 11100 net.cpp:156] Memory required for data: 220392512
I0509 16:57:25.120545 11100 layer_factory.hpp:77] Creating layer pool5
I0509 16:57:25.120555 11100 net.cpp:91] Creating Layer pool5
I0509 16:57:25.120561 11100 net.cpp:425] pool5 <- conv5_3
I0509 16:57:25.120573 11100 net.cpp:399] pool5 -> pool5
I0509 16:57:25.120656 11100 net.cpp:141] Setting up pool5
I0509 16:57:25.120668 11100 net.cpp:148] Top shape: 1 512 19 19 (184832)
I0509 16:57:25.120673 11100 net.cpp:156] Memory required for data: 221131840
I0509 16:57:25.120678 11100 layer_factory.hpp:77] Creating layer fc6
I0509 16:57:25.120697 11100 net.cpp:91] Creating Layer fc6
I0509 16:57:25.120707 11100 net.cpp:425] fc6 <- pool5
I0509 16:57:25.120714 11100 net.cpp:399] fc6 -> fc6
I0509 16:57:25.172636 11100 net.cpp:141] Setting up fc6
I0509 16:57:25.172698 11100 net.cpp:148] Top shape: 1 1024 19 19 (369664)
I0509 16:57:25.172704 11100 net.cpp:156] Memory required for data: 222610496
I0509 16:57:25.172718 11100 layer_factory.hpp:77] Creating layer relu6
I0509 16:57:25.172734 11100 net.cpp:91] Creating Layer relu6
I0509 16:57:25.172745 11100 net.cpp:425] relu6 <- fc6
I0509 16:57:25.172756 11100 net.cpp:386] relu6 -> fc6 (in-place)
I0509 16:57:25.173166 11100 net.cpp:141] Setting up relu6
I0509 16:57:25.173178 11100 net.cpp:148] Top shape: 1 1024 19 19 (369664)
I0509 16:57:25.173183 11100 net.cpp:156] Memory required for data: 224089152
I0509 16:57:25.173188 11100 layer_factory.hpp:77] Creating layer fc7
I0509 16:57:25.173204 11100 net.cpp:91] Creating Layer fc7
I0509 16:57:25.173210 11100 net.cpp:425] fc7 <- fc6
I0509 16:57:25.173223 11100 net.cpp:399] fc7 -> fc7
I0509 16:57:25.185420 11100 net.cpp:141] Setting up fc7
I0509 16:57:25.185446 11100 net.cpp:148] Top shape: 1 1024 19 19 (369664)
I0509 16:57:25.185453 11100 net.cpp:156] Memory required for data: 225567808
I0509 16:57:25.185462 11100 layer_factory.hpp:77] Creating layer relu7
I0509 16:57:25.185503 11100 net.cpp:91] Creating Layer relu7
I0509 16:57:25.185509 11100 net.cpp:425] relu7 <- fc7
I0509 16:57:25.185516 11100 net.cpp:386] relu7 -> fc7 (in-place)
I0509 16:57:25.185762 11100 net.cpp:141] Setting up relu7
I0509 16:57:25.185776 11100 net.cpp:148] Top shape: 1 1024 19 19 (369664)
I0509 16:57:25.185781 11100 net.cpp:156] Memory required for data: 227046464
I0509 16:57:25.185786 11100 layer_factory.hpp:77] Creating layer fc7_relu7_0_split
I0509 16:57:25.185794 11100 net.cpp:91] Creating Layer fc7_relu7_0_split
I0509 16:57:25.185799 11100 net.cpp:425] fc7_relu7_0_split <- fc7
I0509 16:57:25.185808 11100 net.cpp:399] fc7_relu7_0_split -> fc7_relu7_0_split_0
I0509 16:57:25.185817 11100 net.cpp:399] fc7_relu7_0_split -> fc7_relu7_0_split_1
I0509 16:57:25.185834 11100 net.cpp:399] fc7_relu7_0_split -> fc7_relu7_0_split_2
I0509 16:57:25.185842 11100 net.cpp:399] fc7_relu7_0_split -> fc7_relu7_0_split_3
I0509 16:57:25.185956 11100 net.cpp:141] Setting up fc7_relu7_0_split
I0509 16:57:25.185966 11100 net.cpp:148] Top shape: 1 1024 19 19 (369664)
I0509 16:57:25.185976 11100 net.cpp:148] Top shape: 1 1024 19 19 (369664)
I0509 16:57:25.185981 11100 net.cpp:148] Top shape: 1 1024 19 19 (369664)
I0509 16:57:25.185986 11100 net.cpp:148] Top shape: 1 1024 19 19 (369664)
I0509 16:57:25.185991 11100 net.cpp:156] Memory required for data: 232961088
I0509 16:57:25.185995 11100 layer_factory.hpp:77] Creating layer conv6_1
I0509 16:57:25.186008 11100 net.cpp:91] Creating Layer conv6_1
I0509 16:57:25.186017 11100 net.cpp:425] conv6_1 <- fc7_relu7_0_split_0
I0509 16:57:25.186028 11100 net.cpp:399] conv6_1 -> conv6_1
I0509 16:57:25.190264 11100 net.cpp:141] Setting up conv6_1
I0509 16:57:25.190285 11100 net.cpp:148] Top shape: 1 256 19 19 (92416)
I0509 16:57:25.190290 11100 net.cpp:156] Memory required for data: 233330752
I0509 16:57:25.190299 11100 layer_factory.hpp:77] Creating layer conv6_1_relu
I0509 16:57:25.190309 11100 net.cpp:91] Creating Layer conv6_1_relu
I0509 16:57:25.190315 11100 net.cpp:425] conv6_1_relu <- conv6_1
I0509 16:57:25.190323 11100 net.cpp:386] conv6_1_relu -> conv6_1 (in-place)
I0509 16:57:25.190831 11100 net.cpp:141] Setting up conv6_1_relu
I0509 16:57:25.190850 11100 net.cpp:148] Top shape: 1 256 19 19 (92416)
I0509 16:57:25.190855 11100 net.cpp:156] Memory required for data: 233700416
I0509 16:57:25.190860 11100 layer_factory.hpp:77] Creating layer conv6_2
I0509 16:57:25.190874 11100 net.cpp:91] Creating Layer conv6_2
I0509 16:57:25.190881 11100 net.cpp:425] conv6_2 <- conv6_1
I0509 16:57:25.190891 11100 net.cpp:399] conv6_2 -> conv6_2
I0509 16:57:25.204309 11100 net.cpp:141] Setting up conv6_2
I0509 16:57:25.204339 11100 net.cpp:148] Top shape: 1 512 10 10 (51200)
I0509 16:57:25.204344 11100 net.cpp:156] Memory required for data: 233905216
I0509 16:57:25.204378 11100 layer_factory.hpp:77] Creating layer conv6_2_relu
I0509 16:57:25.204392 11100 net.cpp:91] Creating Layer conv6_2_relu
I0509 16:57:25.204401 11100 net.cpp:425] conv6_2_relu <- conv6_2
I0509 16:57:25.204407 11100 net.cpp:386] conv6_2_relu -> conv6_2 (in-place)
I0509 16:57:25.204673 11100 net.cpp:141] Setting up conv6_2_relu
I0509 16:57:25.204687 11100 net.cpp:148] Top shape: 1 512 10 10 (51200)
I0509 16:57:25.204692 11100 net.cpp:156] Memory required for data: 234110016
I0509 16:57:25.204697 11100 layer_factory.hpp:77] Creating layer conv6_2_conv6_2_relu_0_split
I0509 16:57:25.204710 11100 net.cpp:91] Creating Layer conv6_2_conv6_2_relu_0_split
I0509 16:57:25.204716 11100 net.cpp:425] conv6_2_conv6_2_relu_0_split <- conv6_2
I0509 16:57:25.204725 11100 net.cpp:399] conv6_2_conv6_2_relu_0_split -> conv6_2_conv6_2_relu_0_split_0
I0509 16:57:25.204737 11100 net.cpp:399] conv6_2_conv6_2_relu_0_split -> conv6_2_conv6_2_relu_0_split_1
I0509 16:57:25.204747 11100 net.cpp:399] conv6_2_conv6_2_relu_0_split -> conv6_2_conv6_2_relu_0_split_2
I0509 16:57:25.204756 11100 net.cpp:399] conv6_2_conv6_2_relu_0_split -> conv6_2_conv6_2_relu_0_split_3
I0509 16:57:25.204870 11100 net.cpp:141] Setting up conv6_2_conv6_2_relu_0_split
I0509 16:57:25.204898 11100 net.cpp:148] Top shape: 1 512 10 10 (51200)
I0509 16:57:25.204905 11100 net.cpp:148] Top shape: 1 512 10 10 (51200)
I0509 16:57:25.204910 11100 net.cpp:148] Top shape: 1 512 10 10 (51200)
I0509 16:57:25.204916 11100 net.cpp:148] Top shape: 1 512 10 10 (51200)
I0509 16:57:25.204919 11100 net.cpp:156] Memory required for data: 234929216
I0509 16:57:25.204924 11100 layer_factory.hpp:77] Creating layer conv7_1
I0509 16:57:25.204939 11100 net.cpp:91] Creating Layer conv7_1
I0509 16:57:25.204947 11100 net.cpp:425] conv7_1 <- conv6_2_conv6_2_relu_0_split_0
I0509 16:57:25.204962 11100 net.cpp:399] conv7_1 -> conv7_1
I0509 16:57:25.207762 11100 net.cpp:141] Setting up conv7_1
I0509 16:57:25.207782 11100 net.cpp:148] Top shape: 1 128 10 10 (12800)
I0509 16:57:25.207787 11100 net.cpp:156] Memory required for data: 234980416
I0509 16:57:25.207797 11100 layer_factory.hpp:77] Creating layer conv7_1_relu
I0509 16:57:25.207804 11100 net.cpp:91] Creating Layer conv7_1_relu
I0509 16:57:25.207810 11100 net.cpp:425] conv7_1_relu <- conv7_1
I0509 16:57:25.207819 11100 net.cpp:386] conv7_1_relu -> conv7_1 (in-place)
I0509 16:57:25.208050 11100 net.cpp:141] Setting up conv7_1_relu
I0509 16:57:25.208066 11100 net.cpp:148] Top shape: 1 128 10 10 (12800)
I0509 16:57:25.208071 11100 net.cpp:156] Memory required for data: 235031616
I0509 16:57:25.208076 11100 layer_factory.hpp:77] Creating layer conv7_2
I0509 16:57:25.208091 11100 net.cpp:91] Creating Layer conv7_2
I0509 16:57:25.208098 11100 net.cpp:425] conv7_2 <- conv7_1
I0509 16:57:25.208109 11100 net.cpp:399] conv7_2 -> conv7_2
I0509 16:57:25.212581 11100 net.cpp:141] Setting up conv7_2
I0509 16:57:25.212601 11100 net.cpp:148] Top shape: 1 256 5 5 (6400)
I0509 16:57:25.212607 11100 net.cpp:156] Memory required for data: 235057216
I0509 16:57:25.212616 11100 layer_factory.hpp:77] Creating layer conv7_2_relu
I0509 16:57:25.212625 11100 net.cpp:91] Creating Layer conv7_2_relu
I0509 16:57:25.212630 11100 net.cpp:425] conv7_2_relu <- conv7_2
I0509 16:57:25.212641 11100 net.cpp:386] conv7_2_relu -> conv7_2 (in-place)
I0509 16:57:25.213035 11100 net.cpp:141] Setting up conv7_2_relu
I0509 16:57:25.213053 11100 net.cpp:148] Top shape: 1 256 5 5 (6400)
I0509 16:57:25.213058 11100 net.cpp:156] Memory required for data: 235082816
I0509 16:57:25.213063 11100 layer_factory.hpp:77] Creating layer conv7_2_conv7_2_relu_0_split
I0509 16:57:25.213073 11100 net.cpp:91] Creating Layer conv7_2_conv7_2_relu_0_split
I0509 16:57:25.213078 11100 net.cpp:425] conv7_2_conv7_2_relu_0_split <- conv7_2
I0509 16:57:25.213088 11100 net.cpp:399] conv7_2_conv7_2_relu_0_split -> conv7_2_conv7_2_relu_0_split_0
I0509 16:57:25.213098 11100 net.cpp:399] conv7_2_conv7_2_relu_0_split -> conv7_2_conv7_2_relu_0_split_1
I0509 16:57:25.213106 11100 net.cpp:399] conv7_2_conv7_2_relu_0_split -> conv7_2_conv7_2_relu_0_split_2
I0509 16:57:25.213114 11100 net.cpp:399] conv7_2_conv7_2_relu_0_split -> conv7_2_conv7_2_relu_0_split_3
I0509 16:57:25.213239 11100 net.cpp:141] Setting up conv7_2_conv7_2_relu_0_split
I0509 16:57:25.213250 11100 net.cpp:148] Top shape: 1 256 5 5 (6400)
I0509 16:57:25.213256 11100 net.cpp:148] Top shape: 1 256 5 5 (6400)
I0509 16:57:25.213263 11100 net.cpp:148] Top shape: 1 256 5 5 (6400)
I0509 16:57:25.213269 11100 net.cpp:148] Top shape: 1 256 5 5 (6400)
I0509 16:57:25.213274 11100 net.cpp:156] Memory required for data: 235185216
I0509 16:57:25.213279 11100 layer_factory.hpp:77] Creating layer conv8_1
I0509 16:57:25.213294 11100 net.cpp:91] Creating Layer conv8_1
I0509 16:57:25.213301 11100 net.cpp:425] conv8_1 <- conv7_2_conv7_2_relu_0_split_0
I0509 16:57:25.213310 11100 net.cpp:399] conv8_1 -> conv8_1
I0509 16:57:25.214952 11100 net.cpp:141] Setting up conv8_1
I0509 16:57:25.214970 11100 net.cpp:148] Top shape: 1 128 5 5 (3200)
I0509 16:57:25.214977 11100 net.cpp:156] Memory required for data: 235198016
I0509 16:57:25.214984 11100 layer_factory.hpp:77] Creating layer conv8_1_relu
I0509 16:57:25.214993 11100 net.cpp:91] Creating Layer conv8_1_relu
I0509 16:57:25.214998 11100 net.cpp:425] conv8_1_relu <- conv8_1
I0509 16:57:25.215021 11100 net.cpp:386] conv8_1_relu -> conv8_1 (in-place)
I0509 16:57:25.215255 11100 net.cpp:141] Setting up conv8_1_relu
I0509 16:57:25.215270 11100 net.cpp:148] Top shape: 1 128 5 5 (3200)
I0509 16:57:25.215276 11100 net.cpp:156] Memory required for data: 235210816
I0509 16:57:25.215279 11100 layer_factory.hpp:77] Creating layer conv8_2
I0509 16:57:25.215296 11100 net.cpp:91] Creating Layer conv8_2
I0509 16:57:25.215303 11100 net.cpp:425] conv8_2 <- conv8_1
I0509 16:57:25.215312 11100 net.cpp:399] conv8_2 -> conv8_2
I0509 16:57:25.219679 11100 net.cpp:141] Setting up conv8_2
I0509 16:57:25.219699 11100 net.cpp:148] Top shape: 1 256 3 3 (2304)
I0509 16:57:25.219705 11100 net.cpp:156] Memory required for data: 235220032
I0509 16:57:25.219714 11100 layer_factory.hpp:77] Creating layer conv8_2_relu
I0509 16:57:25.219722 11100 net.cpp:91] Creating Layer conv8_2_relu
I0509 16:57:25.219728 11100 net.cpp:425] conv8_2_relu <- conv8_2
I0509 16:57:25.219735 11100 net.cpp:386] conv8_2_relu -> conv8_2 (in-place)
I0509 16:57:25.219967 11100 net.cpp:141] Setting up conv8_2_relu
I0509 16:57:25.219982 11100 net.cpp:148] Top shape: 1 256 3 3 (2304)
I0509 16:57:25.219987 11100 net.cpp:156] Memory required for data: 235229248
I0509 16:57:25.219992 11100 layer_factory.hpp:77] Creating layer conv8_2_conv8_2_relu_0_split
I0509 16:57:25.220002 11100 net.cpp:91] Creating Layer conv8_2_conv8_2_relu_0_split
I0509 16:57:25.220010 11100 net.cpp:425] conv8_2_conv8_2_relu_0_split <- conv8_2
I0509 16:57:25.220018 11100 net.cpp:399] conv8_2_conv8_2_relu_0_split -> conv8_2_conv8_2_relu_0_split_0
I0509 16:57:25.220027 11100 net.cpp:399] conv8_2_conv8_2_relu_0_split -> conv8_2_conv8_2_relu_0_split_1
I0509 16:57:25.220034 11100 net.cpp:399] conv8_2_conv8_2_relu_0_split -> conv8_2_conv8_2_relu_0_split_2
I0509 16:57:25.220042 11100 net.cpp:399] conv8_2_conv8_2_relu_0_split -> conv8_2_conv8_2_relu_0_split_3
I0509 16:57:25.220156 11100 net.cpp:141] Setting up conv8_2_conv8_2_relu_0_split
I0509 16:57:25.220167 11100 net.cpp:148] Top shape: 1 256 3 3 (2304)
I0509 16:57:25.220173 11100 net.cpp:148] Top shape: 1 256 3 3 (2304)
I0509 16:57:25.220180 11100 net.cpp:148] Top shape: 1 256 3 3 (2304)
I0509 16:57:25.220185 11100 net.cpp:148] Top shape: 1 256 3 3 (2304)
I0509 16:57:25.220190 11100 net.cpp:156] Memory required for data: 235266112
I0509 16:57:25.220194 11100 layer_factory.hpp:77] Creating layer pool6
I0509 16:57:25.220203 11100 net.cpp:91] Creating Layer pool6
I0509 16:57:25.220209 11100 net.cpp:425] pool6 <- conv8_2_conv8_2_relu_0_split_0
I0509 16:57:25.220219 11100 net.cpp:399] pool6 -> pool6
I0509 16:57:25.220633 11100 net.cpp:141] Setting up pool6
I0509 16:57:25.220656 11100 net.cpp:148] Top shape: 1 256 1 1 (256)
I0509 16:57:25.220662 11100 net.cpp:156] Memory required for data: 235267136
I0509 16:57:25.220667 11100 layer_factory.hpp:77] Creating layer pool6_pool6_0_split
I0509 16:57:25.220677 11100 net.cpp:91] Creating Layer pool6_pool6_0_split
I0509 16:57:25.220684 11100 net.cpp:425] pool6_pool6_0_split <- pool6
I0509 16:57:25.220690 11100 net.cpp:399] pool6_pool6_0_split -> pool6_pool6_0_split_0
I0509 16:57:25.220698 11100 net.cpp:399] pool6_pool6_0_split -> pool6_pool6_0_split_1
I0509 16:57:25.220706 11100 net.cpp:399] pool6_pool6_0_split -> pool6_pool6_0_split_2
I0509 16:57:25.220793 11100 net.cpp:141] Setting up pool6_pool6_0_split
I0509 16:57:25.220803 11100 net.cpp:148] Top shape: 1 256 1 1 (256)
I0509 16:57:25.220809 11100 net.cpp:148] Top shape: 1 256 1 1 (256)
I0509 16:57:25.220814 11100 net.cpp:148] Top shape: 1 256 1 1 (256)
I0509 16:57:25.220818 11100 net.cpp:156] Memory required for data: 235270208
I0509 16:57:25.220824 11100 layer_factory.hpp:77] Creating layer conv4_3_norm
I0509 16:57:25.220834 11100 net.cpp:91] Creating Layer conv4_3_norm
I0509 16:57:25.220842 11100 net.cpp:425] conv4_3_norm <- conv4_3_relu4_3_0_split_1
I0509 16:57:25.220849 11100 net.cpp:399] conv4_3_norm -> conv4_3_norm
I0509 16:57:25.221107 11100 net.cpp:141] Setting up conv4_3_norm
I0509 16:57:25.221118 11100 net.cpp:148] Top shape: 1 512 38 38 (739328)
I0509 16:57:25.221135 11100 net.cpp:156] Memory required for data: 238227520
I0509 16:57:25.221144 11100 layer_factory.hpp:77] Creating layer conv4_3_norm_conv4_3_norm_0_split
I0509 16:57:25.221163 11100 net.cpp:91] Creating Layer conv4_3_norm_conv4_3_norm_0_split
I0509 16:57:25.221168 11100 net.cpp:425] conv4_3_norm_conv4_3_norm_0_split <- conv4_3_norm
I0509 16:57:25.221174 11100 net.cpp:399] conv4_3_norm_conv4_3_norm_0_split -> conv4_3_norm_conv4_3_norm_0_split_0
I0509 16:57:25.221182 11100 net.cpp:399] conv4_3_norm_conv4_3_norm_0_split -> conv4_3_norm_conv4_3_norm_0_split_1
I0509 16:57:25.221189 11100 net.cpp:399] conv4_3_norm_conv4_3_norm_0_split -> conv4_3_norm_conv4_3_norm_0_split_2
I0509 16:57:25.221282 11100 net.cpp:141] Setting up conv4_3_norm_conv4_3_norm_0_split
I0509 16:57:25.221292 11100 net.cpp:148] Top shape: 1 512 38 38 (739328)
I0509 16:57:25.221297 11100 net.cpp:148] Top shape: 1 512 38 38 (739328)
I0509 16:57:25.221302 11100 net.cpp:148] Top shape: 1 512 38 38 (739328)
I0509 16:57:25.221307 11100 net.cpp:156] Memory required for data: 247099456
I0509 16:57:25.221312 11100 layer_factory.hpp:77] Creating layer conv4_3_norm_mbox_loc
I0509 16:57:25.221323 11100 net.cpp:91] Creating Layer conv4_3_norm_mbox_loc
I0509 16:57:25.221329 11100 net.cpp:425] conv4_3_norm_mbox_loc <- conv4_3_norm_conv4_3_norm_0_split_0
I0509 16:57:25.221340 11100 net.cpp:399] conv4_3_norm_mbox_loc -> conv4_3_norm_mbox_loc
I0509 16:57:25.223177 11100 net.cpp:141] Setting up conv4_3_norm_mbox_loc
I0509 16:57:25.223198 11100 net.cpp:148] Top shape: 1 12 38 38 (17328)
I0509 16:57:25.223204 11100 net.cpp:156] Memory required for data: 247168768
I0509 16:57:25.223213 11100 layer_factory.hpp:77] Creating layer conv4_3_norm_mbox_loc_perm
I0509 16:57:25.223223 11100 net.cpp:91] Creating Layer conv4_3_norm_mbox_loc_perm
I0509 16:57:25.223229 11100 net.cpp:425] conv4_3_norm_mbox_loc_perm <- conv4_3_norm_mbox_loc
I0509 16:57:25.223237 11100 net.cpp:399] conv4_3_norm_mbox_loc_perm -> conv4_3_norm_mbox_loc_perm
I0509 16:57:25.223413 11100 net.cpp:141] Setting up conv4_3_norm_mbox_loc_perm
I0509 16:57:25.223426 11100 net.cpp:148] Top shape: 1 38 38 12 (17328)
I0509 16:57:25.223430 11100 net.cpp:156] Memory required for data: 247238080
I0509 16:57:25.223435 11100 layer_factory.hpp:77] Creating layer conv4_3_norm_mbox_loc_flat
I0509 16:57:25.223446 11100 net.cpp:91] Creating Layer conv4_3_norm_mbox_loc_flat
I0509 16:57:25.223454 11100 net.cpp:425] conv4_3_norm_mbox_loc_flat <- conv4_3_norm_mbox_loc_perm
I0509 16:57:25.223461 11100 net.cpp:399] conv4_3_norm_mbox_loc_flat -> conv4_3_norm_mbox_loc_flat
I0509 16:57:25.223506 11100 net.cpp:141] Setting up conv4_3_norm_mbox_loc_flat
I0509 16:57:25.223515 11100 net.cpp:148] Top shape: 1 17328 (17328)
I0509 16:57:25.223520 11100 net.cpp:156] Memory required for data: 247307392
I0509 16:57:25.223525 11100 layer_factory.hpp:77] Creating layer conv4_3_norm_mbox_conf
I0509 16:57:25.223537 11100 net.cpp:91] Creating Layer conv4_3_norm_mbox_conf
I0509 16:57:25.223546 11100 net.cpp:425] conv4_3_norm_mbox_conf <- conv4_3_norm_conv4_3_norm_0_split_1
I0509 16:57:25.223556 11100 net.cpp:399] conv4_3_norm_mbox_conf -> conv4_3_norm_mbox_conf
I0509 16:57:25.227897 11100 net.cpp:141] Setting up conv4_3_norm_mbox_conf
I0509 16:57:25.227918 11100 net.cpp:148] Top shape: 1 63 38 38 (90972)
I0509 16:57:25.227923 11100 net.cpp:156] Memory required for data: 247671280
I0509 16:57:25.227932 11100 layer_factory.hpp:77] Creating layer conv4_3_norm_mbox_conf_perm
I0509 16:57:25.227946 11100 net.cpp:91] Creating Layer conv4_3_norm_mbox_conf_perm
I0509 16:57:25.227952 11100 net.cpp:425] conv4_3_norm_mbox_conf_perm <- conv4_3_norm_mbox_conf
I0509 16:57:25.227959 11100 net.cpp:399] conv4_3_norm_mbox_conf_perm -> conv4_3_norm_mbox_conf_perm
I0509 16:57:25.228133 11100 net.cpp:141] Setting up conv4_3_norm_mbox_conf_perm
I0509 16:57:25.228145 11100 net.cpp:148] Top shape: 1 38 38 63 (90972)
I0509 16:57:25.228150 11100 net.cpp:156] Memory required for data: 248035168
I0509 16:57:25.228157 11100 layer_factory.hpp:77] Creating layer conv4_3_norm_mbox_conf_flat
I0509 16:57:25.228176 11100 net.cpp:91] Creating Layer conv4_3_norm_mbox_conf_flat
I0509 16:57:25.228186 11100 net.cpp:425] conv4_3_norm_mbox_conf_flat <- conv4_3_norm_mbox_conf_perm
I0509 16:57:25.228195 11100 net.cpp:399] conv4_3_norm_mbox_conf_flat -> conv4_3_norm_mbox_conf_flat
I0509 16:57:25.228238 11100 net.cpp:141] Setting up conv4_3_norm_mbox_conf_flat
I0509 16:57:25.228250 11100 net.cpp:148] Top shape: 1 90972 (90972)
I0509 16:57:25.228255 11100 net.cpp:156] Memory required for data: 248399056
I0509 16:57:25.228258 11100 layer_factory.hpp:77] Creating layer conv4_3_norm_mbox_priorbox
I0509 16:57:25.228283 11100 net.cpp:91] Creating Layer conv4_3_norm_mbox_priorbox
I0509 16:57:25.228289 11100 net.cpp:425] conv4_3_norm_mbox_priorbox <- conv4_3_norm_conv4_3_norm_0_split_2
I0509 16:57:25.228296 11100 net.cpp:425] conv4_3_norm_mbox_priorbox <- data_data_0_split_1
I0509 16:57:25.228302 11100 net.cpp:399] conv4_3_norm_mbox_priorbox -> conv4_3_norm_mbox_priorbox
I0509 16:57:25.228350 11100 net.cpp:141] Setting up conv4_3_norm_mbox_priorbox
I0509 16:57:25.228361 11100 net.cpp:148] Top shape: 1 2 17328 (34656)
I0509 16:57:25.228365 11100 net.cpp:156] Memory required for data: 248537680
I0509 16:57:25.228370 11100 layer_factory.hpp:77] Creating layer fc7_mbox_loc
I0509 16:57:25.228389 11100 net.cpp:91] Creating Layer fc7_mbox_loc
I0509 16:57:25.228396 11100 net.cpp:425] fc7_mbox_loc <- fc7_relu7_0_split_1
I0509 16:57:25.228407 11100 net.cpp:399] fc7_mbox_loc -> fc7_mbox_loc
I0509 16:57:25.232146 11100 net.cpp:141] Setting up fc7_mbox_loc
I0509 16:57:25.232167 11100 net.cpp:148] Top shape: 1 24 19 19 (8664)
I0509 16:57:25.232172 11100 net.cpp:156] Memory required for data: 248572336
I0509 16:57:25.232182 11100 layer_factory.hpp:77] Creating layer fc7_mbox_loc_perm
I0509 16:57:25.232192 11100 net.cpp:91] Creating Layer fc7_mbox_loc_perm
I0509 16:57:25.232203 11100 net.cpp:425] fc7_mbox_loc_perm <- fc7_mbox_loc
I0509 16:57:25.232210 11100 net.cpp:399] fc7_mbox_loc_perm -> fc7_mbox_loc_perm
I0509 16:57:25.232383 11100 net.cpp:141] Setting up fc7_mbox_loc_perm
I0509 16:57:25.232395 11100 net.cpp:148] Top shape: 1 19 19 24 (8664)
I0509 16:57:25.232400 11100 net.cpp:156] Memory required for data: 248606992
I0509 16:57:25.232405 11100 layer_factory.hpp:77] Creating layer fc7_mbox_loc_flat
I0509 16:57:25.232414 11100 net.cpp:91] Creating Layer fc7_mbox_loc_flat
I0509 16:57:25.232419 11100 net.cpp:425] fc7_mbox_loc_flat <- fc7_mbox_loc_perm
I0509 16:57:25.232424 11100 net.cpp:399] fc7_mbox_loc_flat -> fc7_mbox_loc_flat
I0509 16:57:25.232471 11100 net.cpp:141] Setting up fc7_mbox_loc_flat
I0509 16:57:25.232481 11100 net.cpp:148] Top shape: 1 8664 (8664)
I0509 16:57:25.232486 11100 net.cpp:156] Memory required for data: 248641648
I0509 16:57:25.232489 11100 layer_factory.hpp:77] Creating layer fc7_mbox_conf
I0509 16:57:25.232504 11100 net.cpp:91] Creating Layer fc7_mbox_conf
I0509 16:57:25.232511 11100 net.cpp:425] fc7_mbox_conf <- fc7_relu7_0_split_2
I0509 16:57:25.232522 11100 net.cpp:399] fc7_mbox_conf -> fc7_mbox_conf
I0509 16:57:25.245476 11100 net.cpp:141] Setting up fc7_mbox_conf
I0509 16:57:25.245508 11100 net.cpp:148] Top shape: 1 126 19 19 (45486)
I0509 16:57:25.245514 11100 net.cpp:156] Memory required for data: 248823592
I0509 16:57:25.245524 11100 layer_factory.hpp:77] Creating layer fc7_mbox_conf_perm
I0509 16:57:25.245548 11100 net.cpp:91] Creating Layer fc7_mbox_conf_perm
I0509 16:57:25.245554 11100 net.cpp:425] fc7_mbox_conf_perm <- fc7_mbox_conf
I0509 16:57:25.245561 11100 net.cpp:399] fc7_mbox_conf_perm -> fc7_mbox_conf_perm
I0509 16:57:25.245738 11100 net.cpp:141] Setting up fc7_mbox_conf_perm
I0509 16:57:25.245750 11100 net.cpp:148] Top shape: 1 19 19 126 (45486)
I0509 16:57:25.245755 11100 net.cpp:156] Memory required for data: 249005536
I0509 16:57:25.245761 11100 layer_factory.hpp:77] Creating layer fc7_mbox_conf_flat
I0509 16:57:25.245769 11100 net.cpp:91] Creating Layer fc7_mbox_conf_flat
I0509 16:57:25.245774 11100 net.cpp:425] fc7_mbox_conf_flat <- fc7_mbox_conf_perm
I0509 16:57:25.245803 11100 net.cpp:399] fc7_mbox_conf_flat -> fc7_mbox_conf_flat
I0509 16:57:25.245852 11100 net.cpp:141] Setting up fc7_mbox_conf_flat
I0509 16:57:25.245863 11100 net.cpp:148] Top shape: 1 45486 (45486)
I0509 16:57:25.245867 11100 net.cpp:156] Memory required for data: 249187480
I0509 16:57:25.245874 11100 layer_factory.hpp:77] Creating layer fc7_mbox_priorbox
I0509 16:57:25.245883 11100 net.cpp:91] Creating Layer fc7_mbox_priorbox
I0509 16:57:25.245888 11100 net.cpp:425] fc7_mbox_priorbox <- fc7_relu7_0_split_3
I0509 16:57:25.245894 11100 net.cpp:425] fc7_mbox_priorbox <- data_data_0_split_2
I0509 16:57:25.245903 11100 net.cpp:399] fc7_mbox_priorbox -> fc7_mbox_priorbox
I0509 16:57:25.245949 11100 net.cpp:141] Setting up fc7_mbox_priorbox
I0509 16:57:25.245959 11100 net.cpp:148] Top shape: 1 2 8664 (17328)
I0509 16:57:25.245965 11100 net.cpp:156] Memory required for data: 249256792
I0509 16:57:25.245968 11100 layer_factory.hpp:77] Creating layer conv6_2_mbox_loc
I0509 16:57:25.245985 11100 net.cpp:91] Creating Layer conv6_2_mbox_loc
I0509 16:57:25.245993 11100 net.cpp:425] conv6_2_mbox_loc <- conv6_2_conv6_2_relu_0_split_1
I0509 16:57:25.246002 11100 net.cpp:399] conv6_2_mbox_loc -> conv6_2_mbox_loc
I0509 16:57:25.248507 11100 net.cpp:141] Setting up conv6_2_mbox_loc
I0509 16:57:25.248527 11100 net.cpp:148] Top shape: 1 24 10 10 (2400)
I0509 16:57:25.248533 11100 net.cpp:156] Memory required for data: 249266392
I0509 16:57:25.248543 11100 layer_factory.hpp:77] Creating layer conv6_2_mbox_loc_perm
I0509 16:57:25.248554 11100 net.cpp:91] Creating Layer conv6_2_mbox_loc_perm
I0509 16:57:25.248560 11100 net.cpp:425] conv6_2_mbox_loc_perm <- conv6_2_mbox_loc
I0509 16:57:25.248570 11100 net.cpp:399] conv6_2_mbox_loc_perm -> conv6_2_mbox_loc_perm
I0509 16:57:25.248759 11100 net.cpp:141] Setting up conv6_2_mbox_loc_perm
I0509 16:57:25.248774 11100 net.cpp:148] Top shape: 1 10 10 24 (2400)
I0509 16:57:25.248780 11100 net.cpp:156] Memory required for data: 249275992
I0509 16:57:25.248785 11100 layer_factory.hpp:77] Creating layer conv6_2_mbox_loc_flat
I0509 16:57:25.248792 11100 net.cpp:91] Creating Layer conv6_2_mbox_loc_flat
I0509 16:57:25.248797 11100 net.cpp:425] conv6_2_mbox_loc_flat <- conv6_2_mbox_loc_perm
I0509 16:57:25.248810 11100 net.cpp:399] conv6_2_mbox_loc_flat -> conv6_2_mbox_loc_flat
I0509 16:57:25.248854 11100 net.cpp:141] Setting up conv6_2_mbox_loc_flat
I0509 16:57:25.248865 11100 net.cpp:148] Top shape: 1 2400 (2400)
I0509 16:57:25.248870 11100 net.cpp:156] Memory required for data: 249285592
I0509 16:57:25.248875 11100 layer_factory.hpp:77] Creating layer conv6_2_mbox_conf
I0509 16:57:25.248888 11100 net.cpp:91] Creating Layer conv6_2_mbox_conf
I0509 16:57:25.248896 11100 net.cpp:425] conv6_2_mbox_conf <- conv6_2_conv6_2_relu_0_split_2
I0509 16:57:25.248906 11100 net.cpp:399] conv6_2_mbox_conf -> conv6_2_mbox_conf
I0509 16:57:25.256325 11100 net.cpp:141] Setting up conv6_2_mbox_conf
I0509 16:57:25.256347 11100 net.cpp:148] Top shape: 1 126 10 10 (12600)
I0509 16:57:25.256353 11100 net.cpp:156] Memory required for data: 249335992
I0509 16:57:25.256362 11100 layer_factory.hpp:77] Creating layer conv6_2_mbox_conf_perm
I0509 16:57:25.256373 11100 net.cpp:91] Creating Layer conv6_2_mbox_conf_perm
I0509 16:57:25.256378 11100 net.cpp:425] conv6_2_mbox_conf_perm <- conv6_2_mbox_conf
I0509 16:57:25.256386 11100 net.cpp:399] conv6_2_mbox_conf_perm -> conv6_2_mbox_conf_perm
I0509 16:57:25.256570 11100 net.cpp:141] Setting up conv6_2_mbox_conf_perm
I0509 16:57:25.256583 11100 net.cpp:148] Top shape: 1 10 10 126 (12600)
I0509 16:57:25.256587 11100 net.cpp:156] Memory required for data: 249386392
I0509 16:57:25.256593 11100 layer_factory.hpp:77] Creating layer conv6_2_mbox_conf_flat
I0509 16:57:25.256604 11100 net.cpp:91] Creating Layer conv6_2_mbox_conf_flat
I0509 16:57:25.256613 11100 net.cpp:425] conv6_2_mbox_conf_flat <- conv6_2_mbox_conf_perm
I0509 16:57:25.256619 11100 net.cpp:399] conv6_2_mbox_conf_flat -> conv6_2_mbox_conf_flat
I0509 16:57:25.256670 11100 net.cpp:141] Setting up conv6_2_mbox_conf_flat
I0509 16:57:25.256697 11100 net.cpp:148] Top shape: 1 12600 (12600)
I0509 16:57:25.256702 11100 net.cpp:156] Memory required for data: 249436792
I0509 16:57:25.256707 11100 layer_factory.hpp:77] Creating layer conv6_2_mbox_priorbox
I0509 16:57:25.256716 11100 net.cpp:91] Creating Layer conv6_2_mbox_priorbox
I0509 16:57:25.256721 11100 net.cpp:425] conv6_2_mbox_priorbox <- conv6_2_conv6_2_relu_0_split_3
I0509 16:57:25.256728 11100 net.cpp:425] conv6_2_mbox_priorbox <- data_data_0_split_3
I0509 16:57:25.256738 11100 net.cpp:399] conv6_2_mbox_priorbox -> conv6_2_mbox_priorbox
I0509 16:57:25.256788 11100 net.cpp:141] Setting up conv6_2_mbox_priorbox
I0509 16:57:25.256799 11100 net.cpp:148] Top shape: 1 2 2400 (4800)
I0509 16:57:25.256804 11100 net.cpp:156] Memory required for data: 249455992
I0509 16:57:25.256808 11100 layer_factory.hpp:77] Creating layer conv7_2_mbox_loc
I0509 16:57:25.256824 11100 net.cpp:91] Creating Layer conv7_2_mbox_loc
I0509 16:57:25.256831 11100 net.cpp:425] conv7_2_mbox_loc <- conv7_2_conv7_2_relu_0_split_1
I0509 16:57:25.256841 11100 net.cpp:399] conv7_2_mbox_loc -> conv7_2_mbox_loc
I0509 16:57:25.258815 11100 net.cpp:141] Setting up conv7_2_mbox_loc
I0509 16:57:25.258833 11100 net.cpp:148] Top shape: 1 24 5 5 (600)
I0509 16:57:25.258838 11100 net.cpp:156] Memory required for data: 249458392
I0509 16:57:25.258847 11100 layer_factory.hpp:77] Creating layer conv7_2_mbox_loc_perm
I0509 16:57:25.258857 11100 net.cpp:91] Creating Layer conv7_2_mbox_loc_perm
I0509 16:57:25.258863 11100 net.cpp:425] conv7_2_mbox_loc_perm <- conv7_2_mbox_loc
I0509 16:57:25.258875 11100 net.cpp:399] conv7_2_mbox_loc_perm -> conv7_2_mbox_loc_perm
I0509 16:57:25.259058 11100 net.cpp:141] Setting up conv7_2_mbox_loc_perm
I0509 16:57:25.259071 11100 net.cpp:148] Top shape: 1 5 5 24 (600)
I0509 16:57:25.259076 11100 net.cpp:156] Memory required for data: 249460792
I0509 16:57:25.259086 11100 layer_factory.hpp:77] Creating layer conv7_2_mbox_loc_flat
I0509 16:57:25.259098 11100 net.cpp:91] Creating Layer conv7_2_mbox_loc_flat
I0509 16:57:25.259102 11100 net.cpp:425] conv7_2_mbox_loc_flat <- conv7_2_mbox_loc_perm
I0509 16:57:25.259111 11100 net.cpp:399] conv7_2_mbox_loc_flat -> conv7_2_mbox_loc_flat
I0509 16:57:25.259153 11100 net.cpp:141] Setting up conv7_2_mbox_loc_flat
I0509 16:57:25.259163 11100 net.cpp:148] Top shape: 1 600 (600)
I0509 16:57:25.259167 11100 net.cpp:156] Memory required for data: 249463192
I0509 16:57:25.259172 11100 layer_factory.hpp:77] Creating layer conv7_2_mbox_conf
I0509 16:57:25.259188 11100 net.cpp:91] Creating Layer conv7_2_mbox_conf
I0509 16:57:25.259196 11100 net.cpp:425] conv7_2_mbox_conf <- conv7_2_conv7_2_relu_0_split_2
I0509 16:57:25.259204 11100 net.cpp:399] conv7_2_mbox_conf -> conv7_2_mbox_conf
I0509 16:57:25.263721 11100 net.cpp:141] Setting up conv7_2_mbox_conf
I0509 16:57:25.263741 11100 net.cpp:148] Top shape: 1 126 5 5 (3150)
I0509 16:57:25.263747 11100 net.cpp:156] Memory required for data: 249475792
I0509 16:57:25.263756 11100 layer_factory.hpp:77] Creating layer conv7_2_mbox_conf_perm
I0509 16:57:25.263769 11100 net.cpp:91] Creating Layer conv7_2_mbox_conf_perm
I0509 16:57:25.263777 11100 net.cpp:425] conv7_2_mbox_conf_perm <- conv7_2_mbox_conf
I0509 16:57:25.263783 11100 net.cpp:399] conv7_2_mbox_conf_perm -> conv7_2_mbox_conf_perm
I0509 16:57:25.263970 11100 net.cpp:141] Setting up conv7_2_mbox_conf_perm
I0509 16:57:25.263983 11100 net.cpp:148] Top shape: 1 5 5 126 (3150)
I0509 16:57:25.263988 11100 net.cpp:156] Memory required for data: 249488392
I0509 16:57:25.263993 11100 layer_factory.hpp:77] Creating layer conv7_2_mbox_conf_flat
I0509 16:57:25.264004 11100 net.cpp:91] Creating Layer conv7_2_mbox_conf_flat
I0509 16:57:25.264009 11100 net.cpp:425] conv7_2_mbox_conf_flat <- conv7_2_mbox_conf_perm
I0509 16:57:25.264016 11100 net.cpp:399] conv7_2_mbox_conf_flat -> conv7_2_mbox_conf_flat
I0509 16:57:25.264065 11100 net.cpp:141] Setting up conv7_2_mbox_conf_flat
I0509 16:57:25.264075 11100 net.cpp:148] Top shape: 1 3150 (3150)
I0509 16:57:25.264081 11100 net.cpp:156] Memory required for data: 249500992
I0509 16:57:25.264098 11100 layer_factory.hpp:77] Creating layer conv7_2_mbox_priorbox
I0509 16:57:25.264108 11100 net.cpp:91] Creating Layer conv7_2_mbox_priorbox
I0509 16:57:25.264116 11100 net.cpp:425] conv7_2_mbox_priorbox <- conv7_2_conv7_2_relu_0_split_3
I0509 16:57:25.264122 11100 net.cpp:425] conv7_2_mbox_priorbox <- data_data_0_split_4
I0509 16:57:25.264133 11100 net.cpp:399] conv7_2_mbox_priorbox -> conv7_2_mbox_priorbox
I0509 16:57:25.264181 11100 net.cpp:141] Setting up conv7_2_mbox_priorbox
I0509 16:57:25.264192 11100 net.cpp:148] Top shape: 1 2 600 (1200)
I0509 16:57:25.264199 11100 net.cpp:156] Memory required for data: 249505792
I0509 16:57:25.264204 11100 layer_factory.hpp:77] Creating layer conv8_2_mbox_loc
I0509 16:57:25.264231 11100 net.cpp:91] Creating Layer conv8_2_mbox_loc
I0509 16:57:25.264237 11100 net.cpp:425] conv8_2_mbox_loc <- conv8_2_conv8_2_relu_0_split_1
I0509 16:57:25.264245 11100 net.cpp:399] conv8_2_mbox_loc -> conv8_2_mbox_loc
I0509 16:57:25.266962 11100 net.cpp:141] Setting up conv8_2_mbox_loc
I0509 16:57:25.266981 11100 net.cpp:148] Top shape: 1 24 3 3 (216)
I0509 16:57:25.266986 11100 net.cpp:156] Memory required for data: 249506656
I0509 16:57:25.266996 11100 layer_factory.hpp:77] Creating layer conv8_2_mbox_loc_perm
I0509 16:57:25.267009 11100 net.cpp:91] Creating Layer conv8_2_mbox_loc_perm
I0509 16:57:25.267014 11100 net.cpp:425] conv8_2_mbox_loc_perm <- conv8_2_mbox_loc
I0509 16:57:25.267022 11100 net.cpp:399] conv8_2_mbox_loc_perm -> conv8_2_mbox_loc_perm
I0509 16:57:25.267207 11100 net.cpp:141] Setting up conv8_2_mbox_loc_perm
I0509 16:57:25.267220 11100 net.cpp:148] Top shape: 1 3 3 24 (216)
I0509 16:57:25.267225 11100 net.cpp:156] Memory required for data: 249507520
I0509 16:57:25.267228 11100 layer_factory.hpp:77] Creating layer conv8_2_mbox_loc_flat
I0509 16:57:25.267237 11100 net.cpp:91] Creating Layer conv8_2_mbox_loc_flat
I0509 16:57:25.267244 11100 net.cpp:425] conv8_2_mbox_loc_flat <- conv8_2_mbox_loc_perm
I0509 16:57:25.267251 11100 net.cpp:399] conv8_2_mbox_loc_flat -> conv8_2_mbox_loc_flat
I0509 16:57:25.267298 11100 net.cpp:141] Setting up conv8_2_mbox_loc_flat
I0509 16:57:25.267307 11100 net.cpp:148] Top shape: 1 216 (216)
I0509 16:57:25.267310 11100 net.cpp:156] Memory required for data: 249508384
I0509 16:57:25.267315 11100 layer_factory.hpp:77] Creating layer conv8_2_mbox_conf
I0509 16:57:25.267333 11100 net.cpp:91] Creating Layer conv8_2_mbox_conf
I0509 16:57:25.267340 11100 net.cpp:425] conv8_2_mbox_conf <- conv8_2_conv8_2_relu_0_split_2
I0509 16:57:25.267349 11100 net.cpp:399] conv8_2_mbox_conf -> conv8_2_mbox_conf
I0509 16:57:25.271836 11100 net.cpp:141] Setting up conv8_2_mbox_conf
I0509 16:57:25.271855 11100 net.cpp:148] Top shape: 1 126 3 3 (1134)
I0509 16:57:25.271860 11100 net.cpp:156] Memory required for data: 249512920
I0509 16:57:25.271869 11100 layer_factory.hpp:77] Creating layer conv8_2_mbox_conf_perm
I0509 16:57:25.271879 11100 net.cpp:91] Creating Layer conv8_2_mbox_conf_perm
I0509 16:57:25.271885 11100 net.cpp:425] conv8_2_mbox_conf_perm <- conv8_2_mbox_conf
I0509 16:57:25.271896 11100 net.cpp:399] conv8_2_mbox_conf_perm -> conv8_2_mbox_conf_perm
I0509 16:57:25.272090 11100 net.cpp:141] Setting up conv8_2_mbox_conf_perm
I0509 16:57:25.272104 11100 net.cpp:148] Top shape: 1 3 3 126 (1134)
I0509 16:57:25.272107 11100 net.cpp:156] Memory required for data: 249517456
I0509 16:57:25.272112 11100 layer_factory.hpp:77] Creating layer conv8_2_mbox_conf_flat
I0509 16:57:25.272120 11100 net.cpp:91] Creating Layer conv8_2_mbox_conf_flat
I0509 16:57:25.272125 11100 net.cpp:425] conv8_2_mbox_conf_flat <- conv8_2_mbox_conf_perm
I0509 16:57:25.272135 11100 net.cpp:399] conv8_2_mbox_conf_flat -> conv8_2_mbox_conf_flat
I0509 16:57:25.272181 11100 net.cpp:141] Setting up conv8_2_mbox_conf_flat
I0509 16:57:25.272194 11100 net.cpp:148] Top shape: 1 1134 (1134)
I0509 16:57:25.272198 11100 net.cpp:156] Memory required for data: 249521992
I0509 16:57:25.272203 11100 layer_factory.hpp:77] Creating layer conv8_2_mbox_priorbox
I0509 16:57:25.272230 11100 net.cpp:91] Creating Layer conv8_2_mbox_priorbox
I0509 16:57:25.272236 11100 net.cpp:425] conv8_2_mbox_priorbox <- conv8_2_conv8_2_relu_0_split_3
I0509 16:57:25.272243 11100 net.cpp:425] conv8_2_mbox_priorbox <- data_data_0_split_5
I0509 16:57:25.272250 11100 net.cpp:399] conv8_2_mbox_priorbox -> conv8_2_mbox_priorbox
I0509 16:57:25.272300 11100 net.cpp:141] Setting up conv8_2_mbox_priorbox
I0509 16:57:25.272312 11100 net.cpp:148] Top shape: 1 2 216 (432)
I0509 16:57:25.272316 11100 net.cpp:156] Memory required for data: 249523720
I0509 16:57:25.272321 11100 layer_factory.hpp:77] Creating layer pool6_mbox_loc
I0509 16:57:25.272336 11100 net.cpp:91] Creating Layer pool6_mbox_loc
I0509 16:57:25.272346 11100 net.cpp:425] pool6_mbox_loc <- pool6_pool6_0_split_0
I0509 16:57:25.272356 11100 net.cpp:399] pool6_mbox_loc -> pool6_mbox_loc
I0509 16:57:25.274301 11100 net.cpp:141] Setting up pool6_mbox_loc
I0509 16:57:25.274320 11100 net.cpp:148] Top shape: 1 24 1 1 (24)
I0509 16:57:25.274325 11100 net.cpp:156] Memory required for data: 249523816
I0509 16:57:25.274354 11100 layer_factory.hpp:77] Creating layer pool6_mbox_loc_perm
I0509 16:57:25.274369 11100 net.cpp:91] Creating Layer pool6_mbox_loc_perm
I0509 16:57:25.274376 11100 net.cpp:425] pool6_mbox_loc_perm <- pool6_mbox_loc
I0509 16:57:25.274385 11100 net.cpp:399] pool6_mbox_loc_perm -> pool6_mbox_loc_perm
I0509 16:57:25.274564 11100 net.cpp:141] Setting up pool6_mbox_loc_perm
I0509 16:57:25.274579 11100 net.cpp:148] Top shape: 1 1 1 24 (24)
I0509 16:57:25.274583 11100 net.cpp:156] Memory required for data: 249523912
I0509 16:57:25.274588 11100 layer_factory.hpp:77] Creating layer pool6_mbox_loc_flat
I0509 16:57:25.274596 11100 net.cpp:91] Creating Layer pool6_mbox_loc_flat
I0509 16:57:25.274600 11100 net.cpp:425] pool6_mbox_loc_flat <- pool6_mbox_loc_perm
I0509 16:57:25.274607 11100 net.cpp:399] pool6_mbox_loc_flat -> pool6_mbox_loc_flat
I0509 16:57:25.274657 11100 net.cpp:141] Setting up pool6_mbox_loc_flat
I0509 16:57:25.274668 11100 net.cpp:148] Top shape: 1 24 (24)
I0509 16:57:25.274673 11100 net.cpp:156] Memory required for data: 249524008
I0509 16:57:25.274680 11100 layer_factory.hpp:77] Creating layer pool6_mbox_conf
I0509 16:57:25.274694 11100 net.cpp:91] Creating Layer pool6_mbox_conf
I0509 16:57:25.274701 11100 net.cpp:425] pool6_mbox_conf <- pool6_pool6_0_split_1
I0509 16:57:25.274711 11100 net.cpp:399] pool6_mbox_conf -> pool6_mbox_conf
I0509 16:57:25.279302 11100 net.cpp:141] Setting up pool6_mbox_conf
I0509 16:57:25.279322 11100 net.cpp:148] Top shape: 1 126 1 1 (126)
I0509 16:57:25.279328 11100 net.cpp:156] Memory required for data: 249524512
I0509 16:57:25.279336 11100 layer_factory.hpp:77] Creating layer pool6_mbox_conf_perm
I0509 16:57:25.279346 11100 net.cpp:91] Creating Layer pool6_mbox_conf_perm
I0509 16:57:25.279352 11100 net.cpp:425] pool6_mbox_conf_perm <- pool6_mbox_conf
I0509 16:57:25.279363 11100 net.cpp:399] pool6_mbox_conf_perm -> pool6_mbox_conf_perm
I0509 16:57:25.279546 11100 net.cpp:141] Setting up pool6_mbox_conf_perm
I0509 16:57:25.279558 11100 net.cpp:148] Top shape: 1 1 1 126 (126)
I0509 16:57:25.279562 11100 net.cpp:156] Memory required for data: 249525016
I0509 16:57:25.279567 11100 layer_factory.hpp:77] Creating layer pool6_mbox_conf_flat
I0509 16:57:25.279575 11100 net.cpp:91] Creating Layer pool6_mbox_conf_flat
I0509 16:57:25.279580 11100 net.cpp:425] pool6_mbox_conf_flat <- pool6_mbox_conf_perm
I0509 16:57:25.279587 11100 net.cpp:399] pool6_mbox_conf_flat -> pool6_mbox_conf_flat
I0509 16:57:25.279633 11100 net.cpp:141] Setting up pool6_mbox_conf_flat
I0509 16:57:25.279644 11100 net.cpp:148] Top shape: 1 126 (126)
I0509 16:57:25.279649 11100 net.cpp:156] Memory required for data: 249525520
I0509 16:57:25.279654 11100 layer_factory.hpp:77] Creating layer pool6_mbox_priorbox
I0509 16:57:25.279664 11100 net.cpp:91] Creating Layer pool6_mbox_priorbox
I0509 16:57:25.279672 11100 net.cpp:425] pool6_mbox_priorbox <- pool6_pool6_0_split_2
I0509 16:57:25.279678 11100 net.cpp:425] pool6_mbox_priorbox <- data_data_0_split_6
I0509 16:57:25.279700 11100 net.cpp:399] pool6_mbox_priorbox -> pool6_mbox_priorbox
I0509 16:57:25.279752 11100 net.cpp:141] Setting up pool6_mbox_priorbox
I0509 16:57:25.279760 11100 net.cpp:148] Top shape: 1 2 24 (48)
I0509 16:57:25.279765 11100 net.cpp:156] Memory required for data: 249525712
I0509 16:57:25.279769 11100 layer_factory.hpp:77] Creating layer mbox_loc
I0509 16:57:25.279781 11100 net.cpp:91] Creating Layer mbox_loc
I0509 16:57:25.279788 11100 net.cpp:425] mbox_loc <- conv4_3_norm_mbox_loc_flat
I0509 16:57:25.279794 11100 net.cpp:425] mbox_loc <- fc7_mbox_loc_flat
I0509 16:57:25.279801 11100 net.cpp:425] mbox_loc <- conv6_2_mbox_loc_flat
I0509 16:57:25.279808 11100 net.cpp:425] mbox_loc <- conv7_2_mbox_loc_flat
I0509 16:57:25.279813 11100 net.cpp:425] mbox_loc <- conv8_2_mbox_loc_flat
I0509 16:57:25.279817 11100 net.cpp:425] mbox_loc <- pool6_mbox_loc_flat
I0509 16:57:25.279824 11100 net.cpp:399] mbox_loc -> mbox_loc
I0509 16:57:25.279873 11100 net.cpp:141] Setting up mbox_loc
I0509 16:57:25.279884 11100 net.cpp:148] Top shape: 1 29232 (29232)
I0509 16:57:25.279889 11100 net.cpp:156] Memory required for data: 249642640
I0509 16:57:25.279893 11100 layer_factory.hpp:77] Creating layer mbox_conf
I0509 16:57:25.279902 11100 net.cpp:91] Creating Layer mbox_conf
I0509 16:57:25.279907 11100 net.cpp:425] mbox_conf <- conv4_3_norm_mbox_conf_flat
I0509 16:57:25.279914 11100 net.cpp:425] mbox_conf <- fc7_mbox_conf_flat
I0509 16:57:25.279923 11100 net.cpp:425] mbox_conf <- conv6_2_mbox_conf_flat
I0509 16:57:25.279928 11100 net.cpp:425] mbox_conf <- conv7_2_mbox_conf_flat
I0509 16:57:25.279933 11100 net.cpp:425] mbox_conf <- conv8_2_mbox_conf_flat
I0509 16:57:25.279938 11100 net.cpp:425] mbox_conf <- pool6_mbox_conf_flat
I0509 16:57:25.279945 11100 net.cpp:399] mbox_conf -> mbox_conf
I0509 16:57:25.279989 11100 net.cpp:141] Setting up mbox_conf
I0509 16:57:25.279999 11100 net.cpp:148] Top shape: 1 153468 (153468)
I0509 16:57:25.280004 11100 net.cpp:156] Memory required for data: 250256512
I0509 16:57:25.280009 11100 layer_factory.hpp:77] Creating layer mbox_priorbox
I0509 16:57:25.280021 11100 net.cpp:91] Creating Layer mbox_priorbox
I0509 16:57:25.280027 11100 net.cpp:425] mbox_priorbox <- conv4_3_norm_mbox_priorbox
I0509 16:57:25.280033 11100 net.cpp:425] mbox_priorbox <- fc7_mbox_priorbox
I0509 16:57:25.280040 11100 net.cpp:425] mbox_priorbox <- conv6_2_mbox_priorbox
I0509 16:57:25.280045 11100 net.cpp:425] mbox_priorbox <- conv7_2_mbox_priorbox
I0509 16:57:25.280048 11100 net.cpp:425] mbox_priorbox <- conv8_2_mbox_priorbox
I0509 16:57:25.280055 11100 net.cpp:425] mbox_priorbox <- pool6_mbox_priorbox
I0509 16:57:25.280061 11100 net.cpp:399] mbox_priorbox -> mbox_priorbox
I0509 16:57:25.280104 11100 net.cpp:141] Setting up mbox_priorbox
I0509 16:57:25.280112 11100 net.cpp:148] Top shape: 1 2 29232 (58464)
I0509 16:57:25.280117 11100 net.cpp:156] Memory required for data: 250490368
I0509 16:57:25.280122 11100 layer_factory.hpp:77] Creating layer mbox_conf_reshape
I0509 16:57:25.280131 11100 net.cpp:91] Creating Layer mbox_conf_reshape
I0509 16:57:25.280136 11100 net.cpp:425] mbox_conf_reshape <- mbox_conf
I0509 16:57:25.280146 11100 net.cpp:399] mbox_conf_reshape -> mbox_conf_reshape
I0509 16:57:25.280205 11100 net.cpp:141] Setting up mbox_conf_reshape
I0509 16:57:25.280215 11100 net.cpp:148] Top shape: 1 7308 21 (153468)
I0509 16:57:25.280220 11100 net.cpp:156] Memory required for data: 251104240
I0509 16:57:25.280225 11100 layer_factory.hpp:77] Creating layer mbox_conf_softmax
I0509 16:57:25.280233 11100 net.cpp:91] Creating Layer mbox_conf_softmax
I0509 16:57:25.280238 11100 net.cpp:425] mbox_conf_softmax <- mbox_conf_reshape
I0509 16:57:25.280244 11100 net.cpp:399] mbox_conf_softmax -> mbox_conf_softmax
I0509 16:57:25.280596 11100 net.cpp:141] Setting up mbox_conf_softmax
I0509 16:57:25.280611 11100 net.cpp:148] Top shape: 1 7308 21 (153468)
I0509 16:57:25.280616 11100 net.cpp:156] Memory required for data: 251718112
I0509 16:57:25.280621 11100 layer_factory.hpp:77] Creating layer mbox_conf_flatten
I0509 16:57:25.280640 11100 net.cpp:91] Creating Layer mbox_conf_flatten
I0509 16:57:25.280652 11100 net.cpp:425] mbox_conf_flatten <- mbox_conf_softmax
I0509 16:57:25.280665 11100 net.cpp:399] mbox_conf_flatten -> mbox_conf_flatten
I0509 16:57:25.280712 11100 net.cpp:141] Setting up mbox_conf_flatten
I0509 16:57:25.280725 11100 net.cpp:148] Top shape: 1 153468 (153468)
I0509 16:57:25.280730 11100 net.cpp:156] Memory required for data: 252331984
I0509 16:57:25.280733 11100 layer_factory.hpp:77] Creating layer detection_out
I0509 16:57:25.280751 11100 net.cpp:91] Creating Layer detection_out
I0509 16:57:25.280756 11100 net.cpp:425] detection_out <- mbox_loc
I0509 16:57:25.280762 11100 net.cpp:425] detection_out <- mbox_conf_flatten
I0509 16:57:25.280767 11100 net.cpp:425] detection_out <- mbox_priorbox
I0509 16:57:25.280778 11100 net.cpp:399] detection_out -> detection_out
I0509 16:57:25.293218 11100 net.cpp:141] Setting up detection_out
I0509 16:57:25.293256 11100 net.cpp:148] Top shape: 1 1 1 7 (7)
I0509 16:57:25.293267 11100 net.cpp:156] Memory required for data: 252332012
I0509 16:57:25.293279 11100 layer_factory.hpp:77] Creating layer detection_eval
I0509 16:57:25.293298 11100 net.cpp:91] Creating Layer detection_eval
I0509 16:57:25.293308 11100 net.cpp:425] detection_eval <- detection_out
I0509 16:57:25.293319 11100 net.cpp:425] detection_eval <- label
I0509 16:57:25.293334 11100 net.cpp:399] detection_eval -> detection_eval
I0509 16:57:25.295747 11100 net.cpp:141] Setting up detection_eval
I0509 16:57:25.295775 11100 net.cpp:148] Top shape: 1 1 21 5 (105)
I0509 16:57:25.295785 11100 net.cpp:156] Memory required for data: 252332432
I0509 16:57:25.295796 11100 net.cpp:219] detection_eval does not need backward computation.
I0509 16:57:25.295809 11100 net.cpp:219] detection_out does not need backward computation.
I0509 16:57:25.295819 11100 net.cpp:219] mbox_conf_flatten does not need backward computation.
I0509 16:57:25.295828 11100 net.cpp:219] mbox_conf_softmax does not need backward computation.
…
