…
        min_scale: 0.3
        max_scale: 1
        min_aspect_ratio: 0.5
        max_aspect_ratio: 2
      }
      sample_constraint {
        min_jaccard_overlap: 0.9
      }
      max_sample: 1
      max_trials: 50
    }
    batch_sampler {
      sampler {
        min_scale: 0.3
        max_scale: 1
        min_aspect_ratio: 0.5
        max_aspect_ratio: 2
      }
      sample_constraint {
        max_jaccard_overlap: 1
      }
      max_sample: 1
      max_trials: 50
    }
    label_map_file: "data/deepv_car_person/labelmap_voc.prototxt"
  }
}
layer {
  name: "conv1_1"
  type: "Convolution"
  bottom: "data"
  top: "conv1_1"
  param {
    lr_mult: 0
    decay_mult: 0
  }
  param {
    lr_mult: 0
    decay_mult: 0
  }
  convolution_param {
    num_output: 64
    pad: 1
    kernel_size: 3
    weight_filler {
      type: "xavier"
    }
    bias_filler {
      type: "constant"
      value: 0
    }
  }
}
layer {
  name: "relu1_1"
  type: "ReLU"
  bottom: "conv1_1"
  top: "conv1_1"
}
layer {
  name: "conv1_2"
  type: "Convolution"
  bottom: "conv1_1"
  top: "conv1_2"
  param {
    lr_mult: 0
    decay_mult: 0
  }
  param {
    lr_mult: 0
    decay_mult: 0
  }
  convolution_param {
    num_output: 64
    pad: 1
    kernel_size: 3
    weight_filler {
      type: "xavier"
    }
    bias_filler {
      type: "constant"
      value: 0
    }
  }
}
layer {
  name: "relu1_2"
  type: "ReLU"
  bottom: "conv1_2"
  top: "conv1_2"
}
layer {
  name: "pool1"
  type: "Pooling"
  bottom: "conv1_2"
  top: "pool1"
  pooling_param {
    pool: MAX
    kernel_size: 2
    stride: 2
  }
}
layer {
  name: "conv2_1"
  type: "Convolution"
  bottom: "pool1"
  top: "conv2_1"
  param {
    lr_mult: 0
    decay_mult: 0
  }
  param {
    lr_mult: 0
    decay_mult: 0
  }
  convolution_param {
    num_output: 128
    pad: 1
    kernel_size: 3
    weight_filler {
      type: "xavier"
    }
    bias_filler {
      type: "constant"
      value: 0
    }
  }
}
layer {
  name: "relu2_1"
  type: "ReLU"
  bottom: "conv2_1"
  top: "conv2_1"
}
layer {
  name: "conv2_2"
  type: "Convolution"
  bottom: "conv2_1"
  top: "conv2_2"
  param {
    lr_mult: 0
    decay_mult: 0
  }
  param {
    lr_mult: 0
    decay_mult: 0
  }
  convolution_param {
    num_output: 128
    pad: 1
    kernel_size: 3
    weight_filler {
      type: "xavier"
    }
    bias_filler {
      type: "constant"
      value: 0
    }
  }
}
layer {
  name: "relu2_2"
  type: "ReLU"
  bottom: "conv2_2"
  top: "conv2_2"
}
layer {
  name: "pool2"
  type: "Pooling"
  bottom: "conv2_2"
  top: "pool2"
  pooling_param {
    pool: MAX
    kernel_size: 2
    stride: 2
  }
}
layer {
  name: "conv3_1"
  type: "Convolution"
  bottom: "pool2"
  top: "conv3_1"
  param {
    lr_mult: 1
    decay_mult: 1
  }
  param {
    lr_mult: 2
    decay_mult: 0
  }
  convolution_param {
    num_output: 256
    pad: 1
    kernel_size: 3
    weight_filler {
      type: "xavier"
    }
    bias_filler {
      type: "constant"
      value: 0
    }
  }
}
layer {
  name: "relu3_1"
  type: "ReLU"
  bottom: "conv3_1"
  top: "conv3_1"
}
layer {
  name: "conv3_2"
  type: "Convolution"
  bottom: "conv3_1"
  top: "conv3_2"
  param {
    lr_mult: 1
    decay_mult: 1
  }
  param {
    lr_mult: 2
    decay_mult: 0
  }
  convolution_param {
    num_output: 256
    pad: 1
    kernel_size: 3
    weight_filler {
      type: "xavier"
    }
    bias_filler {
      type: "constant"
      value: 0
    }
  }
}
layer {
  name: "relu3_2"
  type: "ReLU"
  bottom: "conv3_2"
  top: "conv3_2"
}
layer {
  name: "conv3_3"
  type: "Convolution"
  bottom: "conv3_2"
  top: "conv3_3"
  param {
    lr_mult: 1
    decay_mult: 1
  }
  param {
    lr_mult: 2
    decay_mult: 0
  }
  convolution_param {
    num_output: 256
    pad: 1
    kernel_size: 3
    weight_filler {
      type: "xavier"
    }
    bias_filler {
      type: "constant"
      value: 0
    }
  }
}
layer {
  name: "relu3_3"
  type: "ReLU"
  bottom: "conv3_3"
  top: "conv3_3"
}
layer {
  name: "pool3"
  type: "Pooling"
  bottom: "conv3_3"
  top: "pool3"
  pooling_param {
    pool: MAX
    kernel_size: 2
    stride: 2
  }
}
layer {
  name: "conv4_1"
  type: "Convolution"
  bottom: "pool3"
  top: "conv4_1"
  param {
    lr_mult: 1
    decay_mult: 1
  }
  param {
    lr_mult: 2
    decay_mult: 0
  }
  convolution_param {
    num_output: 512
    pad: 1
    kernel_size: 3
    weight_filler {
      type: "xavier"
    }
    bias_filler {
      type: "constant"
      value: 0
    }
  }
}
layer {
  name: "relu4_1"
  type: "ReLU"
  bottom: "conv4_1"
  top: "conv4_1"
}
layer {
  name: "conv4_2"
  type: "Convolution"
  bottom: "conv4_1"
  top: "conv4_2"
  param {
    lr_mult: 1
    decay_mult: 1
  }
  param {
    lr_mult: 2
    decay_mult: 0
  }
  convolution_param {
    num_output: 512
    pad: 1
    kernel_size: 3
    weight_filler {
      type: "xavier"
    }
    bias_filler {
      type: "constant"
      value: 0
    }
  }
}
layer {
  name: "relu4_2"
  type: "ReLU"
  bottom: "conv4_2"
  top: "conv4_2"
}
layer {
  name: "conv4_3"
  type: "Convolution"
  bottom: "conv4_2"
  top: "conv4_3"
  param {
    lr_mult: 1
    decay_mult: 1
  }
  param {
    lr_mult: 2
    decay_mult: 0
  }
  convolution_param {
    num_output: 512
    pad: 1
    kernel_size: 3
    weight_filler {
      type: "xavier"
    }
    bias_filler {
      type: "constant"
      value: 0
    }
  }
}
layer {
  name: "relu4_3"
  type: "ReLU"
  bottom: "conv4_3"
  top: "conv4_3"
}
layer {
  name: "pool4"
  type: "Pooling"
  bottom: "conv4_3"
  top: "pool4"
  pooling_param {
    pool: MAX
    kernel_size: 2
    stride: 2
  }
}
layer {
  name: "conv5_1"
  type: "Convolution"
  bottom: "pool4"
  top: "conv5_1"
  param {
    lr_mult: 1
    decay_mult: 1
  }
  param {
    lr_mult: 2
    decay_mult: 0
  }
  convolution_param {
    num_output: 512
    pad: 1
    kernel_size: 3
    weight_filler {
      type: "xavier"
    }
    bias_filler {
      type: "constant"
      value: 0
    }
  }
}
layer {
  name: "relu5_1"
  type: "ReLU"
  bottom: "conv5_1"
  top: "conv5_1"
}
layer {
  name: "conv5_2"
  type: "Convolution"
  bottom: "conv5_1"
  top: "conv5_2"
  param {
    lr_mult: 1
    decay_mult: 1
  }
  param {
    lr_mult: 2
    decay_mult: 0
  }
  convolution_param {
    num_output: 512
    pad: 1
    kernel_size: 3
    weight_filler {
      type: "xavier"
    }
    bias_filler {
      type: "constant"
      value: 0
    }
  }
}
layer {
  name: "relu5_2"
  type: "ReLU"
  bottom: "conv5_2"
  top: "conv5_2"
}
layer {
  name: "conv5_3"
  type: "Convolution"
  bottom: "conv5_2"
  top: "conv5_3"
  param {
    lr_mult: 1
    decay_mult: 1
  }
  param {
    lr_mult: 2
    decay_mult: 0
  }
  convolution_param {
    num_output: 512
    pad: 1
    kernel_size: 3
    weight_filler {
      type: "xavier"
    }
    bias_filler {
      type: "constant"
      value: 0
    }
  }
}
layer {
  name: "relu5_3"
  type: "ReLU"
  bottom: "conv5_3"
  top: "conv5_3"
}
layer {
  name: "pool5"
  type: "Pooling"
  bottom: "conv5_3"
  top: "pool5"
  pooling_param {
    pool: MAX
    kernel_size: 3
    stride: 1
    pad: 1
  }
}
layer {
  name: "fc6"
  type: "Convolution"
  bottom: "pool5"
  top: "fc6"
  param {
    lr_mult: 1
    decay_mult: 1
  }
  param {
    lr_mult: 2
    decay_mult: 0
  }
  convolution_param {
    num_output: 1024
    pad: 6
    kernel_size: 3
    weight_filler {
      type: "xavier"
    }
    bias_filler {
      type: "constant"
      value: 0
    }
    dilation: 6
  }
}
layer {
  name: "relu6"
  type: "ReLU"
  bottom: "fc6"
  top: "fc6"
}
layer {
  name: "fc7"
  type: "Convolution"
  bottom: "fc6"
  top: "fc7"
  param {
    lr_mult: 1
    decay_mult: 1
  }
  param {
    lr_mult: 2
    decay_mult: 0
  }
  convolution_param {
    num_output: 1024
    kernel_size: 1
    weight_filler {
      type: "xavier"
    }
    bias_filler {
      type: "constant"
      value: 0
    }
  }
}
layer {
  name: "relu7"
  type: "ReLU"
  bottom: "fc7"
  top: "fc7"
}
layer {
  name: "conv6_1"
  type: "Convolution"
  bottom: "fc7"
  top: "conv6_1"
  param {
    lr_mult: 1
    decay_mult: 1
  }
  param {
    lr_mult: 2
    decay_mult: 0
  }
  convolution_param {
    num_output: 256
    pad: 0
    kernel_size: 1
    stride: 1
    weight_filler {
      type: "xavier"
    }
    bias_filler {
      type: "constant"
      value: 0
    }
  }
}
layer {
  name: "conv6_1_relu"
  type: "ReLU"
  bottom: "conv6_1"
  top: "conv6_1"
}
layer {
  name: "conv6_2"
  type: "Convolution"
  bottom: "conv6_1"
  top: "conv6_2"
  param {
    lr_mult: 1
    decay_mult: 1
  }
  param {
    lr_mult: 2
    decay_mult: 0
  }
  convolution_param {
    num_output: 512
    pad: 1
    kernel_size: 3
    stride: 2
    weight_filler {
      type: "xavier"
    }
    bias_filler {
      type: "constant"
      value: 0
    }
  }
}
layer {
  name: "conv6_2_relu"
  type: "ReLU"
  bottom: "conv6_2"
  top: "conv6_2"
}
layer {
  name: "conv7_1"
  type: "Convolution"
  bottom: "conv6_2"
  top: "conv7_1"
  param {
    lr_mult: 1
    decay_mult: 1
  }
  param {
    lr_mult: 2
    decay_mult: 0
  }
  convolution_param {
    num_output: 128
    pad: 0
    kernel_size: 1
    stride: 1
    weight_filler {
      type: "xavier"
    }
    bias_filler {
      type: "constant"
      value: 0
    }
  }
}
layer {
  name: "conv7_1_relu"
  type: "ReLU"
  bottom: "conv7_1"
  top: "conv7_1"
}
layer {
  name: "conv7_2"
  type: "Convolution"
  bottom: "conv7_1"
  top: "conv7_2"
  param {
    lr_mult: 1
    decay_mult: 1
  }
  param {
    lr_mult: 2
    decay_mult: 0
  }
  convolution_param {
    num_output: 256
    pad: 1
    kernel_size: 3
    stride: 2
    weight_filler {
      type: "xavier"
    }
    bias_filler {
      type: "constant"
      value: 0
    }
  }
}
layer {
  name: "conv7_2_relu"
  type: "ReLU"
  bottom: "conv7_2"
  top: "conv7_2"
}
layer {
  name: "conv8_1"
  type: "Convolution"
  bottom: "conv7_2"
  top: "conv8_1"
  param {
    lr_mult: 1
    decay_mult: 1
  }
  param {
    lr_mult: 2
    decay_mult: 0
  }
  convolution_param {
    num_output: 128
    pad: 0
    kernel_size: 1
    stride: 1
    weight_filler {
      type: "xavier"
    }
    bias_filler {
      type: "constant"
      value: 0
    }
  }
}
layer {
  name: "conv8_1_relu"
  type: "ReLU"
  bottom: "conv8_1"
  top: "conv8_1"
}
layer {
  name: "conv8_2"
  type: "Convolution"
  bottom: "conv8_1"
  top: "conv8_2"
  param {
    lr_mult: 1
    decay_mult: 1
  }
  param {
    lr_mult: 2
    decay_mult: 0
  }
  convolution_param {
    num_output: 256
    pad: 1
    kernel_size: 3
    stride: 2
    weight_filler {
      type: "xavier"
    }
    bias_filler {
      type: "constant"
      value: 0
    }
  }
}
layer {
  name: "conv8_2_relu"
  type: "ReLU"
  bottom: "conv8_2"
  top: "conv8_2"
}
layer {
  name: "pool6"
  type: "Pooling"
  bottom: "conv8_2"
  top: "pool6"
  pooling_param {
    pool: AVE
    global_pooling: true
  }
}
layer {
  name: "conv4_3_norm"
  type: "Normalize"
  bottom: "conv4_3"
  top: "conv4_3_norm"
  norm_param {
    across_spatial: false
    scale_filler {
      type: "constant"
      value: 20
    }
    channel_shared: false
  }
}
layer {
  name: "conv4_3_norm_mbox_loc"
  type: "Convolution"
  bottom: "conv4_3_norm"
  top: "conv4_3_norm_mbox_loc"
  param {
    lr_mult: 1
    decay_mult: 1
  }
  param {
    lr_mult: 2
    decay_mult: 0
  }
  convolution_param {
    num_output: 12
    pad: 1
    kernel_size: 3
    stride: 1
    weight_filler {
      type: "xavier"
    }
    bias_filler {
      type: "constant"
      value: 0
    }
  }
}
layer {
  name: "conv4_3_norm_mbox_loc_perm"
  type: "Permute"
  bottom: "conv4_3_norm_mbox_loc"
  top: "conv4_3_norm_mbox_loc_perm"
  permute_param {
    order: 0
    order: 2
    order: 3
    order: 1
  }
}
layer {
  name: "conv4_3_norm_mbox_loc_flat"
  type: "Flatten"
  bottom: "conv4_3_norm_mbox_loc_perm"
  top: "conv4_3_norm_mbox_loc_flat"
  flatten_param {
    axis: 1
  }
}
layer {
  name: "conv4_3_norm_mbox_conf"
  type: "Convolution"
  bottom: "conv4_3_norm"
  top: "conv4_3_norm_mbox_conf"
  param {
    lr_mult: 1
    decay_mult: 1
  }
  param {
    lr_mult: 2
    decay_mult: 0
  }
  convolution_param {
    num_output: 15
    pad: 1
    kernel_size: 3
    stride: 1
    weight_filler {
      type: "xavier"
    }
    bias_filler {
      type: "constant"
      value: 0
    }
  }
}
layer {
  name: "conv4_3_norm_mbox_conf_perm"
  type: "Permute"
  bottom: "conv4_3_norm_mbox_conf"
  top: "conv4_3_norm_mbox_conf_perm"
  permute_param {
    order: 0
    order: 2
    order: 3
    order: 1
  }
}
layer {
  name: "conv4_3_norm_mbox_conf_flat"
  type: "Flatten"
  bottom: "conv4_3_norm_mbox_conf_perm"
  top: "conv4_3_norm_mbox_conf_flat"
  flatten_param {
    axis: 1
  }
}
layer {
  name: "conv4_3_norm_mbox_priorbox"
  type: "PriorBox"
  bottom: "conv4_3_norm"
  bottom: "data"
  top: "conv4_3_norm_mbox_priorbox"
  prior_box_param {
    min_size: 50
    aspect_ratio: 2
    flip: true
    clip: true
    variance: 0.1
    variance: 0.1
    variance: 0.2
    variance: 0.2
  }
}
layer {
  name: "fc7_mbox_loc"
  type: "Convolution"
  bottom: "fc7"
  top: "fc7_mbox_loc"
  param {
    lr_mult: 1
    decay_mult: 1
  }
  param {
    lr_mult: 2
    decay_mult: 0
  }
  convolution_param {
    num_output: 24
    pad: 1
    kernel_size: 3
    stride: 1
    weight_filler {
      type: "xavier"
    }
    bias_filler {
      type: "constant"
      value: 0
    }
  }
}
layer {
  name: "fc7_mbox_loc_perm"
  type: "Permute"
  bottom: "fc7_mbox_loc"
  top: "fc7_mbox_loc_perm"
  permute_param {
    order: 0
    order: 2
    order: 3
    order: 1
  }
}
layer {
  name: "fc7_mbox_loc_flat"
  type: "Flatten"
  bottom: "fc7_mbox_loc_perm"
  top: "fc7_mbox_loc_flat"
  flatten_param {
    axis: 1
  }
}
layer {
  name: "fc7_mbox_conf"
  type: "Convolution"
  bottom: "fc7"
  top: "fc7_mbox_conf"
  param {
    lr_mult: 1
    decay_mult: 1
  }
  param {
    lr_mult: 2
    decay_mult: 0
  }
  convolution_param {
    num_output: 30
    pad: 1
    kernel_size: 3
    stride: 1
    weight_filler {
      type: "xavier"
    }
    bias_filler {
      type: "constant"
      value: 0
    }
  }
}
layer {
  name: "fc7_mbox_conf_perm"
  type: "Permute"
  bottom: "fc7_mbox_conf"
  top: "fc7_mbox_conf_perm"
  permute_param {
    order: 0
    order: 2
    order: 3
    order: 1
  }
}
layer {
  name: "fc7_mbox_conf_flat"
  type: "Flatten"
  bottom: "fc7_mbox_conf_perm"
  top: "fc7_mbox_conf_flat"
  flatten_param {
    axis: 1
  }
}
layer {
  name: "fc7_mbox_priorbox"
  type: "PriorBox"
  bottom: "fc7"
  bottom: "data"
  top: "fc7_mbox_priorbox"
  prior_box_param {
    min_size: 100
    max_size: 190
    aspect_ratio: 2
    aspect_ratio: 3
    flip: true
    clip: true
    variance: 0.1
    variance: 0.1
    variance: 0.2
    variance: 0.2
  }
}
layer {
  name: "conv6_2_mbox_loc"
  type: "Convolution"
  bottom: "conv6_2"
  top: "conv6_2_mbox_loc"
  param {
    lr_mult: 1
    decay_mult: 1
  }
  param {
    lr_mult: 2
    decay_mult: 0
  }
  convolution_param {
    num_output: 24
    pad: 1
    kernel_size: 3
    stride: 1
    weight_filler {
      type: "xavier"
    }
    bias_filler {
      type: "constant"
      value: 0
    }
  }
}
layer {
  name: "conv6_2_mbox_loc_perm"
  type: "Permute"
  bottom: "conv6_2_mbox_loc"
  top: "conv6_2_mbox_loc_perm"
  permute_param {
    order: 0
    order: 2
    order: 3
    order: 1
  }
}
layer {
  name: "conv6_2_mbox_loc_flat"
  type: "Flatten"
  bottom: "conv6_2_mbox_loc_perm"
  top: "conv6_2_mbox_loc_flat"
  flatten_param {
    axis: 1
  }
}
layer {
  name: "conv6_2_mbox_conf"
  type: "Convolution"
  bottom: "conv6_2"
  top: "conv6_2_mbox_conf"
  param {
    lr_mult: 1
    decay_mult: 1
  }
  param {
    lr_mult: 2
    decay_mult: 0
  }
  convolution_param {
    num_output: 30
    pad: 1
    kernel_size: 3
    stride: 1
    weight_filler {
      type: "xavier"
    }
    bias_filler {
      type: "constant"
      value: 0
    }
  }
}
layer {
  name: "conv6_2_mbox_conf_perm"
  type: "Permute"
  bottom: "conv6_2_mbox_conf"
  top: "conv6_2_mbox_conf_perm"
  permute_param {
    order: 0
    order: 2
    order: 3
    order: 1
  }
}
layer {
  name: "conv6_2_mbox_conf_flat"
  type: "Flatten"
  bottom: "conv6_2_mbox_conf_perm"
  top: "conv6_2_mbox_conf_flat"
  flatten_param {
    axis: 1
  }
}
layer {
  name: "conv6_2_mbox_priorbox"
  type: "PriorBox"
  bottom: "conv6_2"
  bottom: "data"
  top: "conv6_2_mbox_priorbox"
  prior_box_param {
    min_size: 190
    max_size: 280
    aspect_ratio: 2
    aspect_ratio: 3
    flip: true
    clip: true
    variance: 0.1
    variance: 0.1
    variance: 0.2
    variance: 0.2
  }
}
layer {
  name: "conv7_2_mbox_loc"
  type: "Convolution"
  bottom: "conv7_2"
  top: "conv7_2_mbox_loc"
  param {
    lr_mult: 1
    decay_mult: 1
  }
  param {
    lr_mult: 2
    decay_mult: 0
  }
  convolution_param {
    num_output: 24
    pad: 1
    kernel_size: 3
    stride: 1
    weight_filler {
      type: "xavier"
    }
    bias_filler {
      type: "constant"
      value: 0
    }
  }
}
layer {
  name: "conv7_2_mbox_loc_perm"
  type: "Permute"
  bottom: "conv7_2_mbox_loc"
  top: "conv7_2_mbox_loc_perm"
  permute_param {
    order: 0
    order: 2
    order: 3
    order: 1
  }
}
layer {
  name: "conv7_2_mbox_loc_flat"
  type: "Flatten"
  bottom: "conv7_2_mbox_loc_perm"
  top: "conv7_2_mbox_loc_flat"
  flatten_param {
    axis: 1
  }
}
layer {
  name: "conv7_2_mbox_conf"
  type: "Convolution"
  bottom: "conv7_2"
  top: "conv7_2_mbox_conf"
  param {
    lr_mult: 1
    decay_mult: 1
  }
  param {
    lr_mult: 2
    decay_mult: 0
  }
  convolution_param {
    num_output: 30
    pad: 1
    kernel_size: 3
    stride: 1
    weight_filler {
      type: "xavier"
    }
    bias_filler {
      type: "constant"
      value: 0
    }
  }
}
layer {
  name: "conv7_2_mbox_conf_perm"
  type: "Permute"
  bottom: "conv7_2_mbox_conf"
  top: "conv7_2_mbox_conf_perm"
  permute_param {
    order: 0
    order: 2
    order: 3
    order: 1
  }
}
layer {
  name: "conv7_2_mbox_conf_flat"
  type: "Flatten"
  bottom: "conv7_2_mbox_conf_perm"
  top: "conv7_2_mbox_conf_flat"
  flatten_param {
    axis: 1
  }
}
layer {
  name: "conv7_2_mbox_priorbox"
  type: "PriorBox"
  bottom: "conv7_2"
  bottom: "data"
  top: "conv7_2_mbox_priorbox"
  prior_box_param {
    min_size: 280
    max_size: 370
    aspect_ratio: 2
    aspect_ratio: 3
    flip: true
    clip: true
    variance: 0.1
    variance: 0.1
    variance: 0.2
    variance: 0.2
  }
}
layer {
  name: "conv8_2_mbox_loc"
  type: "Convolution"
  bottom: "conv8_2"
  top: "conv8_2_mbox_loc"
  param {
    lr_mult: 1
    decay_mult: 1
  }
  param {
    lr_mult: 2
    decay_mult: 0
  }
  convolution_param {
    num_output: 24
    pad: 1
    kernel_size: 3
    stride: 1
    weight_filler {
      type: "xavier"
    }
    bias_filler {
      type: "constant"
      value: 0
    }
  }
}
layer {
  name: "conv8_2_mbox_loc_perm"
  type: "Permute"
  bottom: "conv8_2_mbox_loc"
  top: "conv8_2_mbox_loc_perm"
  permute_param {
    order: 0
    order: 2
    order: 3
    order: 1
  }
}
layer {
  name: "conv8_2_mbox_loc_flat"
  type: "Flatten"
  bottom: "conv8_2_mbox_loc_perm"
  top: "conv8_2_mbox_loc_flat"
  flatten_param {
    axis: 1
  }
}
layer {
  name: "conv8_2_mbox_conf"
  type: "Convolution"
  bottom: "conv8_2"
  top: "conv8_2_mbox_conf"
  param {
    lr_mult: 1
    decay_mult: 1
  }
  param {
    lr_mult: 2
    decay_mult: 0
  }
  convolution_param {
    num_output: 30
    pad: 1
    kernel_size: 3
    stride: 1
    weight_filler {
      type: "xavier"
    }
    bias_filler {
      type: "constant"
      value: 0
    }
  }
}
layer {
  name: "conv8_2_mbox_conf_perm"
  type: "Permute"
  bottom: "conv8_2_mbox_conf"
  top: "conv8_2_mbox_conf_perm"
  permute_param {
    order: 0
    order: 2
    order: 3
    order: 1
  }
}
layer {
  name: "conv8_2_mbox_conf_flat"
  type: "Flatten"
  bottom: "conv8_2_mbox_conf_perm"
  top: "conv8_2_mbox_conf_flat"
  flatten_param {
    axis: 1
  }
}
layer {
  name: "conv8_2_mbox_priorbox"
  type: "PriorBox"
  bottom: "conv8_2"
  bottom: "data"
  top: "conv8_2_mbox_priorbox"
  prior_box_param {
    min_size: 370
    max_size: 460
    aspect_ratio: 2
    aspect_ratio: 3
    flip: true
    clip: true
    variance: 0.1
    variance: 0.1
    variance: 0.2
    variance: 0.2
  }
}
layer {
  name: "pool6_mbox_loc"
  type: "Convolution"
  bottom: "pool6"
  top: "pool6_mbox_loc"
  param {
    lr_mult: 1
    decay_mult: 1
  }
  param {
    lr_mult: 2
    decay_mult: 0
  }
  convolution_param {
    num_output: 24
    pad: 1
    kernel_size: 3
    stride: 1
    weight_filler {
      type: "xavier"
    }
    bias_filler {
      type: "constant"
      value: 0
    }
  }
}
layer {
  name: "pool6_mbox_loc_perm"
  type: "Permute"
  bottom: "pool6_mbox_loc"
  top: "pool6_mbox_loc_perm"
  permute_param {
    order: 0
    order: 2
    order: 3
    order: 1
  }
}
layer {
  name: "pool6_mbox_loc_flat"
  type: "Flatten"
  bottom: "pool6_mbox_loc_perm"
  top: "pool6_mbox_loc_flat"
  flatten_param {
    axis: 1
  }
}
layer {
  name: "pool6_mbox_conf"
  type: "Convolution"
  bottom: "pool6"
  top: "pool6_mbox_conf"
  param {
    lr_mult: 1
    decay_mult: 1
  }
  param {
    lr_mult: 2
    decay_mult: 0
  }
  convolution_param {
    num_output: 30
    pad: 1
    kernel_size: 3
    stride: 1
    weight_filler {
      type: "xavier"
    }
    bias_filler {
      type: "constant"
      value: 0
    }
  }
}
layer {
  name: "pool6_mbox_conf_perm"
  type: "Permute"
  bottom: "pool6_mbox_conf"
  top: "pool6_mbox_conf_perm"
  permute_param {
    order: 0
    order: 2
    order: 3
    order: 1
  }
}
layer {
  name: "pool6_mbox_conf_flat"
  type: "Flatten"
  bottom: "pool6_mbox_conf_perm"
  top: "pool6_mbox_conf_flat"
  flatten_param {
    axis: 1
  }
}
layer {
  name: "pool6_mbox_priorbox"
  type: "PriorBox"
  bottom: "pool6"
  bottom: "data"
  top: "pool6_mbox_priorbox"
  prior_box_param {
    min_size: 460
    max_size: 550
    aspect_ratio: 2
    aspect_ratio: 3
    flip: true
    clip: true
    variance: 0.1
    variance: 0.1
    variance: 0.2
    variance: 0.2
  }
}
layer {
  name: "mbox_loc"
  type: "Concat"
  bottom: "conv4_3_norm_mbox_loc_flat"
  bottom: "fc7_mbox_loc_flat"
  bottom: "conv6_2_mbox_loc_flat"
  bottom: "conv7_2_mbox_loc_flat"
  bottom: "conv8_2_mbox_loc_flat"
  bottom: "pool6_mbox_loc_flat"
  top: "mbox_loc"
  concat_param {
    axis: 1
  }
}
layer {
  name: "mbox_conf"
  type: "Concat"
  bottom: "conv4_3_norm_mbox_conf_flat"
  bottom: "fc7_mbox_conf_flat"
  bottom: "conv6_2_mbox_conf_flat"
  bottom: "conv7_2_mbox_conf_flat"
  bottom: "conv8_2_mbox_conf_flat"
  bottom: "pool6_mbox_conf_flat"
  top: "mbox_conf"
  concat_param {
    axis: 1
  }
}
layer {
  name: "mbox_priorbox"
  type: "Concat"
  bottom: "conv4_3_norm_mbox_priorbox"
  bottom: "fc7_mbox_priorbox"
  bottom: "conv6_2_mbox_priorbox"
  bottom: "conv7_2_mbox_priorbox"
  bottom: "conv8_2_mbox_priorbox"
  bottom: "pool6_mbox_priorbox"
  top: "mbox_priorbox"
  concat_param {
    axis: 2
  }
}
layer {
  name: "mbox_loss"
  type: "MultiBoxLoss"
  bottom: "mbox_loc"
  bottom: "mbox_conf"
  bottom: "mbox_priorbox"
  bottom: "label"
  top: "mbox_loss"
  include {
    phase: TRAIN
  }
  propagate_down: true
  propagate_down: true
  propagate_down: false
  propagate_down: false
  loss_param {
    normalization: VALID
  }
  multibox_loss_param {
    loc_loss_type: SMOOTH_L1
    conf_loss_type: SOFTMAX
    loc_weight: 1
    num_classes: 5
    share_location: true
    match_type: PER_PREDICTION
    overlap_threshold: 0.5
    use_prior_for_matching: true
    background_label_id: 0
    use_difficult_gt: true
    do_neg_mining: true
    neg_pos_ratio: 3
    neg_overlap: 0.5
    code_type: CENTER_SIZE
  }
}
I0517 11:59:49.616076  9929 layer_factory.hpp:77] Creating layer data
I0517 11:59:49.616586  9929 net.cpp:91] Creating Layer data
I0517 11:59:49.616659  9929 net.cpp:399] data -> data
I0517 11:59:49.616765  9929 net.cpp:399] data -> label
I0517 11:59:49.619170  9933 db_lmdb.cpp:35] Opened lmdb examples/deepv_car_person/deepv_car_person_trainval_lmdb
I0517 11:59:49.660873  9929 annotated_data_layer.cpp:52] output data size: 8,3,500,500
I0517 11:59:49.720700  9929 net.cpp:141] Setting up data
I0517 11:59:49.720772  9929 net.cpp:148] Top shape: 8 3 500 500 (6000000)
I0517 11:59:49.720788  9929 net.cpp:148] Top shape: 1 1 6 8 (48)
I0517 11:59:49.720795  9929 net.cpp:156] Memory required for data: 24000192
I0517 11:59:49.720813  9929 layer_factory.hpp:77] Creating layer data_data_0_split
I0517 11:59:49.720854  9929 net.cpp:91] Creating Layer data_data_0_split
I0517 11:59:49.720865  9929 net.cpp:425] data_data_0_split <- data
I0517 11:59:49.720886  9929 net.cpp:399] data_data_0_split -> data_data_0_split_0
I0517 11:59:49.720911  9929 net.cpp:399] data_data_0_split -> data_data_0_split_1
I0517 11:59:49.720927  9929 net.cpp:399] data_data_0_split -> data_data_0_split_2
I0517 11:59:49.720948  9929 net.cpp:399] data_data_0_split -> data_data_0_split_3
I0517 11:59:49.720960  9929 net.cpp:399] data_data_0_split -> data_data_0_split_4
I0517 11:59:49.720971  9929 net.cpp:399] data_data_0_split -> data_data_0_split_5
I0517 11:59:49.720983  9929 net.cpp:399] data_data_0_split -> data_data_0_split_6
I0517 11:59:49.721160  9929 net.cpp:141] Setting up data_data_0_split
I0517 11:59:49.721175  9929 net.cpp:148] Top shape: 8 3 500 500 (6000000)
I0517 11:59:49.721186  9929 net.cpp:148] Top shape: 8 3 500 500 (6000000)
I0517 11:59:49.721199  9929 net.cpp:148] Top shape: 8 3 500 500 (6000000)
I0517 11:59:49.721215  9929 net.cpp:148] Top shape: 8 3 500 500 (6000000)
I0517 11:59:49.721226  9929 net.cpp:148] Top shape: 8 3 500 500 (6000000)
I0517 11:59:49.721262  9929 net.cpp:148] Top shape: 8 3 500 500 (6000000)
I0517 11:59:49.721271  9929 net.cpp:148] Top shape: 8 3 500 500 (6000000)
I0517 11:59:49.721277  9929 net.cpp:156] Memory required for data: 192000192
I0517 11:59:49.721284  9929 layer_factory.hpp:77] Creating layer conv1_1
I0517 11:59:49.721319  9929 net.cpp:91] Creating Layer conv1_1
I0517 11:59:49.721328  9929 net.cpp:425] conv1_1 <- data_data_0_split_0
I0517 11:59:49.721343  9929 net.cpp:399] conv1_1 -> conv1_1
I0517 11:59:49.799234  9934 blocking_queue.cpp:50] Waiting for data
I0517 11:59:49.914708  9929 net.cpp:141] Setting up conv1_1
I0517 11:59:49.914773  9929 net.cpp:148] Top shape: 8 64 500 500 (128000000)
I0517 11:59:49.914779  9929 net.cpp:156] Memory required for data: 704000192
I0517 11:59:49.914810  9929 layer_factory.hpp:77] Creating layer relu1_1
I0517 11:59:49.914834  9929 net.cpp:91] Creating Layer relu1_1
I0517 11:59:49.914842  9929 net.cpp:425] relu1_1 <- conv1_1
I0517 11:59:49.914851  9929 net.cpp:386] relu1_1 -> conv1_1 (in-place)
I0517 11:59:49.915176  9929 net.cpp:141] Setting up relu1_1
I0517 11:59:49.915199  9929 net.cpp:148] Top shape: 8 64 500 500 (128000000)
I0517 11:59:49.915210  9929 net.cpp:156] Memory required for data: 1216000192
I0517 11:59:49.915215  9929 layer_factory.hpp:77] Creating layer conv1_2
I0517 11:59:49.915236  9929 net.cpp:91] Creating Layer conv1_2
I0517 11:59:49.915241  9929 net.cpp:425] conv1_2 <- conv1_1
I0517 11:59:49.915254  9929 net.cpp:399] conv1_2 -> conv1_2
I0517 11:59:49.917934  9929 net.cpp:141] Setting up conv1_2
I0517 11:59:49.917963  9929 net.cpp:148] Top shape: 8 64 500 500 (128000000)
I0517 11:59:49.917968  9929 net.cpp:156] Memory required for data: 1728000192
I0517 11:59:49.917979  9929 layer_factory.hpp:77] Creating layer relu1_2
I0517 11:59:49.917989  9929 net.cpp:91] Creating Layer relu1_2
I0517 11:59:49.917994  9929 net.cpp:425] relu1_2 <- conv1_2
I0517 11:59:49.918001  9929 net.cpp:386] relu1_2 -> conv1_2 (in-place)
I0517 11:59:49.918318  9929 net.cpp:141] Setting up relu1_2
I0517 11:59:49.918334  9929 net.cpp:148] Top shape: 8 64 500 500 (128000000)
I0517 11:59:49.918339  9929 net.cpp:156] Memory required for data: 2240000192
I0517 11:59:49.918344  9929 layer_factory.hpp:77] Creating layer pool1
I0517 11:59:49.918355  9929 net.cpp:91] Creating Layer pool1
I0517 11:59:49.918360  9929 net.cpp:425] pool1 <- conv1_2
I0517 11:59:49.918366  9929 net.cpp:399] pool1 -> pool1
I0517 11:59:49.918429  9929 net.cpp:141] Setting up pool1
I0517 11:59:49.918439  9929 net.cpp:148] Top shape: 8 64 250 250 (32000000)
I0517 11:59:49.918444  9929 net.cpp:156] Memory required for data: 2368000192
I0517 11:59:49.918448  9929 layer_factory.hpp:77] Creating layer conv2_1
I0517 11:59:49.918462  9929 net.cpp:91] Creating Layer conv2_1
I0517 11:59:49.918467  9929 net.cpp:425] conv2_1 <- pool1
I0517 11:59:49.918475  9929 net.cpp:399] conv2_1 -> conv2_1
I0517 11:59:49.920873  9929 net.cpp:141] Setting up conv2_1
I0517 11:59:49.920895  9929 net.cpp:148] Top shape: 8 128 250 250 (64000000)
I0517 11:59:49.920903  9929 net.cpp:156] Memory required for data: 2624000192
I0517 11:59:49.920915  9929 layer_factory.hpp:77] Creating layer relu2_1
I0517 11:59:49.920928  9929 net.cpp:91] Creating Layer relu2_1
I0517 11:59:49.920933  9929 net.cpp:425] relu2_1 <- conv2_1
I0517 11:59:49.920941  9929 net.cpp:386] relu2_1 -> conv2_1 (in-place)
I0517 11:59:49.921144  9929 net.cpp:141] Setting up relu2_1
I0517 11:59:49.921159  9929 net.cpp:148] Top shape: 8 128 250 250 (64000000)
I0517 11:59:49.921164  9929 net.cpp:156] Memory required for data: 2880000192
I0517 11:59:49.921169  9929 layer_factory.hpp:77] Creating layer conv2_2
I0517 11:59:49.921181  9929 net.cpp:91] Creating Layer conv2_2
I0517 11:59:49.921185  9929 net.cpp:425] conv2_2 <- conv2_1
I0517 11:59:49.921195  9929 net.cpp:399] conv2_2 -> conv2_2
I0517 11:59:49.923588  9929 net.cpp:141] Setting up conv2_2
I0517 11:59:49.923616  9929 net.cpp:148] Top shape: 8 128 250 250 (64000000)
I0517 11:59:49.923629  9929 net.cpp:156] Memory required for data: 3136000192
I0517 11:59:49.923637  9929 layer_factory.hpp:77] Creating layer relu2_2
I0517 11:59:49.923668  9929 net.cpp:91] Creating Layer relu2_2
I0517 11:59:49.923674  9929 net.cpp:425] relu2_2 <- conv2_2
I0517 11:59:49.923681  9929 net.cpp:386] relu2_2 -> conv2_2 (in-place)
I0517 11:59:49.924002  9929 net.cpp:141] Setting up relu2_2
I0517 11:59:49.924018  9929 net.cpp:148] Top shape: 8 128 250 250 (64000000)
I0517 11:59:49.924023  9929 net.cpp:156] Memory required for data: 3392000192
I0517 11:59:49.924028  9929 layer_factory.hpp:77] Creating layer pool2
I0517 11:59:49.924039  9929 net.cpp:91] Creating Layer pool2
I0517 11:59:49.924044  9929 net.cpp:425] pool2 <- conv2_2
I0517 11:59:49.924051  9929 net.cpp:399] pool2 -> pool2
I0517 11:59:49.924103  9929 net.cpp:141] Setting up pool2
I0517 11:59:49.924113  9929 net.cpp:148] Top shape: 8 128 125 125 (16000000)
I0517 11:59:49.924116  9929 net.cpp:156] Memory required for data: 3456000192
I0517 11:59:49.924120  9929 layer_factory.hpp:77] Creating layer conv3_1
I0517 11:59:49.924134  9929 net.cpp:91] Creating Layer conv3_1
I0517 11:59:49.924139  9929 net.cpp:425] conv3_1 <- pool2
I0517 11:59:49.924147  9929 net.cpp:399] conv3_1 -> conv3_1
I0517 11:59:49.929992  9929 net.cpp:141] Setting up conv3_1
I0517 11:59:49.930055  9929 net.cpp:148] Top shape: 8 256 125 125 (32000000)
I0517 11:59:49.930068  9929 net.cpp:156] Memory required for data: 3584000192
I0517 11:59:49.930102  9929 layer_factory.hpp:77] Creating layer relu3_1
I0517 11:59:49.930132  9929 net.cpp:91] Creating Layer relu3_1
I0517 11:59:49.930145  9929 net.cpp:425] relu3_1 <- conv3_1
I0517 11:59:49.930161  9929 net.cpp:386] relu3_1 -> conv3_1 (in-place)
I0517 11:59:49.930795  9929 net.cpp:141] Setting up relu3_1
I0517 11:59:49.930833  9929 net.cpp:148] Top shape: 8 256 125 125 (32000000)
I0517 11:59:49.930847  9929 net.cpp:156] Memory required for data: 3712000192
I0517 11:59:49.930858  9929 layer_factory.hpp:77] Creating layer conv3_2
I0517 11:59:49.930919  9929 net.cpp:91] Creating Layer conv3_2
I0517 11:59:49.930933  9929 net.cpp:425] conv3_2 <- conv3_1
I0517 11:59:49.930956  9929 net.cpp:399] conv3_2 -> conv3_2
I0517 11:59:49.944285  9929 net.cpp:141] Setting up conv3_2
I0517 11:59:49.944326  9929 net.cpp:148] Top shape: 8 256 125 125 (32000000)
I0517 11:59:49.944337  9929 net.cpp:156] Memory required for data: 3840000192
I0517 11:59:49.944356  9929 layer_factory.hpp:77] Creating layer relu3_2
I0517 11:59:49.944378  9929 net.cpp:91] Creating Layer relu3_2
I0517 11:59:49.944389  9929 net.cpp:425] relu3_2 <- conv3_2
I0517 11:59:49.944404  9929 net.cpp:386] relu3_2 -> conv3_2 (in-place)
I0517 11:59:49.944782  9929 net.cpp:141] Setting up relu3_2
I0517 11:59:49.944810  9929 net.cpp:148] Top shape: 8 256 125 125 (32000000)
I0517 11:59:49.944819  9929 net.cpp:156] Memory required for data: 3968000192
I0517 11:59:49.944829  9929 layer_factory.hpp:77] Creating layer conv3_3
I0517 11:59:49.944864  9929 net.cpp:91] Creating Layer conv3_3
I0517 11:59:49.944875  9929 net.cpp:425] conv3_3 <- conv3_2
I0517 11:59:49.944891  9929 net.cpp:399] conv3_3 -> conv3_3
I0517 11:59:49.957108  9929 net.cpp:141] Setting up conv3_3
I0517 11:59:49.957149  9929 net.cpp:148] Top shape: 8 256 125 125 (32000000)
I0517 11:59:49.957159  9929 net.cpp:156] Memory required for data: 4096000192
I0517 11:59:49.957176  9929 layer_factory.hpp:77] Creating layer relu3_3
I0517 11:59:49.957192  9929 net.cpp:91] Creating Layer relu3_3
I0517 11:59:49.957202  9929 net.cpp:425] relu3_3 <- conv3_3
I0517 11:59:49.957214  9929 net.cpp:386] relu3_3 -> conv3_3 (in-place)
I0517 11:59:49.957773  9929 net.cpp:141] Setting up relu3_3
I0517 11:59:49.957806  9929 net.cpp:148] Top shape: 8 256 125 125 (32000000)
I0517 11:59:49.957815  9929 net.cpp:156] Memory required for data: 4224000192
I0517 11:59:49.957824  9929 layer_factory.hpp:77] Creating layer pool3
I0517 11:59:49.957841  9929 net.cpp:91] Creating Layer pool3
I0517 11:59:49.957850  9929 net.cpp:425] pool3 <- conv3_3
I0517 11:59:49.957870  9929 net.cpp:399] pool3 -> pool3
I0517 11:59:49.957967  9929 net.cpp:141] Setting up pool3
I0517 11:59:49.958017  9929 net.cpp:148] Top shape: 8 256 63 63 (8128512)
I0517 11:59:49.958027  9929 net.cpp:156] Memory required for data: 4256514240
I0517 11:59:49.958035  9929 layer_factory.hpp:77] Creating layer conv4_1
I0517 11:59:49.958063  9929 net.cpp:91] Creating Layer conv4_1
I0517 11:59:49.958073  9929 net.cpp:425] conv4_1 <- pool3
I0517 11:59:49.958088  9929 net.cpp:399] conv4_1 -> conv4_1
I0517 11:59:49.979532  9929 net.cpp:141] Setting up conv4_1
I0517 11:59:49.979583  9929 net.cpp:148] Top shape: 8 512 63 63 (16257024)
I0517 11:59:49.979605  9929 net.cpp:156] Memory required for data: 4321542336
I0517 11:59:49.979625  9929 layer_factory.hpp:77] Creating layer relu4_1
I0517 11:59:49.979645  9929 net.cpp:91] Creating Layer relu4_1
I0517 11:59:49.979655  9929 net.cpp:425] relu4_1 <- conv4_1
I0517 11:59:49.979671  9929 net.cpp:386] relu4_1 -> conv4_1 (in-place)
I0517 11:59:49.980175  9929 net.cpp:141] Setting up relu4_1
I0517 11:59:49.980203  9929 net.cpp:148] Top shape: 8 512 63 63 (16257024)
I0517 11:59:49.980211  9929 net.cpp:156] Memory required for data: 4386570432
I0517 11:59:49.980219  9929 layer_factory.hpp:77] Creating layer conv4_2
I0517 11:59:49.980244  9929 net.cpp:91] Creating Layer conv4_2
I0517 11:59:49.980252  9929 net.cpp:425] conv4_2 <- conv4_1
I0517 11:59:49.980268  9929 net.cpp:399] conv4_2 -> conv4_2
I0517 11:59:50.013252  9929 net.cpp:141] Setting up conv4_2
I0517 11:59:50.013289  9929 net.cpp:148] Top shape: 8 512 63 63 (16257024)
I0517 11:59:50.013298  9929 net.cpp:156] Memory required for data: 4451598528
I0517 11:59:50.013324  9929 layer_factory.hpp:77] Creating layer relu4_2
I0517 11:59:50.013339  9929 net.cpp:91] Creating Layer relu4_2
I0517 11:59:50.013348  9929 net.cpp:425] relu4_2 <- conv4_2
I0517 11:59:50.013360  9929 net.cpp:386] relu4_2 -> conv4_2 (in-place)
I0517 11:59:50.013636  9929 net.cpp:141] Setting up relu4_2
I0517 11:59:50.013658  9929 net.cpp:148] Top shape: 8 512 63 63 (16257024)
I0517 11:59:50.013664  9929 net.cpp:156] Memory required for data: 4516626624
I0517 11:59:50.013671  9929 layer_factory.hpp:77] Creating layer conv4_3
I0517 11:59:50.013694  9929 net.cpp:91] Creating Layer conv4_3
I0517 11:59:50.013701  9929 net.cpp:425] conv4_3 <- conv4_2
I0517 11:59:50.013715  9929 net.cpp:399] conv4_3 -> conv4_3
I0517 11:59:50.042845  9929 net.cpp:141] Setting up conv4_3
I0517 11:59:50.042893  9929 net.cpp:148] Top shape: 8 512 63 63 (16257024)
I0517 11:59:50.042904  9929 net.cpp:156] Memory required for data: 4581654720
I0517 11:59:50.042920  9929 layer_factory.hpp:77] Creating layer relu4_3
I0517 11:59:50.042937  9929 net.cpp:91] Creating Layer relu4_3
I0517 11:59:50.042946  9929 net.cpp:425] relu4_3 <- conv4_3
I0517 11:59:50.042958  9929 net.cpp:386] relu4_3 -> conv4_3 (in-place)
I0517 11:59:50.043345  9929 net.cpp:141] Setting up relu4_3
I0517 11:59:50.043370  9929 net.cpp:148] Top shape: 8 512 63 63 (16257024)
I0517 11:59:50.043376  9929 net.cpp:156] Memory required for data: 4646682816
I0517 11:59:50.043382  9929 layer_factory.hpp:77] Creating layer conv4_3_relu4_3_0_split
I0517 11:59:50.043393  9929 net.cpp:91] Creating Layer conv4_3_relu4_3_0_split
I0517 11:59:50.043400  9929 net.cpp:425] conv4_3_relu4_3_0_split <- conv4_3
I0517 11:59:50.043408  9929 net.cpp:399] conv4_3_relu4_3_0_split -> conv4_3_relu4_3_0_split_0
I0517 11:59:50.043419  9929 net.cpp:399] conv4_3_relu4_3_0_split -> conv4_3_relu4_3_0_split_1
I0517 11:59:50.043484  9929 net.cpp:141] Setting up conv4_3_relu4_3_0_split
I0517 11:59:50.043499  9929 net.cpp:148] Top shape: 8 512 63 63 (16257024)
I0517 11:59:50.043506  9929 net.cpp:148] Top shape: 8 512 63 63 (16257024)
I0517 11:59:50.043511  9929 net.cpp:156] Memory required for data: 4776739008
I0517 11:59:50.043517  9929 layer_factory.hpp:77] Creating layer pool4
I0517 11:59:50.043531  9929 net.cpp:91] Creating Layer pool4
I0517 11:59:50.043539  9929 net.cpp:425] pool4 <- conv4_3_relu4_3_0_split_0
I0517 11:59:50.043546  9929 net.cpp:399] pool4 -> pool4
I0517 11:59:50.043615  9929 net.cpp:141] Setting up pool4
I0517 11:59:50.043628  9929 net.cpp:148] Top shape: 8 512 32 32 (4194304)
I0517 11:59:50.043656  9929 net.cpp:156] Memory required for data: 4793516224
I0517 11:59:50.043663  9929 layer_factory.hpp:77] Creating layer conv5_1
I0517 11:59:50.043683  9929 net.cpp:91] Creating Layer conv5_1
I0517 11:59:50.043689  9929 net.cpp:425] conv5_1 <- pool4
I0517 11:59:50.043702  9929 net.cpp:399] conv5_1 -> conv5_1
I0517 11:59:50.069509  9929 net.cpp:141] Setting up conv5_1
I0517 11:59:50.069546  9929 net.cpp:148] Top shape: 8 512 32 32 (4194304)
I0517 11:59:50.069553  9929 net.cpp:156] Memory required for data: 4810293440
I0517 11:59:50.069566  9929 layer_factory.hpp:77] Creating layer relu5_1
I0517 11:59:50.069582  9929 net.cpp:91] Creating Layer relu5_1
I0517 11:59:50.069592  9929 net.cpp:425] relu5_1 <- conv5_1
I0517 11:59:50.069600  9929 net.cpp:386] relu5_1 -> conv5_1 (in-place)
I0517 11:59:50.069963  9929 net.cpp:141] Setting up relu5_1
I0517 11:59:50.069983  9929 net.cpp:148] Top shape: 8 512 32 32 (4194304)
I0517 11:59:50.069988  9929 net.cpp:156] Memory required for data: 4827070656
I0517 11:59:50.069994  9929 layer_factory.hpp:77] Creating layer conv5_2
I0517 11:59:50.070013  9929 net.cpp:91] Creating Layer conv5_2
I0517 11:59:50.070019  9929 net.cpp:425] conv5_2 <- conv5_1
I0517 11:59:50.070030  9929 net.cpp:399] conv5_2 -> conv5_2
I0517 11:59:50.094008  9929 net.cpp:141] Setting up conv5_2
I0517 11:59:50.094054  9929 net.cpp:148] Top shape: 8 512 32 32 (4194304)
I0517 11:59:50.094061  9929 net.cpp:156] Memory required for data: 4843847872
I0517 11:59:50.094077  9929 layer_factory.hpp:77] Creating layer relu5_2
I0517 11:59:50.094095  9929 net.cpp:91] Creating Layer relu5_2
I0517 11:59:50.094102  9929 net.cpp:425] relu5_2 <- conv5_2
I0517 11:59:50.094112  9929 net.cpp:386] relu5_2 -> conv5_2 (in-place)
I0517 11:59:50.094337  9929 net.cpp:141] Setting up relu5_2
I0517 11:59:50.094354  9929 net.cpp:148] Top shape: 8 512 32 32 (4194304)
I0517 11:59:50.094362  9929 net.cpp:156] Memory required for data: 4860625088
I0517 11:59:50.094367  9929 layer_factory.hpp:77] Creating layer conv5_3
I0517 11:59:50.094384  9929 net.cpp:91] Creating Layer conv5_3
I0517 11:59:50.094390  9929 net.cpp:425] conv5_3 <- conv5_2
I0517 11:59:50.094401  9929 net.cpp:399] conv5_3 -> conv5_3
I0517 11:59:50.117965  9929 net.cpp:141] Setting up conv5_3
I0517 11:59:50.117988  9929 net.cpp:148] Top shape: 8 512 32 32 (4194304)
I0517 11:59:50.117995  9929 net.cpp:156] Memory required for data: 4877402304
I0517 11:59:50.118005  9929 layer_factory.hpp:77] Creating layer relu5_3
I0517 11:59:50.118028  9929 net.cpp:91] Creating Layer relu5_3
I0517 11:59:50.118034  9929 net.cpp:425] relu5_3 <- conv5_3
I0517 11:59:50.118042  9929 net.cpp:386] relu5_3 -> conv5_3 (in-place)
I0517 11:59:50.118392  9929 net.cpp:141] Setting up relu5_3
I0517 11:59:50.118412  9929 net.cpp:148] Top shape: 8 512 32 32 (4194304)
I0517 11:59:50.118417  9929 net.cpp:156] Memory required for data: 4894179520
I0517 11:59:50.118422  9929 layer_factory.hpp:77] Creating layer pool5
I0517 11:59:50.118433  9929 net.cpp:91] Creating Layer pool5
I0517 11:59:50.118438  9929 net.cpp:425] pool5 <- conv5_3
I0517 11:59:50.118448  9929 net.cpp:399] pool5 -> pool5
I0517 11:59:50.118510  9929 net.cpp:141] Setting up pool5
I0517 11:59:50.118521  9929 net.cpp:148] Top shape: 8 512 32 32 (4194304)
I0517 11:59:50.118526  9929 net.cpp:156] Memory required for data: 4910956736
I0517 11:59:50.118531  9929 layer_factory.hpp:77] Creating layer fc6
I0517 11:59:50.118547  9929 net.cpp:91] Creating Layer fc6
I0517 11:59:50.118553  9929 net.cpp:425] fc6 <- pool5
I0517 11:59:50.118561  9929 net.cpp:399] fc6 -> fc6
I0517 11:59:50.188571  9929 net.cpp:141] Setting up fc6
I0517 11:59:50.188640  9929 net.cpp:148] Top shape: 8 1024 32 32 (8388608)
I0517 11:59:50.188649  9929 net.cpp:156] Memory required for data: 4944511168
I0517 11:59:50.188664  9929 layer_factory.hpp:77] Creating layer relu6
I0517 11:59:50.188684  9929 net.cpp:91] Creating Layer relu6
I0517 11:59:50.188694  9929 net.cpp:425] relu6 <- fc6
I0517 11:59:50.188709  9929 net.cpp:386] relu6 -> fc6 (in-place)
I0517 11:59:50.189139  9929 net.cpp:141] Setting up relu6
I0517 11:59:50.189165  9929 net.cpp:148] Top shape: 8 1024 32 32 (8388608)
I0517 11:59:50.189172  9929 net.cpp:156] Memory required for data: 4978065600
I0517 11:59:50.189179  9929 layer_factory.hpp:77] Creating layer fc7
I0517 11:59:50.189201  9929 net.cpp:91] Creating Layer fc7
I0517 11:59:50.189208  9929 net.cpp:425] fc7 <- fc6
I0517 11:59:50.189223  9929 net.cpp:399] fc7 -> fc7
I0517 11:59:50.205202  9929 net.cpp:141] Setting up fc7
I0517 11:59:50.205253  9929 net.cpp:148] Top shape: 8 1024 32 32 (8388608)
I0517 11:59:50.205260  9929 net.cpp:156] Memory required for data: 5011620032
I0517 11:59:50.205276  9929 layer_factory.hpp:77] Creating layer relu7
I0517 11:59:50.205291  9929 net.cpp:91] Creating Layer relu7
I0517 11:59:50.205305  9929 net.cpp:425] relu7 <- fc7
I0517 11:59:50.205322  9929 net.cpp:386] relu7 -> fc7 (in-place)
I0517 11:59:50.205613  9929 net.cpp:141] Setting up relu7
I0517 11:59:50.205631  9929 net.cpp:148] Top shape: 8 1024 32 32 (8388608)
I0517 11:59:50.205638  9929 net.cpp:156] Memory required for data: 5045174464
I0517 11:59:50.205653  9929 layer_factory.hpp:77] Creating layer fc7_relu7_0_split
I0517 11:59:50.205664  9929 net.cpp:91] Creating Layer fc7_relu7_0_split
I0517 11:59:50.205669  9929 net.cpp:425] fc7_relu7_0_split <- fc7
I0517 11:59:50.205678  9929 net.cpp:399] fc7_relu7_0_split -> fc7_relu7_0_split_0
I0517 11:59:50.205694  9929 net.cpp:399] fc7_relu7_0_split -> fc7_relu7_0_split_1
I0517 11:59:50.205713  9929 net.cpp:399] fc7_relu7_0_split -> fc7_relu7_0_split_2
I0517 11:59:50.205724  9929 net.cpp:399] fc7_relu7_0_split -> fc7_relu7_0_split_3
I0517 11:59:50.205833  9929 net.cpp:141] Setting up fc7_relu7_0_split
I0517 11:59:50.205845  9929 net.cpp:148] Top shape: 8 1024 32 32 (8388608)
I0517 11:59:50.205854  9929 net.cpp:148] Top shape: 8 1024 32 32 (8388608)
I0517 11:59:50.205862  9929 net.cpp:148] Top shape: 8 1024 32 32 (8388608)
I0517 11:59:50.205869  9929 net.cpp:148] Top shape: 8 1024 32 32 (8388608)
I0517 11:59:50.205874  9929 net.cpp:156] Memory required for data: 5179392192
I0517 11:59:50.205881  9929 layer_factory.hpp:77] Creating layer conv6_1
I0517 11:59:50.205900  9929 net.cpp:91] Creating Layer conv6_1
I0517 11:59:50.205907  9929 net.cpp:425] conv6_1 <- fc7_relu7_0_split_0
I0517 11:59:50.205922  9929 net.cpp:399] conv6_1 -> conv6_1
I0517 11:59:50.211252  9929 net.cpp:141] Setting up conv6_1
I0517 11:59:50.211308  9929 net.cpp:148] Top shape: 8 256 32 32 (2097152)
I0517 11:59:50.211315  9929 net.cpp:156] Memory required for data: 5187780800
I0517 11:59:50.211329  9929 layer_factory.hpp:77] Creating layer conv6_1_relu
I0517 11:59:50.211347  9929 net.cpp:91] Creating Layer conv6_1_relu
I0517 11:59:50.211355  9929 net.cpp:425] conv6_1_relu <- conv6_1
I0517 11:59:50.211365  9929 net.cpp:386] conv6_1_relu -> conv6_1 (in-place)
I0517 11:59:50.211794  9929 net.cpp:141] Setting up conv6_1_relu
I0517 11:59:50.211817  9929 net.cpp:148] Top shape: 8 256 32 32 (2097152)
I0517 11:59:50.211823  9929 net.cpp:156] Memory required for data: 5196169408
I0517 11:59:50.211829  9929 layer_factory.hpp:77] Creating layer conv6_2
I0517 11:59:50.211849  9929 net.cpp:91] Creating Layer conv6_2
I0517 11:59:50.211856  9929 net.cpp:425] conv6_2 <- conv6_1
I0517 11:59:50.211869  9929 net.cpp:399] conv6_2 -> conv6_2
I0517 11:59:50.227790  9929 net.cpp:141] Setting up conv6_2
I0517 11:59:50.227838  9929 net.cpp:148] Top shape: 8 512 16 16 (1048576)
I0517 11:59:50.227845  9929 net.cpp:156] Memory required for data: 5200363712
I0517 11:59:50.227874  9929 layer_factory.hpp:77] Creating layer conv6_2_relu
I0517 11:59:50.227890  9929 net.cpp:91] Creating Layer conv6_2_relu
I0517 11:59:50.227897  9929 net.cpp:425] conv6_2_relu <- conv6_2
I0517 11:59:50.227910  9929 net.cpp:386] conv6_2_relu -> conv6_2 (in-place)
I0517 11:59:50.228174  9929 net.cpp:141] Setting up conv6_2_relu
I0517 11:59:50.228190  9929 net.cpp:148] Top shape: 8 512 16 16 (1048576)
I0517 11:59:50.228196  9929 net.cpp:156] Memory required for data: 5204558016
I0517 11:59:50.228202  9929 layer_factory.hpp:77] Creating layer conv6_2_conv6_2_relu_0_split
I0517 11:59:50.228238  9929 net.cpp:91] Creating Layer conv6_2_conv6_2_relu_0_split
I0517 11:59:50.228248  9929 net.cpp:425] conv6_2_conv6_2_relu_0_split <- conv6_2
I0517 11:59:50.228256  9929 net.cpp:399] conv6_2_conv6_2_relu_0_split -> conv6_2_conv6_2_relu_0_split_0
I0517 11:59:50.228271  9929 net.cpp:399] conv6_2_conv6_2_relu_0_split -> conv6_2_conv6_2_relu_0_split_1
I0517 11:59:50.228281  9929 net.cpp:399] conv6_2_conv6_2_relu_0_split -> conv6_2_conv6_2_relu_0_split_2
I0517 11:59:50.228289  9929 net.cpp:399] conv6_2_conv6_2_relu_0_split -> conv6_2_conv6_2_relu_0_split_3
I0517 11:59:50.228382  9929 net.cpp:141] Setting up conv6_2_conv6_2_relu_0_split
I0517 11:59:50.228394  9929 net.cpp:148] Top shape: 8 512 16 16 (1048576)
I0517 11:59:50.228401  9929 net.cpp:148] Top shape: 8 512 16 16 (1048576)
I0517 11:59:50.228407  9929 net.cpp:148] Top shape: 8 512 16 16 (1048576)
I0517 11:59:50.228413  9929 net.cpp:148] Top shape: 8 512 16 16 (1048576)
I0517 11:59:50.228418  9929 net.cpp:156] Memory required for data: 5221335232
I0517 11:59:50.228425  9929 layer_factory.hpp:77] Creating layer conv7_1
I0517 11:59:50.228442  9929 net.cpp:91] Creating Layer conv7_1
I0517 11:59:50.228448  9929 net.cpp:425] conv7_1 <- conv6_2_conv6_2_relu_0_split_0
I0517 11:59:50.228461  9929 net.cpp:399] conv7_1 -> conv7_1
I0517 11:59:50.230696  9929 net.cpp:141] Setting up conv7_1
I0517 11:59:50.230731  9929 net.cpp:148] Top shape: 8 128 16 16 (262144)
I0517 11:59:50.230736  9929 net.cpp:156] Memory required for data: 5222383808
I0517 11:59:50.230748  9929 layer_factory.hpp:77] Creating layer conv7_1_relu
I0517 11:59:50.230761  9929 net.cpp:91] Creating Layer conv7_1_relu
I0517 11:59:50.230767  9929 net.cpp:425] conv7_1_relu <- conv7_1
I0517 11:59:50.230778  9929 net.cpp:386] conv7_1_relu -> conv7_1 (in-place)
I0517 11:59:50.231046  9929 net.cpp:141] Setting up conv7_1_relu
I0517 11:59:50.231062  9929 net.cpp:148] Top shape: 8 128 16 16 (262144)
I0517 11:59:50.231068  9929 net.cpp:156] Memory required for data: 5223432384
I0517 11:59:50.231075  9929 layer_factory.hpp:77] Creating layer conv7_2
I0517 11:59:50.231092  9929 net.cpp:91] Creating Layer conv7_2
I0517 11:59:50.231099  9929 net.cpp:425] conv7_2 <- conv7_1
I0517 11:59:50.231111  9929 net.cpp:399] conv7_2 -> conv7_2
I0517 11:59:50.236032  9929 net.cpp:141] Setting up conv7_2
I0517 11:59:50.236059  9929 net.cpp:148] Top shape: 8 256 8 8 (131072)
I0517 11:59:50.236065  9929 net.cpp:156] Memory required for data: 5223956672
I0517 11:59:50.236076  9929 layer_factory.hpp:77] Creating layer conv7_2_relu
I0517 11:59:50.236089  9929 net.cpp:91] Creating Layer conv7_2_relu
I0517 11:59:50.236096  9929 net.cpp:425] conv7_2_relu <- conv7_2
I0517 11:59:50.236106  9929 net.cpp:386] conv7_2_relu -> conv7_2 (in-place)
I0517 11:59:50.236491  9929 net.cpp:141] Setting up conv7_2_relu
I0517 11:59:50.236510  9929 net.cpp:148] Top shape: 8 256 8 8 (131072)
I0517 11:59:50.236521  9929 net.cpp:156] Memory required for data: 5224480960
I0517 11:59:50.236527  9929 layer_factory.hpp:77] Creating layer conv7_2_conv7_2_relu_0_split
I0517 11:59:50.236537  9929 net.cpp:91] Creating Layer conv7_2_conv7_2_relu_0_split
I0517 11:59:50.236543  9929 net.cpp:425] conv7_2_conv7_2_relu_0_split <- conv7_2
I0517 11:59:50.236553  9929 net.cpp:399] conv7_2_conv7_2_relu_0_split -> conv7_2_conv7_2_relu_0_split_0
I0517 11:59:50.236564  9929 net.cpp:399] conv7_2_conv7_2_relu_0_split -> conv7_2_conv7_2_relu_0_split_1
I0517 11:59:50.236573  9929 net.cpp:399] conv7_2_conv7_2_relu_0_split -> conv7_2_conv7_2_relu_0_split_2
I0517 11:59:50.236582  9929 net.cpp:399] conv7_2_conv7_2_relu_0_split -> conv7_2_conv7_2_relu_0_split_3
I0517 11:59:50.236680  9929 net.cpp:141] Setting up conv7_2_conv7_2_relu_0_split
I0517 11:59:50.236692  9929 net.cpp:148] Top shape: 8 256 8 8 (131072)
I0517 11:59:50.236699  9929 net.cpp:148] Top shape: 8 256 8 8 (131072)
I0517 11:59:50.236706  9929 net.cpp:148] Top shape: 8 256 8 8 (131072)
I0517 11:59:50.236711  9929 net.cpp:148] Top shape: 8 256 8 8 (131072)
I0517 11:59:50.236735  9929 net.cpp:156] Memory required for data: 5226578112
I0517 11:59:50.236742  9929 layer_factory.hpp:77] Creating layer conv8_1
I0517 11:59:50.236757  9929 net.cpp:91] Creating Layer conv8_1
I0517 11:59:50.236763  9929 net.cpp:425] conv8_1 <- conv7_2_conv7_2_relu_0_split_0
I0517 11:59:50.236773  9929 net.cpp:399] conv8_1 -> conv8_1
I0517 11:59:50.238430  9929 net.cpp:141] Setting up conv8_1
I0517 11:59:50.238451  9929 net.cpp:148] Top shape: 8 128 8 8 (65536)
I0517 11:59:50.238463  9929 net.cpp:156] Memory required for data: 5226840256
I0517 11:59:50.238473  9929 layer_factory.hpp:77] Creating layer conv8_1_relu
I0517 11:59:50.238487  9929 net.cpp:91] Creating Layer conv8_1_relu
I0517 11:59:50.238492  9929 net.cpp:425] conv8_1_relu <- conv8_1
I0517 11:59:50.238500  9929 net.cpp:386] conv8_1_relu -> conv8_1 (in-place)
I0517 11:59:50.238737  9929 net.cpp:141] Setting up conv8_1_relu
I0517 11:59:50.238754  9929 net.cpp:148] Top shape: 8 128 8 8 (65536)
I0517 11:59:50.238759  9929 net.cpp:156] Memory required for data: 5227102400
I0517 11:59:50.238764  9929 layer_factory.hpp:77] Creating layer conv8_2
I0517 11:59:50.238780  9929 net.cpp:91] Creating Layer conv8_2
I0517 11:59:50.238786  9929 net.cpp:425] conv8_2 <- conv8_1
I0517 11:59:50.238797  9929 net.cpp:399] conv8_2 -> conv8_2
I0517 11:59:50.243636  9929 net.cpp:141] Setting up conv8_2
I0517 11:59:50.243659  9929 net.cpp:148] Top shape: 8 256 4 4 (32768)
I0517 11:59:50.243664  9929 net.cpp:156] Memory required for data: 5227233472
I0517 11:59:50.243674  9929 layer_factory.hpp:77] Creating layer conv8_2_relu
I0517 11:59:50.243686  9929 net.cpp:91] Creating Layer conv8_2_relu
I0517 11:59:50.243692  9929 net.cpp:425] conv8_2_relu <- conv8_2
I0517 11:59:50.243700  9929 net.cpp:386] conv8_2_relu -> conv8_2 (in-place)
I0517 11:59:50.243950  9929 net.cpp:141] Setting up conv8_2_relu
I0517 11:59:50.243964  9929 net.cpp:148] Top shape: 8 256 4 4 (32768)
I0517 11:59:50.243969  9929 net.cpp:156] Memory required for data: 5227364544
I0517 11:59:50.243975  9929 layer_factory.hpp:77] Creating layer conv8_2_conv8_2_relu_0_split
I0517 11:59:50.243983  9929 net.cpp:91] Creating Layer conv8_2_conv8_2_relu_0_split
I0517 11:59:50.243988  9929 net.cpp:425] conv8_2_conv8_2_relu_0_split <- conv8_2
I0517 11:59:50.243999  9929 net.cpp:399] conv8_2_conv8_2_relu_0_split -> conv8_2_conv8_2_relu_0_split_0
I0517 11:59:50.244009  9929 net.cpp:399] conv8_2_conv8_2_relu_0_split -> conv8_2_conv8_2_relu_0_split_1
I0517 11:59:50.244017  9929 net.cpp:399] conv8_2_conv8_2_relu_0_split -> conv8_2_conv8_2_relu_0_split_2
I0517 11:59:50.244025  9929 net.cpp:399] conv8_2_conv8_2_relu_0_split -> conv8_2_conv8_2_relu_0_split_3
I0517 11:59:50.244117  9929 net.cpp:141] Setting up conv8_2_conv8_2_relu_0_split
I0517 11:59:50.244130  9929 net.cpp:148] Top shape: 8 256 4 4 (32768)
I0517 11:59:50.244137  9929 net.cpp:148] Top shape: 8 256 4 4 (32768)
I0517 11:59:50.244143  9929 net.cpp:148] Top shape: 8 256 4 4 (32768)
I0517 11:59:50.244148  9929 net.cpp:148] Top shape: 8 256 4 4 (32768)
I0517 11:59:50.244153  9929 net.cpp:156] Memory required for data: 5227888832
I0517 11:59:50.244158  9929 layer_factory.hpp:77] Creating layer pool6
I0517 11:59:50.244166  9929 net.cpp:91] Creating Layer pool6
I0517 11:59:50.244173  9929 net.cpp:425] pool6 <- conv8_2_conv8_2_relu_0_split_0
I0517 11:59:50.244182  9929 net.cpp:399] pool6 -> pool6
I0517 11:59:50.244598  9929 net.cpp:141] Setting up pool6
I0517 11:59:50.244617  9929 net.cpp:148] Top shape: 8 256 1 1 (2048)
I0517 11:59:50.244624  9929 net.cpp:156] Memory required for data: 5227897024
I0517 11:59:50.244631  9929 layer_factory.hpp:77] Creating layer pool6_pool6_0_split
I0517 11:59:50.244638  9929 net.cpp:91] Creating Layer pool6_pool6_0_split
I0517 11:59:50.244644  9929 net.cpp:425] pool6_pool6_0_split <- pool6
I0517 11:59:50.244654  9929 net.cpp:399] pool6_pool6_0_split -> pool6_pool6_0_split_0
I0517 11:59:50.244664  9929 net.cpp:399] pool6_pool6_0_split -> pool6_pool6_0_split_1
I0517 11:59:50.244673  9929 net.cpp:399] pool6_pool6_0_split -> pool6_pool6_0_split_2
I0517 11:59:50.244760  9929 net.cpp:141] Setting up pool6_pool6_0_split
I0517 11:59:50.244772  9929 net.cpp:148] Top shape: 8 256 1 1 (2048)
I0517 11:59:50.244778  9929 net.cpp:148] Top shape: 8 256 1 1 (2048)
I0517 11:59:50.244784  9929 net.cpp:148] Top shape: 8 256 1 1 (2048)
I0517 11:59:50.244788  9929 net.cpp:156] Memory required for data: 5227921600
I0517 11:59:50.244793  9929 layer_factory.hpp:77] Creating layer conv4_3_norm
I0517 11:59:50.244803  9929 net.cpp:91] Creating Layer conv4_3_norm
I0517 11:59:50.244809  9929 net.cpp:425] conv4_3_norm <- conv4_3_relu4_3_0_split_1
I0517 11:59:50.244819  9929 net.cpp:399] conv4_3_norm -> conv4_3_norm
I0517 11:59:50.245035  9929 net.cpp:141] Setting up conv4_3_norm
I0517 11:59:50.245048  9929 net.cpp:148] Top shape: 8 512 63 63 (16257024)
I0517 11:59:50.245053  9929 net.cpp:156] Memory required for data: 5292949696
I0517 11:59:50.245060  9929 layer_factory.hpp:77] Creating layer conv4_3_norm_conv4_3_norm_0_split
I0517 11:59:50.245069  9929 net.cpp:91] Creating Layer conv4_3_norm_conv4_3_norm_0_split
I0517 11:59:50.245074  9929 net.cpp:425] conv4_3_norm_conv4_3_norm_0_split <- conv4_3_norm
I0517 11:59:50.245085  9929 net.cpp:399] conv4_3_norm_conv4_3_norm_0_split -> conv4_3_norm_conv4_3_norm_0_split_0
I0517 11:59:50.245095  9929 net.cpp:399] conv4_3_norm_conv4_3_norm_0_split -> conv4_3_norm_conv4_3_norm_0_split_1
I0517 11:59:50.245102  9929 net.cpp:399] conv4_3_norm_conv4_3_norm_0_split -> conv4_3_norm_conv4_3_norm_0_split_2
I0517 11:59:50.245167  9929 net.cpp:141] Setting up conv4_3_norm_conv4_3_norm_0_split
I0517 11:59:50.245177  9929 net.cpp:148] Top shape: 8 512 63 63 (16257024)
I0517 11:59:50.245182  9929 net.cpp:148] Top shape: 8 512 63 63 (16257024)
I0517 11:59:50.245188  9929 net.cpp:148] Top shape: 8 512 63 63 (16257024)
I0517 11:59:50.245193  9929 net.cpp:156] Memory required for data: 5488033984
I0517 11:59:50.245198  9929 layer_factory.hpp:77] Creating layer conv4_3_norm_mbox_loc
I0517 11:59:50.245211  9929 net.cpp:91] Creating Layer conv4_3_norm_mbox_loc
I0517 11:59:50.245218  9929 net.cpp:425] conv4_3_norm_mbox_loc <- conv4_3_norm_conv4_3_norm_0_split_0
I0517 11:59:50.245225  9929 net.cpp:399] conv4_3_norm_mbox_loc -> conv4_3_norm_mbox_loc
I0517 11:59:50.247645  9929 net.cpp:141] Setting up conv4_3_norm_mbox_loc
I0517 11:59:50.247666  9929 net.cpp:148] Top shape: 8 12 63 63 (381024)
I0517 11:59:50.247673  9929 net.cpp:156] Memory required for data: 5489558080
I0517 11:59:50.247684  9929 layer_factory.hpp:77] Creating layer conv4_3_norm_mbox_loc_perm
I0517 11:59:50.247697  9929 net.cpp:91] Creating Layer conv4_3_norm_mbox_loc_perm
I0517 11:59:50.247704  9929 net.cpp:425] conv4_3_norm_mbox_loc_perm <- conv4_3_norm_mbox_loc
I0517 11:59:50.247712  9929 net.cpp:399] conv4_3_norm_mbox_loc_perm -> conv4_3_norm_mbox_loc_perm
I0517 11:59:50.247861  9929 net.cpp:141] Setting up conv4_3_norm_mbox_loc_perm
I0517 11:59:50.247874  9929 net.cpp:148] Top shape: 8 63 63 12 (381024)
I0517 11:59:50.247879  9929 net.cpp:156] Memory required for data: 5491082176
I0517 11:59:50.247884  9929 layer_factory.hpp:77] Creating layer conv4_3_norm_mbox_loc_flat
I0517 11:59:50.247897  9929 net.cpp:91] Creating Layer conv4_3_norm_mbox_loc_flat
I0517 11:59:50.247903  9929 net.cpp:425] conv4_3_norm_mbox_loc_flat <- conv4_3_norm_mbox_loc_perm
I0517 11:59:50.247913  9929 net.cpp:399] conv4_3_norm_mbox_loc_flat -> conv4_3_norm_mbox_loc_flat
I0517 11:59:50.247951  9929 net.cpp:141] Setting up conv4_3_norm_mbox_loc_flat
I0517 11:59:50.247961  9929 net.cpp:148] Top shape: 8 47628 (381024)
I0517 11:59:50.247966  9929 net.cpp:156] Memory required for data: 5492606272
I0517 11:59:50.247970  9929 layer_factory.hpp:77] Creating layer conv4_3_norm_mbox_conf
I0517 11:59:50.247984  9929 net.cpp:91] Creating Layer conv4_3_norm_mbox_conf
I0517 11:59:50.247989  9929 net.cpp:425] conv4_3_norm_mbox_conf <- conv4_3_norm_conv4_3_norm_0_split_1
I0517 11:59:50.248002  9929 net.cpp:399] conv4_3_norm_mbox_conf -> conv4_3_norm_mbox_conf
I0517 11:59:50.250670  9929 net.cpp:141] Setting up conv4_3_norm_mbox_conf
I0517 11:59:50.250711  9929 net.cpp:148] Top shape: 8 15 63 63 (476280)
I0517 11:59:50.250718  9929 net.cpp:156] Memory required for data: 5494511392
I0517 11:59:50.250728  9929 layer_factory.hpp:77] Creating layer conv4_3_norm_mbox_conf_perm
I0517 11:59:50.250741  9929 net.cpp:91] Creating Layer conv4_3_norm_mbox_conf_perm
I0517 11:59:50.250748  9929 net.cpp:425] conv4_3_norm_mbox_conf_perm <- conv4_3_norm_mbox_conf
I0517 11:59:50.250756  9929 net.cpp:399] conv4_3_norm_mbox_conf_perm -> conv4_3_norm_mbox_conf_perm
I0517 11:59:50.250908  9929 net.cpp:141] Setting up conv4_3_norm_mbox_conf_perm
I0517 11:59:50.250921  9929 net.cpp:148] Top shape: 8 63 63 15 (476280)
I0517 11:59:50.250926  9929 net.cpp:156] Memory required for data: 5496416512
I0517 11:59:50.250931  9929 layer_factory.hpp:77] Creating layer conv4_3_norm_mbox_conf_flat
I0517 11:59:50.250938  9929 net.cpp:91] Creating Layer conv4_3_norm_mbox_conf_flat
I0517 11:59:50.250943  9929 net.cpp:425] conv4_3_norm_mbox_conf_flat <- conv4_3_norm_mbox_conf_perm
I0517 11:59:50.250955  9929 net.cpp:399] conv4_3_norm_mbox_conf_flat -> conv4_3_norm_mbox_conf_flat
I0517 11:59:50.250988  9929 net.cpp:141] Setting up conv4_3_norm_mbox_conf_flat
I0517 11:59:50.251000  9929 net.cpp:148] Top shape: 8 59535 (476280)
I0517 11:59:50.251005  9929 net.cpp:156] Memory required for data: 5498321632
I0517 11:59:50.251009  9929 layer_factory.hpp:77] Creating layer conv4_3_norm_mbox_priorbox
I0517 11:59:50.251037  9929 net.cpp:91] Creating Layer conv4_3_norm_mbox_priorbox
I0517 11:59:50.251044  9929 net.cpp:425] conv4_3_norm_mbox_priorbox <- conv4_3_norm_conv4_3_norm_0_split_2
I0517 11:59:50.251052  9929 net.cpp:425] conv4_3_norm_mbox_priorbox <- data_data_0_split_1
I0517 11:59:50.251060  9929 net.cpp:399] conv4_3_norm_mbox_priorbox -> conv4_3_norm_mbox_priorbox
I0517 11:59:50.251102  9929 net.cpp:141] Setting up conv4_3_norm_mbox_priorbox
I0517 11:59:50.251112  9929 net.cpp:148] Top shape: 1 2 47628 (95256)
I0517 11:59:50.251117  9929 net.cpp:156] Memory required for data: 5498702656
I0517 11:59:50.251122  9929 layer_factory.hpp:77] Creating layer fc7_mbox_loc
I0517 11:59:50.251137  9929 net.cpp:91] Creating Layer fc7_mbox_loc
I0517 11:59:50.251143  9929 net.cpp:425] fc7_mbox_loc <- fc7_relu7_0_split_1
I0517 11:59:50.251152  9929 net.cpp:399] fc7_mbox_loc -> fc7_mbox_loc
I0517 11:59:50.254961  9929 net.cpp:141] Setting up fc7_mbox_loc
I0517 11:59:50.254981  9929 net.cpp:148] Top shape: 8 24 32 32 (196608)
I0517 11:59:50.254987  9929 net.cpp:156] Memory required for data: 5499489088
I0517 11:59:50.254997  9929 layer_factory.hpp:77] Creating layer fc7_mbox_loc_perm
I0517 11:59:50.255010  9929 net.cpp:91] Creating Layer fc7_mbox_loc_perm
I0517 11:59:50.255017  9929 net.cpp:425] fc7_mbox_loc_perm <- fc7_mbox_loc
I0517 11:59:50.255026  9929 net.cpp:399] fc7_mbox_loc_perm -> fc7_mbox_loc_perm
I0517 11:59:50.255173  9929 net.cpp:141] Setting up fc7_mbox_loc_perm
I0517 11:59:50.255188  9929 net.cpp:148] Top shape: 8 32 32 24 (196608)
I0517 11:59:50.255193  9929 net.cpp:156] Memory required for data: 5500275520
I0517 11:59:50.255198  9929 layer_factory.hpp:77] Creating layer fc7_mbox_loc_flat
I0517 11:59:50.255206  9929 net.cpp:91] Creating Layer fc7_mbox_loc_flat
I0517 11:59:50.255211  9929 net.cpp:425] fc7_mbox_loc_flat <- fc7_mbox_loc_perm
I0517 11:59:50.255218  9929 net.cpp:399] fc7_mbox_loc_flat -> fc7_mbox_loc_flat
I0517 11:59:50.255254  9929 net.cpp:141] Setting up fc7_mbox_loc_flat
I0517 11:59:50.255264  9929 net.cpp:148] Top shape: 8 24576 (196608)
I0517 11:59:50.255267  9929 net.cpp:156] Memory required for data: 5501061952
I0517 11:59:50.255272  9929 layer_factory.hpp:77] Creating layer fc7_mbox_conf
I0517 11:59:50.255286  9929 net.cpp:91] Creating Layer fc7_mbox_conf
I0517 11:59:50.255292  9929 net.cpp:425] fc7_mbox_conf <- fc7_relu7_0_split_2
I0517 11:59:50.255303  9929 net.cpp:399] fc7_mbox_conf -> fc7_mbox_conf
I0517 11:59:50.259616  9929 net.cpp:141] Setting up fc7_mbox_conf
I0517 11:59:50.259640  9929 net.cpp:148] Top shape: 8 30 32 32 (245760)
I0517 11:59:50.259646  9929 net.cpp:156] Memory required for data: 5502044992
I0517 11:59:50.259670  9929 layer_factory.hpp:77] Creating layer fc7_mbox_conf_perm
I0517 11:59:50.259682  9929 net.cpp:91] Creating Layer fc7_mbox_conf_perm
I0517 11:59:50.259688  9929 net.cpp:425] fc7_mbox_conf_perm <- fc7_mbox_conf
I0517 11:59:50.259698  9929 net.cpp:399] fc7_mbox_conf_perm -> fc7_mbox_conf_perm
I0517 11:59:50.259841  9929 net.cpp:141] Setting up fc7_mbox_conf_perm
I0517 11:59:50.259855  9929 net.cpp:148] Top shape: 8 32 32 30 (245760)
I0517 11:59:50.259860  9929 net.cpp:156] Memory required for data: 5503028032
I0517 11:59:50.259865  9929 layer_factory.hpp:77] Creating layer fc7_mbox_conf_flat
I0517 11:59:50.259872  9929 net.cpp:91] Creating Layer fc7_mbox_conf_flat
I0517 11:59:50.259877  9929 net.cpp:425] fc7_mbox_conf_flat <- fc7_mbox_conf_perm
I0517 11:59:50.259884  9929 net.cpp:399] fc7_mbox_conf_flat -> fc7_mbox_conf_flat
I0517 11:59:50.259917  9929 net.cpp:141] Setting up fc7_mbox_conf_flat
I0517 11:59:50.259927  9929 net.cpp:148] Top shape: 8 30720 (245760)
I0517 11:59:50.259932  9929 net.cpp:156] Memory required for data: 5504011072
I0517 11:59:50.259935  9929 layer_factory.hpp:77] Creating layer fc7_mbox_priorbox
I0517 11:59:50.259948  9929 net.cpp:91] Creating Layer fc7_mbox_priorbox
I0517 11:59:50.259953  9929 net.cpp:425] fc7_mbox_priorbox <- fc7_relu7_0_split_3
I0517 11:59:50.259960  9929 net.cpp:425] fc7_mbox_priorbox <- data_data_0_split_2
I0517 11:59:50.259968  9929 net.cpp:399] fc7_mbox_priorbox -> fc7_mbox_priorbox
I0517 11:59:50.260004  9929 net.cpp:141] Setting up fc7_mbox_priorbox
I0517 11:59:50.260013  9929 net.cpp:148] Top shape: 1 2 24576 (49152)
I0517 11:59:50.260018  9929 net.cpp:156] Memory required for data: 5504207680
I0517 11:59:50.260022  9929 layer_factory.hpp:77] Creating layer conv6_2_mbox_loc
I0517 11:59:50.260036  9929 net.cpp:91] Creating Layer conv6_2_mbox_loc
I0517 11:59:50.260042  9929 net.cpp:425] conv6_2_mbox_loc <- conv6_2_conv6_2_relu_0_split_1
I0517 11:59:50.260053  9929 net.cpp:399] conv6_2_mbox_loc -> conv6_2_mbox_loc
I0517 11:59:50.262285  9929 net.cpp:141] Setting up conv6_2_mbox_loc
I0517 11:59:50.262306  9929 net.cpp:148] Top shape: 8 24 16 16 (49152)
I0517 11:59:50.262312  9929 net.cpp:156] Memory required for data: 5504404288
I0517 11:59:50.262322  9929 layer_factory.hpp:77] Creating layer conv6_2_mbox_loc_perm
I0517 11:59:50.262332  9929 net.cpp:91] Creating Layer conv6_2_mbox_loc_perm
I0517 11:59:50.262338  9929 net.cpp:425] conv6_2_mbox_loc_perm <- conv6_2_mbox_loc
I0517 11:59:50.262348  9929 net.cpp:399] conv6_2_mbox_loc_perm -> conv6_2_mbox_loc_perm
I0517 11:59:50.262487  9929 net.cpp:141] Setting up conv6_2_mbox_loc_perm
I0517 11:59:50.262498  9929 net.cpp:148] Top shape: 8 16 16 24 (49152)
I0517 11:59:50.262502  9929 net.cpp:156] Memory required for data: 5504600896
I0517 11:59:50.262507  9929 layer_factory.hpp:77] Creating layer conv6_2_mbox_loc_flat
I0517 11:59:50.262516  9929 net.cpp:91] Creating Layer conv6_2_mbox_loc_flat
I0517 11:59:50.262521  9929 net.cpp:425] conv6_2_mbox_loc_flat <- conv6_2_mbox_loc_perm
I0517 11:59:50.262529  9929 net.cpp:399] conv6_2_mbox_loc_flat -> conv6_2_mbox_loc_flat
I0517 11:59:50.262564  9929 net.cpp:141] Setting up conv6_2_mbox_loc_flat
I0517 11:59:50.262573  9929 net.cpp:148] Top shape: 8 6144 (49152)
I0517 11:59:50.262579  9929 net.cpp:156] Memory required for data: 5504797504
I0517 11:59:50.262584  9929 layer_factory.hpp:77] Creating layer conv6_2_mbox_conf
I0517 11:59:50.262598  9929 net.cpp:91] Creating Layer conv6_2_mbox_conf
I0517 11:59:50.262603  9929 net.cpp:425] conv6_2_mbox_conf <- conv6_2_conv6_2_relu_0_split_2
I0517 11:59:50.262614  9929 net.cpp:399] conv6_2_mbox_conf -> conv6_2_mbox_conf
I0517 11:59:50.265708  9929 net.cpp:141] Setting up conv6_2_mbox_conf
I0517 11:59:50.265728  9929 net.cpp:148] Top shape: 8 30 16 16 (61440)
I0517 11:59:50.265734  9929 net.cpp:156] Memory required for data: 5505043264
I0517 11:59:50.265743  9929 layer_factory.hpp:77] Creating layer conv6_2_mbox_conf_perm
I0517 11:59:50.265753  9929 net.cpp:91] Creating Layer conv6_2_mbox_conf_perm
I0517 11:59:50.265771  9929 net.cpp:425] conv6_2_mbox_conf_perm <- conv6_2_mbox_conf
I0517 11:59:50.265784  9929 net.cpp:399] conv6_2_mbox_conf_perm -> conv6_2_mbox_conf_perm
I0517 11:59:50.265925  9929 net.cpp:141] Setting up conv6_2_mbox_conf_perm
I0517 11:59:50.265936  9929 net.cpp:148] Top shape: 8 16 16 30 (61440)
I0517 11:59:50.265941  9929 net.cpp:156] Memory required for data: 5505289024
I0517 11:59:50.265946  9929 layer_factory.hpp:77] Creating layer conv6_2_mbox_conf_flat
I0517 11:59:50.265955  9929 net.cpp:91] Creating Layer conv6_2_mbox_conf_flat
I0517 11:59:50.265960  9929 net.cpp:425] conv6_2_mbox_conf_flat <- conv6_2_mbox_conf_perm
I0517 11:59:50.265970  9929 net.cpp:399] conv6_2_mbox_conf_flat -> conv6_2_mbox_conf_flat
I0517 11:59:50.266007  9929 net.cpp:141] Setting up conv6_2_mbox_conf_flat
I0517 11:59:50.266016  9929 net.cpp:148] Top shape: 8 7680 (61440)
I0517 11:59:50.266021  9929 net.cpp:156] Memory required for data: 5505534784
I0517 11:59:50.266026  9929 layer_factory.hpp:77] Creating layer conv6_2_mbox_priorbox
I0517 11:59:50.266034  9929 net.cpp:91] Creating Layer conv6_2_mbox_priorbox
I0517 11:59:50.266038  9929 net.cpp:425] conv6_2_mbox_priorbox <- conv6_2_conv6_2_relu_0_split_3
I0517 11:59:50.266046  9929 net.cpp:425] conv6_2_mbox_priorbox <- data_data_0_split_3
I0517 11:59:50.266055  9929 net.cpp:399] conv6_2_mbox_priorbox -> conv6_2_mbox_priorbox
I0517 11:59:50.266093  9929 net.cpp:141] Setting up conv6_2_mbox_priorbox
I0517 11:59:50.266103  9929 net.cpp:148] Top shape: 1 2 6144 (12288)
I0517 11:59:50.266106  9929 net.cpp:156] Memory required for data: 5505583936
I0517 11:59:50.266111  9929 layer_factory.hpp:77] Creating layer conv7_2_mbox_loc
I0517 11:59:50.266125  9929 net.cpp:91] Creating Layer conv7_2_mbox_loc
I0517 11:59:50.266132  9929 net.cpp:425] conv7_2_mbox_loc <- conv7_2_conv7_2_relu_0_split_1
I0517 11:59:50.266142  9929 net.cpp:399] conv7_2_mbox_loc -> conv7_2_mbox_loc
I0517 11:59:50.267936  9929 net.cpp:141] Setting up conv7_2_mbox_loc
I0517 11:59:50.267956  9929 net.cpp:148] Top shape: 8 24 8 8 (12288)
I0517 11:59:50.267961  9929 net.cpp:156] Memory required for data: 5505633088
I0517 11:59:50.267971  9929 layer_factory.hpp:77] Creating layer conv7_2_mbox_loc_perm
I0517 11:59:50.267982  9929 net.cpp:91] Creating Layer conv7_2_mbox_loc_perm
I0517 11:59:50.267987  9929 net.cpp:425] conv7_2_mbox_loc_perm <- conv7_2_mbox_loc
I0517 11:59:50.267998  9929 net.cpp:399] conv7_2_mbox_loc_perm -> conv7_2_mbox_loc_perm
I0517 11:59:50.268136  9929 net.cpp:141] Setting up conv7_2_mbox_loc_perm
I0517 11:59:50.268149  9929 net.cpp:148] Top shape: 8 8 8 24 (12288)
I0517 11:59:50.268153  9929 net.cpp:156] Memory required for data: 5505682240
I0517 11:59:50.268158  9929 layer_factory.hpp:77] Creating layer conv7_2_mbox_loc_flat
I0517 11:59:50.268167  9929 net.cpp:91] Creating Layer conv7_2_mbox_loc_flat
I0517 11:59:50.268170  9929 net.cpp:425] conv7_2_mbox_loc_flat <- conv7_2_mbox_loc_perm
I0517 11:59:50.268177  9929 net.cpp:399] conv7_2_mbox_loc_flat -> conv7_2_mbox_loc_flat
I0517 11:59:50.268211  9929 net.cpp:141] Setting up conv7_2_mbox_loc_flat
I0517 11:59:50.268220  9929 net.cpp:148] Top shape: 8 1536 (12288)
I0517 11:59:50.268224  9929 net.cpp:156] Memory required for data: 5505731392
I0517 11:59:50.268229  9929 layer_factory.hpp:77] Creating layer conv7_2_mbox_conf
I0517 11:59:50.268242  9929 net.cpp:91] Creating Layer conv7_2_mbox_conf
I0517 11:59:50.268247  9929 net.cpp:425] conv7_2_mbox_conf <- conv7_2_conv7_2_relu_0_split_2
I0517 11:59:50.268257  9929 net.cpp:399] conv7_2_mbox_conf -> conv7_2_mbox_conf
I0517 11:59:50.269942  9929 net.cpp:141] Setting up conv7_2_mbox_conf
I0517 11:59:50.269960  9929 net.cpp:148] Top shape: 8 30 8 8 (15360)
I0517 11:59:50.269966  9929 net.cpp:156] Memory required for data: 5505792832
I0517 11:59:50.269975  9929 layer_factory.hpp:77] Creating layer conv7_2_mbox_conf_perm
I0517 11:59:50.269986  9929 net.cpp:91] Creating Layer conv7_2_mbox_conf_perm
I0517 11:59:50.269992  9929 net.cpp:425] conv7_2_mbox_conf_perm <- conv7_2_mbox_conf
I0517 11:59:50.270011  9929 net.cpp:399] conv7_2_mbox_conf_perm -> conv7_2_mbox_conf_perm
I0517 11:59:50.270154  9929 net.cpp:141] Setting up conv7_2_mbox_conf_perm
I0517 11:59:50.270165  9929 net.cpp:148] Top shape: 8 8 8 30 (15360)
I0517 11:59:50.270170  9929 net.cpp:156] Memory required for data: 5505854272
I0517 11:59:50.270174  9929 layer_factory.hpp:77] Creating layer conv7_2_mbox_conf_flat
I0517 11:59:50.270181  9929 net.cpp:91] Creating Layer conv7_2_mbox_conf_flat
I0517 11:59:50.270186  9929 net.cpp:425] conv7_2_mbox_conf_flat <- conv7_2_mbox_conf_perm
I0517 11:59:50.270193  9929 net.cpp:399] conv7_2_mbox_conf_flat -> conv7_2_mbox_conf_flat
I0517 11:59:50.270226  9929 net.cpp:141] Setting up conv7_2_mbox_conf_flat
I0517 11:59:50.270236  9929 net.cpp:148] Top shape: 8 1920 (15360)
I0517 11:59:50.270241  9929 net.cpp:156] Memory required for data: 5505915712
I0517 11:59:50.270246  9929 layer_factory.hpp:77] Creating layer conv7_2_mbox_priorbox
I0517 11:59:50.270256  9929 net.cpp:91] Creating Layer conv7_2_mbox_priorbox
I0517 11:59:50.270261  9929 net.cpp:425] conv7_2_mbox_priorbox <- conv7_2_conv7_2_relu_0_split_3
I0517 11:59:50.270267  9929 net.cpp:425] conv7_2_mbox_priorbox <- data_data_0_split_4
I0517 11:59:50.270273  9929 net.cpp:399] conv7_2_mbox_priorbox -> conv7_2_mbox_priorbox
I0517 11:59:50.270308  9929 net.cpp:141] Setting up conv7_2_mbox_priorbox
I0517 11:59:50.270318  9929 net.cpp:148] Top shape: 1 2 1536 (3072)
I0517 11:59:50.270321  9929 net.cpp:156] Memory required for data: 5505928000
I0517 11:59:50.270326  9929 layer_factory.hpp:77] Creating layer conv8_2_mbox_loc
I0517 11:59:50.270339  9929 net.cpp:91] Creating Layer conv8_2_mbox_loc
I0517 11:59:50.270344  9929 net.cpp:425] conv8_2_mbox_loc <- conv8_2_conv8_2_relu_0_split_1
I0517 11:59:50.270354  9929 net.cpp:399] conv8_2_mbox_loc -> conv8_2_mbox_loc
I0517 11:59:50.272159  9929 net.cpp:141] Setting up conv8_2_mbox_loc
I0517 11:59:50.272178  9929 net.cpp:148] Top shape: 8 24 4 4 (3072)
I0517 11:59:50.272183  9929 net.cpp:156] Memory required for data: 5505940288
I0517 11:59:50.272194  9929 layer_factory.hpp:77] Creating layer conv8_2_mbox_loc_perm
I0517 11:59:50.272203  9929 net.cpp:91] Creating Layer conv8_2_mbox_loc_perm
I0517 11:59:50.272209  9929 net.cpp:425] conv8_2_mbox_loc_perm <- conv8_2_mbox_loc
I0517 11:59:50.272218  9929 net.cpp:399] conv8_2_mbox_loc_perm -> conv8_2_mbox_loc_perm
I0517 11:59:50.272369  9929 net.cpp:141] Setting up conv8_2_mbox_loc_perm
I0517 11:59:50.272383  9929 net.cpp:148] Top shape: 8 4 4 24 (3072)
I0517 11:59:50.272388  9929 net.cpp:156] Memory required for data: 5505952576
I0517 11:59:50.272392  9929 layer_factory.hpp:77] Creating layer conv8_2_mbox_loc_flat
I0517 11:59:50.272400  9929 net.cpp:91] Creating Layer conv8_2_mbox_loc_flat
I0517 11:59:50.272405  9929 net.cpp:425] conv8_2_mbox_loc_flat <- conv8_2_mbox_loc_perm
I0517 11:59:50.272411  9929 net.cpp:399] conv8_2_mbox_loc_flat -> conv8_2_mbox_loc_flat
I0517 11:59:50.272445  9929 net.cpp:141] Setting up conv8_2_mbox_loc_flat
I0517 11:59:50.272455  9929 net.cpp:148] Top shape: 8 384 (3072)
I0517 11:59:50.272459  9929 net.cpp:156] Memory required for data: 5505964864
I0517 11:59:50.272464  9929 layer_factory.hpp:77] Creating layer conv8_2_mbox_conf
I0517 11:59:50.272477  9929 net.cpp:91] Creating Layer conv8_2_mbox_conf
I0517 11:59:50.272482  9929 net.cpp:425] conv8_2_mbox_conf <- conv8_2_conv8_2_relu_0_split_2
I0517 11:59:50.272492  9929 net.cpp:399] conv8_2_mbox_conf -> conv8_2_mbox_conf
I0517 11:59:50.274482  9929 net.cpp:141] Setting up conv8_2_mbox_conf
I0517 11:59:50.274519  9929 net.cpp:148] Top shape: 8 30 4 4 (3840)
I0517 11:59:50.274525  9929 net.cpp:156] Memory required for data: 5505980224
I0517 11:59:50.274540  9929 layer_factory.hpp:77] Creating layer conv8_2_mbox_conf_perm
I0517 11:59:50.274551  9929 net.cpp:91] Creating Layer conv8_2_mbox_conf_perm
I0517 11:59:50.274557  9929 net.cpp:425] conv8_2_mbox_conf_perm <- conv8_2_mbox_conf
I0517 11:59:50.274574  9929 net.cpp:399] conv8_2_mbox_conf_perm -> conv8_2_mbox_conf_perm
I0517 11:59:50.274723  9929 net.cpp:141] Setting up conv8_2_mbox_conf_perm
I0517 11:59:50.274749  9929 net.cpp:148] Top shape: 8 4 4 30 (3840)
I0517 11:59:50.274754  9929 net.cpp:156] Memory required for data: 5505995584
I0517 11:59:50.274758  9929 layer_factory.hpp:77] Creating layer conv8_2_mbox_conf_flat
I0517 11:59:50.274765  9929 net.cpp:91] Creating Layer conv8_2_mbox_conf_flat
I0517 11:59:50.274771  9929 net.cpp:425] conv8_2_mbox_conf_flat <- conv8_2_mbox_conf_perm
I0517 11:59:50.274780  9929 net.cpp:399] conv8_2_mbox_conf_flat -> conv8_2_mbox_conf_flat
I0517 11:59:50.274814  9929 net.cpp:141] Setting up conv8_2_mbox_conf_flat
I0517 11:59:50.274824  9929 net.cpp:148] Top shape: 8 480 (3840)
I0517 11:59:50.274830  9929 net.cpp:156] Memory required for data: 5506010944
I0517 11:59:50.274835  9929 layer_factory.hpp:77] Creating layer conv8_2_mbox_priorbox
I0517 11:59:50.274847  9929 net.cpp:91] Creating Layer conv8_2_mbox_priorbox
I0517 11:59:50.274852  9929 net.cpp:425] conv8_2_mbox_priorbox <- conv8_2_conv8_2_relu_0_split_3
I0517 11:59:50.274858  9929 net.cpp:425] conv8_2_mbox_priorbox <- data_data_0_split_5
I0517 11:59:50.274868  9929 net.cpp:399] conv8_2_mbox_priorbox -> conv8_2_mbox_priorbox
I0517 11:59:50.274906  9929 net.cpp:141] Setting up conv8_2_mbox_priorbox
I0517 11:59:50.274915  9929 net.cpp:148] Top shape: 1 2 384 (768)
I0517 11:59:50.274919  9929 net.cpp:156] Memory required for data: 5506014016
I0517 11:59:50.274924  9929 layer_factory.hpp:77] Creating layer pool6_mbox_loc
I0517 11:59:50.274940  9929 net.cpp:91] Creating Layer pool6_mbox_loc
I0517 11:59:50.274945  9929 net.cpp:425] pool6_mbox_loc <- pool6_pool6_0_split_0
I0517 11:59:50.274955  9929 net.cpp:399] pool6_mbox_loc -> pool6_mbox_loc
I0517 11:59:50.276731  9929 net.cpp:141] Setting up pool6_mbox_loc
I0517 11:59:50.276752  9929 net.cpp:148] Top shape: 8 24 1 1 (192)
I0517 11:59:50.276763  9929 net.cpp:156] Memory required for data: 5506014784
I0517 11:59:50.276793  9929 layer_factory.hpp:77] Creating layer pool6_mbox_loc_perm
I0517 11:59:50.276813  9929 net.cpp:91] Creating Layer pool6_mbox_loc_perm
I0517 11:59:50.276819  9929 net.cpp:425] pool6_mbox_loc_perm <- pool6_mbox_loc
I0517 11:59:50.276828  9929 net.cpp:399] pool6_mbox_loc_perm -> pool6_mbox_loc_perm
I0517 11:59:50.276968  9929 net.cpp:141] Setting up pool6_mbox_loc_perm
I0517 11:59:50.276981  9929 net.cpp:148] Top shape: 8 1 1 24 (192)
I0517 11:59:50.276986  9929 net.cpp:156] Memory required for data: 5506015552
I0517 11:59:50.276990  9929 layer_factory.hpp:77] Creating layer pool6_mbox_loc_flat
I0517 11:59:50.276998  9929 net.cpp:91] Creating Layer pool6_mbox_loc_flat
I0517 11:59:50.277004  9929 net.cpp:425] pool6_mbox_loc_flat <- pool6_mbox_loc_perm
I0517 11:59:50.277009  9929 net.cpp:399] pool6_mbox_loc_flat -> pool6_mbox_loc_flat
I0517 11:59:50.277043  9929 net.cpp:141] Setting up pool6_mbox_loc_flat
I0517 11:59:50.277055  9929 net.cpp:148] Top shape: 8 24 (192)
I0517 11:59:50.277058  9929 net.cpp:156] Memory required for data: 5506016320
I0517 11:59:50.277063  9929 layer_factory.hpp:77] Creating layer pool6_mbox_conf
I0517 11:59:50.277081  9929 net.cpp:91] Creating Layer pool6_mbox_conf
I0517 11:59:50.277086  9929 net.cpp:425] pool6_mbox_conf <- pool6_pool6_0_split_1
I0517 11:59:50.277098  9929 net.cpp:399] pool6_mbox_conf -> pool6_mbox_conf
I0517 11:59:50.279712  9929 net.cpp:141] Setting up pool6_mbox_conf
I0517 11:59:50.279731  9929 net.cpp:148] Top shape: 8 30 1 1 (240)
I0517 11:59:50.279737  9929 net.cpp:156] Memory required for data: 5506017280
I0517 11:59:50.279747  9929 layer_factory.hpp:77] Creating layer pool6_mbox_conf_perm
I0517 11:59:50.279755  9929 net.cpp:91] Creating Layer pool6_mbox_conf_perm
I0517 11:59:50.279760  9929 net.cpp:425] pool6_mbox_conf_perm <- pool6_mbox_conf
I0517 11:59:50.279770  9929 net.cpp:399] pool6_mbox_conf_perm -> pool6_mbox_conf_perm
I0517 11:59:50.279927  9929 net.cpp:141] Setting up pool6_mbox_conf_perm
I0517 11:59:50.279938  9929 net.cpp:148] Top shape: 8 1 1 30 (240)
I0517 11:59:50.279942  9929 net.cpp:156] Memory required for data: 5506018240
I0517 11:59:50.279947  9929 layer_factory.hpp:77] Creating layer pool6_mbox_conf_flat
I0517 11:59:50.279971  9929 net.cpp:91] Creating Layer pool6_mbox_conf_flat
I0517 11:59:50.279976  9929 net.cpp:425] pool6_mbox_conf_flat <- pool6_mbox_conf_perm
I0517 11:59:50.279983  9929 net.cpp:399] pool6_mbox_conf_flat -> pool6_mbox_conf_flat
I0517 11:59:50.280019  9929 net.cpp:141] Setting up pool6_mbox_conf_flat
I0517 11:59:50.280028  9929 net.cpp:148] Top shape: 8 30 (240)
I0517 11:59:50.280032  9929 net.cpp:156] Memory required for data: 5506019200
I0517 11:59:50.280036  9929 layer_factory.hpp:77] Creating layer pool6_mbox_priorbox
I0517 11:59:50.280047  9929 net.cpp:91] Creating Layer pool6_mbox_priorbox
I0517 11:59:50.280052  9929 net.cpp:425] pool6_mbox_priorbox <- pool6_pool6_0_split_2
I0517 11:59:50.280058  9929 net.cpp:425] pool6_mbox_priorbox <- data_data_0_split_6
I0517 11:59:50.280066  9929 net.cpp:399] pool6_mbox_priorbox -> pool6_mbox_priorbox
I0517 11:59:50.280102  9929 net.cpp:141] Setting up pool6_mbox_priorbox
I0517 11:59:50.280109  9929 net.cpp:148] Top shape: 1 2 24 (48)
I0517 11:59:50.280114  9929 net.cpp:156] Memory required for data: 5506019392
I0517 11:59:50.280118  9929 layer_factory.hpp:77] Creating layer mbox_loc
I0517 11:59:50.280128  9929 net.cpp:91] Creating Layer mbox_loc
I0517 11:59:50.280133  9929 net.cpp:425] mbox_loc <- conv4_3_norm_mbox_loc_flat
I0517 11:59:50.280139  9929 net.cpp:425] mbox_loc <- fc7_mbox_loc_flat
I0517 11:59:50.280146  9929 net.cpp:425] mbox_loc <- conv6_2_mbox_loc_flat
I0517 11:59:50.280153  9929 net.cpp:425] mbox_loc <- conv7_2_mbox_loc_flat
I0517 11:59:50.280158  9929 net.cpp:425] mbox_loc <- conv8_2_mbox_loc_flat
I0517 11:59:50.280164  9929 net.cpp:425] mbox_loc <- pool6_mbox_loc_flat
I0517 11:59:50.280172  9929 net.cpp:399] mbox_loc -> mbox_loc
I0517 11:59:50.280223  9929 net.cpp:141] Setting up mbox_loc
I0517 11:59:50.280232  9929 net.cpp:148] Top shape: 8 80292 (642336)
I0517 11:59:50.280236  9929 net.cpp:156] Memory required for data: 5508588736
I0517 11:59:50.280241  9929 layer_factory.hpp:77] Creating layer mbox_conf
I0517 11:59:50.280248  9929 net.cpp:91] Creating Layer mbox_conf
I0517 11:59:50.280253  9929 net.cpp:425] mbox_conf <- conv4_3_norm_mbox_conf_flat
I0517 11:59:50.280259  9929 net.cpp:425] mbox_conf <- fc7_mbox_conf_flat
I0517 11:59:50.280266  9929 net.cpp:425] mbox_conf <- conv6_2_mbox_conf_flat
I0517 11:59:50.280272  9929 net.cpp:425] mbox_conf <- conv7_2_mbox_conf_flat
I0517 11:59:50.280277  9929 net.cpp:425] mbox_conf <- conv8_2_mbox_conf_flat
I0517 11:59:50.280280  9929 net.cpp:425] mbox_conf <- pool6_mbox_conf_flat
I0517 11:59:50.280287  9929 net.cpp:399] mbox_conf -> mbox_conf
I0517 11:59:50.280321  9929 net.cpp:141] Setting up mbox_conf
I0517 11:59:50.280330  9929 net.cpp:148] Top shape: 8 100365 (802920)
I0517 11:59:50.280334  9929 net.cpp:156] Memory required for data: 5511800416
I0517 11:59:50.280339  9929 layer_factory.hpp:77] Creating layer mbox_priorbox
I0517 11:59:50.280346  9929 net.cpp:91] Creating Layer mbox_priorbox
I0517 11:59:50.280350  9929 net.cpp:425] mbox_priorbox <- conv4_3_norm_mbox_priorbox
I0517 11:59:50.280356  9929 net.cpp:425] mbox_priorbox <- fc7_mbox_priorbox
I0517 11:59:50.280361  9929 net.cpp:425] mbox_priorbox <- conv6_2_mbox_priorbox
I0517 11:59:50.280366  9929 net.cpp:425] mbox_priorbox <- conv7_2_mbox_priorbox
I0517 11:59:50.280370  9929 net.cpp:425] mbox_priorbox <- conv8_2_mbox_priorbox
I0517 11:59:50.280375  9929 net.cpp:425] mbox_priorbox <- pool6_mbox_priorbox
I0517 11:59:50.280381  9929 net.cpp:399] mbox_priorbox -> mbox_priorbox
I0517 11:59:50.280416  9929 net.cpp:141] Setting up mbox_priorbox
I0517 11:59:50.280422  9929 net.cpp:148] Top shape: 1 2 80292 (160584)
I0517 11:59:50.280426  9929 net.cpp:156] Memory required for data: 5512442752
I0517 11:59:50.280431  9929 layer_factory.hpp:77] Creating layer mbox_loss
I0517 11:59:50.280441  9929 net.cpp:91] Creating Layer mbox_loss
I0517 11:59:50.280446  9929 net.cpp:425] mbox_loss <- mbox_loc
I0517 11:59:50.280450  9929 net.cpp:425] mbox_loss <- mbox_conf
I0517 11:59:50.280455  9929 net.cpp:425] mbox_loss <- mbox_priorbox
…
  name: "data"
  type: "AnnotatedData"
  top: "data"
  top: "label"
  include {
    phase: TEST
  }
  transform_param {
    mean_value: 104
    mean_value: 117
    mean_value: 123
    resize_param {
      prob: 1
      resize_mode: WARP
      height: 500
      width: 500
      interp_mode: LINEAR
    }
  }
  data_param {
    source: "examples/deepv_car_person/deepv_car_person_test_lmdb"
    batch_size: 1
    backend: LMDB
  }
  annotated_data_param {
    batch_sampler {
    }
    label_map_file: "data/deepv_car_person/labelmap_voc.prototxt"
  }
}
layer {
  name: "conv1_1"
  type: "Convolution"
  bottom: "data"
  top: "conv1_1"
  param {
    lr_mult: 0
    decay_mult: 0
  }
  param {
    lr_mult: 0
    decay_mult: 0
  }
  convolution_param {
    num_output: 64
    pad: 1
    kernel_size: 3
    weight_filler {
      type: "xavier"
    }
    bias_filler {
      type: "constant"
      value: 0
    }
  }
}
layer {
  name: "relu1_1"
  type: "ReLU"
  bottom: "conv1_1"
  top: "conv1_1"
}
layer {
  name: "conv1_2"
  type: "Convolution"
  bottom: "conv1_1"
  top: "conv1_2"
  param {
    lr_mult: 0
    decay_mult: 0
  }
  param {
    lr_mult: 0
    decay_mult: 0
  }
  convolution_param {
    num_output: 64
    pad: 1
    kernel_size: 3
    weight_filler {
      type: "xavier"
    }
    bias_filler {
      type: "constant"
      value: 0
    }
  }
}
layer {
  name: "relu1_2"
  type: "ReLU"
  bottom: "conv1_2"
  top: "conv1_2"
}
layer {
  name: "pool1"
  type: "Pooling"
  bottom: "conv1_2"
  top: "pool1"
  pooling_param {
    pool: MAX
    kernel_size: 2
    stride: 2
  }
}
layer {
  name: "conv2_1"
  type: "Convolution"
  bottom: "pool1"
  top: "conv2_1"
  param {
    lr_mult: 0
    decay_mult: 0
  }
  param {
    lr_mult: 0
    decay_mult: 0
  }
  convolution_param {
    num_output: 128
    pad: 1
    kernel_size: 3
    weight_filler {
      type: "xavier"
    }
    bias_filler {
      type: "constant"
      value: 0
    }
  }
}
layer {
  name: "relu2_1"
  type: "ReLU"
  bottom: "conv2_1"
  top: "conv2_1"
}
layer {
  name: "conv2_2"
  type: "Convolution"
  bottom: "conv2_1"
  top: "conv2_2"
  param {
    lr_mult: 0
    decay_mult: 0
  }
  param {
    lr_mult: 0
    decay_mult: 0
  }
  convolution_param {
    num_output: 128
    pad: 1
    kernel_size: 3
    weight_filler {
      type: "xavier"
    }
    bias_filler {
      type: "constant"
      value: 0
    }
  }
}
layer {
  name: "relu2_2"
  type: "ReLU"
  bottom: "conv2_2"
  top: "conv2_2"
}
layer {
  name: "pool2"
  type: "Pooling"
  bottom: "conv2_2"
  top: "pool2"
  pooling_param {
    pool: MAX
    kernel_size: 2
    stride: 2
  }
}
layer {
  name: "conv3_1"
  type: "Convolution"
  bottom: "pool2"
  top: "conv3_1"
  param {
    lr_mult: 1
    decay_mult: 1
  }
  param {
    lr_mult: 2
    decay_mult: 0
  }
  convolution_param {
    num_output: 256
    pad: 1
    kernel_size: 3
    weight_filler {
      type: "xavier"
    }
    bias_filler {
      type: "constant"
      value: 0
    }
  }
}
layer {
  name: "relu3_1"
  type: "ReLU"
  bottom: "conv3_1"
  top: "conv3_1"
}
layer {
  name: "conv3_2"
  type: "Convolution"
  bottom: "conv3_1"
  top: "conv3_2"
  param {
    lr_mult: 1
    decay_mult: 1
  }
  param {
    lr_mult: 2
    decay_mult: 0
  }
  convolution_param {
    num_output: 256
    pad: 1
    kernel_size: 3
    weight_filler {
      type: "xavier"
    }
    bias_filler {
      type: "constant"
      value: 0
    }
  }
}
layer {
  name: "relu3_2"
  type: "ReLU"
  bottom: "conv3_2"
  top: "conv3_2"
}
layer {
  name: "conv3_3"
  type: "Convolution"
  bottom: "conv3_2"
  top: "conv3_3"
  param {
    lr_mult: 1
    decay_mult: 1
  }
  param {
    lr_mult: 2
    decay_mult: 0
  }
  convolution_param {
    num_output: 256
    pad: 1
    kernel_size: 3
    weight_filler {
      type: "xavier"
    }
    bias_filler {
      type: "constant"
      value: 0
    }
  }
}
layer {
  name: "relu3_3"
  type: "ReLU"
  bottom: "conv3_3"
  top: "conv3_3"
}
layer {
  name: "pool3"
  type: "Pooling"
  bottom: "conv3_3"
  top: "pool3"
  pooling_param {
    pool: MAX
    kernel_size: 2
    stride: 2
  }
}
layer {
  name: "conv4_1"
  type: "Convolution"
  bottom: "pool3"
  top: "conv4_1"
  param {
    lr_mult: 1
    decay_mult: 1
  }
  param {
    lr_mult: 2
    decay_mult: 0
  }
  convolution_param {
    num_output: 512
    pad: 1
    kernel_size: 3
    weight_filler {
      type: "xavier"
    }
    bias_filler {
      type: "constant"
      value: 0
    }
  }
}
layer {
  name: "relu4_1"
  type: "ReLU"
  bottom: "conv4_1"
  top: "conv4_1"
}
layer {
  name: "conv4_2"
  type: "Convolution"
  bottom: "conv4_1"
  top: "conv4_2"
  param {
    lr_mult: 1
    decay_mult: 1
  }
  param {
    lr_mult: 2
    decay_mult: 0
  }
  convolution_param {
    num_output: 512
    pad: 1
    kernel_size: 3
    weight_filler {
      type: "xavier"
    }
    bias_filler {
      type: "constant"
      value: 0
    }
  }
}
layer {
  name: "relu4_2"
  type: "ReLU"
  bottom: "conv4_2"
  top: "conv4_2"
}
layer {
  name: "conv4_3"
  type: "Convolution"
  bottom: "conv4_2"
  top: "conv4_3"
  param {
    lr_mult: 1
    decay_mult: 1
  }
  param {
    lr_mult: 2
    decay_mult: 0
  }
  convolution_param {
    num_output: 512
    pad: 1
    kernel_size: 3
    weight_filler {
      type: "xavier"
    }
    bias_filler {
      type: "constant"
      value: 0
    }
  }
}
layer {
  name: "relu4_3"
  type: "ReLU"
  bottom: "conv4_3"
  top: "conv4_3"
}
layer {
  name: "pool4"
  type: "Pooling"
  bottom: "conv4_3"
  top: "pool4"
  pooling_param {
    pool: MAX
    kernel_size: 2
    stride: 2
  }
}
layer {
  name: "conv5_1"
  type: "Convolution"
  bottom: "pool4"
  top: "conv5_1"
  param {
    lr_mult: 1
    decay_mult: 1
  }
  param {
    lr_mult: 2
    decay_mult: 0
  }
  convolution_param {
    num_output: 512
    pad: 1
    kernel_size: 3
    weight_filler {
      type: "xavier"
    }
    bias_filler {
      type: "constant"
      value: 0
    }
  }
}
layer {
  name: "relu5_1"
  type: "ReLU"
  bottom: "conv5_1"
  top: "conv5_1"
}
layer {
  name: "conv5_2"
  type: "Convolution"
  bottom: "conv5_1"
  top: "conv5_2"
  param {
    lr_mult: 1
    decay_mult: 1
  }
  param {
    lr_mult: 2
    decay_mult: 0
  }
  convolution_param {
    num_output: 512
    pad: 1
    kernel_size: 3
    weight_filler {
      type: "xavier"
    }
    bias_filler {
      type: "constant"
      value: 0
    }
  }
}
layer {
  name: "relu5_2"
  type: "ReLU"
  bottom: "conv5_2"
  top: "conv5_2"
}
layer {
  name: "conv5_3"
  type: "Convolution"
  bottom: "conv5_2"
  top: "conv5_3"
  param {
    lr_mult: 1
    decay_mult: 1
  }
  param {
    lr_mult: 2
    decay_mult: 0
  }
  convolution_param {
    num_output: 512
    pad: 1
    kernel_size: 3
    weight_filler {
      type: "xavier"
    }
    bias_filler {
      type: "constant"
      value: 0
    }
  }
}
layer {
  name: "relu5_3"
  type: "ReLU"
  bottom: "conv5_3"
  top: "conv5_3"
}
layer {
  name: "pool5"
  type: "Pooling"
  bottom: "conv5_3"
  top: "pool5"
  pooling_param {
    pool: MAX
    kernel_size: 3
    stride: 1
    pad: 1
  }
}
layer {
  name: "fc6"
  type: "Convolution"
  bottom: "pool5"
  top: "fc6"
  param {
    lr_mult: 1
    decay_mult: 1
  }
  param {
    lr_mult: 2
    decay_mult: 0
  }
  convolution_param {
    num_output: 1024
    pad: 6
    kernel_size: 3
    weight_filler {
      type: "xavier"
    }
    bias_filler {
      type: "constant"
      value: 0
    }
    dilation: 6
  }
}
layer {
  name: "relu6"
  type: "ReLU"
  bottom: "fc6"
  top: "fc6"
}
layer {
  name: "fc7"
  type: "Convolution"
  bottom: "fc6"
  top: "fc7"
  param {
    lr_mult: 1
    decay_mult: 1
  }
  param {
    lr_mult: 2
    decay_mult: 0
  }
  convolution_param {
    num_output: 1024
    kernel_size: 1
    weight_filler {
      type: "xavier"
    }
    bias_filler {
      type: "constant"
      value: 0
    }
  }
}
layer {
  name: "relu7"
  type: "ReLU"
  bottom: "fc7"
  top: "fc7"
}
layer {
  name: "conv6_1"
  type: "Convolution"
  bottom: "fc7"
  top: "conv6_1"
  param {
    lr_mult: 1
    decay_mult: 1
  }
  param {
    lr_mult: 2
    decay_mult: 0
  }
  convolution_param {
    num_output: 256
    pad: 0
    kernel_size: 1
    stride: 1
    weight_filler {
      type: "xavier"
    }
    bias_filler {
      type: "constant"
      value: 0
    }
  }
}
layer {
  name: "conv6_1_relu"
  type: "ReLU"
  bottom: "conv6_1"
  top: "conv6_1"
}
layer {
  name: "conv6_2"
  type: "Convolution"
  bottom: "conv6_1"
  top: "conv6_2"
  param {
    lr_mult: 1
    decay_mult: 1
  }
  param {
    lr_mult: 2
    decay_mult: 0
  }
  convolution_param {
    num_output: 512
    pad: 1
    kernel_size: 3
    stride: 2
    weight_filler {
      type: "xavier"
    }
    bias_filler {
      type: "constant"
      value: 0
    }
  }
}
layer {
  name: "conv6_2_relu"
  type: "ReLU"
  bottom: "conv6_2"
  top: "conv6_2"
}
layer {
  name: "conv7_1"
  type: "Convolution"
  bottom: "conv6_2"
  top: "conv7_1"
  param {
    lr_mult: 1
    decay_mult: 1
  }
  param {
    lr_mult: 2
    decay_mult: 0
  }
  convolution_param {
    num_output: 128
    pad: 0
    kernel_size: 1
    stride: 1
    weight_filler {
      type: "xavier"
    }
    bias_filler {
      type: "constant"
      value: 0
    }
  }
}
layer {
  name: "conv7_1_relu"
  type: "ReLU"
  bottom: "conv7_1"
  top: "conv7_1"
}
layer {
  name: "conv7_2"
  type: "Convolution"
  bottom: "conv7_1"
  top: "conv7_2"
  param {
    lr_mult: 1
    decay_mult: 1
  }
  param {
    lr_mult: 2
    decay_mult: 0
  }
  convolution_param {
    num_output: 256
    pad: 1
    kernel_size: 3
    stride: 2
    weight_filler {
      type: "xavier"
    }
    bias_filler {
      type: "constant"
      value: 0
    }
  }
}
layer {
  name: "conv7_2_relu"
  type: "ReLU"
  bottom: "conv7_2"
  top: "conv7_2"
}
layer {
  name: "conv8_1"
  type: "Convolution"
  bottom: "conv7_2"
  top: "conv8_1"
  param {
    lr_mult: 1
    decay_mult: 1
  }
  param {
    lr_mult: 2
    decay_mult: 0
  }
  convolution_param {
    num_output: 128
    pad: 0
    kernel_size: 1
    stride: 1
    weight_filler {
      type: "xavier"
    }
    bias_filler {
      type: "constant"
      value: 0
    }
  }
}
layer {
  name: "conv8_1_relu"
  type: "ReLU"
  bottom: "conv8_1"
  top: "conv8_1"
}
layer {
  name: "conv8_2"
  type: "Convolution"
  bottom: "conv8_1"
  top: "conv8_2"
  param {
    lr_mult: 1
    decay_mult: 1
  }
  param {
    lr_mult: 2
    decay_mult: 0
  }
  convolution_param {
    num_output: 256
    pad: 1
    kernel_size: 3
    stride: 2
    weight_filler {
      type: "xavier"
    }
    bias_filler {
      type: "constant"
      value: 0
    }
  }
}
layer {
  name: "conv8_2_relu"
  type: "ReLU"
  bottom: "conv8_2"
  top: "conv8_2"
}
layer {
  name: "pool6"
  type: "Pooling"
  bottom: "conv8_2"
  top: "pool6"
  pooling_param {
    pool: AVE
    global_pooling: true
  }
}
layer {
  name: "conv4_3_norm"
  type: "Normalize"
  bottom: "conv4_3"
  top: "conv4_3_norm"
  norm_param {
    across_spatial: false
    scale_filler {
      type: "constant"
      value: 20
    }
    channel_shared: false
  }
}
layer {
  name: "conv4_3_norm_mbox_loc"
  type: "Convolution"
  bottom: "conv4_3_norm"
  top: "conv4_3_norm_mbox_loc"
  param {
    lr_mult: 1
    decay_mult: 1
  }
  param {
    lr_mult: 2
    decay_mult: 0
  }
  convolution_param {
    num_output: 12
    pad: 1
    kernel_size: 3
    stride: 1
    weight_filler {
      type: "xavier"
    }
    bias_filler {
      type: "constant"
      value: 0
    }
  }
}
layer {
  name: "conv4_3_norm_mbox_loc_perm"
  type: "Permute"
  bottom: "conv4_3_norm_mbox_loc"
  top: "conv4_3_norm_mbox_loc_perm"
  permute_param {
    order: 0
    order: 2
    order: 3
    order: 1
  }
}
layer {
  name: "conv4_3_norm_mbox_loc_flat"
  type: "Flatten"
  bottom: "conv4_3_norm_mbox_loc_perm"
  top: "conv4_3_norm_mbox_loc_flat"
  flatten_param {
    axis: 1
  }
}
layer {
  name: "conv4_3_norm_mbox_conf"
  type: "Convolution"
  bottom: "conv4_3_norm"
  top: "conv4_3_norm_mbox_conf"
  param {
    lr_mult: 1
    decay_mult: 1
  }
  param {
    lr_mult: 2
    decay_mult: 0
  }
  convolution_param {
    num_output: 15
    pad: 1
    kernel_size: 3
    stride: 1
    weight_filler {
      type: "xavier"
    }
    bias_filler {
      type: "constant"
      value: 0
    }
  }
}
layer {
  name: "conv4_3_norm_mbox_conf_perm"
  type: "Permute"
  bottom: "conv4_3_norm_mbox_conf"
  top: "conv4_3_norm_mbox_conf_perm"
  permute_param {
    order: 0
    order: 2
    order: 3
    order: 1
  }
}
layer {
  name: "conv4_3_norm_mbox_conf_flat"
  type: "Flatten"
  bottom: "conv4_3_norm_mbox_conf_perm"
  top: "conv4_3_norm_mbox_conf_flat"
  flatten_param {
    axis: 1
  }
}
layer {
  name: "conv4_3_norm_mbox_priorbox"
  type: "PriorBox"
  bottom: "conv4_3_norm"
  bottom: "data"
  top: "conv4_3_norm_mbox_priorbox"
  prior_box_param {
    min_size: 50
    aspect_ratio: 2
    flip: true
    clip: true
    variance: 0.1
    variance: 0.1
    variance: 0.2
    variance: 0.2
  }
}
layer {
  name: "fc7_mbox_loc"
  type: "Convolution"
  bottom: "fc7"
  top: "fc7_mbox_loc"
  param {
    lr_mult: 1
    decay_mult: 1
  }
  param {
    lr_mult: 2
    decay_mult: 0
  }
  convolution_param {
    num_output: 24
    pad: 1
    kernel_size: 3
    stride: 1
    weight_filler {
      type: "xavier"
    }
    bias_filler {
      type: "constant"
      value: 0
    }
  }
}
layer {
  name: "fc7_mbox_loc_perm"
  type: "Permute"
  bottom: "fc7_mbox_loc"
  top: "fc7_mbox_loc_perm"
  permute_param {
    order: 0
    order: 2
    order: 3
    order: 1
  }
}
layer {
  name: "fc7_mbox_loc_flat"
  type: "Flatten"
  bottom: "fc7_mbox_loc_perm"
  top: "fc7_mbox_loc_flat"
  flatten_param {
    axis: 1
  }
}
layer {
  name: "fc7_mbox_conf"
  type: "Convolution"
  bottom: "fc7"
  top: "fc7_mbox_conf"
  param {
    lr_mult: 1
    decay_mult: 1
  }
  param {
    lr_mult: 2
    decay_mult: 0
  }
  convolution_param {
    num_output: 30
    pad: 1
    kernel_size: 3
    stride: 1
    weight_filler {
      type: "xavier"
    }
    bias_filler {
      type: "constant"
      value: 0
    }
  }
}
layer {
  name: "fc7_mbox_conf_perm"
  type: "Permute"
  bottom: "fc7_mbox_conf"
  top: "fc7_mbox_conf_perm"
  permute_param {
    order: 0
    order: 2
    order: 3
    order: 1
  }
}
layer {
  name: "fc7_mbox_conf_flat"
  type: "Flatten"
  bottom: "fc7_mbox_conf_perm"
  top: "fc7_mbox_conf_flat"
  flatten_param {
    axis: 1
  }
}
layer {
  name: "fc7_mbox_priorbox"
  type: "PriorBox"
  bottom: "fc7"
  bottom: "data"
  top: "fc7_mbox_priorbox"
  prior_box_param {
    min_size: 100
    max_size: 190
    aspect_ratio: 2
    aspect_ratio: 3
    flip: true
    clip: true
    variance: 0.1
    variance: 0.1
    variance: 0.2
    variance: 0.2
  }
}
layer {
  name: "conv6_2_mbox_loc"
  type: "Convolution"
  bottom: "conv6_2"
  top: "conv6_2_mbox_loc"
  param {
    lr_mult: 1
    decay_mult: 1
  }
  param {
    lr_mult: 2
    decay_mult: 0
  }
  convolution_param {
    num_output: 24
    pad: 1
    kernel_size: 3
    stride: 1
    weight_filler {
      type: "xavier"
    }
    bias_filler {
      type: "constant"
      value: 0
    }
  }
}
layer {
  name: "conv6_2_mbox_loc_perm"
  type: "Permute"
  bottom: "conv6_2_mbox_loc"
  top: "conv6_2_mbox_loc_perm"
  permute_param {
    order: 0
    order: 2
    order: 3
    order: 1
  }
}
layer {
  name: "conv6_2_mbox_loc_flat"
  type: "Flatten"
  bottom: "conv6_2_mbox_loc_perm"
  top: "conv6_2_mbox_loc_flat"
  flatten_param {
    axis: 1
  }
}
layer {
  name: "conv6_2_mbox_conf"
  type: "Convolution"
  bottom: "conv6_2"
  top: "conv6_2_mbox_conf"
  param {
    lr_mult: 1
    decay_mult: 1
  }
  param {
    lr_mult: 2
    decay_mult: 0
  }
  convolution_param {
    num_output: 30
    pad: 1
    kernel_size: 3
    stride: 1
    weight_filler {
      type: "xavier"
    }
    bias_filler {
      type: "constant"
      value: 0
    }
  }
}
layer {
  name: "conv6_2_mbox_conf_perm"
  type: "Permute"
  bottom: "conv6_2_mbox_conf"
  top: "conv6_2_mbox_conf_perm"
  permute_param {
    order: 0
    order: 2
    order: 3
    order: 1
  }
}
layer {
  name: "conv6_2_mbox_conf_flat"
  type: "Flatten"
  bottom: "conv6_2_mbox_conf_perm"
  top: "conv6_2_mbox_conf_flat"
  flatten_param {
    axis: 1
  }
}
layer {
  name: "conv6_2_mbox_priorbox"
  type: "PriorBox"
  bottom: "conv6_2"
  bottom: "data"
  top: "conv6_2_mbox_priorbox"
  prior_box_param {
    min_size: 190
    max_size: 280
    aspect_ratio: 2
    aspect_ratio: 3
    flip: true
    clip: true
    variance: 0.1
    variance: 0.1
    variance: 0.2
    variance: 0.2
  }
}
layer {
  name: "conv7_2_mbox_loc"
  type: "Convolution"
  bottom: "conv7_2"
  top: "conv7_2_mbox_loc"
  param {
    lr_mult: 1
    decay_mult: 1
  }
  param {
    lr_mult: 2
    decay_mult: 0
  }
  convolution_param {
    num_output: 24
    pad: 1
    kernel_size: 3
    stride: 1
    weight_filler {
      type: "xavier"
    }
    bias_filler {
      type: "constant"
      value: 0
    }
  }
}
layer {
  name: "conv7_2_mbox_loc_perm"
  type: "Permute"
  bottom: "conv7_2_mbox_loc"
  top: "conv7_2_mbox_loc_perm"
  permute_param {
    order: 0
    order: 2
    order: 3
    order: 1
  }
}
layer {
  name: "conv7_2_mbox_loc_flat"
  type: "Flatten"
  bottom: "conv7_2_mbox_loc_perm"
  top: "conv7_2_mbox_loc_flat"
  flatten_param {
    axis: 1
  }
}
layer {
  name: "conv7_2_mbox_conf"
  type: "Convolution"
  bottom: "conv7_2"
  top: "conv7_2_mbox_conf"
  param {
    lr_mult: 1
    decay_mult: 1
  }
  param {
    lr_mult: 2
    decay_mult: 0
  }
  convolution_param {
    num_output: 30
    pad: 1
    kernel_size: 3
    stride: 1
    weight_filler {
      type: "xavier"
    }
    bias_filler {
      type: "constant"
      value: 0
    }
  }
}
layer {
  name: "conv7_2_mbox_conf_perm"
  type: "Permute"
  bottom: "conv7_2_mbox_conf"
  top: "conv7_2_mbox_conf_perm"
  permute_param {
    order: 0
    order: 2
    order: 3
    order: 1
  }
}
layer {
  name: "conv7_2_mbox_conf_flat"
  type: "Flatten"
  bottom: "conv7_2_mbox_conf_perm"
  top: "conv7_2_mbox_conf_flat"
  flatten_param {
    axis: 1
  }
}
layer {
  name: "conv7_2_mbox_priorbox"
  type: "PriorBox"
  bottom: "conv7_2"
  bottom: "data"
  top: "conv7_2_mbox_priorbox"
  prior_box_param {
    min_size: 280
    max_size: 370
    aspect_ratio: 2
    aspect_ratio: 3
    flip: true
    clip: true
    variance: 0.1
    variance: 0.1
    variance: 0.2
    variance: 0.2
  }
}
layer {
  name: "conv8_2_mbox_loc"
  type: "Convolution"
  bottom: "conv8_2"
  top: "conv8_2_mbox_loc"
  param {
    lr_mult: 1
    decay_mult: 1
  }
  param {
    lr_mult: 2
    decay_mult: 0
  }
  convolution_param {
    num_output: 24
    pad: 1
    kernel_size: 3
    stride: 1
    weight_filler {
      type: "xavier"
    }
    bias_filler {
      type: "constant"
      value: 0
    }
  }
}
layer {
  name: "conv8_2_mbox_loc_perm"
  type: "Permute"
  bottom: "conv8_2_mbox_loc"
  top: "conv8_2_mbox_loc_perm"
  permute_param {
    order: 0
    order: 2
    order: 3
    order: 1
  }
}
layer {
  name: "conv8_2_mbox_loc_flat"
  type: "Flatten"
  bottom: "conv8_2_mbox_loc_perm"
  top: "conv8_2_mbox_loc_flat"
  flatten_param {
    axis: 1
  }
}
layer {
  name: "conv8_2_mbox_conf"
  type: "Convolution"
  bottom: "conv8_2"
  top: "conv8_2_mbox_conf"
  param {
    lr_mult: 1
    decay_mult: 1
  }
  param {
    lr_mult: 2
    decay_mult: 0
  }
  convolution_param {
    num_output: 30
    pad: 1
    kernel_size: 3
    stride: 1
    weight_filler {
      type: "xavier"
    }
    bias_filler {
      type: "constant"
      value: 0
    }
  }
}
layer {
  name: "conv8_2_mbox_conf_perm"
  type: "Permute"
  bottom: "conv8_2_mbox_conf"
  top: "conv8_2_mbox_conf_perm"
  permute_param {
    order: 0
    order: 2
    order: 3
    order: 1
  }
}
layer {
  name: "conv8_2_mbox_conf_flat"
  type: "Flatten"
  bottom: "conv8_2_mbox_conf_perm"
  top: "conv8_2_mbox_conf_flat"
  flatten_param {
    axis: 1
  }
}
layer {
  name: "conv8_2_mbox_priorbox"
  type: "PriorBox"
  bottom: "conv8_2"
  bottom: "data"
  top: "conv8_2_mbox_priorbox"
  prior_box_param {
    min_size: 370
    max_size: 460
    aspect_ratio: 2
    aspect_ratio: 3
    flip: true
    clip: true
    variance: 0.1
    variance: 0.1
    variance: 0.2
    variance: 0.2
  }
}
layer {
  name: "pool6_mbox_loc"
  type: "Convolution"
  bottom: "pool6"
  top: "pool6_mbox_loc"
  param {
    lr_mult: 1
    decay_mult: 1
  }
  param {
    lr_mult: 2
    decay_mult: 0
  }
  convolution_param {
    num_output: 24
    pad: 1
    kernel_size: 3
    stride: 1
    weight_filler {
      type: "xavier"
    }
    bias_filler {
      type: "constant"
      value: 0
    }
  }
}
layer {
  name: "pool6_mbox_loc_perm"
  type: "Permute"
  bottom: "pool6_mbox_loc"
  top: "pool6_mbox_loc_perm"
  permute_param {
    order: 0
    order: 2
    order: 3
    order: 1
  }
}
layer {
  name: "pool6_mbox_loc_flat"
  type: "Flatten"
  bottom: "pool6_mbox_loc_perm"
  top: "pool6_mbox_loc_flat"
  flatten_param {
    axis: 1
  }
}
layer {
  name: "pool6_mbox_conf"
  type: "Convolution"
  bottom: "pool6"
  top: "pool6_mbox_conf"
  param {
    lr_mult: 1
    decay_mult: 1
  }
  param {
    lr_mult: 2
    decay_mult: 0
  }
  convolution_param {
    num_output: 30
    pad: 1
    kernel_size: 3
    stride: 1
    weight_filler {
      type: "xavier"
    }
    bias_filler {
      type: "constant"
      value: 0
    }
  }
}
layer {
  name: "pool6_mbox_conf_perm"
  type: "Permute"
  bottom: "pool6_mbox_conf"
  top: "pool6_mbox_conf_perm"
  permute_param {
    order: 0
    order: 2
    order: 3
    order: 1
  }
}
layer {
  name: "pool6_mbox_conf_flat"
  type: "Flatten"
  bottom: "pool6_mbox_conf_perm"
  top: "pool6_mbox_conf_flat"
  flatten_param {
    axis: 1
  }
}
layer {
  name: "pool6_mbox_priorbox"
  type: "PriorBox"
  bottom: "pool6"
  bottom: "data"
  top: "pool6_mbox_priorbox"
  prior_box_param {
    min_size: 460
    max_size: 550
    aspect_ratio: 2
    aspect_ratio: 3
    flip: true
    clip: true
    variance: 0.1
    variance: 0.1
    variance: 0.2
    variance: 0.2
  }
}
layer {
  name: "mbox_loc"
  type: "Concat"
  bottom: "conv4_3_norm_mbox_loc_flat"
  bottom: "fc7_mbox_loc_flat"
  bottom: "conv6_2_mbox_loc_flat"
  bottom: "conv7_2_mbox_loc_flat"
  bottom: "conv8_2_mbox_loc_flat"
  bottom: "pool6_mbox_loc_flat"
  top: "mbox_loc"
  concat_param {
    axis: 1
  }
}
layer {
  name: "mbox_conf"
  type: "Concat"
  bottom: "conv4_3_norm_mbox_conf_flat"
  bottom: "fc7_mbox_conf_flat"
  bottom: "conv6_2_mbox_conf_flat"
  bottom: "conv7_2_mbox_conf_flat"
  bottom: "conv8_2_mbox_conf_flat"
  bottom: "pool6_mbox_conf_flat"
  top: "mbox_conf"
  concat_param {
    axis: 1
  }
}
layer {
  name: "mbox_priorbox"
  type: "Concat"
  bottom: "conv4_3_norm_mbox_priorbox"
  bottom: "fc7_mbox_priorbox"
  bottom: "conv6_2_mbox_priorbox"
  bottom: "conv7_2_mbox_priorbox"
  bottom: "conv8_2_mbox_priorbox"
  bottom: "pool6_mbox_priorbox"
  top: "mbox_priorbox"
  concat_param {
    axis: 2
  }
}
layer {
  name: "mbox_conf_reshape"
  type: "Reshape"
  bottom: "mbox_conf"
  top: "mbox_conf_reshape"
  reshape_param {
    shape {
      dim: 0
      dim: -1
      dim: 5
    }
  }
}
layer {
  name: "mbox_conf_softmax"
  type: "Softmax"
  bottom: "mbox_conf_reshape"
  top: "mbox_conf_softmax"
  softmax_param {
    axis: 2
  }
}
layer {
  name: "mbox_conf_flatten"
  type: "Flatten"
  bottom: "mbox_conf_softmax"
  top: "mbox_conf_flatten"
  flatten_param {
    axis: 1
  }
}
layer {
  name: "detection_out"
  type: "DetectionOutput"
  bottom: "mbox_loc"
  bottom: "mbox_conf_flatten"
  bottom: "mbox_priorbox"
  top: "detection_out"
  include {
    phase: TEST
  }
  detection_output_param {
    num_classes: 5
    share_location: true
    background_label_id: 0
    nms_param {
      nms_threshold: 0.45
      top_k: 400
    }
    save_output_param {
      output_directory: "/home/zdb/data/VOCdevkit/results/VOC2007/SSD_500x500/Main"
      output_name_prefix: "comp4_det_test_"
      output_format: "VOC"
      label_map_file: "data/deepv_car_person/labelmap_voc.prototxt"
      name_size_file: "data/deepv_car_person/test_name_size.txt"
      num_test_image: 4367
    }
    code_type: CENTER_SIZE
    keep_top_k: 200
    confidence_threshold: 0.01
  }
}
layer {
  name: "detection_eval"
  type: "DetectionEvaluate"
  bottom: "detection_out"
  bottom: "label"
  top: "detection_eval"
  include {
    phase: TEST
  }
  detection_evaluate_param {
    num_classes: 5
    background_label_id: 0
    overlap_threshold: 0.5
    evaluate_difficult_gt: false
    name_size_file: "data/deepv_car_person/test_name_size.txt"
  }
}
I0517 11:59:50.286500  9929 layer_factory.hpp:77] Creating layer data
I0517 11:59:50.286598  9929 net.cpp:91] Creating Layer data
I0517 11:59:50.286612  9929 net.cpp:399] data -> data
I0517 11:59:50.286624  9929 net.cpp:399] data -> label
I0517 11:59:50.288558  9958 db_lmdb.cpp:35] Opened lmdb examples/deepv_car_person/deepv_car_person_test_lmdb
I0517 11:59:50.301837  9929 annotated_data_layer.cpp:52] output data size: 1,3,500,500
I0517 11:59:50.308298  9929 net.cpp:141] Setting up data
I0517 11:59:50.308339  9929 net.cpp:148] Top shape: 1 3 500 500 (750000)
I0517 11:59:50.308347  9929 net.cpp:148] Top shape: 1 1 4 8 (32)
I0517 11:59:50.308353  9929 net.cpp:156] Memory required for data: 3000128
I0517 11:59:50.308362  9929 layer_factory.hpp:77] Creating layer data_data_0_split
I0517 11:59:50.308384  9929 net.cpp:91] Creating Layer data_data_0_split
I0517 11:59:50.308390  9929 net.cpp:425] data_data_0_split <- data
I0517 11:59:50.308403  9929 net.cpp:399] data_data_0_split -> data_data_0_split_0
I0517 11:59:50.308419  9929 net.cpp:399] data_data_0_split -> data_data_0_split_1
I0517 11:59:50.308429  9929 net.cpp:399] data_data_0_split -> data_data_0_split_2
I0517 11:59:50.308437  9929 net.cpp:399] data_data_0_split -> data_data_0_split_3
I0517 11:59:50.308444  9929 net.cpp:399] data_data_0_split -> data_data_0_split_4
I0517 11:59:50.308452  9929 net.cpp:399] data_data_0_split -> data_data_0_split_5
I0517 11:59:50.308459  9929 net.cpp:399] data_data_0_split -> data_data_0_split_6
I0517 11:59:50.308684  9929 net.cpp:141] Setting up data_data_0_split
I0517 11:59:50.308697  9929 net.cpp:148] Top shape: 1 3 500 500 (750000)
I0517 11:59:50.308703  9929 net.cpp:148] Top shape: 1 3 500 500 (750000)
I0517 11:59:50.308709  9929 net.cpp:148] Top shape: 1 3 500 500 (750000)
I0517 11:59:50.308714  9929 net.cpp:148] Top shape: 1 3 500 500 (750000)
I0517 11:59:50.308719  9929 net.cpp:148] Top shape: 1 3 500 500 (750000)
I0517 11:59:50.308724  9929 net.cpp:148] Top shape: 1 3 500 500 (750000)
I0517 11:59:50.308730  9929 net.cpp:148] Top shape: 1 3 500 500 (750000)
I0517 11:59:50.308734  9929 net.cpp:156] Memory required for data: 24000128
I0517 11:59:50.308739  9929 layer_factory.hpp:77] Creating layer conv1_1
I0517 11:59:50.308759  9929 net.cpp:91] Creating Layer conv1_1
I0517 11:59:50.308786  9929 net.cpp:425] conv1_1 <- data_data_0_split_0
I0517 11:59:50.308799  9929 net.cpp:399] conv1_1 -> conv1_1
I0517 11:59:50.311264  9929 net.cpp:141] Setting up conv1_1
I0517 11:59:50.311292  9929 net.cpp:148] Top shape: 1 64 500 500 (16000000)
I0517 11:59:50.311297  9929 net.cpp:156] Memory required for data: 88000128
I0517 11:59:50.311312  9929 layer_factory.hpp:77] Creating layer relu1_1
I0517 11:59:50.311323  9929 net.cpp:91] Creating Layer relu1_1
I0517 11:59:50.311328  9929 net.cpp:425] relu1_1 <- conv1_1
I0517 11:59:50.311336  9929 net.cpp:386] relu1_1 -> conv1_1 (in-place)
I0517 11:59:50.311712  9929 net.cpp:141] Setting up relu1_1
I0517 11:59:50.311728  9929 net.cpp:148] Top shape: 1 64 500 500 (16000000)
I0517 11:59:50.311733  9929 net.cpp:156] Memory required for data: 152000128
I0517 11:59:50.311738  9929 layer_factory.hpp:77] Creating layer conv1_2
I0517 11:59:50.311753  9929 net.cpp:91] Creating Layer conv1_2
I0517 11:59:50.311758  9929 net.cpp:425] conv1_2 <- conv1_1
I0517 11:59:50.311767  9929 net.cpp:399] conv1_2 -> conv1_2
I0517 11:59:50.314005  9929 net.cpp:141] Setting up conv1_2
I0517 11:59:50.314024  9929 net.cpp:148] Top shape: 1 64 500 500 (16000000)
I0517 11:59:50.314029  9929 net.cpp:156] Memory required for data: 216000128
I0517 11:59:50.314043  9929 layer_factory.hpp:77] Creating layer relu1_2
I0517 11:59:50.314052  9929 net.cpp:91] Creating Layer relu1_2
I0517 11:59:50.314057  9929 net.cpp:425] relu1_2 <- conv1_2
I0517 11:59:50.314064  9929 net.cpp:386] relu1_2 -> conv1_2 (in-place)
I0517 11:59:50.314395  9929 net.cpp:141] Setting up relu1_2
I0517 11:59:50.314412  9929 net.cpp:148] Top shape: 1 64 500 500 (16000000)
I0517 11:59:50.314417  9929 net.cpp:156] Memory required for data: 280000128
I0517 11:59:50.314421  9929 layer_factory.hpp:77] Creating layer pool1
I0517 11:59:50.314432  9929 net.cpp:91] Creating Layer pool1
I0517 11:59:50.314436  9929 net.cpp:425] pool1 <- conv1_2
I0517 11:59:50.314443  9929 net.cpp:399] pool1 -> pool1
I0517 11:59:50.314509  9929 net.cpp:141] Setting up pool1
I0517 11:59:50.314518  9929 net.cpp:148] Top shape: 1 64 250 250 (4000000)
I0517 11:59:50.314522  9929 net.cpp:156] Memory required for data: 296000128
I0517 11:59:50.314527  9929 layer_factory.hpp:77] Creating layer conv2_1
I0517 11:59:50.314539  9929 net.cpp:91] Creating Layer conv2_1
I0517 11:59:50.314544  9929 net.cpp:425] conv2_1 <- pool1
I0517 11:59:50.314553  9929 net.cpp:399] conv2_1 -> conv2_1
I0517 11:59:50.317087  9929 net.cpp:141] Setting up conv2_1
I0517 11:59:50.317106  9929 net.cpp:148] Top shape: 1 128 250 250 (8000000)
I0517 11:59:50.317111  9929 net.cpp:156] Memory required for data: 328000128
I0517 11:59:50.317123  9929 layer_factory.hpp:77] Creating layer relu2_1
I0517 11:59:50.317134  9929 net.cpp:91] Creating Layer relu2_1
I0517 11:59:50.317139  9929 net.cpp:425] relu2_1 <- conv2_1
I0517 11:59:50.317145  9929 net.cpp:386] relu2_1 -> conv2_1 (in-place)
I0517 11:59:50.317368  9929 net.cpp:141] Setting up relu2_1
I0517 11:59:50.317380  9929 net.cpp:148] Top shape: 1 128 250 250 (8000000)
I0517 11:59:50.317385  9929 net.cpp:156] Memory required for data: 360000128
I0517 11:59:50.317389  9929 layer_factory.hpp:77] Creating layer conv2_2
I0517 11:59:50.317401  9929 net.cpp:91] Creating Layer conv2_2
I0517 11:59:50.317406  9929 net.cpp:425] conv2_2 <- conv2_1
I0517 11:59:50.317415  9929 net.cpp:399] conv2_2 -> conv2_2
I0517 11:59:50.320525  9929 net.cpp:141] Setting up conv2_2
I0517 11:59:50.320552  9929 net.cpp:148] Top shape: 1 128 250 250 (8000000)
I0517 11:59:50.320557  9929 net.cpp:156] Memory required for data: 392000128
I0517 11:59:50.320567  9929 layer_factory.hpp:77] Creating layer relu2_2
I0517 11:59:50.320577  9929 net.cpp:91] Creating Layer relu2_2
I0517 11:59:50.320582  9929 net.cpp:425] relu2_2 <- conv2_2
I0517 11:59:50.320590  9929 net.cpp:386] relu2_2 -> conv2_2 (in-place)
I0517 11:59:50.320929  9929 net.cpp:141] Setting up relu2_2
I0517 11:59:50.320945  9929 net.cpp:148] Top shape: 1 128 250 250 (8000000)
I0517 11:59:50.320971  9929 net.cpp:156] Memory required for data: 424000128
I0517 11:59:50.320976  9929 layer_factory.hpp:77] Creating layer pool2
I0517 11:59:50.320986  9929 net.cpp:91] Creating Layer pool2
I0517 11:59:50.320989  9929 net.cpp:425] pool2 <- conv2_2
I0517 11:59:50.320997  9929 net.cpp:399] pool2 -> pool2
I0517 11:59:50.321065  9929 net.cpp:141] Setting up pool2
I0517 11:59:50.321084  9929 net.cpp:148] Top shape: 1 128 125 125 (2000000)
I0517 11:59:50.321089  9929 net.cpp:156] Memory required for data: 432000128
I0517 11:59:50.321092  9929 layer_factory.hpp:77] Creating layer conv3_1
I0517 11:59:50.321105  9929 net.cpp:91] Creating Layer conv3_1
I0517 11:59:50.321110  9929 net.cpp:425] conv3_1 <- pool2
I0517 11:59:50.321120  9929 net.cpp:399] conv3_1 -> conv3_1
I0517 11:59:50.325270  9929 net.cpp:141] Setting up conv3_1
I0517 11:59:50.325289  9929 net.cpp:148] Top shape: 1 256 125 125 (4000000)
I0517 11:59:50.325294  9929 net.cpp:156] Memory required for data: 448000128
I0517 11:59:50.325309  9929 layer_factory.hpp:77] Creating layer relu3_1
I0517 11:59:50.325317  9929 net.cpp:91] Creating Layer relu3_1
I0517 11:59:50.325321  9929 net.cpp:425] relu3_1 <- conv3_1
I0517 11:59:50.325328  9929 net.cpp:386] relu3_1 -> conv3_1 (in-place)
I0517 11:59:50.325659  9929 net.cpp:141] Setting up relu3_1
I0517 11:59:50.325675  9929 net.cpp:148] Top shape: 1 256 125 125 (4000000)
I0517 11:59:50.325680  9929 net.cpp:156] Memory required for data: 464000128
I0517 11:59:50.325685  9929 layer_factory.hpp:77] Creating layer conv3_2
I0517 11:59:50.325697  9929 net.cpp:91] Creating Layer conv3_2
I0517 11:59:50.325702  9929 net.cpp:425] conv3_2 <- conv3_1
I0517 11:59:50.325711  9929 net.cpp:399] conv3_2 -> conv3_2
I0517 11:59:50.333029  9929 net.cpp:141] Setting up conv3_2
I0517 11:59:50.333062  9929 net.cpp:148] Top shape: 1 256 125 125 (4000000)
I0517 11:59:50.333068  9929 net.cpp:156] Memory required for data: 480000128
I0517 11:59:50.333077  9929 layer_factory.hpp:77] Creating layer relu3_2
I0517 11:59:50.333087  9929 net.cpp:91] Creating Layer relu3_2
I0517 11:59:50.333093  9929 net.cpp:425] relu3_2 <- conv3_2
I0517 11:59:50.333101  9929 net.cpp:386] relu3_2 -> conv3_2 (in-place)
I0517 11:59:50.333305  9929 net.cpp:141] Setting up relu3_2
I0517 11:59:50.333318  9929 net.cpp:148] Top shape: 1 256 125 125 (4000000)
I0517 11:59:50.333323  9929 net.cpp:156] Memory required for data: 496000128
I0517 11:59:50.333328  9929 layer_factory.hpp:77] Creating layer conv3_3
I0517 11:59:50.333343  9929 net.cpp:91] Creating Layer conv3_3
I0517 11:59:50.333348  9929 net.cpp:425] conv3_3 <- conv3_2
I0517 11:59:50.333356  9929 net.cpp:399] conv3_3 -> conv3_3
I0517 11:59:50.340315  9929 net.cpp:141] Setting up conv3_3
I0517 11:59:50.340345  9929 net.cpp:148] Top shape: 1 256 125 125 (4000000)
I0517 11:59:50.340350  9929 net.cpp:156] Memory required for data: 512000128
I0517 11:59:50.340359  9929 layer_factory.hpp:77] Creating layer relu3_3
I0517 11:59:50.340368  9929 net.cpp:91] Creating Layer relu3_3
I0517 11:59:50.340373  9929 net.cpp:425] relu3_3 <- conv3_3
I0517 11:59:50.340381  9929 net.cpp:386] relu3_3 -> conv3_3 (in-place)
I0517 11:59:50.340706  9929 net.cpp:141] Setting up relu3_3
I0517 11:59:50.340723  9929 net.cpp:148] Top shape: 1 256 125 125 (4000000)
I0517 11:59:50.340728  9929 net.cpp:156] Memory required for data: 528000128
I0517 11:59:50.340733  9929 layer_factory.hpp:77] Creating layer pool3
I0517 11:59:50.340742  9929 net.cpp:91] Creating Layer pool3
I0517 11:59:50.340747  9929 net.cpp:425] pool3 <- conv3_3
I0517 11:59:50.340755  9929 net.cpp:399] pool3 -> pool3
I0517 11:59:50.340821  9929 net.cpp:141] Setting up pool3
I0517 11:59:50.340831  9929 net.cpp:148] Top shape: 1 256 63 63 (1016064)
I0517 11:59:50.340836  9929 net.cpp:156] Memory required for data: 532064384
I0517 11:59:50.340839  9929 layer_factory.hpp:77] Creating layer conv4_1
I0517 11:59:50.340852  9929 net.cpp:91] Creating Layer conv4_1
I0517 11:59:50.340857  9929 net.cpp:425] conv4_1 <- pool3
I0517 11:59:50.340864  9929 net.cpp:399] conv4_1 -> conv4_1
I0517 11:59:50.354073  9929 net.cpp:141] Setting up conv4_1
I0517 11:59:50.354161  9929 net.cpp:148] Top shape: 1 512 63 63 (2032128)
I0517 11:59:50.354168  9929 net.cpp:156] Memory required for data: 540192896
I0517 11:59:50.354179  9929 layer_factory.hpp:77] Creating layer relu4_1
I0517 11:59:50.354194  9929 net.cpp:91] Creating Layer relu4_1
I0517 11:59:50.354202  9929 net.cpp:425] relu4_1 <- conv4_1
I0517 11:59:50.354210  9929 net.cpp:386] relu4_1 -> conv4_1 (in-place)
I0517 11:59:50.354548  9929 net.cpp:141] Setting up relu4_1
I0517 11:59:50.354570  9929 net.cpp:148] Top shape: 1 512 63 63 (2032128)
I0517 11:59:50.354575  9929 net.cpp:156] Memory required for data: 548321408
I0517 11:59:50.354579  9929 layer_factory.hpp:77] Creating layer conv4_2
I0517 11:59:50.354601  9929 net.cpp:91] Creating Layer conv4_2
I0517 11:59:50.354605  9929 net.cpp:425] conv4_2 <- conv4_1
I0517 11:59:50.354615  9929 net.cpp:399] conv4_2 -> conv4_2
I0517 11:59:50.378793  9929 net.cpp:141] Setting up conv4_2
I0517 11:59:50.378864  9929 net.cpp:148] Top shape: 1 512 63 63 (2032128)
I0517 11:59:50.378870  9929 net.cpp:156] Memory required for data: 556449920
I0517 11:59:50.378890  9929 layer_factory.hpp:77] Creating layer relu4_2
I0517 11:59:50.378906  9929 net.cpp:91] Creating Layer relu4_2
I0517 11:59:50.378911  9929 net.cpp:425] relu4_2 <- conv4_2
I0517 11:59:50.378927  9929 net.cpp:386] relu4_2 -> conv4_2 (in-place)
I0517 11:59:50.379138  9929 net.cpp:141] Setting up relu4_2
I0517 11:59:50.379153  9929 net.cpp:148] Top shape: 1 512 63 63 (2032128)
I0517 11:59:50.379156  9929 net.cpp:156] Memory required for data: 564578432
I0517 11:59:50.379161  9929 layer_factory.hpp:77] Creating layer conv4_3
I0517 11:59:50.379178  9929 net.cpp:91] Creating Layer conv4_3
I0517 11:59:50.379182  9929 net.cpp:425] conv4_3 <- conv4_2
I0517 11:59:50.379191  9929 net.cpp:399] conv4_3 -> conv4_3
I0517 11:59:50.403208  9929 net.cpp:141] Setting up conv4_3
I0517 11:59:50.403264  9929 net.cpp:148] Top shape: 1 512 63 63 (2032128)
I0517 11:59:50.403270  9929 net.cpp:156] Memory required for data: 572706944
I0517 11:59:50.403282  9929 layer_factory.hpp:77] Creating layer relu4_3
I0517 11:59:50.403297  9929 net.cpp:91] Creating Layer relu4_3
I0517 11:59:50.403304  9929 net.cpp:425] relu4_3 <- conv4_3
I0517 11:59:50.403321  9929 net.cpp:386] relu4_3 -> conv4_3 (in-place)
I0517 11:59:50.403673  9929 net.cpp:141] Setting up relu4_3
I0517 11:59:50.403690  9929 net.cpp:148] Top shape: 1 512 63 63 (2032128)
I0517 11:59:50.403695  9929 net.cpp:156] Memory required for data: 580835456
I0517 11:59:50.403700  9929 layer_factory.hpp:77] Creating layer conv4_3_relu4_3_0_split
I0517 11:59:50.403709  9929 net.cpp:91] Creating Layer conv4_3_relu4_3_0_split
I0517 11:59:50.403713  9929 net.cpp:425] conv4_3_relu4_3_0_split <- conv4_3
I0517 11:59:50.403722  9929 net.cpp:399] conv4_3_relu4_3_0_split -> conv4_3_relu4_3_0_split_0
I0517 11:59:50.403730  9929 net.cpp:399] conv4_3_relu4_3_0_split -> conv4_3_relu4_3_0_split_1
I0517 11:59:50.403792  9929 net.cpp:141] Setting up conv4_3_relu4_3_0_split
I0517 11:59:50.403803  9929 net.cpp:148] Top shape: 1 512 63 63 (2032128)
I0517 11:59:50.403808  9929 net.cpp:148] Top shape: 1 512 63 63 (2032128)
I0517 11:59:50.403812  9929 net.cpp:156] Memory required for data: 597092480
I0517 11:59:50.403817  9929 layer_factory.hpp:77] Creating layer pool4
I0517 11:59:50.403826  9929 net.cpp:91] Creating Layer pool4
I0517 11:59:50.403831  9929 net.cpp:425] pool4 <- conv4_3_relu4_3_0_split_0
I0517 11:59:50.403838  9929 net.cpp:399] pool4 -> pool4
I0517 11:59:50.403895  9929 net.cpp:141] Setting up pool4
I0517 11:59:50.403904  9929 net.cpp:148] Top shape: 1 512 32 32 (524288)
I0517 11:59:50.403909  9929 net.cpp:156] Memory required for data: 599189632
I0517 11:59:50.403913  9929 layer_factory.hpp:77] Creating layer conv5_1
I0517 11:59:50.403926  9929 net.cpp:91] Creating Layer conv5_1
I0517 11:59:50.403931  9929 net.cpp:425] conv5_1 <- pool4
I0517 11:59:50.403939  9929 net.cpp:399] conv5_1 -> conv5_1
I0517 11:59:50.427940  9929 net.cpp:141] Setting up conv5_1
I0517 11:59:50.428000  9929 net.cpp:148] Top shape: 1 512 32 32 (524288)
I0517 11:59:50.428032  9929 net.cpp:156] Memory required for data: 601286784
I0517 11:59:50.428045  9929 layer_factory.hpp:77] Creating layer relu5_1
I0517 11:59:50.428066  9929 net.cpp:91] Creating Layer relu5_1
I0517 11:59:50.428072  9929 net.cpp:425] relu5_1 <- conv5_1
I0517 11:59:50.428082  9929 net.cpp:386] relu5_1 -> conv5_1 (in-place)
I0517 11:59:50.428442  9929 net.cpp:141] Setting up relu5_1
I0517 11:59:50.428458  9929 net.cpp:148] Top shape: 1 512 32 32 (524288)
I0517 11:59:50.428468  9929 net.cpp:156] Memory required for data: 603383936
I0517 11:59:50.428472  9929 layer_factory.hpp:77] Creating layer conv5_2
I0517 11:59:50.428488  9929 net.cpp:91] Creating Layer conv5_2
I0517 11:59:50.428493  9929 net.cpp:425] conv5_2 <- conv5_1
I0517 11:59:50.428500  9929 net.cpp:399] conv5_2 -> conv5_2
I0517 11:59:50.454371  9929 net.cpp:141] Setting up conv5_2
I0517 11:59:50.454435  9929 net.cpp:148] Top shape: 1 512 32 32 (524288)
I0517 11:59:50.454442  9929 net.cpp:156] Memory required for data: 605481088
I0517 11:59:50.454457  9929 layer_factory.hpp:77] Creating layer relu5_2
I0517 11:59:50.454515  9929 net.cpp:91] Creating Layer relu5_2
I0517 11:59:50.454525  9929 net.cpp:425] relu5_2 <- conv5_2
I0517 11:59:50.454536  9929 net.cpp:386] relu5_2 -> conv5_2 (in-place)
I0517 11:59:50.454782  9929 net.cpp:141] Setting up relu5_2
I0517 11:59:50.454797  9929 net.cpp:148] Top shape: 1 512 32 32 (524288)
I0517 11:59:50.454802  9929 net.cpp:156] Memory required for data: 607578240
I0517 11:59:50.454807  9929 layer_factory.hpp:77] Creating layer conv5_3
I0517 11:59:50.454824  9929 net.cpp:91] Creating Layer conv5_3
I0517 11:59:50.454829  9929 net.cpp:425] conv5_3 <- conv5_2
I0517 11:59:50.454839  9929 net.cpp:399] conv5_3 -> conv5_3
I0517 11:59:50.479173  9929 net.cpp:141] Setting up conv5_3
I0517 11:59:50.479225  9929 net.cpp:148] Top shape: 1 512 32 32 (524288)
I0517 11:59:50.479231  9929 net.cpp:156] Memory required for data: 609675392
I0517 11:59:50.479243  9929 layer_factory.hpp:77] Creating layer relu5_3
I0517 11:59:50.479290  9929 net.cpp:91] Creating Layer relu5_3
I0517 11:59:50.479297  9929 net.cpp:425] relu5_3 <- conv5_3
I0517 11:59:50.479306  9929 net.cpp:386] relu5_3 -> conv5_3 (in-place)
I0517 11:59:50.479667  9929 net.cpp:141] Setting up relu5_3
I0517 11:59:50.479684  9929 net.cpp:148] Top shape: 1 512 32 32 (524288)
I0517 11:59:50.479689  9929 net.cpp:156] Memory required for data: 611772544
I0517 11:59:50.479696  9929 layer_factory.hpp:77] Creating layer pool5
I0517 11:59:50.479722  9929 net.cpp:91] Creating Layer pool5
I0517 11:59:50.479727  9929 net.cpp:425] pool5 <- conv5_3
I0517 11:59:50.479737  9929 net.cpp:399] pool5 -> pool5
I0517 11:59:50.479806  9929 net.cpp:141] Setting up pool5
I0517 11:59:50.479816  9929 net.cpp:148] Top shape: 1 512 32 32 (524288)
I0517 11:59:50.479820  9929 net.cpp:156] Memory required for data: 613869696
I0517 11:59:50.479825  9929 layer_factory.hpp:77] Creating layer fc6
I0517 11:59:50.479840  9929 net.cpp:91] Creating Layer fc6
I0517 11:59:50.479846  9929 net.cpp:425] fc6 <- pool5
I0517 11:59:50.479854  9929 net.cpp:399] fc6 -> fc6
I0517 11:59:50.532068  9929 net.cpp:141] Setting up fc6
I0517 11:59:50.532131  9929 net.cpp:148] Top shape: 1 1024 32 32 (1048576)
I0517 11:59:50.532143  9929 net.cpp:156] Memory required for data: 618064000
I0517 11:59:50.532166  9929 layer_factory.hpp:77] Creating layer relu6
I0517 11:59:50.532191  9929 net.cpp:91] Creating Layer relu6
I0517 11:59:50.532208  9929 net.cpp:425] relu6 <- fc6
I0517 11:59:50.532224  9929 net.cpp:386] relu6 -> fc6 (in-place)
I0517 11:59:50.532747  9929 net.cpp:141] Setting up relu6
I0517 11:59:50.532778  9929 net.cpp:148] Top shape: 1 1024 32 32 (1048576)
I0517 11:59:50.532788  9929 net.cpp:156] Memory required for data: 622258304
I0517 11:59:50.532798  9929 layer_factory.hpp:77] Creating layer fc7
I0517 11:59:50.532835  9929 net.cpp:91] Creating Layer fc7
I0517 11:59:50.532850  9929 net.cpp:425] fc7 <- fc6
I0517 11:59:50.532871  9929 net.cpp:399] fc7 -> fc7
I0517 11:59:50.552979  9929 net.cpp:141] Setting up fc7
I0517 11:59:50.553015  9929 net.cpp:148] Top shape: 1 1024 32 32 (1048576)
I0517 11:59:50.553025  9929 net.cpp:156] Memory required for data: 626452608
I0517 11:59:50.553043  9929 layer_factory.hpp:77] Creating layer relu7
I0517 11:59:50.553059  9929 net.cpp:91] Creating Layer relu7
I0517 11:59:50.553074  9929 net.cpp:425] relu7 <- fc7
I0517 11:59:50.553087  9929 net.cpp:386] relu7 -> fc7 (in-place)
I0517 11:59:50.553457  9929 net.cpp:141] Setting up relu7
I0517 11:59:50.553483  9929 net.cpp:148] Top shape: 1 1024 32 32 (1048576)
I0517 11:59:50.553491  9929 net.cpp:156] Memory required for data: 630646912
I0517 11:59:50.553499  9929 layer_factory.hpp:77] Creating layer fc7_relu7_0_split
I0517 11:59:50.553514  9929 net.cpp:91] Creating Layer fc7_relu7_0_split
I0517 11:59:50.553522  9929 net.cpp:425] fc7_relu7_0_split <- fc7
I0517 11:59:50.553534  9929 net.cpp:399] fc7_relu7_0_split -> fc7_relu7_0_split_0
I0517 11:59:50.553553  9929 net.cpp:399] fc7_relu7_0_split -> fc7_relu7_0_split_1
I0517 11:59:50.553613  9929 net.cpp:399] fc7_relu7_0_split -> fc7_relu7_0_split_2
I0517 11:59:50.553632  9929 net.cpp:399] fc7_relu7_0_split -> fc7_relu7_0_split_3
I0517 11:59:50.553807  9929 net.cpp:141] Setting up fc7_relu7_0_split
I0517 11:59:50.553824  9929 net.cpp:148] Top shape: 1 1024 32 32 (1048576)
I0517 11:59:50.553836  9929 net.cpp:148] Top shape: 1 1024 32 32 (1048576)
I0517 11:59:50.553846  9929 net.cpp:148] Top shape: 1 1024 32 32 (1048576)
I0517 11:59:50.553855  9929 net.cpp:148] Top shape: 1 1024 32 32 (1048576)
I0517 11:59:50.553863  9929 net.cpp:156] Memory required for data: 647424128
I0517 11:59:50.553870  9929 layer_factory.hpp:77] Creating layer conv6_1
I0517 11:59:50.553891  9929 net.cpp:91] Creating Layer conv6_1
I0517 11:59:50.553900  9929 net.cpp:425] conv6_1 <- fc7_relu7_0_split_0
I0517 11:59:50.553916  9929 net.cpp:399] conv6_1 -> conv6_1
I0517 11:59:50.560806  9929 net.cpp:141] Setting up conv6_1
I0517 11:59:50.560839  9929 net.cpp:148] Top shape: 1 256 32 32 (262144)
I0517 11:59:50.560848  9929 net.cpp:156] Memory required for data: 648472704
I0517 11:59:50.560871  9929 layer_factory.hpp:77] Creating layer conv6_1_relu
I0517 11:59:50.560897  9929 net.cpp:91] Creating Layer conv6_1_relu
I0517 11:59:50.560907  9929 net.cpp:425] conv6_1_relu <- conv6_1
I0517 11:59:50.560920  9929 net.cpp:386] conv6_1_relu -> conv6_1 (in-place)
I0517 11:59:50.561492  9929 net.cpp:141] Setting up conv6_1_relu
I0517 11:59:50.561522  9929 net.cpp:148] Top shape: 1 256 32 32 (262144)
I0517 11:59:50.561530  9929 net.cpp:156] Memory required for data: 649521280
I0517 11:59:50.561538  9929 layer_factory.hpp:77] Creating layer conv6_2
I0517 11:59:50.561573  9929 net.cpp:91] Creating Layer conv6_2
I0517 11:59:50.561583  9929 net.cpp:425] conv6_2 <- conv6_1
I0517 11:59:50.561596  9929 net.cpp:399] conv6_2 -> conv6_2
I0517 11:59:50.581851  9929 net.cpp:141] Setting up conv6_2
I0517 11:59:50.581908  9929 net.cpp:148] Top shape: 1 512 16 16 (131072)
I0517 11:59:50.581918  9929 net.cpp:156] Memory required for data: 650045568
I0517 11:59:50.581975  9929 layer_factory.hpp:77] Creating layer conv6_2_relu
I0517 11:59:50.582000  9929 net.cpp:91] Creating Layer conv6_2_relu
I0517 11:59:50.582010  9929 net.cpp:425] conv6_2_relu <- conv6_2
I0517 11:59:50.582021  9929 net.cpp:386] conv6_2_relu -> conv6_2 (in-place)
I0517 11:59:50.582402  9929 net.cpp:141] Setting up conv6_2_relu
I0517 11:59:50.582427  9929 net.cpp:148] Top shape: 1 512 16 16 (131072)
I0517 11:59:50.582433  9929 net.cpp:156] Memory required for data: 650569856
I0517 11:59:50.582450  9929 layer_factory.hpp:77] Creating layer conv6_2_conv6_2_relu_0_split
I0517 11:59:50.582463  9929 net.cpp:91] Creating Layer conv6_2_conv6_2_relu_0_split
I0517 11:59:50.582471  9929 net.cpp:425] conv6_2_conv6_2_relu_0_split <- conv6_2
I0517 11:59:50.582485  9929 net.cpp:399] conv6_2_conv6_2_relu_0_split -> conv6_2_conv6_2_relu_0_split_0
I0517 11:59:50.582500  9929 net.cpp:399] conv6_2_conv6_2_relu_0_split -> conv6_2_conv6_2_relu_0_split_1
I0517 11:59:50.582514  9929 net.cpp:399] conv6_2_conv6_2_relu_0_split -> conv6_2_conv6_2_relu_0_split_2
I0517 11:59:50.582552  9929 net.cpp:399] conv6_2_conv6_2_relu_0_split -> conv6_2_conv6_2_relu_0_split_3
I0517 11:59:50.582711  9929 net.cpp:141] Setting up conv6_2_conv6_2_relu_0_split
I0517 11:59:50.582731  9929 net.cpp:148] Top shape: 1 512 16 16 (131072)
I0517 11:59:50.582739  9929 net.cpp:148] Top shape: 1 512 16 16 (131072)
I0517 11:59:50.582747  9929 net.cpp:148] Top shape: 1 512 16 16 (131072)
I0517 11:59:50.582756  9929 net.cpp:148] Top shape: 1 512 16 16 (131072)
I0517 11:59:50.582762  9929 net.cpp:156] Memory required for data: 652667008
I0517 11:59:50.582769  9929 layer_factory.hpp:77] Creating layer conv7_1
I0517 11:59:50.582798  9929 net.cpp:91] Creating Layer conv7_1
I0517 11:59:50.582810  9929 net.cpp:425] conv7_1 <- conv6_2_conv6_2_relu_0_split_0
I0517 11:59:50.582824  9929 net.cpp:399] conv7_1 -> conv7_1
I0517 11:59:50.585896  9929 net.cpp:141] Setting up conv7_1
I0517 11:59:50.585927  9929 net.cpp:148] Top shape: 1 128 16 16 (32768)
I0517 11:59:50.585933  9929 net.cpp:156] Memory required for data: 652798080
I0517 11:59:50.585947  9929 layer_factory.hpp:77] Creating layer conv7_1_relu
I0517 11:59:50.585963  9929 net.cpp:91] Creating Layer conv7_1_relu
I0517 11:59:50.585971  9929 net.cpp:425] conv7_1_relu <- conv7_1
I0517 11:59:50.585981  9929 net.cpp:386] conv7_1_relu -> conv7_1 (in-place)
I0517 11:59:50.586303  9929 net.cpp:141] Setting up conv7_1_relu
I0517 11:59:50.586325  9929 net.cpp:148] Top shape: 1 128 16 16 (32768)
I0517 11:59:50.586333  9929 net.cpp:156] Memory required for data: 652929152
I0517 11:59:50.586339  9929 layer_factory.hpp:77] Creating layer conv7_2
I0517 11:59:50.586371  9929 net.cpp:91] Creating Layer conv7_2
I0517 11:59:50.586381  9929 net.cpp:425] conv7_2 <- conv7_1
I0517 11:59:50.586393  9929 net.cpp:399] conv7_2 -> conv7_2
I0517 11:59:50.592612  9929 net.cpp:141] Setting up conv7_2
I0517 11:59:50.592640  9929 net.cpp:148] Top shape: 1 256 8 8 (16384)
I0517 11:59:50.592648  9929 net.cpp:156] Memory required for data: 652994688
I0517 11:59:50.592663  9929 layer_factory.hpp:77] Creating layer conv7_2_relu
I0517 11:59:50.592679  9929 net.cpp:91] Creating Layer conv7_2_relu
I0517 11:59:50.592687  9929 net.cpp:425] conv7_2_relu <- conv7_2
I0517 11:59:50.592699  9929 net.cpp:386] conv7_2_relu -> conv7_2 (in-place)
I0517 11:59:50.593238  9929 net.cpp:141] Setting up conv7_2_relu
I0517 11:59:50.593266  9929 net.cpp:148] Top shape: 1 256 8 8 (16384)
I0517 11:59:50.593272  9929 net.cpp:156] Memory required for data: 653060224
I0517 11:59:50.593279  9929 layer_factory.hpp:77] Creating layer conv7_2_conv7_2_relu_0_split
I0517 11:59:50.593303  9929 net.cpp:91] Creating Layer conv7_2_conv7_2_relu_0_split
I0517 11:59:50.593312  9929 net.cpp:425] conv7_2_conv7_2_relu_0_split <- conv7_2
I0517 11:59:50.593323  9929 net.cpp:399] conv7_2_conv7_2_relu_0_split -> conv7_2_conv7_2_relu_0_split_0
I0517 11:59:50.593336  9929 net.cpp:399] conv7_2_conv7_2_relu_0_split -> conv7_2_conv7_2_relu_0_split_1
I0517 11:59:50.593353  9929 net.cpp:399] conv7_2_conv7_2_relu_0_split -> conv7_2_conv7_2_relu_0_split_2
I0517 11:59:50.593364  9929 net.cpp:399] conv7_2_conv7_2_relu_0_split -> conv7_2_conv7_2_relu_0_split_3
I0517 11:59:50.593523  9929 net.cpp:141] Setting up conv7_2_conv7_2_relu_0_split
I0517 11:59:50.593540  9929 net.cpp:148] Top shape: 1 256 8 8 (16384)
I0517 11:59:50.593549  9929 net.cpp:148] Top shape: 1 256 8 8 (16384)
I0517 11:59:50.593556  9929 net.cpp:148] Top shape: 1 256 8 8 (16384)
I0517 11:59:50.593564  9929 net.cpp:148] Top shape: 1 256 8 8 (16384)
I0517 11:59:50.593570  9929 net.cpp:156] Memory required for data: 653322368
I0517 11:59:50.593576  9929 layer_factory.hpp:77] Creating layer conv8_1
I0517 11:59:50.593596  9929 net.cpp:91] Creating Layer conv8_1
I0517 11:59:50.593605  9929 net.cpp:425] conv8_1 <- conv7_2_conv7_2_relu_0_split_0
I0517 11:59:50.593621  9929 net.cpp:399] conv8_1 -> conv8_1
I0517 11:59:50.595964  9929 net.cpp:141] Setting up conv8_1
I0517 11:59:50.595993  9929 net.cpp:148] Top shape: 1 128 8 8 (8192)
I0517 11:59:50.596020  9929 net.cpp:156] Memory required for data: 653355136
I0517 11:59:50.596035  9929 layer_factory.hpp:77] Creating layer conv8_1_relu
I0517 11:59:50.596057  9929 net.cpp:91] Creating Layer conv8_1_relu
I0517 11:59:50.596066  9929 net.cpp:425] conv8_1_relu <- conv8_1
I0517 11:59:50.596076  9929 net.cpp:386] conv8_1_relu -> conv8_1 (in-place)
I0517 11:59:50.596410  9929 net.cpp:141] Setting up conv8_1_relu
I0517 11:59:50.596433  9929 net.cpp:148] Top shape: 1 128 8 8 (8192)
I0517 11:59:50.596441  9929 net.cpp:156] Memory required for data: 653387904
I0517 11:59:50.596446  9929 layer_factory.hpp:77] Creating layer conv8_2
I0517 11:59:50.596467  9929 net.cpp:91] Creating Layer conv8_2
I0517 11:59:50.596474  9929 net.cpp:425] conv8_2 <- conv8_1
I0517 11:59:50.596488  9929 net.cpp:399] conv8_2 -> conv8_2
I0517 11:59:50.602273  9929 net.cpp:141] Setting up conv8_2
I0517 11:59:50.602300  9929 net.cpp:148] Top shape: 1 256 4 4 (4096)
I0517 11:59:50.602308  9929 net.cpp:156] Memory required for data: 653404288
I0517 11:59:50.602321  9929 layer_factory.hpp:77] Creating layer conv8_2_relu
I0517 11:59:50.602341  9929 net.cpp:91] Creating Layer conv8_2_relu
I0517 11:59:50.602350  9929 net.cpp:425] conv8_2_relu <- conv8_2
I0517 11:59:50.602362  9929 net.cpp:386] conv8_2_relu -> conv8_2 (in-place)
I0517 11:59:50.602674  9929 net.cpp:141] Setting up conv8_2_relu
I0517 11:59:50.602695  9929 net.cpp:148] Top shape: 1 256 4 4 (4096)
I0517 11:59:50.602702  9929 net.cpp:156] Memory required for data: 653420672
I0517 11:59:50.602708  9929 layer_factory.hpp:77] Creating layer conv8_2_conv8_2_relu_0_split
I0517 11:59:50.602720  9929 net.cpp:91] Creating Layer conv8_2_conv8_2_relu_0_split
I0517 11:59:50.602726  9929 net.cpp:425] conv8_2_conv8_2_relu_0_split <- conv8_2
I0517 11:59:50.602736  9929 net.cpp:399] conv8_2_conv8_2_relu_0_split -> conv8_2_conv8_2_relu_0_split_0
I0517 11:59:50.602751  9929 net.cpp:399] conv8_2_conv8_2_relu_0_split -> conv8_2_conv8_2_relu_0_split_1
I0517 11:59:50.602764  9929 net.cpp:399] conv8_2_conv8_2_relu_0_split -> conv8_2_conv8_2_relu_0_split_2
I0517 11:59:50.602776  9929 net.cpp:399] conv8_2_conv8_2_relu_0_split -> conv8_2_conv8_2_relu_0_split_3
I0517 11:59:50.602978  9929 net.cpp:141] Setting up conv8_2_conv8_2_relu_0_split
I0517 11:59:50.602998  9929 net.cpp:148] Top shape: 1 256 4 4 (4096)
I0517 11:59:50.603005  9929 net.cpp:148] Top shape: 1 256 4 4 (4096)
I0517 11:59:50.603013  9929 net.cpp:148] Top shape: 1 256 4 4 (4096)
I0517 11:59:50.603020  9929 net.cpp:148] Top shape: 1 256 4 4 (4096)
I0517 11:59:50.603026  9929 net.cpp:156] Memory required for data: 653486208
I0517 11:59:50.603041  9929 layer_factory.hpp:77] Creating layer pool6
I0517 11:59:50.603056  9929 net.cpp:91] Creating Layer pool6
I0517 11:59:50.603065  9929 net.cpp:425] pool6 <- conv8_2_conv8_2_relu_0_split_0
I0517 11:59:50.603075  9929 net.cpp:399] pool6 -> pool6
I0517 11:59:50.603624  9929 net.cpp:141] Setting up pool6
I0517 11:59:50.603649  9929 net.cpp:148] Top shape: 1 256 1 1 (256)
I0517 11:59:50.603657  9929 net.cpp:156] Memory required for data: 653487232
I0517 11:59:50.603662  9929 layer_factory.hpp:77] Creating layer pool6_pool6_0_split
I0517 11:59:50.603682  9929 net.cpp:91] Creating Layer pool6_pool6_0_split
I0517 11:59:50.603690  9929 net.cpp:425] pool6_pool6_0_split <- pool6
I0517 11:59:50.603700  9929 net.cpp:399] pool6_pool6_0_split -> pool6_pool6_0_split_0
I0517 11:59:50.603715  9929 net.cpp:399] pool6_pool6_0_split -> pool6_pool6_0_split_1
I0517 11:59:50.603726  9929 net.cpp:399] pool6_pool6_0_split -> pool6_pool6_0_split_2
I0517 11:59:50.603845  9929 net.cpp:141] Setting up pool6_pool6_0_split
I0517 11:59:50.603868  9929 net.cpp:148] Top shape: 1 256 1 1 (256)
I0517 11:59:50.603875  9929 net.cpp:148] Top shape: 1 256 1 1 (256)
I0517 11:59:50.603883  9929 net.cpp:148] Top shape: 1 256 1 1 (256)
I0517 11:59:50.603889  9929 net.cpp:156] Memory required for data: 653490304
I0517 11:59:50.603895  9929 layer_factory.hpp:77] Creating layer conv4_3_norm
I0517 11:59:50.603909  9929 net.cpp:91] Creating Layer conv4_3_norm
I0517 11:59:50.606030  9929 net.cpp:425] conv4_3_norm <- conv4_3_relu4_3_0_split_1
I0517 11:59:50.606063  9929 net.cpp:399] conv4_3_norm -> conv4_3_norm
I0517 11:59:50.606616  9929 net.cpp:141] Setting up conv4_3_norm
I0517 11:59:50.606642  9929 net.cpp:148] Top shape: 1 512 63 63 (2032128)
I0517 11:59:50.606652  9929 net.cpp:156] Memory required for data: 661618816
I0517 11:59:50.606665  9929 layer_factory.hpp:77] Creating layer conv4_3_norm_conv4_3_norm_0_split
I0517 11:59:50.606680  9929 net.cpp:91] Creating Layer conv4_3_norm_conv4_3_norm_0_split
I0517 11:59:50.606690  9929 net.cpp:425] conv4_3_norm_conv4_3_norm_0_split <- conv4_3_norm
I0517 11:59:50.606703  9929 net.cpp:399] conv4_3_norm_conv4_3_norm_0_split -> conv4_3_norm_conv4_3_norm_0_split_0
I0517 11:59:50.606719  9929 net.cpp:399] conv4_3_norm_conv4_3_norm_0_split -> conv4_3_norm_conv4_3_norm_0_split_1
I0517 11:59:50.606739  9929 net.cpp:399] conv4_3_norm_conv4_3_norm_0_split -> conv4_3_norm_conv4_3_norm_0_split_2
I0517 11:59:50.606885  9929 net.cpp:141] Setting up conv4_3_norm_conv4_3_norm_0_split
I0517 11:59:50.606905  9929 net.cpp:148] Top shape: 1 512 63 63 (2032128)
I0517 11:59:50.606917  9929 net.cpp:148] Top shape: 1 512 63 63 (2032128)
I0517 11:59:50.606927  9929 net.cpp:148] Top shape: 1 512 63 63 (2032128)
I0517 11:59:50.606935  9929 net.cpp:156] Memory required for data: 686004352
I0517 11:59:50.606956  9929 layer_factory.hpp:77] Creating layer conv4_3_norm_mbox_loc
I0517 11:59:50.606989  9929 net.cpp:91] Creating Layer conv4_3_norm_mbox_loc
I0517 11:59:50.607002  9929 net.cpp:425] conv4_3_norm_mbox_loc <- conv4_3_norm_conv4_3_norm_0_split_0
I0517 11:59:50.607023  9929 net.cpp:399] conv4_3_norm_mbox_loc -> conv4_3_norm_mbox_loc
I0517 11:59:50.611511  9929 net.cpp:141] Setting up conv4_3_norm_mbox_loc
I0517 11:59:50.611549  9929 net.cpp:148] Top shape: 1 12 63 63 (47628)
I0517 11:59:50.611560  9929 net.cpp:156] Memory required for data: 686194864
I0517 11:59:50.611578  9929 layer_factory.hpp:77] Creating layer conv4_3_norm_mbox_loc_perm
I0517 11:59:50.611639  9929 net.cpp:91] Creating Layer conv4_3_norm_mbox_loc_perm
I0517 11:59:50.611651  9929 net.cpp:425] conv4_3_norm_mbox_loc_perm <- conv4_3_norm_mbox_loc
I0517 11:59:50.611670  9929 net.cpp:399] conv4_3_norm_mbox_loc_perm -> conv4_3_norm_mbox_loc_perm
I0517 11:59:50.612009  9929 net.cpp:141] Setting up conv4_3_norm_mbox_loc_perm
I0517 11:59:50.612035  9929 net.cpp:148] Top shape: 1 63 63 12 (47628)
I0517 11:59:50.612043  9929 net.cpp:156] Memory required for data: 686385376
I0517 11:59:50.612052  9929 layer_factory.hpp:77] Creating layer conv4_3_norm_mbox_loc_flat
I0517 11:59:50.612095  9929 net.cpp:91] Creating Layer conv4_3_norm_mbox_loc_flat
I0517 11:59:50.612107  9929 net.cpp:425] conv4_3_norm_mbox_loc_flat <- conv4_3_norm_mbox_loc_perm
I0517 11:59:50.612119  9929 net.cpp:399] conv4_3_norm_mbox_loc_flat -> conv4_3_norm_mbox_loc_flat
I0517 11:59:50.612197  9929 net.cpp:141] Setting up conv4_3_norm_mbox_loc_flat
I0517 11:59:50.612215  9929 net.cpp:148] Top shape: 1 47628 (47628)
I0517 11:59:50.612224  9929 net.cpp:156] Memory required for data: 686575888
I0517 11:59:50.612241  9929 layer_factory.hpp:77] Creating layer conv4_3_norm_mbox_conf
I0517 11:59:50.612268  9929 net.cpp:91] Creating Layer conv4_3_norm_mbox_conf
I0517 11:59:50.612282  9929 net.cpp:425] conv4_3_norm_mbox_conf <- conv4_3_norm_conv4_3_norm_0_split_1
I0517 11:59:50.612299  9929 net.cpp:399] conv4_3_norm_mbox_conf -> conv4_3_norm_mbox_conf
I0517 11:59:50.616057  9929 net.cpp:141] Setting up conv4_3_norm_mbox_conf
I0517 11:59:50.616092  9929 net.cpp:148] Top shape: 1 15 63 63 (59535)
I0517 11:59:50.616101  9929 net.cpp:156] Memory required for data: 686814028
I0517 11:59:50.616117  9929 layer_factory.hpp:77] Creating layer conv4_3_norm_mbox_conf_perm
I0517 11:59:50.616140  9929 net.cpp:91] Creating Layer conv4_3_norm_mbox_conf_perm
I0517 11:59:50.616150  9929 net.cpp:425] conv4_3_norm_mbox_conf_perm <- conv4_3_norm_mbox_conf
I0517 11:59:50.616166  9929 net.cpp:399] conv4_3_norm_mbox_conf_perm -> conv4_3_norm_mbox_conf_perm
I0517 11:59:50.616521  9929 net.cpp:141] Setting up conv4_3_norm_mbox_conf_perm
I0517 11:59:50.616544  9929 net.cpp:148] Top shape: 1 63 63 15 (59535)
I0517 11:59:50.616552  9929 net.cpp:156] Memory required for data: 687052168
I0517 11:59:50.616560  9929 layer_factory.hpp:77] Creating layer conv4_3_norm_mbox_conf_flat
I0517 11:59:50.616585  9929 net.cpp:91] Creating Layer conv4_3_norm_mbox_conf_flat
I0517 11:59:50.616595  9929 net.cpp:425] conv4_3_norm_mbox_conf_flat <- conv4_3_norm_mbox_conf_perm
I0517 11:59:50.616606  9929 net.cpp:399] conv4_3_norm_mbox_conf_flat -> conv4_3_norm_mbox_conf_flat
I0517 11:59:50.616683  9929 net.cpp:141] Setting up conv4_3_norm_mbox_conf_flat
I0517 11:59:50.616700  9929 net.cpp:148] Top shape: 1 59535 (59535)
I0517 11:59:50.616708  9929 net.cpp:156] Memory required for data: 687290308
I0517 11:59:50.616715  9929 layer_factory.hpp:77] Creating layer conv4_3_norm_mbox_priorbox
I0517 11:59:50.616753  9929 net.cpp:91] Creating Layer conv4_3_norm_mbox_priorbox
I0517 11:59:50.616766  9929 net.cpp:425] conv4_3_norm_mbox_priorbox <- conv4_3_norm_conv4_3_norm_0_split_2
I0517 11:59:50.616778  9929 net.cpp:425] conv4_3_norm_mbox_priorbox <- data_data_0_split_1
I0517 11:59:50.616794  9929 net.cpp:399] conv4_3_norm_mbox_priorbox -> conv4_3_norm_mbox_priorbox
I0517 11:59:50.616892  9929 net.cpp:141] Setting up conv4_3_norm_mbox_priorbox
I0517 11:59:50.616915  9929 net.cpp:148] Top shape: 1 2 47628 (95256)
I0517 11:59:50.616926  9929 net.cpp:156] Memory required for data: 687671332
I0517 11:59:50.616945  9929 layer_factory.hpp:77] Creating layer fc7_mbox_loc
I0517 11:59:50.616973  9929 net.cpp:91] Creating Layer fc7_mbox_loc
I0517 11:59:50.616986  9929 net.cpp:425] fc7_mbox_loc <- fc7_relu7_0_split_1
I0517 11:59:50.617000  9929 net.cpp:399] fc7_mbox_loc -> fc7_mbox_loc
I0517 11:59:50.623587  9929 net.cpp:141] Setting up fc7_mbox_loc
I0517 11:59:50.623632  9929 net.cpp:148] Top shape: 1 24 32 32 (24576)
I0517 11:59:50.623642  9929 net.cpp:156] Memory required for data: 687769636
I0517 11:59:50.623657  9929 layer_factory.hpp:77] Creating layer fc7_mbox_loc_perm
I0517 11:59:50.623687  9929 net.cpp:91] Creating Layer fc7_mbox_loc_perm
I0517 11:59:50.623698  9929 net.cpp:425] fc7_mbox_loc_perm <- fc7_mbox_loc
I0517 11:59:50.623711  9929 net.cpp:399] fc7_mbox_loc_perm -> fc7_mbox_loc_perm
I0517 11:59:50.624017  9929 net.cpp:141] Setting up fc7_mbox_loc_perm
I0517 11:59:50.624037  9929 net.cpp:148] Top shape: 1 32 32 24 (24576)
I0517 11:59:50.624044  9929 net.cpp:156] Memory required for data: 687867940
I0517 11:59:50.624053  9929 layer_factory.hpp:77] Creating layer fc7_mbox_loc_flat
I0517 11:59:50.624064  9929 net.cpp:91] Creating Layer fc7_mbox_loc_flat
I0517 11:59:50.624073  9929 net.cpp:425] fc7_mbox_loc_flat <- fc7_mbox_loc_perm
I0517 11:59:50.624089  9929 net.cpp:399] fc7_mbox_loc_flat -> fc7_mbox_loc_flat
I0517 11:59:50.624156  9929 net.cpp:141] Setting up fc7_mbox_loc_flat
I0517 11:59:50.624176  9929 net.cpp:148] Top shape: 1 24576 (24576)
I0517 11:59:50.624184  9929 net.cpp:156] Memory required for data: 687966244
I0517 11:59:50.624192  9929 layer_factory.hpp:77] Creating layer fc7_mbox_conf
I0517 11:59:50.624227  9929 net.cpp:91] Creating Layer fc7_mbox_conf
I0517 11:59:50.624239  9929 net.cpp:425] fc7_mbox_conf <- fc7_relu7_0_split_2
I0517 11:59:50.624258  9929 net.cpp:399] fc7_mbox_conf -> fc7_mbox_conf
I0517 11:59:50.631520  9929 net.cpp:141] Setting up fc7_mbox_conf
I0517 11:59:50.631559  9929 net.cpp:148] Top shape: 1 30 32 32 (30720)
I0517 11:59:50.631568  9929 net.cpp:156] Memory required for data: 688089124
I0517 11:59:50.631584  9929 layer_factory.hpp:77] Creating layer fc7_mbox_conf_perm
I0517 11:59:50.631644  9929 net.cpp:91] Creating Layer fc7_mbox_conf_perm
I0517 11:59:50.631654  9929 net.cpp:425] fc7_mbox_conf_perm <- fc7_mbox_conf
I0517 11:59:50.631669  9929 net.cpp:399] fc7_mbox_conf_perm -> fc7_mbox_conf_perm
I0517 11:59:50.631960  9929 net.cpp:141] Setting up fc7_mbox_conf_perm
I0517 11:59:50.631979  9929 net.cpp:148] Top shape: 1 32 32 30 (30720)
I0517 11:59:50.631988  9929 net.cpp:156] Memory required for data: 688212004
I0517 11:59:50.632016  9929 layer_factory.hpp:77] Creating layer fc7_mbox_conf_flat
I0517 11:59:50.632042  9929 net.cpp:91] Creating Layer fc7_mbox_conf_flat
I0517 11:59:50.632052  9929 net.cpp:425] fc7_mbox_conf_flat <- fc7_mbox_conf_perm
I0517 11:59:50.632067  9929 net.cpp:399] fc7_mbox_conf_flat -> fc7_mbox_conf_flat
I0517 11:59:50.632141  9929 net.cpp:141] Setting up fc7_mbox_conf_flat
I0517 11:59:50.632159  9929 net.cpp:148] Top shape: 1 30720 (30720)
I0517 11:59:50.632167  9929 net.cpp:156] Memory required for data: 688334884
I0517 11:59:50.632174  9929 layer_factory.hpp:77] Creating layer fc7_mbox_priorbox
I0517 11:59:50.632201  9929 net.cpp:91] Creating Layer fc7_mbox_priorbox
I0517 11:59:50.632213  9929 net.cpp:425] fc7_mbox_priorbox <- fc7_relu7_0_split_3
I0517 11:59:50.632223  9929 net.cpp:425] fc7_mbox_priorbox <- data_data_0_split_2
I0517 11:59:50.632236  9929 net.cpp:399] fc7_mbox_priorbox -> fc7_mbox_priorbox
I0517 11:59:50.632311  9929 net.cpp:141] Setting up fc7_mbox_priorbox
I0517 11:59:50.632328  9929 net.cpp:148] Top shape: 1 2 24576 (49152)
I0517 11:59:50.632335  9929 net.cpp:156] Memory required for data: 688531492
I0517 11:59:50.632350  9929 layer_factory.hpp:77] Creating layer conv6_2_mbox_loc
I0517 11:59:50.632378  9929 net.cpp:91] Creating Layer conv6_2_mbox_loc
I0517 11:59:50.632391  9929 net.cpp:425] conv6_2_mbox_loc <- conv6_2_conv6_2_relu_0_split_1
I0517 11:59:50.632406  9929 net.cpp:399] conv6_2_mbox_loc -> conv6_2_mbox_loc
I0517 11:59:50.636301  9929 net.cpp:141] Setting up conv6_2_mbox_loc
I0517 11:59:50.636333  9929 net.cpp:148] Top shape: 1 24 16 16 (6144)
I0517 11:59:50.636343  9929 net.cpp:156] Memory required for data: 688556068
I0517 11:59:50.636358  9929 layer_factory.hpp:77] Creating layer conv6_2_mbox_loc_perm
I0517 11:59:50.636380  9929 net.cpp:91] Creating Layer conv6_2_mbox_loc_perm
I0517 11:59:50.636390  9929 net.cpp:425] conv6_2_mbox_loc_perm <- conv6_2_mbox_loc
I0517 11:59:50.636404  9929 net.cpp:399] conv6_2_mbox_loc_perm -> conv6_2_mbox_loc_perm
I0517 11:59:50.636682  9929 net.cpp:141] Setting up conv6_2_mbox_loc_perm
I0517 11:59:50.636701  9929 net.cpp:148] Top shape: 1 16 16 24 (6144)
I0517 11:59:50.636708  9929 net.cpp:156] Memory required for data: 688580644
I0517 11:59:50.636715  9929 layer_factory.hpp:77] Creating layer conv6_2_mbox_loc_flat
I0517 11:59:50.636741  9929 net.cpp:91] Creating Layer conv6_2_mbox_loc_flat
I0517 11:59:50.636751  9929 net.cpp:425] conv6_2_mbox_loc_flat <- conv6_2_mbox_loc_perm
I0517 11:59:50.636765  9929 net.cpp:399] conv6_2_mbox_loc_flat -> conv6_2_mbox_loc_flat
I0517 11:59:50.636832  9929 net.cpp:141] Setting up conv6_2_mbox_loc_flat
I0517 11:59:50.636848  9929 net.cpp:148] Top shape: 1 6144 (6144)
I0517 11:59:50.636855  9929 net.cpp:156] Memory required for data: 688605220
I0517 11:59:50.636862  9929 layer_factory.hpp:77] Creating layer conv6_2_mbox_conf
I0517 11:59:50.636894  9929 net.cpp:91] Creating Layer conv6_2_mbox_conf
I0517 11:59:50.636909  9929 net.cpp:425] conv6_2_mbox_conf <- conv6_2_conv6_2_relu_0_split_2
I0517 11:59:50.636922  9929 net.cpp:399] conv6_2_mbox_conf -> conv6_2_mbox_conf
I0517 11:59:50.641849  9929 net.cpp:141] Setting up conv6_2_mbox_conf
I0517 11:59:50.641880  9929 net.cpp:148] Top shape: 1 30 16 16 (7680)
I0517 11:59:50.641890  9929 net.cpp:156] Memory required for data: 688635940
I0517 11:59:50.641916  9929 layer_factory.hpp:77] Creating layer conv6_2_mbox_conf_perm
I0517 11:59:50.641957  9929 net.cpp:91] Creating Layer conv6_2_mbox_conf_perm
I0517 11:59:50.641979  9929 net.cpp:425] conv6_2_mbox_conf_perm <- conv6_2_mbox_conf
I0517 11:59:50.641993  9929 net.cpp:399] conv6_2_mbox_conf_perm -> conv6_2_mbox_conf_perm
I0517 11:59:50.642267  9929 net.cpp:141] Setting up conv6_2_mbox_conf_perm
I0517 11:59:50.642287  9929 net.cpp:148] Top shape: 1 16 16 30 (7680)
I0517 11:59:50.642295  9929 net.cpp:156] Memory required for data: 688666660
I0517 11:59:50.642302  9929 layer_factory.hpp:77] Creating layer conv6_2_mbox_conf_flat
I0517 11:59:50.642328  9929 net.cpp:91] Creating Layer conv6_2_mbox_conf_flat
I0517 11:59:50.642355  9929 net.cpp:425] conv6_2_mbox_conf_flat <- conv6_2_mbox_conf_perm
I0517 11:59:50.642370  9929 net.cpp:399] conv6_2_mbox_conf_flat -> conv6_2_mbox_conf_flat
I0517 11:59:50.642439  9929 net.cpp:141] Setting up conv6_2_mbox_conf_flat
I0517 11:59:50.642455  9929 net.cpp:148] Top shape: 1 7680 (7680)
I0517 11:59:50.642462  9929 net.cpp:156] Memory required for data: 688697380
I0517 11:59:50.642469  9929 layer_factory.hpp:77] Creating layer conv6_2_mbox_priorbox
I0517 11:59:50.642493  9929 net.cpp:91] Creating Layer conv6_2_mbox_priorbox
I0517 11:59:50.642509  9929 net.cpp:425] conv6_2_mbox_priorbox <- conv6_2_conv6_2_relu_0_split_3
I0517 11:59:50.642519  9929 net.cpp:425] conv6_2_mbox_priorbox <- data_data_0_split_3
I0517 11:59:50.642530  9929 net.cpp:399] conv6_2_mbox_priorbox -> conv6_2_mbox_priorbox
I0517 11:59:50.642604  9929 net.cpp:141] Setting up conv6_2_mbox_priorbox
I0517 11:59:50.642621  9929 net.cpp:148] Top shape: 1 2 6144 (12288)
I0517 11:59:50.642627  9929 net.cpp:156] Memory required for data: 688746532
I0517 11:59:50.642647  9929 layer_factory.hpp:77] Creating layer conv7_2_mbox_loc
I0517 11:59:50.642679  9929 net.cpp:91] Creating Layer conv7_2_mbox_loc
I0517 11:59:50.642691  9929 net.cpp:425] conv7_2_mbox_loc <- conv7_2_conv7_2_relu_0_split_1
I0517 11:59:50.642706  9929 net.cpp:399] conv7_2_mbox_loc -> conv7_2_mbox_loc
I0517 11:59:50.645833  9929 net.cpp:141] Setting up conv7_2_mbox_loc
I0517 11:59:50.645864  9929 net.cpp:148] Top shape: 1 24 8 8 (1536)
I0517 11:59:50.645871  9929 net.cpp:156] Memory required for data: 688752676
I0517 11:59:50.645889  9929 layer_factory.hpp:77] Creating layer conv7_2_mbox_loc_perm
I0517 11:59:50.645915  9929 net.cpp:91] Creating Layer conv7_2_mbox_loc_perm
I0517 11:59:50.645925  9929 net.cpp:425] conv7_2_mbox_loc_perm <- conv7_2_mbox_loc
I0517 11:59:50.645936  9929 net.cpp:399] conv7_2_mbox_loc_perm -> conv7_2_mbox_loc_perm
I0517 11:59:50.646219  9929 net.cpp:141] Setting up conv7_2_mbox_loc_perm
I0517 11:59:50.646237  9929 net.cpp:148] Top shape: 1 8 8 24 (1536)
I0517 11:59:50.646245  9929 net.cpp:156] Memory required for data: 688758820
I0517 11:59:50.646251  9929 layer_factory.hpp:77] Creating layer conv7_2_mbox_loc_flat
I0517 11:59:50.646265  9929 net.cpp:91] Creating Layer conv7_2_mbox_loc_flat
I0517 11:59:50.646273  9929 net.cpp:425] conv7_2_mbox_loc_flat <- conv7_2_mbox_loc_perm
I0517 11:59:50.646286  9929 net.cpp:399] conv7_2_mbox_loc_flat -> conv7_2_mbox_loc_flat
I0517 11:59:50.646354  9929 net.cpp:141] Setting up conv7_2_mbox_loc_flat
I0517 11:59:50.646378  9929 net.cpp:148] Top shape: 1 1536 (1536)
I0517 11:59:50.646384  9929 net.cpp:156] Memory required for data: 688764964
I0517 11:59:50.646391  9929 layer_factory.hpp:77] Creating layer conv7_2_mbox_conf
I0517 11:59:50.646426  9929 net.cpp:91] Creating Layer conv7_2_mbox_conf
I0517 11:59:50.646438  9929 net.cpp:425] conv7_2_mbox_conf <- conv7_2_conv7_2_relu_0_split_2
I0517 11:59:50.646456  9929 net.cpp:399] conv7_2_mbox_conf -> conv7_2_mbox_conf
I0517 11:59:50.649544  9929 net.cpp:141] Setting up conv7_2_mbox_conf
I0517 11:59:50.649572  9929 net.cpp:148] Top shape: 1 30 8 8 (1920)
I0517 11:59:50.649581  9929 net.cpp:156] Memory required for data: 688772644
I0517 11:59:50.649611  9929 layer_factory.hpp:77] Creating layer conv7_2_mbox_conf_perm
I0517 11:59:50.649631  9929 net.cpp:91] Creating Layer conv7_2_mbox_conf_perm
I0517 11:59:50.649639  9929 net.cpp:425] conv7_2_mbox_conf_perm <- conv7_2_mbox_conf
I0517 11:59:50.649654  9929 net.cpp:399] conv7_2_mbox_conf_perm -> conv7_2_mbox_conf_perm
I0517 11:59:50.649932  9929 net.cpp:141] Setting up conv7_2_mbox_conf_perm
I0517 11:59:50.649952  9929 net.cpp:148] Top shape: 1 8 8 30 (1920)
I0517 11:59:50.649960  9929 net.cpp:156] Memory required for data: 688780324
I0517 11:59:50.649966  9929 layer_factory.hpp:77] Creating layer conv7_2_mbox_conf_flat
I0517 11:59:50.649997  9929 net.cpp:91] Creating Layer conv7_2_mbox_conf_flat
I0517 11:59:50.650005  9929 net.cpp:425] conv7_2_mbox_conf_flat <- conv7_2_mbox_conf_perm
I0517 11:59:50.650037  9929 net.cpp:399] conv7_2_mbox_conf_flat -> conv7_2_mbox_conf_flat
I0517 11:59:50.650113  9929 net.cpp:141] Setting up conv7_2_mbox_conf_flat
I0517 11:59:50.650130  9929 net.cpp:148] Top shape: 1 1920 (1920)
I0517 11:59:50.650136  9929 net.cpp:156] Memory required for data: 688788004
I0517 11:59:50.650144  9929 layer_factory.hpp:77] Creating layer conv7_2_mbox_priorbox
I0517 11:59:50.650168  9929 net.cpp:91] Creating Layer conv7_2_mbox_priorbox
I0517 11:59:50.650182  9929 net.cpp:425] conv7_2_mbox_priorbox <- conv7_2_conv7_2_relu_0_split_3
I0517 11:59:50.650192  9929 net.cpp:425] conv7_2_mbox_priorbox <- data_data_0_split_4
I0517 11:59:50.650202  9929 net.cpp:399] conv7_2_mbox_priorbox -> conv7_2_mbox_priorbox
I0517 11:59:50.650276  9929 net.cpp:141] Setting up conv7_2_mbox_priorbox
I0517 11:59:50.650292  9929 net.cpp:148] Top shape: 1 2 1536 (3072)
I0517 11:59:50.650300  9929 net.cpp:156] Memory required for data: 688800292
I0517 11:59:50.650306  9929 layer_factory.hpp:77] Creating layer conv8_2_mbox_loc
I0517 11:59:50.650334  9929 net.cpp:91] Creating Layer conv8_2_mbox_loc
I0517 11:59:50.650346  9929 net.cpp:425] conv8_2_mbox_loc <- conv8_2_conv8_2_relu_0_split_1
I0517 11:59:50.650360  9929 net.cpp:399] conv8_2_mbox_loc -> conv8_2_mbox_loc
I0517 11:59:50.653475  9929 net.cpp:141] Setting up conv8_2_mbox_loc
I0517 11:59:50.653504  9929 net.cpp:148] Top shape: 1 24 4 4 (384)
I0517 11:59:50.653512  9929 net.cpp:156] Memory required for data: 688801828
I0517 11:59:50.653537  9929 layer_factory.hpp:77] Creating layer conv8_2_mbox_loc_perm
I0517 11:59:50.653568  9929 net.cpp:91] Creating Layer conv8_2_mbox_loc_perm
I0517 11:59:50.653578  9929 net.cpp:425] conv8_2_mbox_loc_perm <- conv8_2_mbox_loc
I0517 11:59:50.653592  9929 net.cpp:399] conv8_2_mbox_loc_perm -> conv8_2_mbox_loc_perm
I0517 11:59:50.653877  9929 net.cpp:141] Setting up conv8_2_mbox_loc_perm
I0517 11:59:50.653894  9929 net.cpp:148] Top shape: 1 4 4 24 (384)
I0517 11:59:50.653904  9929 net.cpp:156] Memory required for data: 688803364
I0517 11:59:50.653910  9929 layer_factory.hpp:77] Creating layer conv8_2_mbox_loc_flat
I0517 11:59:50.653940  9929 net.cpp:91] Creating Layer conv8_2_mbox_loc_flat
I0517 11:59:50.653949  9929 net.cpp:425] conv8_2_mbox_loc_flat <- conv8_2_mbox_loc_perm
I0517 11:59:50.653959  9929 net.cpp:399] conv8_2_mbox_loc_flat -> conv8_2_mbox_loc_flat
I0517 11:59:50.654031  9929 net.cpp:141] Setting up conv8_2_mbox_loc_flat
I0517 11:59:50.654047  9929 net.cpp:148] Top shape: 1 384 (384)
I0517 11:59:50.654052  9929 net.cpp:156] Memory required for data: 688804900
I0517 11:59:50.654059  9929 layer_factory.hpp:77] Creating layer conv8_2_mbox_conf
I0517 11:59:50.654091  9929 net.cpp:91] Creating Layer conv8_2_mbox_conf
I0517 11:59:50.654103  9929 net.cpp:425] conv8_2_mbox_conf <- conv8_2_conv8_2_relu_0_split_2
I0517 11:59:50.654117  9929 net.cpp:399] conv8_2_mbox_conf -> conv8_2_mbox_conf
I0517 11:59:50.657896  9929 net.cpp:141] Setting up conv8_2_mbox_conf
I0517 11:59:50.657925  9929 net.cpp:148] Top shape: 1 30 4 4 (480)
I0517 11:59:50.657933  9929 net.cpp:156] Memory required for data: 688806820
I0517 11:59:50.657958  9929 layer_factory.hpp:77] Creating layer conv8_2_mbox_conf_perm
I0517 11:59:50.657989  9929 net.cpp:91] Creating Layer conv8_2_mbox_conf_perm
I0517 11:59:50.657999  9929 net.cpp:425] conv8_2_mbox_conf_perm <- conv8_2_mbox_conf
I0517 11:59:50.658010  9929 net.cpp:399] conv8_2_mbox_conf_perm -> conv8_2_mbox_conf_perm
I0517 11:59:50.658288  9929 net.cpp:141] Setting up conv8_2_mbox_conf_perm
I0517 11:59:50.658305  9929 net.cpp:148] Top shape: 1 4 4 30 (480)
I0517 11:59:50.658311  9929 net.cpp:156] Memory required for data: 688808740
I0517 11:59:50.658318  9929 layer_factory.hpp:77] Creating layer conv8_2_mbox_conf_flat
I0517 11:59:50.658336  9929 net.cpp:91] Creating Layer conv8_2_mbox_conf_flat
I0517 11:59:50.658349  9929 net.cpp:425] conv8_2_mbox_conf_flat <- conv8_2_mbox_conf_perm
I0517 11:59:50.658359  9929 net.cpp:399] conv8_2_mbox_conf_flat -> conv8_2_mbox_conf_flat
I0517 11:59:50.658424  9929 net.cpp:141] Setting up conv8_2_mbox_conf_flat
I0517 11:59:50.658459  9929 net.cpp:148] Top shape: 1 480 (480)
I0517 11:59:50.658468  9929 net.cpp:156] Memory required for data: 688810660
I0517 11:59:50.658473  9929 layer_factory.hpp:77] Creating layer conv8_2_mbox_priorbox
I0517 11:59:50.658502  9929 net.cpp:91] Creating Layer conv8_2_mbox_priorbox
I0517 11:59:50.658514  9929 net.cpp:425] conv8_2_mbox_priorbox <- conv8_2_conv8_2_relu_0_split_3
I0517 11:59:50.658524  9929 net.cpp:425] conv8_2_mbox_priorbox <- data_data_0_split_5
I0517 11:59:50.658536  9929 net.cpp:399] conv8_2_mbox_priorbox -> conv8_2_mbox_priorbox
I0517 11:59:50.658608  9929 net.cpp:141] Setting up conv8_2_mbox_priorbox
I0517 11:59:50.658623  9929 net.cpp:148] Top shape: 1 2 384 (768)
I0517 11:59:50.658630  9929 net.cpp:156] Memory required for data: 688813732
I0517 11:59:50.658637  9929 layer_factory.hpp:77] Creating layer pool6_mbox_loc
I0517 11:59:50.658680  9929 net.cpp:91] Creating Layer pool6_mbox_loc
I0517 11:59:50.658694  9929 net.cpp:425] pool6_mbox_loc <- pool6_pool6_0_split_0
I0517 11:59:50.658706  9929 net.cpp:399] pool6_mbox_loc -> pool6_mbox_loc
I0517 11:59:50.661664  9929 net.cpp:141] Setting up pool6_mbox_loc
I0517 11:59:50.661692  9929 net.cpp:148] Top shape: 1 24 1 1 (24)
I0517 11:59:50.661700  9929 net.cpp:156] Memory required for data: 688813828
I0517 11:59:50.661746  9929 layer_factory.hpp:77] Creating layer pool6_mbox_loc_perm
I0517 11:59:50.661763  9929 net.cpp:91] Creating Layer pool6_mbox_loc_perm
I0517 11:59:50.661772  9929 net.cpp:425] pool6_mbox_loc_perm <- pool6_mbox_loc
I0517 11:59:50.661783  9929 net.cpp:399] pool6_mbox_loc_perm -> pool6_mbox_loc_perm
I0517 11:59:50.662053  9929 net.cpp:141] Setting up pool6_mbox_loc_perm
I0517 11:59:50.662070  9929 net.cpp:148] Top shape: 1 1 1 24 (24)
I0517 11:59:50.662077  9929 net.cpp:156] Memory required for data: 688813924
I0517 11:59:50.662083  9929 layer_factory.hpp:77] Creating layer pool6_mbox_loc_flat
I0517 11:59:50.662113  9929 net.cpp:91] Creating Layer pool6_mbox_loc_flat
I0517 11:59:50.662122  9929 net.cpp:425] pool6_mbox_loc_flat <- pool6_mbox_loc_perm
I0517 11:59:50.662134  9929 net.cpp:399] pool6_mbox_loc_flat -> pool6_mbox_loc_flat
I0517 11:59:50.662200  9929 net.cpp:141] Setting up pool6_mbox_loc_flat
I0517 11:59:50.662219  9929 net.cpp:148] Top shape: 1 24 (24)
I0517 11:59:50.662225  9929 net.cpp:156] Memory required for data: 688814020
I0517 11:59:50.662231  9929 layer_factory.hpp:77] Creating layer pool6_mbox_conf
I0517 11:59:50.662253  9929 net.cpp:91] Creating Layer pool6_mbox_conf
I0517 11:59:50.662268  9929 net.cpp:425] pool6_mbox_conf <- pool6_pool6_0_split_1
I0517 11:59:50.662281  9929 net.cpp:399] pool6_mbox_conf -> pool6_mbox_conf
I0517 11:59:50.665364  9929 net.cpp:141] Setting up pool6_mbox_conf
I0517 11:59:50.665390  9929 net.cpp:148] Top shape: 1 30 1 1 (30)
I0517 11:59:50.665398  9929 net.cpp:156] Memory required for data: 688814140
I0517 11:59:50.665410  9929 layer_factory.hpp:77] Creating layer pool6_mbox_conf_perm
I0517 11:59:50.665436  9929 net.cpp:91] Creating Layer pool6_mbox_conf_perm
I0517 11:59:50.665446  9929 net.cpp:425] pool6_mbox_conf_perm <- pool6_mbox_conf
I0517 11:59:50.665455  9929 net.cpp:399] pool6_mbox_conf_perm -> pool6_mbox_conf_perm
I0517 11:59:50.665714  9929 net.cpp:141] Setting up pool6_mbox_conf_perm
I0517 11:59:50.665731  9929 net.cpp:148] Top shape: 1 1 1 30 (30)
I0517 11:59:50.665737  9929 net.cpp:156] Memory required for data: 688814260
I0517 11:59:50.665743  9929 layer_factory.hpp:77] Creating layer pool6_mbox_conf_flat
I0517 11:59:50.665753  9929 net.cpp:91] Creating Layer pool6_mbox_conf_flat
I0517 11:59:50.665760  9929 net.cpp:425] pool6_mbox_conf_flat <- pool6_mbox_conf_perm
I0517 11:59:50.665773  9929 net.cpp:399] pool6_mbox_conf_flat -> pool6_mbox_conf_flat
I0517 11:59:50.665834  9929 net.cpp:141] Setting up pool6_mbox_conf_flat
I0517 11:59:50.665855  9929 net.cpp:148] Top shape: 1 30 (30)
I0517 11:59:50.665863  9929 net.cpp:156] Memory required for data: 688814380
I0517 11:59:50.665868  9929 layer_factory.hpp:77] Creating layer pool6_mbox_priorbox
I0517 11:59:50.665896  9929 net.cpp:91] Creating Layer pool6_mbox_priorbox
I0517 11:59:50.665904  9929 net.cpp:425] pool6_mbox_priorbox <- pool6_pool6_0_split_2
I0517 11:59:50.665913  9929 net.cpp:425] pool6_mbox_priorbox <- data_data_0_split_6
I0517 11:59:50.665923  9929 net.cpp:399] pool6_mbox_priorbox -> pool6_mbox_priorbox
I0517 11:59:50.665993  9929 net.cpp:141] Setting up pool6_mbox_priorbox
I0517 11:59:50.666009  9929 net.cpp:148] Top shape: 1 2 24 (48)
I0517 11:59:50.666014  9929 net.cpp:156] Memory required for data: 688814572
I0517 11:59:50.666031  9929 layer_factory.hpp:77] Creating layer mbox_loc
I0517 11:59:50.666054  9929 net.cpp:91] Creating Layer mbox_loc
I0517 11:59:50.666066  9929 net.cpp:425] mbox_loc <- conv4_3_norm_mbox_loc_flat
I0517 11:59:50.666075  9929 net.cpp:425] mbox_loc <- fc7_mbox_loc_flat
I0517 11:59:50.666084  9929 net.cpp:425] mbox_loc <- conv6_2_mbox_loc_flat
I0517 11:59:50.666091  9929 net.cpp:425] mbox_loc <- conv7_2_mbox_loc_flat
I0517 11:59:50.666097  9929 net.cpp:425] mbox_loc <- conv8_2_mbox_loc_flat
I0517 11:59:50.666105  9929 net.cpp:425] mbox_loc <- pool6_mbox_loc_flat
I0517 11:59:50.666113  9929 net.cpp:399] mbox_loc -> mbox_loc
I0517 11:59:50.666184  9929 net.cpp:141] Setting up mbox_loc
I0517 11:59:50.666199  9929 net.cpp:148] Top shape: 1 80292 (80292)
I0517 11:59:50.666205  9929 net.cpp:156] Memory required for data: 689135740
I0517 11:59:50.666213  9929 layer_factory.hpp:77] Creating layer mbox_conf
I0517 11:59:50.666224  9929 net.cpp:91] Creating Layer mbox_conf
I0517 11:59:50.666230  9929 net.cpp:425] mbox_conf <- conv4_3_norm_mbox_conf_flat
I0517 11:59:50.666239  9929 net.cpp:425] mbox_conf <- fc7_mbox_conf_flat
I0517 11:59:50.666250  9929 net.cpp:425] mbox_conf <- conv6_2_mbox_conf_flat
I0517 11:59:50.666259  9929 net.cpp:425] mbox_conf <- conv7_2_mbox_conf_flat
I0517 11:59:50.666265  9929 net.cpp:425] mbox_conf <- conv8_2_mbox_conf_flat
I0517 11:59:50.666273  9929 net.cpp:425] mbox_conf <- pool6_mbox_conf_flat
I0517 11:59:50.666281  9929 net.cpp:399] mbox_conf -> mbox_conf
I0517 11:59:50.666342  9929 net.cpp:141] Setting up mbox_conf
I0517 11:59:50.666357  9929 net.cpp:148] Top shape: 1 100365 (100365)
I0517 11:59:50.666363  9929 net.cpp:156] Memory required for data: 689537200
I0517 11:59:50.666368  9929 layer_factory.hpp:77] Creating layer mbox_priorbox
I0517 11:59:50.666393  9929 net.cpp:91] Creating Layer mbox_priorbox
I0517 11:59:50.666409  9929 net.cpp:425] mbox_priorbox <- conv4_3_norm_mbox_priorbox
I0517 11:59:50.666419  9929 net.cpp:425] mbox_priorbox <- fc7_mbox_priorbox
I0517 11:59:50.666426  9929 net.cpp:425] mbox_priorbox <- conv6_2_mbox_priorbox
I0517 11:59:50.666434  9929 net.cpp:425] mbox_priorbox <- conv7_2_mbox_priorbox
I0517 11:59:50.666440  9929 net.cpp:425] mbox_priorbox <- conv8_2_mbox_priorbox
I0517 11:59:50.666446  9929 net.cpp:425] mbox_priorbox <- pool6_mbox_priorbox
I0517 11:59:50.666455  9929 net.cpp:399] mbox_priorbox -> mbox_priorbox
I0517 11:59:50.666519  9929 net.cpp:141] Setting up mbox_priorbox
I0517 11:59:50.666533  9929 net.cpp:148] Top shape: 1 2 80292 (160584)
I0517 11:59:50.666539  9929 net.cpp:156] Memory required for data: 690179536
I0517 11:59:50.666553  9929 layer_factory.hpp:77] Creating layer mbox_conf_reshape
I0517 11:59:50.666575  9929 net.cpp:91] Creating Layer mbox_conf_reshape
I0517 11:59:50.666584  9929 net.cpp:425] mbox_conf_reshape <- mbox_conf
I0517 11:59:50.666594  9929 net.cpp:399] mbox_conf_reshape -> mbox_conf_reshape
I0517 11:59:50.666676  9929 net.cpp:141] Setting up mbox_conf_reshape
I0517 11:59:50.666692  9929 net.cpp:148] Top shape: 1 20073 5 (100365)
I0517 11:59:50.666697  9929 net.cpp:156] Memory required for data: 690580996
I0517 11:59:50.666703  9929 layer_factory.hpp:77] Creating layer mbox_conf_softmax
I0517 11:59:50.666714  9929 net.cpp:91] Creating Layer mbox_conf_softmax
I0517 11:59:50.666720  9929 net.cpp:425] mbox_conf_softmax <- mbox_conf_reshape
I0517 11:59:50.666733  9929 net.cpp:399] mbox_conf_softmax -> mbox_conf_softmax
I0517 11:59:50.667254  9929 net.cpp:141] Setting up mbox_conf_softmax
I0517 11:59:50.667291  9929 net.cpp:148] Top shape: 1 20073 5 (100365)
I0517 11:59:50.667299  9929 net.cpp:156] Memory required for data: 690982456
I0517 11:59:50.667305  9929 layer_factory.hpp:77] Creating layer mbox_conf_flatten
I0517 11:59:50.667316  9929 net.cpp:91] Creating Layer mbox_conf_flatten
I0517 11:59:50.667326  9929 net.cpp:425] mbox_conf_flatten <- mbox_conf_softmax
I0517 11:59:50.667336  9929 net.cpp:399] mbox_conf_flatten -> mbox_conf_flatten
I0517 11:59:50.667402  9929 net.cpp:141] Setting up mbox_conf_flatten
I0517 11:59:50.667415  9929 net.cpp:148] Top shape: 1 100365 (100365)
I0517 11:59:50.667421  9929 net.cpp:156] Memory required for data: 691383916
I0517 11:59:50.667428  9929 layer_factory.hpp:77] Creating layer detection_out
I0517 11:59:50.667470  9929 net.cpp:91] Creating Layer detection_out
I0517 11:59:50.667481  9929 net.cpp:425] detection_out <- mbox_loc
I0517 11:59:50.667490  9929 net.cpp:425] detection_out <- mbox_conf_flatten
I0517 11:59:50.667496  9929 net.cpp:425] detection_out <- mbox_priorbox
I0517 11:59:50.667505  9929 net.cpp:399] detection_out -> detection_out
I0517 11:59:50.672375  9929 net.cpp:141] Setting up detection_out
I0517 11:59:50.672401  9929 net.cpp:148] Top shape: 1 1 1 7 (7)
I0517 11:59:50.672408  9929 net.cpp:156] Memory required for data: 691383944
I0517 11:59:50.672416  9929 layer_factory.hpp:77] Creating layer detection_eval
I0517 11:59:50.672430  9929 net.cpp:91] Creating Layer detection_eval
I0517 11:59:50.672436  9929 net.cpp:425] detection_eval <- detection_out
I0517 11:59:50.672446  9929 net.cpp:425] detection_eval <- label
I0517 11:59:50.672456  9929 net.cpp:399] detection_eval -> detection_eval
I0517 11:59:50.674063  9929 net.cpp:141] Setting up detection_eval
I0517 11:59:50.674084  9929 net.cpp:148] Top shape: 1 1 5 5 (25)
I0517 11:59:50.674090  9929 net.cpp:156] Memory required for data: 691384044
I0517 11:59:50.674099  9929 net.cpp:219] detection_eval does not need backward computation.
I0517 11:59:50.674108  9929 net.cpp:219] detection_out does not need backward computation.
I0517 11:59:50.674115  9929 net.cpp:219] mbox_conf_flatten does not need backward computation.
I0517 11:59:50.674123  9929 net.cpp:219] mbox_conf_softmax does not need backward computation.
…
