…
        min_scale: 0.3
        max_scale: 1
        min_aspect_ratio: 0.5
        max_aspect_ratio: 2
      }
      sample_constraint {
        min_jaccard_overlap: 0.9
      }
      max_sample: 1
      max_trials: 50
    }
    batch_sampler {
      sampler {
        min_scale: 0.3
        max_scale: 1
        min_aspect_ratio: 0.5
        max_aspect_ratio: 2
      }
      sample_constraint {
        max_jaccard_overlap: 1
      }
      max_sample: 1
      max_trials: 50
    }
    label_map_file: "data/deepv_car_person/labelmap_voc.prototxt"
  }
}
layer {
  name: "conv1_1"
  type: "Convolution"
  bottom: "data"
  top: "conv1_1"
  param {
    lr_mult: 0
    decay_mult: 0
  }
  param {
    lr_mult: 0
    decay_mult: 0
  }
  convolution_param {
    num_output: 64
    pad: 1
    kernel_size: 3
    weight_filler {
      type: "xavier"
    }
    bias_filler {
      type: "constant"
      value: 0
    }
  }
}
layer {
  name: "relu1_1"
  type: "ReLU"
  bottom: "conv1_1"
  top: "conv1_1"
}
layer {
  name: "conv1_2"
  type: "Convolution"
  bottom: "conv1_1"
  top: "conv1_2"
  param {
    lr_mult: 0
    decay_mult: 0
  }
  param {
    lr_mult: 0
    decay_mult: 0
  }
  convolution_param {
    num_output: 64
    pad: 1
    kernel_size: 3
    weight_filler {
      type: "xavier"
    }
    bias_filler {
      type: "constant"
      value: 0
    }
  }
}
layer {
  name: "relu1_2"
  type: "ReLU"
  bottom: "conv1_2"
  top: "conv1_2"
}
layer {
  name: "pool1"
  type: "Pooling"
  bottom: "conv1_2"
  top: "pool1"
  pooling_param {
    pool: MAX
    kernel_size: 2
    stride: 2
  }
}
layer {
  name: "conv2_1"
  type: "Convolution"
  bottom: "pool1"
  top: "conv2_1"
  param {
    lr_mult: 0
    decay_mult: 0
  }
  param {
    lr_mult: 0
    decay_mult: 0
  }
  convolution_param {
    num_output: 128
    pad: 1
    kernel_size: 3
    weight_filler {
      type: "xavier"
    }
    bias_filler {
      type: "constant"
      value: 0
    }
  }
}
layer {
  name: "relu2_1"
  type: "ReLU"
  bottom: "conv2_1"
  top: "conv2_1"
}
layer {
  name: "conv2_2"
  type: "Convolution"
  bottom: "conv2_1"
  top: "conv2_2"
  param {
    lr_mult: 0
    decay_mult: 0
  }
  param {
    lr_mult: 0
    decay_mult: 0
  }
  convolution_param {
    num_output: 128
    pad: 1
    kernel_size: 3
    weight_filler {
      type: "xavier"
    }
    bias_filler {
      type: "constant"
      value: 0
    }
  }
}
layer {
  name: "relu2_2"
  type: "ReLU"
  bottom: "conv2_2"
  top: "conv2_2"
}
layer {
  name: "pool2"
  type: "Pooling"
  bottom: "conv2_2"
  top: "pool2"
  pooling_param {
    pool: MAX
    kernel_size: 2
    stride: 2
  }
}
layer {
  name: "conv3_1"
  type: "Convolution"
  bottom: "pool2"
  top: "conv3_1"
  param {
    lr_mult: 1
    decay_mult: 1
  }
  param {
    lr_mult: 2
    decay_mult: 0
  }
  convolution_param {
    num_output: 256
    pad: 1
    kernel_size: 3
    weight_filler {
      type: "xavier"
    }
    bias_filler {
      type: "constant"
      value: 0
    }
  }
}
layer {
  name: "relu3_1"
  type: "ReLU"
  bottom: "conv3_1"
  top: "conv3_1"
}
layer {
  name: "conv3_2"
  type: "Convolution"
  bottom: "conv3_1"
  top: "conv3_2"
  param {
    lr_mult: 1
    decay_mult: 1
  }
  param {
    lr_mult: 2
    decay_mult: 0
  }
  convolution_param {
    num_output: 256
    pad: 1
    kernel_size: 3
    weight_filler {
      type: "xavier"
    }
    bias_filler {
      type: "constant"
      value: 0
    }
  }
}
layer {
  name: "relu3_2"
  type: "ReLU"
  bottom: "conv3_2"
  top: "conv3_2"
}
layer {
  name: "conv3_3"
  type: "Convolution"
  bottom: "conv3_2"
  top: "conv3_3"
  param {
    lr_mult: 1
    decay_mult: 1
  }
  param {
    lr_mult: 2
    decay_mult: 0
  }
  convolution_param {
    num_output: 256
    pad: 1
    kernel_size: 3
    weight_filler {
      type: "xavier"
    }
    bias_filler {
      type: "constant"
      value: 0
    }
  }
}
layer {
  name: "relu3_3"
  type: "ReLU"
  bottom: "conv3_3"
  top: "conv3_3"
}
layer {
  name: "pool3"
  type: "Pooling"
  bottom: "conv3_3"
  top: "pool3"
  pooling_param {
    pool: MAX
    kernel_size: 2
    stride: 2
  }
}
layer {
  name: "conv4_1"
  type: "Convolution"
  bottom: "pool3"
  top: "conv4_1"
  param {
    lr_mult: 1
    decay_mult: 1
  }
  param {
    lr_mult: 2
    decay_mult: 0
  }
  convolution_param {
    num_output: 512
    pad: 1
    kernel_size: 3
    weight_filler {
      type: "xavier"
    }
    bias_filler {
      type: "constant"
      value: 0
    }
  }
}
layer {
  name: "relu4_1"
  type: "ReLU"
  bottom: "conv4_1"
  top: "conv4_1"
}
layer {
  name: "conv4_2"
  type: "Convolution"
  bottom: "conv4_1"
  top: "conv4_2"
  param {
    lr_mult: 1
    decay_mult: 1
  }
  param {
    lr_mult: 2
    decay_mult: 0
  }
  convolution_param {
    num_output: 512
    pad: 1
    kernel_size: 3
    weight_filler {
      type: "xavier"
    }
    bias_filler {
      type: "constant"
      value: 0
    }
  }
}
layer {
  name: "relu4_2"
  type: "ReLU"
  bottom: "conv4_2"
  top: "conv4_2"
}
layer {
  name: "conv4_3"
  type: "Convolution"
  bottom: "conv4_2"
  top: "conv4_3"
  param {
    lr_mult: 1
    decay_mult: 1
  }
  param {
    lr_mult: 2
    decay_mult: 0
  }
  convolution_param {
    num_output: 512
    pad: 1
    kernel_size: 3
    weight_filler {
      type: "xavier"
    }
    bias_filler {
      type: "constant"
      value: 0
    }
  }
}
layer {
  name: "relu4_3"
  type: "ReLU"
  bottom: "conv4_3"
  top: "conv4_3"
}
layer {
  name: "pool4"
  type: "Pooling"
  bottom: "conv4_3"
  top: "pool4"
  pooling_param {
    pool: MAX
    kernel_size: 2
    stride: 2
  }
}
layer {
  name: "conv5_1"
  type: "Convolution"
  bottom: "pool4"
  top: "conv5_1"
  param {
    lr_mult: 1
    decay_mult: 1
  }
  param {
    lr_mult: 2
    decay_mult: 0
  }
  convolution_param {
    num_output: 512
    pad: 1
    kernel_size: 3
    weight_filler {
      type: "xavier"
    }
    bias_filler {
      type: "constant"
      value: 0
    }
  }
}
layer {
  name: "relu5_1"
  type: "ReLU"
  bottom: "conv5_1"
  top: "conv5_1"
}
layer {
  name: "conv5_2"
  type: "Convolution"
  bottom: "conv5_1"
  top: "conv5_2"
  param {
    lr_mult: 1
    decay_mult: 1
  }
  param {
    lr_mult: 2
    decay_mult: 0
  }
  convolution_param {
    num_output: 512
    pad: 1
    kernel_size: 3
    weight_filler {
      type: "xavier"
    }
    bias_filler {
      type: "constant"
      value: 0
    }
  }
}
layer {
  name: "relu5_2"
  type: "ReLU"
  bottom: "conv5_2"
  top: "conv5_2"
}
layer {
  name: "conv5_3"
  type: "Convolution"
  bottom: "conv5_2"
  top: "conv5_3"
  param {
    lr_mult: 1
    decay_mult: 1
  }
  param {
    lr_mult: 2
    decay_mult: 0
  }
  convolution_param {
    num_output: 512
    pad: 1
    kernel_size: 3
    weight_filler {
      type: "xavier"
    }
    bias_filler {
      type: "constant"
      value: 0
    }
  }
}
layer {
  name: "relu5_3"
  type: "ReLU"
  bottom: "conv5_3"
  top: "conv5_3"
}
layer {
  name: "pool5"
  type: "Pooling"
  bottom: "conv5_3"
  top: "pool5"
  pooling_param {
    pool: MAX
    kernel_size: 3
    stride: 1
    pad: 1
  }
}
layer {
  name: "fc6"
  type: "Convolution"
  bottom: "pool5"
  top: "fc6"
  param {
    lr_mult: 1
    decay_mult: 1
  }
  param {
    lr_mult: 2
    decay_mult: 0
  }
  convolution_param {
    num_output: 1024
    pad: 6
    kernel_size: 3
    weight_filler {
      type: "xavier"
    }
    bias_filler {
      type: "constant"
      value: 0
    }
    dilation: 6
  }
}
layer {
  name: "relu6"
  type: "ReLU"
  bottom: "fc6"
  top: "fc6"
}
layer {
  name: "fc7"
  type: "Convolution"
  bottom: "fc6"
  top: "fc7"
  param {
    lr_mult: 1
    decay_mult: 1
  }
  param {
    lr_mult: 2
    decay_mult: 0
  }
  convolution_param {
    num_output: 1024
    kernel_size: 1
    weight_filler {
      type: "xavier"
    }
    bias_filler {
      type: "constant"
      value: 0
    }
  }
}
layer {
  name: "relu7"
  type: "ReLU"
  bottom: "fc7"
  top: "fc7"
}
layer {
  name: "conv6_1"
  type: "Convolution"
  bottom: "fc7"
  top: "conv6_1"
  param {
    lr_mult: 1
    decay_mult: 1
  }
  param {
    lr_mult: 2
    decay_mult: 0
  }
  convolution_param {
    num_output: 256
    pad: 0
    kernel_size: 1
    stride: 1
    weight_filler {
      type: "xavier"
    }
    bias_filler {
      type: "constant"
      value: 0
    }
  }
}
layer {
  name: "conv6_1_relu"
  type: "ReLU"
  bottom: "conv6_1"
  top: "conv6_1"
}
layer {
  name: "conv6_2"
  type: "Convolution"
  bottom: "conv6_1"
  top: "conv6_2"
  param {
    lr_mult: 1
    decay_mult: 1
  }
  param {
    lr_mult: 2
    decay_mult: 0
  }
  convolution_param {
    num_output: 512
    pad: 1
    kernel_size: 3
    stride: 2
    weight_filler {
      type: "xavier"
    }
    bias_filler {
      type: "constant"
      value: 0
    }
  }
}
layer {
  name: "conv6_2_relu"
  type: "ReLU"
  bottom: "conv6_2"
  top: "conv6_2"
}
layer {
  name: "conv7_1"
  type: "Convolution"
  bottom: "conv6_2"
  top: "conv7_1"
  param {
    lr_mult: 1
    decay_mult: 1
  }
  param {
    lr_mult: 2
    decay_mult: 0
  }
  convolution_param {
    num_output: 128
    pad: 0
    kernel_size: 1
    stride: 1
    weight_filler {
      type: "xavier"
    }
    bias_filler {
      type: "constant"
      value: 0
    }
  }
}
layer {
  name: "conv7_1_relu"
  type: "ReLU"
  bottom: "conv7_1"
  top: "conv7_1"
}
layer {
  name: "conv7_2"
  type: "Convolution"
  bottom: "conv7_1"
  top: "conv7_2"
  param {
    lr_mult: 1
    decay_mult: 1
  }
  param {
    lr_mult: 2
    decay_mult: 0
  }
  convolution_param {
    num_output: 256
    pad: 1
    kernel_size: 3
    stride: 2
    weight_filler {
      type: "xavier"
    }
    bias_filler {
      type: "constant"
      value: 0
    }
  }
}
layer {
  name: "conv7_2_relu"
  type: "ReLU"
  bottom: "conv7_2"
  top: "conv7_2"
}
layer {
  name: "conv8_1"
  type: "Convolution"
  bottom: "conv7_2"
  top: "conv8_1"
  param {
    lr_mult: 1
    decay_mult: 1
  }
  param {
    lr_mult: 2
    decay_mult: 0
  }
  convolution_param {
    num_output: 128
    pad: 0
    kernel_size: 1
    stride: 1
    weight_filler {
      type: "xavier"
    }
    bias_filler {
      type: "constant"
      value: 0
    }
  }
}
layer {
  name: "conv8_1_relu"
  type: "ReLU"
  bottom: "conv8_1"
  top: "conv8_1"
}
layer {
  name: "conv8_2"
  type: "Convolution"
  bottom: "conv8_1"
  top: "conv8_2"
  param {
    lr_mult: 1
    decay_mult: 1
  }
  param {
    lr_mult: 2
    decay_mult: 0
  }
  convolution_param {
    num_output: 256
    pad: 1
    kernel_size: 3
    stride: 2
    weight_filler {
      type: "xavier"
    }
    bias_filler {
      type: "constant"
      value: 0
    }
  }
}
layer {
  name: "conv8_2_relu"
  type: "ReLU"
  bottom: "conv8_2"
  top: "conv8_2"
}
layer {
  name: "pool6"
  type: "Pooling"
  bottom: "conv8_2"
  top: "pool6"
  pooling_param {
    pool: AVE
    global_pooling: true
  }
}
layer {
  name: "conv4_3_norm"
  type: "Normalize"
  bottom: "conv4_3"
  top: "conv4_3_norm"
  norm_param {
    across_spatial: false
    scale_filler {
      type: "constant"
      value: 20
    }
    channel_shared: false
  }
}
layer {
  name: "conv4_3_norm_mbox_loc"
  type: "Convolution"
  bottom: "conv4_3_norm"
  top: "conv4_3_norm_mbox_loc"
  param {
    lr_mult: 1
    decay_mult: 1
  }
  param {
    lr_mult: 2
    decay_mult: 0
  }
  convolution_param {
    num_output: 12
    pad: 1
    kernel_size: 3
    stride: 1
    weight_filler {
      type: "xavier"
    }
    bias_filler {
      type: "constant"
      value: 0
    }
  }
}
layer {
  name: "conv4_3_norm_mbox_loc_perm"
  type: "Permute"
  bottom: "conv4_3_norm_mbox_loc"
  top: "conv4_3_norm_mbox_loc_perm"
  permute_param {
    order: 0
    order: 2
    order: 3
    order: 1
  }
}
layer {
  name: "conv4_3_norm_mbox_loc_flat"
  type: "Flatten"
  bottom: "conv4_3_norm_mbox_loc_perm"
  top: "conv4_3_norm_mbox_loc_flat"
  flatten_param {
    axis: 1
  }
}
layer {
  name: "conv4_3_norm_mbox_conf"
  type: "Convolution"
  bottom: "conv4_3_norm"
  top: "conv4_3_norm_mbox_conf"
  param {
    lr_mult: 1
    decay_mult: 1
  }
  param {
    lr_mult: 2
    decay_mult: 0
  }
  convolution_param {
    num_output: 15
    pad: 1
    kernel_size: 3
    stride: 1
    weight_filler {
      type: "xavier"
    }
    bias_filler {
      type: "constant"
      value: 0
    }
  }
}
layer {
  name: "conv4_3_norm_mbox_conf_perm"
  type: "Permute"
  bottom: "conv4_3_norm_mbox_conf"
  top: "conv4_3_norm_mbox_conf_perm"
  permute_param {
    order: 0
    order: 2
    order: 3
    order: 1
  }
}
layer {
  name: "conv4_3_norm_mbox_conf_flat"
  type: "Flatten"
  bottom: "conv4_3_norm_mbox_conf_perm"
  top: "conv4_3_norm_mbox_conf_flat"
  flatten_param {
    axis: 1
  }
}
layer {
  name: "conv4_3_norm_mbox_priorbox"
  type: "PriorBox"
  bottom: "conv4_3_norm"
  bottom: "data"
  top: "conv4_3_norm_mbox_priorbox"
  prior_box_param {
    min_size: 30
    aspect_ratio: 2
    flip: true
    clip: true
    variance: 0.1
    variance: 0.1
    variance: 0.2
    variance: 0.2
  }
}
layer {
  name: "fc7_mbox_loc"
  type: "Convolution"
  bottom: "fc7"
  top: "fc7_mbox_loc"
  param {
    lr_mult: 1
    decay_mult: 1
  }
  param {
    lr_mult: 2
    decay_mult: 0
  }
  convolution_param {
    num_output: 24
    pad: 1
    kernel_size: 3
    stride: 1
    weight_filler {
      type: "xavier"
    }
    bias_filler {
      type: "constant"
      value: 0
    }
  }
}
layer {
  name: "fc7_mbox_loc_perm"
  type: "Permute"
  bottom: "fc7_mbox_loc"
  top: "fc7_mbox_loc_perm"
  permute_param {
    order: 0
    order: 2
    order: 3
    order: 1
  }
}
layer {
  name: "fc7_mbox_loc_flat"
  type: "Flatten"
  bottom: "fc7_mbox_loc_perm"
  top: "fc7_mbox_loc_flat"
  flatten_param {
    axis: 1
  }
}
layer {
  name: "fc7_mbox_conf"
  type: "Convolution"
  bottom: "fc7"
  top: "fc7_mbox_conf"
  param {
    lr_mult: 1
    decay_mult: 1
  }
  param {
    lr_mult: 2
    decay_mult: 0
  }
  convolution_param {
    num_output: 30
    pad: 1
    kernel_size: 3
    stride: 1
    weight_filler {
      type: "xavier"
    }
    bias_filler {
      type: "constant"
      value: 0
    }
  }
}
layer {
  name: "fc7_mbox_conf_perm"
  type: "Permute"
  bottom: "fc7_mbox_conf"
  top: "fc7_mbox_conf_perm"
  permute_param {
    order: 0
    order: 2
    order: 3
    order: 1
  }
}
layer {
  name: "fc7_mbox_conf_flat"
  type: "Flatten"
  bottom: "fc7_mbox_conf_perm"
  top: "fc7_mbox_conf_flat"
  flatten_param {
    axis: 1
  }
}
layer {
  name: "fc7_mbox_priorbox"
  type: "PriorBox"
  bottom: "fc7"
  bottom: "data"
  top: "fc7_mbox_priorbox"
  prior_box_param {
    min_size: 60
    max_size: 114
    aspect_ratio: 2
    aspect_ratio: 3
    flip: true
    clip: true
    variance: 0.1
    variance: 0.1
    variance: 0.2
    variance: 0.2
  }
}
layer {
  name: "conv6_2_mbox_loc"
  type: "Convolution"
  bottom: "conv6_2"
  top: "conv6_2_mbox_loc"
  param {
    lr_mult: 1
    decay_mult: 1
  }
  param {
    lr_mult: 2
    decay_mult: 0
  }
  convolution_param {
    num_output: 24
    pad: 1
    kernel_size: 3
    stride: 1
    weight_filler {
      type: "xavier"
    }
    bias_filler {
      type: "constant"
      value: 0
    }
  }
}
layer {
  name: "conv6_2_mbox_loc_perm"
  type: "Permute"
  bottom: "conv6_2_mbox_loc"
  top: "conv6_2_mbox_loc_perm"
  permute_param {
    order: 0
    order: 2
    order: 3
    order: 1
  }
}
layer {
  name: "conv6_2_mbox_loc_flat"
  type: "Flatten"
  bottom: "conv6_2_mbox_loc_perm"
  top: "conv6_2_mbox_loc_flat"
  flatten_param {
    axis: 1
  }
}
layer {
  name: "conv6_2_mbox_conf"
  type: "Convolution"
  bottom: "conv6_2"
  top: "conv6_2_mbox_conf"
  param {
    lr_mult: 1
    decay_mult: 1
  }
  param {
    lr_mult: 2
    decay_mult: 0
  }
  convolution_param {
    num_output: 30
    pad: 1
    kernel_size: 3
    stride: 1
    weight_filler {
      type: "xavier"
    }
    bias_filler {
      type: "constant"
      value: 0
    }
  }
}
layer {
  name: "conv6_2_mbox_conf_perm"
  type: "Permute"
  bottom: "conv6_2_mbox_conf"
  top: "conv6_2_mbox_conf_perm"
  permute_param {
    order: 0
    order: 2
    order: 3
    order: 1
  }
}
layer {
  name: "conv6_2_mbox_conf_flat"
  type: "Flatten"
  bottom: "conv6_2_mbox_conf_perm"
  top: "conv6_2_mbox_conf_flat"
  flatten_param {
    axis: 1
  }
}
layer {
  name: "conv6_2_mbox_priorbox"
  type: "PriorBox"
  bottom: "conv6_2"
  bottom: "data"
  top: "conv6_2_mbox_priorbox"
  prior_box_param {
    min_size: 114
    max_size: 168
    aspect_ratio: 2
    aspect_ratio: 3
    flip: true
    clip: true
    variance: 0.1
    variance: 0.1
    variance: 0.2
    variance: 0.2
  }
}
layer {
  name: "conv7_2_mbox_loc"
  type: "Convolution"
  bottom: "conv7_2"
  top: "conv7_2_mbox_loc"
  param {
    lr_mult: 1
    decay_mult: 1
  }
  param {
    lr_mult: 2
    decay_mult: 0
  }
  convolution_param {
    num_output: 24
    pad: 1
    kernel_size: 3
    stride: 1
    weight_filler {
      type: "xavier"
    }
    bias_filler {
      type: "constant"
      value: 0
    }
  }
}
layer {
  name: "conv7_2_mbox_loc_perm"
  type: "Permute"
  bottom: "conv7_2_mbox_loc"
  top: "conv7_2_mbox_loc_perm"
  permute_param {
    order: 0
    order: 2
    order: 3
    order: 1
  }
}
layer {
  name: "conv7_2_mbox_loc_flat"
  type: "Flatten"
  bottom: "conv7_2_mbox_loc_perm"
  top: "conv7_2_mbox_loc_flat"
  flatten_param {
    axis: 1
  }
}
layer {
  name: "conv7_2_mbox_conf"
  type: "Convolution"
  bottom: "conv7_2"
  top: "conv7_2_mbox_conf"
  param {
    lr_mult: 1
    decay_mult: 1
  }
  param {
    lr_mult: 2
    decay_mult: 0
  }
  convolution_param {
    num_output: 30
    pad: 1
    kernel_size: 3
    stride: 1
    weight_filler {
      type: "xavier"
    }
    bias_filler {
      type: "constant"
      value: 0
    }
  }
}
layer {
  name: "conv7_2_mbox_conf_perm"
  type: "Permute"
  bottom: "conv7_2_mbox_conf"
  top: "conv7_2_mbox_conf_perm"
  permute_param {
    order: 0
    order: 2
    order: 3
    order: 1
  }
}
layer {
  name: "conv7_2_mbox_conf_flat"
  type: "Flatten"
  bottom: "conv7_2_mbox_conf_perm"
  top: "conv7_2_mbox_conf_flat"
  flatten_param {
    axis: 1
  }
}
layer {
  name: "conv7_2_mbox_priorbox"
  type: "PriorBox"
  bottom: "conv7_2"
  bottom: "data"
  top: "conv7_2_mbox_priorbox"
  prior_box_param {
    min_size: 168
    max_size: 222
    aspect_ratio: 2
    aspect_ratio: 3
    flip: true
    clip: true
    variance: 0.1
    variance: 0.1
    variance: 0.2
    variance: 0.2
  }
}
layer {
  name: "conv8_2_mbox_loc"
  type: "Convolution"
  bottom: "conv8_2"
  top: "conv8_2_mbox_loc"
  param {
    lr_mult: 1
    decay_mult: 1
  }
  param {
    lr_mult: 2
    decay_mult: 0
  }
  convolution_param {
    num_output: 24
    pad: 1
    kernel_size: 3
    stride: 1
    weight_filler {
      type: "xavier"
    }
    bias_filler {
      type: "constant"
      value: 0
    }
  }
}
layer {
  name: "conv8_2_mbox_loc_perm"
  type: "Permute"
  bottom: "conv8_2_mbox_loc"
  top: "conv8_2_mbox_loc_perm"
  permute_param {
    order: 0
    order: 2
    order: 3
    order: 1
  }
}
layer {
  name: "conv8_2_mbox_loc_flat"
  type: "Flatten"
  bottom: "conv8_2_mbox_loc_perm"
  top: "conv8_2_mbox_loc_flat"
  flatten_param {
    axis: 1
  }
}
layer {
  name: "conv8_2_mbox_conf"
  type: "Convolution"
  bottom: "conv8_2"
  top: "conv8_2_mbox_conf"
  param {
    lr_mult: 1
    decay_mult: 1
  }
  param {
    lr_mult: 2
    decay_mult: 0
  }
  convolution_param {
    num_output: 30
    pad: 1
    kernel_size: 3
    stride: 1
    weight_filler {
      type: "xavier"
    }
    bias_filler {
      type: "constant"
      value: 0
    }
  }
}
layer {
  name: "conv8_2_mbox_conf_perm"
  type: "Permute"
  bottom: "conv8_2_mbox_conf"
  top: "conv8_2_mbox_conf_perm"
  permute_param {
    order: 0
    order: 2
    order: 3
    order: 1
  }
}
layer {
  name: "conv8_2_mbox_conf_flat"
  type: "Flatten"
  bottom: "conv8_2_mbox_conf_perm"
  top: "conv8_2_mbox_conf_flat"
  flatten_param {
    axis: 1
  }
}
layer {
  name: "conv8_2_mbox_priorbox"
  type: "PriorBox"
  bottom: "conv8_2"
  bottom: "data"
  top: "conv8_2_mbox_priorbox"
  prior_box_param {
    min_size: 222
    max_size: 276
    aspect_ratio: 2
    aspect_ratio: 3
    flip: true
    clip: true
    variance: 0.1
    variance: 0.1
    variance: 0.2
    variance: 0.2
  }
}
layer {
  name: "pool6_mbox_loc"
  type: "Convolution"
  bottom: "pool6"
  top: "pool6_mbox_loc"
  param {
    lr_mult: 1
    decay_mult: 1
  }
  param {
    lr_mult: 2
    decay_mult: 0
  }
  convolution_param {
    num_output: 24
    pad: 1
    kernel_size: 3
    stride: 1
    weight_filler {
      type: "xavier"
    }
    bias_filler {
      type: "constant"
      value: 0
    }
  }
}
layer {
  name: "pool6_mbox_loc_perm"
  type: "Permute"
  bottom: "pool6_mbox_loc"
  top: "pool6_mbox_loc_perm"
  permute_param {
    order: 0
    order: 2
    order: 3
    order: 1
  }
}
layer {
  name: "pool6_mbox_loc_flat"
  type: "Flatten"
  bottom: "pool6_mbox_loc_perm"
  top: "pool6_mbox_loc_flat"
  flatten_param {
    axis: 1
  }
}
layer {
  name: "pool6_mbox_conf"
  type: "Convolution"
  bottom: "pool6"
  top: "pool6_mbox_conf"
  param {
    lr_mult: 1
    decay_mult: 1
  }
  param {
    lr_mult: 2
    decay_mult: 0
  }
  convolution_param {
    num_output: 30
    pad: 1
    kernel_size: 3
    stride: 1
    weight_filler {
      type: "xavier"
    }
    bias_filler {
      type: "constant"
      value: 0
    }
  }
}
layer {
  name: "pool6_mbox_conf_perm"
  type: "Permute"
  bottom: "pool6_mbox_conf"
  top: "pool6_mbox_conf_perm"
  permute_param {
    order: 0
    order: 2
    order: 3
    order: 1
  }
}
layer {
  name: "pool6_mbox_conf_flat"
  type: "Flatten"
  bottom: "pool6_mbox_conf_perm"
  top: "pool6_mbox_conf_flat"
  flatten_param {
    axis: 1
  }
}
layer {
  name: "pool6_mbox_priorbox"
  type: "PriorBox"
  bottom: "pool6"
  bottom: "data"
  top: "pool6_mbox_priorbox"
  prior_box_param {
    min_size: 276
    max_size: 330
    aspect_ratio: 2
    aspect_ratio: 3
    flip: true
    clip: true
    variance: 0.1
    variance: 0.1
    variance: 0.2
    variance: 0.2
  }
}
layer {
  name: "mbox_loc"
  type: "Concat"
  bottom: "conv4_3_norm_mbox_loc_flat"
  bottom: "fc7_mbox_loc_flat"
  bottom: "conv6_2_mbox_loc_flat"
  bottom: "conv7_2_mbox_loc_flat"
  bottom: "conv8_2_mbox_loc_flat"
  bottom: "pool6_mbox_loc_flat"
  top: "mbox_loc"
  concat_param {
    axis: 1
  }
}
layer {
  name: "mbox_conf"
  type: "Concat"
  bottom: "conv4_3_norm_mbox_conf_flat"
  bottom: "fc7_mbox_conf_flat"
  bottom: "conv6_2_mbox_conf_flat"
  bottom: "conv7_2_mbox_conf_flat"
  bottom: "conv8_2_mbox_conf_flat"
  bottom: "pool6_mbox_conf_flat"
  top: "mbox_conf"
  concat_param {
    axis: 1
  }
}
layer {
  name: "mbox_priorbox"
  type: "Concat"
  bottom: "conv4_3_norm_mbox_priorbox"
  bottom: "fc7_mbox_priorbox"
  bottom: "conv6_2_mbox_priorbox"
  bottom: "conv7_2_mbox_priorbox"
  bottom: "conv8_2_mbox_priorbox"
  bottom: "pool6_mbox_priorbox"
  top: "mbox_priorbox"
  concat_param {
    axis: 2
  }
}
layer {
  name: "mbox_loss"
  type: "MultiBoxLoss"
  bottom: "mbox_loc"
  bottom: "mbox_conf"
  bottom: "mbox_priorbox"
  bottom: "label"
  top: "mbox_loss"
  include {
    phase: TRAIN
  }
  propagate_down: true
  propagate_down: true
  propagate_down: false
  propagate_down: false
  loss_param {
    normalization: VALID
  }
  multibox_loss_param {
    loc_loss_type: SMOOTH_L1
    conf_loss_type: SOFTMAX
    loc_weight: 1
    num_classes: 5
    share_location: true
    match_type: PER_PREDICTION
    overlap_threshold: 0.5
    use_prior_for_matching: true
    background_label_id: 0
    use_difficult_gt: true
    do_neg_mining: true
    neg_pos_ratio: 3
    neg_overlap: 0.5
    code_type: CENTER_SIZE
  }
}
I0512 18:43:18.136374 10458 layer_factory.hpp:77] Creating layer data
I0512 18:43:18.136914 10458 net.cpp:91] Creating Layer data
I0512 18:43:18.136939 10458 net.cpp:399] data -> data
I0512 18:43:18.136982 10458 net.cpp:399] data -> label
I0512 18:43:18.138500 10474 db_lmdb.cpp:35] Opened lmdb examples/deepv_car_person/deepv_car_person_trainval_lmdb
I0512 18:43:18.167408 10458 annotated_data_layer.cpp:52] output data size: 8,3,300,500
I0512 18:43:18.208721 10458 net.cpp:141] Setting up data
I0512 18:43:18.208792 10458 net.cpp:148] Top shape: 8 3 300 500 (3600000)
I0512 18:43:18.208806 10458 net.cpp:148] Top shape: 1 1 6 8 (48)
I0512 18:43:18.208809 10458 net.cpp:156] Memory required for data: 14400192
I0512 18:43:18.208827 10458 layer_factory.hpp:77] Creating layer data_data_0_split
I0512 18:43:18.208864 10458 net.cpp:91] Creating Layer data_data_0_split
I0512 18:43:18.208876 10458 net.cpp:425] data_data_0_split <- data
I0512 18:43:18.208896 10458 net.cpp:399] data_data_0_split -> data_data_0_split_0
I0512 18:43:18.208923 10458 net.cpp:399] data_data_0_split -> data_data_0_split_1
I0512 18:43:18.208933 10458 net.cpp:399] data_data_0_split -> data_data_0_split_2
I0512 18:43:18.208942 10458 net.cpp:399] data_data_0_split -> data_data_0_split_3
I0512 18:43:18.208950 10458 net.cpp:399] data_data_0_split -> data_data_0_split_4
I0512 18:43:18.208958 10458 net.cpp:399] data_data_0_split -> data_data_0_split_5
I0512 18:43:18.208966 10458 net.cpp:399] data_data_0_split -> data_data_0_split_6
I0512 18:43:18.209113 10458 net.cpp:141] Setting up data_data_0_split
I0512 18:43:18.209125 10458 net.cpp:148] Top shape: 8 3 300 500 (3600000)
I0512 18:43:18.209131 10458 net.cpp:148] Top shape: 8 3 300 500 (3600000)
I0512 18:43:18.209136 10458 net.cpp:148] Top shape: 8 3 300 500 (3600000)
I0512 18:43:18.209141 10458 net.cpp:148] Top shape: 8 3 300 500 (3600000)
I0512 18:43:18.209146 10458 net.cpp:148] Top shape: 8 3 300 500 (3600000)
I0512 18:43:18.209179 10458 net.cpp:148] Top shape: 8 3 300 500 (3600000)
I0512 18:43:18.209185 10458 net.cpp:148] Top shape: 8 3 300 500 (3600000)
I0512 18:43:18.209189 10458 net.cpp:156] Memory required for data: 115200192
I0512 18:43:18.209194 10458 layer_factory.hpp:77] Creating layer conv1_1
I0512 18:43:18.209220 10458 net.cpp:91] Creating Layer conv1_1
I0512 18:43:18.209226 10458 net.cpp:425] conv1_1 <- data_data_0_split_0
I0512 18:43:18.209238 10458 net.cpp:399] conv1_1 -> conv1_1
I0512 18:43:18.287945 10475 blocking_queue.cpp:50] Waiting for data
I0512 18:43:18.480347 10458 net.cpp:141] Setting up conv1_1
I0512 18:43:18.480417 10458 net.cpp:148] Top shape: 8 64 300 500 (76800000)
I0512 18:43:18.480427 10458 net.cpp:156] Memory required for data: 422400192
I0512 18:43:18.480458 10458 layer_factory.hpp:77] Creating layer relu1_1
I0512 18:43:18.480482 10458 net.cpp:91] Creating Layer relu1_1
I0512 18:43:18.480492 10458 net.cpp:425] relu1_1 <- conv1_1
I0512 18:43:18.480504 10458 net.cpp:386] relu1_1 -> conv1_1 (in-place)
I0512 18:43:18.480994 10458 net.cpp:141] Setting up relu1_1
I0512 18:43:18.481022 10458 net.cpp:148] Top shape: 8 64 300 500 (76800000)
I0512 18:43:18.481029 10458 net.cpp:156] Memory required for data: 729600192
I0512 18:43:18.481037 10458 layer_factory.hpp:77] Creating layer conv1_2
I0512 18:43:18.481065 10458 net.cpp:91] Creating Layer conv1_2
I0512 18:43:18.481072 10458 net.cpp:425] conv1_2 <- conv1_1
I0512 18:43:18.481084 10458 net.cpp:399] conv1_2 -> conv1_2
I0512 18:43:18.485942 10458 net.cpp:141] Setting up conv1_2
I0512 18:43:18.485972 10458 net.cpp:148] Top shape: 8 64 300 500 (76800000)
I0512 18:43:18.485980 10458 net.cpp:156] Memory required for data: 1036800192
I0512 18:43:18.485997 10458 layer_factory.hpp:77] Creating layer relu1_2
I0512 18:43:18.486011 10458 net.cpp:91] Creating Layer relu1_2
I0512 18:43:18.486017 10458 net.cpp:425] relu1_2 <- conv1_2
I0512 18:43:18.486027 10458 net.cpp:386] relu1_2 -> conv1_2 (in-place)
I0512 18:43:18.486464 10458 net.cpp:141] Setting up relu1_2
I0512 18:43:18.486487 10458 net.cpp:148] Top shape: 8 64 300 500 (76800000)
I0512 18:43:18.486495 10458 net.cpp:156] Memory required for data: 1344000192
I0512 18:43:18.486501 10458 layer_factory.hpp:77] Creating layer pool1
I0512 18:43:18.486516 10458 net.cpp:91] Creating Layer pool1
I0512 18:43:18.486523 10458 net.cpp:425] pool1 <- conv1_2
I0512 18:43:18.486536 10458 net.cpp:399] pool1 -> pool1
I0512 18:43:18.486631 10458 net.cpp:141] Setting up pool1
I0512 18:43:18.486647 10458 net.cpp:148] Top shape: 8 64 150 250 (19200000)
I0512 18:43:18.486652 10458 net.cpp:156] Memory required for data: 1420800192
I0512 18:43:18.486660 10458 layer_factory.hpp:77] Creating layer conv2_1
I0512 18:43:18.486677 10458 net.cpp:91] Creating Layer conv2_1
I0512 18:43:18.486686 10458 net.cpp:425] conv2_1 <- pool1
I0512 18:43:18.486698 10458 net.cpp:399] conv2_1 -> conv2_1
I0512 18:43:18.490411 10458 net.cpp:141] Setting up conv2_1
I0512 18:43:18.490439 10458 net.cpp:148] Top shape: 8 128 150 250 (38400000)
I0512 18:43:18.490447 10458 net.cpp:156] Memory required for data: 1574400192
I0512 18:43:18.490464 10458 layer_factory.hpp:77] Creating layer relu2_1
I0512 18:43:18.490479 10458 net.cpp:91] Creating Layer relu2_1
I0512 18:43:18.490486 10458 net.cpp:425] relu2_1 <- conv2_1
I0512 18:43:18.490497 10458 net.cpp:386] relu2_1 -> conv2_1 (in-place)
I0512 18:43:18.491492 10458 net.cpp:141] Setting up relu2_1
I0512 18:43:18.491511 10458 net.cpp:148] Top shape: 8 128 150 250 (38400000)
I0512 18:43:18.491518 10458 net.cpp:156] Memory required for data: 1728000192
I0512 18:43:18.491523 10458 layer_factory.hpp:77] Creating layer conv2_2
I0512 18:43:18.491542 10458 net.cpp:91] Creating Layer conv2_2
I0512 18:43:18.491549 10458 net.cpp:425] conv2_2 <- conv2_1
I0512 18:43:18.491561 10458 net.cpp:399] conv2_2 -> conv2_2
I0512 18:43:18.499348 10458 net.cpp:141] Setting up conv2_2
I0512 18:43:18.499392 10458 net.cpp:148] Top shape: 8 128 150 250 (38400000)
I0512 18:43:18.499402 10458 net.cpp:156] Memory required for data: 1881600192
I0512 18:43:18.499464 10458 layer_factory.hpp:77] Creating layer relu2_2
I0512 18:43:18.499486 10458 net.cpp:91] Creating Layer relu2_2
I0512 18:43:18.499496 10458 net.cpp:425] relu2_2 <- conv2_2
I0512 18:43:18.499512 10458 net.cpp:386] relu2_2 -> conv2_2 (in-place)
I0512 18:43:18.501904 10458 net.cpp:141] Setting up relu2_2
I0512 18:43:18.501945 10458 net.cpp:148] Top shape: 8 128 150 250 (38400000)
I0512 18:43:18.501955 10458 net.cpp:156] Memory required for data: 2035200192
I0512 18:43:18.501965 10458 layer_factory.hpp:77] Creating layer pool2
I0512 18:43:18.501982 10458 net.cpp:91] Creating Layer pool2
I0512 18:43:18.501991 10458 net.cpp:425] pool2 <- conv2_2
I0512 18:43:18.502007 10458 net.cpp:399] pool2 -> pool2
I0512 18:43:18.502112 10458 net.cpp:141] Setting up pool2
I0512 18:43:18.502132 10458 net.cpp:148] Top shape: 8 128 75 125 (9600000)
I0512 18:43:18.502147 10458 net.cpp:156] Memory required for data: 2073600192
I0512 18:43:18.502156 10458 layer_factory.hpp:77] Creating layer conv3_1
I0512 18:43:18.502180 10458 net.cpp:91] Creating Layer conv3_1
I0512 18:43:18.502192 10458 net.cpp:425] conv3_1 <- pool2
I0512 18:43:18.502208 10458 net.cpp:399] conv3_1 -> conv3_1
I0512 18:43:18.516402 10458 net.cpp:141] Setting up conv3_1
I0512 18:43:18.516443 10458 net.cpp:148] Top shape: 8 256 75 125 (19200000)
I0512 18:43:18.516455 10458 net.cpp:156] Memory required for data: 2150400192
I0512 18:43:18.516481 10458 layer_factory.hpp:77] Creating layer relu3_1
I0512 18:43:18.516499 10458 net.cpp:91] Creating Layer relu3_1
I0512 18:43:18.516508 10458 net.cpp:425] relu3_1 <- conv3_1
I0512 18:43:18.516523 10458 net.cpp:386] relu3_1 -> conv3_1 (in-place)
I0512 18:43:18.517158 10458 net.cpp:141] Setting up relu3_1
I0512 18:43:18.517194 10458 net.cpp:148] Top shape: 8 256 75 125 (19200000)
I0512 18:43:18.517204 10458 net.cpp:156] Memory required for data: 2227200192
I0512 18:43:18.517212 10458 layer_factory.hpp:77] Creating layer conv3_2
I0512 18:43:18.517240 10458 net.cpp:91] Creating Layer conv3_2
I0512 18:43:18.517252 10458 net.cpp:425] conv3_2 <- conv3_1
I0512 18:43:18.517269 10458 net.cpp:399] conv3_2 -> conv3_2
I0512 18:43:18.531755 10458 net.cpp:141] Setting up conv3_2
I0512 18:43:18.531795 10458 net.cpp:148] Top shape: 8 256 75 125 (19200000)
I0512 18:43:18.531805 10458 net.cpp:156] Memory required for data: 2304000192
I0512 18:43:18.531821 10458 layer_factory.hpp:77] Creating layer relu3_2
I0512 18:43:18.531836 10458 net.cpp:91] Creating Layer relu3_2
I0512 18:43:18.531847 10458 net.cpp:425] relu3_2 <- conv3_2
I0512 18:43:18.531858 10458 net.cpp:386] relu3_2 -> conv3_2 (in-place)
I0512 18:43:18.532928 10458 net.cpp:141] Setting up relu3_2
I0512 18:43:18.532953 10458 net.cpp:148] Top shape: 8 256 75 125 (19200000)
I0512 18:43:18.532960 10458 net.cpp:156] Memory required for data: 2380800192
I0512 18:43:18.532971 10458 layer_factory.hpp:77] Creating layer conv3_3
I0512 18:43:18.533004 10458 net.cpp:91] Creating Layer conv3_3
I0512 18:43:18.533013 10458 net.cpp:425] conv3_3 <- conv3_2
I0512 18:43:18.533044 10458 net.cpp:399] conv3_3 -> conv3_3
I0512 18:43:18.545809 10458 net.cpp:141] Setting up conv3_3
I0512 18:43:18.545840 10458 net.cpp:148] Top shape: 8 256 75 125 (19200000)
I0512 18:43:18.545850 10458 net.cpp:156] Memory required for data: 2457600192
I0512 18:43:18.545862 10458 layer_factory.hpp:77] Creating layer relu3_3
I0512 18:43:18.545876 10458 net.cpp:91] Creating Layer relu3_3
I0512 18:43:18.545883 10458 net.cpp:425] relu3_3 <- conv3_3
I0512 18:43:18.545897 10458 net.cpp:386] relu3_3 -> conv3_3 (in-place)
I0512 18:43:18.546962 10458 net.cpp:141] Setting up relu3_3
I0512 18:43:18.546988 10458 net.cpp:148] Top shape: 8 256 75 125 (19200000)
I0512 18:43:18.546995 10458 net.cpp:156] Memory required for data: 2534400192
I0512 18:43:18.547003 10458 layer_factory.hpp:77] Creating layer pool3
I0512 18:43:18.547022 10458 net.cpp:91] Creating Layer pool3
I0512 18:43:18.547030 10458 net.cpp:425] pool3 <- conv3_3
I0512 18:43:18.547042 10458 net.cpp:399] pool3 -> pool3
I0512 18:43:18.547121 10458 net.cpp:141] Setting up pool3
I0512 18:43:18.547164 10458 net.cpp:148] Top shape: 8 256 38 63 (4902912)
I0512 18:43:18.547173 10458 net.cpp:156] Memory required for data: 2554011840
I0512 18:43:18.547179 10458 layer_factory.hpp:77] Creating layer conv4_1
I0512 18:43:18.547200 10458 net.cpp:91] Creating Layer conv4_1
I0512 18:43:18.547209 10458 net.cpp:425] conv4_1 <- pool3
I0512 18:43:18.547222 10458 net.cpp:399] conv4_1 -> conv4_1
I0512 18:43:18.569376 10458 net.cpp:141] Setting up conv4_1
I0512 18:43:18.569409 10458 net.cpp:148] Top shape: 8 512 38 63 (9805824)
I0512 18:43:18.569416 10458 net.cpp:156] Memory required for data: 2593235136
I0512 18:43:18.569429 10458 layer_factory.hpp:77] Creating layer relu4_1
I0512 18:43:18.569442 10458 net.cpp:91] Creating Layer relu4_1
I0512 18:43:18.569450 10458 net.cpp:425] relu4_1 <- conv4_1
I0512 18:43:18.569460 10458 net.cpp:386] relu4_1 -> conv4_1 (in-place)
I0512 18:43:18.571879 10458 net.cpp:141] Setting up relu4_1
I0512 18:43:18.571904 10458 net.cpp:148] Top shape: 8 512 38 63 (9805824)
I0512 18:43:18.571910 10458 net.cpp:156] Memory required for data: 2632458432
I0512 18:43:18.571918 10458 layer_factory.hpp:77] Creating layer conv4_2
I0512 18:43:18.571938 10458 net.cpp:91] Creating Layer conv4_2
I0512 18:43:18.571945 10458 net.cpp:425] conv4_2 <- conv4_1
I0512 18:43:18.571964 10458 net.cpp:399] conv4_2 -> conv4_2
I0512 18:43:18.607318 10458 net.cpp:141] Setting up conv4_2
I0512 18:43:18.607362 10458 net.cpp:148] Top shape: 8 512 38 63 (9805824)
I0512 18:43:18.607370 10458 net.cpp:156] Memory required for data: 2671681728
I0512 18:43:18.607400 10458 layer_factory.hpp:77] Creating layer relu4_2
I0512 18:43:18.607441 10458 net.cpp:91] Creating Layer relu4_2
I0512 18:43:18.607455 10458 net.cpp:425] relu4_2 <- conv4_2
I0512 18:43:18.607470 10458 net.cpp:386] relu4_2 -> conv4_2 (in-place)
I0512 18:43:18.608264 10458 net.cpp:141] Setting up relu4_2
I0512 18:43:18.608281 10458 net.cpp:148] Top shape: 8 512 38 63 (9805824)
I0512 18:43:18.608289 10458 net.cpp:156] Memory required for data: 2710905024
I0512 18:43:18.608304 10458 layer_factory.hpp:77] Creating layer conv4_3
I0512 18:43:18.608332 10458 net.cpp:91] Creating Layer conv4_3
I0512 18:43:18.608341 10458 net.cpp:425] conv4_3 <- conv4_2
I0512 18:43:18.608358 10458 net.cpp:399] conv4_3 -> conv4_3
I0512 18:43:18.642082 10458 net.cpp:141] Setting up conv4_3
I0512 18:43:18.642199 10458 net.cpp:148] Top shape: 8 512 38 63 (9805824)
I0512 18:43:18.642211 10458 net.cpp:156] Memory required for data: 2750128320
I0512 18:43:18.642228 10458 layer_factory.hpp:77] Creating layer relu4_3
I0512 18:43:18.642274 10458 net.cpp:91] Creating Layer relu4_3
I0512 18:43:18.642304 10458 net.cpp:425] relu4_3 <- conv4_3
I0512 18:43:18.642336 10458 net.cpp:386] relu4_3 -> conv4_3 (in-place)
I0512 18:43:18.644528 10458 net.cpp:141] Setting up relu4_3
I0512 18:43:18.644551 10458 net.cpp:148] Top shape: 8 512 38 63 (9805824)
I0512 18:43:18.644558 10458 net.cpp:156] Memory required for data: 2789351616
I0512 18:43:18.644572 10458 layer_factory.hpp:77] Creating layer conv4_3_relu4_3_0_split
I0512 18:43:18.644611 10458 net.cpp:91] Creating Layer conv4_3_relu4_3_0_split
I0512 18:43:18.644637 10458 net.cpp:425] conv4_3_relu4_3_0_split <- conv4_3
I0512 18:43:18.644676 10458 net.cpp:399] conv4_3_relu4_3_0_split -> conv4_3_relu4_3_0_split_0
I0512 18:43:18.644711 10458 net.cpp:399] conv4_3_relu4_3_0_split -> conv4_3_relu4_3_0_split_1
I0512 18:43:18.644803 10458 net.cpp:141] Setting up conv4_3_relu4_3_0_split
I0512 18:43:18.644835 10458 net.cpp:148] Top shape: 8 512 38 63 (9805824)
I0512 18:43:18.644865 10458 net.cpp:148] Top shape: 8 512 38 63 (9805824)
I0512 18:43:18.644887 10458 net.cpp:156] Memory required for data: 2867798208
I0512 18:43:18.644911 10458 layer_factory.hpp:77] Creating layer pool4
I0512 18:43:18.644939 10458 net.cpp:91] Creating Layer pool4
I0512 18:43:18.644961 10458 net.cpp:425] pool4 <- conv4_3_relu4_3_0_split_0
I0512 18:43:18.644989 10458 net.cpp:399] pool4 -> pool4
I0512 18:43:18.645076 10458 net.cpp:141] Setting up pool4
I0512 18:43:18.645118 10458 net.cpp:148] Top shape: 8 512 19 32 (2490368)
I0512 18:43:18.645159 10458 net.cpp:156] Memory required for data: 2877759680
I0512 18:43:18.645181 10458 layer_factory.hpp:77] Creating layer conv5_1
I0512 18:43:18.645221 10458 net.cpp:91] Creating Layer conv5_1
I0512 18:43:18.645246 10458 net.cpp:425] conv5_1 <- pool4
I0512 18:43:18.645277 10458 net.cpp:399] conv5_1 -> conv5_1
I0512 18:43:18.676015 10458 net.cpp:141] Setting up conv5_1
I0512 18:43:18.676069 10458 net.cpp:148] Top shape: 8 512 19 32 (2490368)
I0512 18:43:18.676074 10458 net.cpp:156] Memory required for data: 2887721152
I0512 18:43:18.676086 10458 layer_factory.hpp:77] Creating layer relu5_1
I0512 18:43:18.676101 10458 net.cpp:91] Creating Layer relu5_1
I0512 18:43:18.676108 10458 net.cpp:425] relu5_1 <- conv5_1
I0512 18:43:18.676120 10458 net.cpp:386] relu5_1 -> conv5_1 (in-place)
I0512 18:43:18.677196 10458 net.cpp:141] Setting up relu5_1
I0512 18:43:18.677213 10458 net.cpp:148] Top shape: 8 512 19 32 (2490368)
I0512 18:43:18.677218 10458 net.cpp:156] Memory required for data: 2897682624
I0512 18:43:18.677223 10458 layer_factory.hpp:77] Creating layer conv5_2
I0512 18:43:18.677243 10458 net.cpp:91] Creating Layer conv5_2
I0512 18:43:18.677248 10458 net.cpp:425] conv5_2 <- conv5_1
I0512 18:43:18.677258 10458 net.cpp:399] conv5_2 -> conv5_2
I0512 18:43:18.701700 10458 net.cpp:141] Setting up conv5_2
I0512 18:43:18.701730 10458 net.cpp:148] Top shape: 8 512 19 32 (2490368)
I0512 18:43:18.701735 10458 net.cpp:156] Memory required for data: 2907644096
I0512 18:43:18.701745 10458 layer_factory.hpp:77] Creating layer relu5_2
I0512 18:43:18.701758 10458 net.cpp:91] Creating Layer relu5_2
I0512 18:43:18.701764 10458 net.cpp:425] relu5_2 <- conv5_2
I0512 18:43:18.701772 10458 net.cpp:386] relu5_2 -> conv5_2 (in-place)
I0512 18:43:18.701982 10458 net.cpp:141] Setting up relu5_2
I0512 18:43:18.701997 10458 net.cpp:148] Top shape: 8 512 19 32 (2490368)
I0512 18:43:18.702000 10458 net.cpp:156] Memory required for data: 2917605568
I0512 18:43:18.702005 10458 layer_factory.hpp:77] Creating layer conv5_3
I0512 18:43:18.702023 10458 net.cpp:91] Creating Layer conv5_3
I0512 18:43:18.702030 10458 net.cpp:425] conv5_3 <- conv5_2
I0512 18:43:18.702042 10458 net.cpp:399] conv5_3 -> conv5_3
I0512 18:43:18.729136 10458 net.cpp:141] Setting up conv5_3
I0512 18:43:18.729168 10458 net.cpp:148] Top shape: 8 512 19 32 (2490368)
I0512 18:43:18.729174 10458 net.cpp:156] Memory required for data: 2927567040
I0512 18:43:18.729185 10458 layer_factory.hpp:77] Creating layer relu5_3
I0512 18:43:18.729214 10458 net.cpp:91] Creating Layer relu5_3
I0512 18:43:18.729221 10458 net.cpp:425] relu5_3 <- conv5_3
I0512 18:43:18.729230 10458 net.cpp:386] relu5_3 -> conv5_3 (in-place)
I0512 18:43:18.729653 10458 net.cpp:141] Setting up relu5_3
I0512 18:43:18.729671 10458 net.cpp:148] Top shape: 8 512 19 32 (2490368)
I0512 18:43:18.729676 10458 net.cpp:156] Memory required for data: 2937528512
I0512 18:43:18.729681 10458 layer_factory.hpp:77] Creating layer pool5
I0512 18:43:18.729693 10458 net.cpp:91] Creating Layer pool5
I0512 18:43:18.729699 10458 net.cpp:425] pool5 <- conv5_3
I0512 18:43:18.729709 10458 net.cpp:399] pool5 -> pool5
I0512 18:43:18.729768 10458 net.cpp:141] Setting up pool5
I0512 18:43:18.729778 10458 net.cpp:148] Top shape: 8 512 19 32 (2490368)
I0512 18:43:18.729781 10458 net.cpp:156] Memory required for data: 2947489984
I0512 18:43:18.729786 10458 layer_factory.hpp:77] Creating layer fc6
I0512 18:43:18.729801 10458 net.cpp:91] Creating Layer fc6
I0512 18:43:18.729809 10458 net.cpp:425] fc6 <- pool5
I0512 18:43:18.729818 10458 net.cpp:399] fc6 -> fc6
I0512 18:43:18.780208 10458 net.cpp:141] Setting up fc6
I0512 18:43:18.780253 10458 net.cpp:148] Top shape: 8 1024 19 32 (4980736)
I0512 18:43:18.780259 10458 net.cpp:156] Memory required for data: 2967412928
I0512 18:43:18.780272 10458 layer_factory.hpp:77] Creating layer relu6
I0512 18:43:18.780288 10458 net.cpp:91] Creating Layer relu6
I0512 18:43:18.780297 10458 net.cpp:425] relu6 <- fc6
I0512 18:43:18.780305 10458 net.cpp:386] relu6 -> fc6 (in-place)
I0512 18:43:18.780650 10458 net.cpp:141] Setting up relu6
I0512 18:43:18.780669 10458 net.cpp:148] Top shape: 8 1024 19 32 (4980736)
I0512 18:43:18.780673 10458 net.cpp:156] Memory required for data: 2987335872
I0512 18:43:18.780678 10458 layer_factory.hpp:77] Creating layer fc7
I0512 18:43:18.780696 10458 net.cpp:91] Creating Layer fc7
I0512 18:43:18.780702 10458 net.cpp:425] fc7 <- fc6
I0512 18:43:18.780712 10458 net.cpp:399] fc7 -> fc7
I0512 18:43:18.792426 10458 net.cpp:141] Setting up fc7
I0512 18:43:18.792448 10458 net.cpp:148] Top shape: 8 1024 19 32 (4980736)
I0512 18:43:18.792453 10458 net.cpp:156] Memory required for data: 3007258816
I0512 18:43:18.792461 10458 layer_factory.hpp:77] Creating layer relu7
I0512 18:43:18.792472 10458 net.cpp:91] Creating Layer relu7
I0512 18:43:18.792477 10458 net.cpp:425] relu7 <- fc7
I0512 18:43:18.792484 10458 net.cpp:386] relu7 -> fc7 (in-place)
I0512 18:43:18.792706 10458 net.cpp:141] Setting up relu7
I0512 18:43:18.792721 10458 net.cpp:148] Top shape: 8 1024 19 32 (4980736)
I0512 18:43:18.792726 10458 net.cpp:156] Memory required for data: 3027181760
I0512 18:43:18.792732 10458 layer_factory.hpp:77] Creating layer fc7_relu7_0_split
I0512 18:43:18.792740 10458 net.cpp:91] Creating Layer fc7_relu7_0_split
I0512 18:43:18.792750 10458 net.cpp:425] fc7_relu7_0_split <- fc7
I0512 18:43:18.792759 10458 net.cpp:399] fc7_relu7_0_split -> fc7_relu7_0_split_0
I0512 18:43:18.792768 10458 net.cpp:399] fc7_relu7_0_split -> fc7_relu7_0_split_1
I0512 18:43:18.792783 10458 net.cpp:399] fc7_relu7_0_split -> fc7_relu7_0_split_2
I0512 18:43:18.792800 10458 net.cpp:399] fc7_relu7_0_split -> fc7_relu7_0_split_3
I0512 18:43:18.792881 10458 net.cpp:141] Setting up fc7_relu7_0_split
I0512 18:43:18.792891 10458 net.cpp:148] Top shape: 8 1024 19 32 (4980736)
I0512 18:43:18.792897 10458 net.cpp:148] Top shape: 8 1024 19 32 (4980736)
I0512 18:43:18.792901 10458 net.cpp:148] Top shape: 8 1024 19 32 (4980736)
I0512 18:43:18.792906 10458 net.cpp:148] Top shape: 8 1024 19 32 (4980736)
I0512 18:43:18.792911 10458 net.cpp:156] Memory required for data: 3106873536
I0512 18:43:18.792914 10458 layer_factory.hpp:77] Creating layer conv6_1
I0512 18:43:18.792928 10458 net.cpp:91] Creating Layer conv6_1
I0512 18:43:18.792935 10458 net.cpp:425] conv6_1 <- fc7_relu7_0_split_0
I0512 18:43:18.792946 10458 net.cpp:399] conv6_1 -> conv6_1
I0512 18:43:18.796785 10458 net.cpp:141] Setting up conv6_1
I0512 18:43:18.796804 10458 net.cpp:148] Top shape: 8 256 19 32 (1245184)
I0512 18:43:18.796809 10458 net.cpp:156] Memory required for data: 3111854272
I0512 18:43:18.796818 10458 layer_factory.hpp:77] Creating layer conv6_1_relu
I0512 18:43:18.796828 10458 net.cpp:91] Creating Layer conv6_1_relu
I0512 18:43:18.796833 10458 net.cpp:425] conv6_1_relu <- conv6_1
I0512 18:43:18.796840 10458 net.cpp:386] conv6_1_relu -> conv6_1 (in-place)
I0512 18:43:18.797183 10458 net.cpp:141] Setting up conv6_1_relu
I0512 18:43:18.797205 10458 net.cpp:148] Top shape: 8 256 19 32 (1245184)
I0512 18:43:18.797210 10458 net.cpp:156] Memory required for data: 3116835008
I0512 18:43:18.797215 10458 layer_factory.hpp:77] Creating layer conv6_2
I0512 18:43:18.797230 10458 net.cpp:91] Creating Layer conv6_2
I0512 18:43:18.797237 10458 net.cpp:425] conv6_2 <- conv6_1
I0512 18:43:18.797246 10458 net.cpp:399] conv6_2 -> conv6_2
I0512 18:43:18.809991 10458 net.cpp:141] Setting up conv6_2
I0512 18:43:18.810012 10458 net.cpp:148] Top shape: 8 512 10 16 (655360)
I0512 18:43:18.810017 10458 net.cpp:156] Memory required for data: 3119456448
I0512 18:43:18.810037 10458 layer_factory.hpp:77] Creating layer conv6_2_relu
I0512 18:43:18.810046 10458 net.cpp:91] Creating Layer conv6_2_relu
I0512 18:43:18.810051 10458 net.cpp:425] conv6_2_relu <- conv6_2
I0512 18:43:18.810057 10458 net.cpp:386] conv6_2_relu -> conv6_2 (in-place)
I0512 18:43:18.810261 10458 net.cpp:141] Setting up conv6_2_relu
I0512 18:43:18.810273 10458 net.cpp:148] Top shape: 8 512 10 16 (655360)
I0512 18:43:18.810279 10458 net.cpp:156] Memory required for data: 3122077888
I0512 18:43:18.810284 10458 layer_factory.hpp:77] Creating layer conv6_2_conv6_2_relu_0_split
I0512 18:43:18.810312 10458 net.cpp:91] Creating Layer conv6_2_conv6_2_relu_0_split
I0512 18:43:18.810318 10458 net.cpp:425] conv6_2_conv6_2_relu_0_split <- conv6_2
I0512 18:43:18.810325 10458 net.cpp:399] conv6_2_conv6_2_relu_0_split -> conv6_2_conv6_2_relu_0_split_0
I0512 18:43:18.810334 10458 net.cpp:399] conv6_2_conv6_2_relu_0_split -> conv6_2_conv6_2_relu_0_split_1
I0512 18:43:18.810343 10458 net.cpp:399] conv6_2_conv6_2_relu_0_split -> conv6_2_conv6_2_relu_0_split_2
I0512 18:43:18.810351 10458 net.cpp:399] conv6_2_conv6_2_relu_0_split -> conv6_2_conv6_2_relu_0_split_3
I0512 18:43:18.810439 10458 net.cpp:141] Setting up conv6_2_conv6_2_relu_0_split
I0512 18:43:18.810449 10458 net.cpp:148] Top shape: 8 512 10 16 (655360)
I0512 18:43:18.810456 10458 net.cpp:148] Top shape: 8 512 10 16 (655360)
I0512 18:43:18.810461 10458 net.cpp:148] Top shape: 8 512 10 16 (655360)
I0512 18:43:18.810464 10458 net.cpp:148] Top shape: 8 512 10 16 (655360)
I0512 18:43:18.810468 10458 net.cpp:156] Memory required for data: 3132563648
I0512 18:43:18.810472 10458 layer_factory.hpp:77] Creating layer conv7_1
I0512 18:43:18.810487 10458 net.cpp:91] Creating Layer conv7_1
I0512 18:43:18.810493 10458 net.cpp:425] conv7_1 <- conv6_2_conv6_2_relu_0_split_0
I0512 18:43:18.810503 10458 net.cpp:399] conv7_1 -> conv7_1
I0512 18:43:18.812352 10458 net.cpp:141] Setting up conv7_1
I0512 18:43:18.812371 10458 net.cpp:148] Top shape: 8 128 10 16 (163840)
I0512 18:43:18.812376 10458 net.cpp:156] Memory required for data: 3133219008
I0512 18:43:18.812391 10458 layer_factory.hpp:77] Creating layer conv7_1_relu
I0512 18:43:18.812399 10458 net.cpp:91] Creating Layer conv7_1_relu
I0512 18:43:18.812404 10458 net.cpp:425] conv7_1_relu <- conv7_1
I0512 18:43:18.812410 10458 net.cpp:386] conv7_1_relu -> conv7_1 (in-place)
I0512 18:43:18.812631 10458 net.cpp:141] Setting up conv7_1_relu
I0512 18:43:18.815368 10458 net.cpp:148] Top shape: 8 128 10 16 (163840)
I0512 18:43:18.815387 10458 net.cpp:156] Memory required for data: 3133874368
I0512 18:43:18.815394 10458 layer_factory.hpp:77] Creating layer conv7_2
I0512 18:43:18.815414 10458 net.cpp:91] Creating Layer conv7_2
I0512 18:43:18.815424 10458 net.cpp:425] conv7_2 <- conv7_1
I0512 18:43:18.815439 10458 net.cpp:399] conv7_2 -> conv7_2
I0512 18:43:18.820024 10458 net.cpp:141] Setting up conv7_2
I0512 18:43:18.820044 10458 net.cpp:148] Top shape: 8 256 5 8 (81920)
I0512 18:43:18.820049 10458 net.cpp:156] Memory required for data: 3134202048
I0512 18:43:18.820058 10458 layer_factory.hpp:77] Creating layer conv7_2_relu
I0512 18:43:18.820067 10458 net.cpp:91] Creating Layer conv7_2_relu
I0512 18:43:18.820072 10458 net.cpp:425] conv7_2_relu <- conv7_2
I0512 18:43:18.820082 10458 net.cpp:386] conv7_2_relu -> conv7_2 (in-place)
I0512 18:43:18.820421 10458 net.cpp:141] Setting up conv7_2_relu
I0512 18:43:18.820438 10458 net.cpp:148] Top shape: 8 256 5 8 (81920)
I0512 18:43:18.820442 10458 net.cpp:156] Memory required for data: 3134529728
I0512 18:43:18.820447 10458 layer_factory.hpp:77] Creating layer conv7_2_conv7_2_relu_0_split
I0512 18:43:18.820459 10458 net.cpp:91] Creating Layer conv7_2_conv7_2_relu_0_split
I0512 18:43:18.820464 10458 net.cpp:425] conv7_2_conv7_2_relu_0_split <- conv7_2
I0512 18:43:18.820472 10458 net.cpp:399] conv7_2_conv7_2_relu_0_split -> conv7_2_conv7_2_relu_0_split_0
I0512 18:43:18.820482 10458 net.cpp:399] conv7_2_conv7_2_relu_0_split -> conv7_2_conv7_2_relu_0_split_1
I0512 18:43:18.820489 10458 net.cpp:399] conv7_2_conv7_2_relu_0_split -> conv7_2_conv7_2_relu_0_split_2
I0512 18:43:18.820498 10458 net.cpp:399] conv7_2_conv7_2_relu_0_split -> conv7_2_conv7_2_relu_0_split_3
I0512 18:43:18.820586 10458 net.cpp:141] Setting up conv7_2_conv7_2_relu_0_split
I0512 18:43:18.820597 10458 net.cpp:148] Top shape: 8 256 5 8 (81920)
I0512 18:43:18.820602 10458 net.cpp:148] Top shape: 8 256 5 8 (81920)
I0512 18:43:18.820606 10458 net.cpp:148] Top shape: 8 256 5 8 (81920)
I0512 18:43:18.820611 10458 net.cpp:148] Top shape: 8 256 5 8 (81920)
I0512 18:43:18.820632 10458 net.cpp:156] Memory required for data: 3135840448
I0512 18:43:18.820637 10458 layer_factory.hpp:77] Creating layer conv8_1
I0512 18:43:18.820660 10458 net.cpp:91] Creating Layer conv8_1
I0512 18:43:18.820667 10458 net.cpp:425] conv8_1 <- conv7_2_conv7_2_relu_0_split_0
I0512 18:43:18.820677 10458 net.cpp:399] conv8_1 -> conv8_1
I0512 18:43:18.822162 10458 net.cpp:141] Setting up conv8_1
I0512 18:43:18.822180 10458 net.cpp:148] Top shape: 8 128 5 8 (40960)
I0512 18:43:18.822185 10458 net.cpp:156] Memory required for data: 3136004288
I0512 18:43:18.822193 10458 layer_factory.hpp:77] Creating layer conv8_1_relu
I0512 18:43:18.822201 10458 net.cpp:91] Creating Layer conv8_1_relu
I0512 18:43:18.822206 10458 net.cpp:425] conv8_1_relu <- conv8_1
I0512 18:43:18.822212 10458 net.cpp:386] conv8_1_relu -> conv8_1 (in-place)
I0512 18:43:18.822415 10458 net.cpp:141] Setting up conv8_1_relu
I0512 18:43:18.822427 10458 net.cpp:148] Top shape: 8 128 5 8 (40960)
I0512 18:43:18.822432 10458 net.cpp:156] Memory required for data: 3136168128
I0512 18:43:18.822438 10458 layer_factory.hpp:77] Creating layer conv8_2
I0512 18:43:18.822453 10458 net.cpp:91] Creating Layer conv8_2
I0512 18:43:18.822463 10458 net.cpp:425] conv8_2 <- conv8_1
I0512 18:43:18.822473 10458 net.cpp:399] conv8_2 -> conv8_2
I0512 18:43:18.826663 10458 net.cpp:141] Setting up conv8_2
I0512 18:43:18.826681 10458 net.cpp:148] Top shape: 8 256 3 4 (24576)
I0512 18:43:18.826686 10458 net.cpp:156] Memory required for data: 3136266432
I0512 18:43:18.826694 10458 layer_factory.hpp:77] Creating layer conv8_2_relu
I0512 18:43:18.826702 10458 net.cpp:91] Creating Layer conv8_2_relu
I0512 18:43:18.826707 10458 net.cpp:425] conv8_2_relu <- conv8_2
I0512 18:43:18.826716 10458 net.cpp:386] conv8_2_relu -> conv8_2 (in-place)
I0512 18:43:18.826920 10458 net.cpp:141] Setting up conv8_2_relu
I0512 18:43:18.826935 10458 net.cpp:148] Top shape: 8 256 3 4 (24576)
I0512 18:43:18.826938 10458 net.cpp:156] Memory required for data: 3136364736
I0512 18:43:18.826943 10458 layer_factory.hpp:77] Creating layer conv8_2_conv8_2_relu_0_split
I0512 18:43:18.826951 10458 net.cpp:91] Creating Layer conv8_2_conv8_2_relu_0_split
I0512 18:43:18.826958 10458 net.cpp:425] conv8_2_conv8_2_relu_0_split <- conv8_2
I0512 18:43:18.826966 10458 net.cpp:399] conv8_2_conv8_2_relu_0_split -> conv8_2_conv8_2_relu_0_split_0
I0512 18:43:18.826973 10458 net.cpp:399] conv8_2_conv8_2_relu_0_split -> conv8_2_conv8_2_relu_0_split_1
I0512 18:43:18.826983 10458 net.cpp:399] conv8_2_conv8_2_relu_0_split -> conv8_2_conv8_2_relu_0_split_2
I0512 18:43:18.826992 10458 net.cpp:399] conv8_2_conv8_2_relu_0_split -> conv8_2_conv8_2_relu_0_split_3
I0512 18:43:18.827078 10458 net.cpp:141] Setting up conv8_2_conv8_2_relu_0_split
I0512 18:43:18.827088 10458 net.cpp:148] Top shape: 8 256 3 4 (24576)
I0512 18:43:18.827093 10458 net.cpp:148] Top shape: 8 256 3 4 (24576)
I0512 18:43:18.827098 10458 net.cpp:148] Top shape: 8 256 3 4 (24576)
I0512 18:43:18.827103 10458 net.cpp:148] Top shape: 8 256 3 4 (24576)
I0512 18:43:18.827106 10458 net.cpp:156] Memory required for data: 3136757952
I0512 18:43:18.827112 10458 layer_factory.hpp:77] Creating layer pool6
I0512 18:43:18.827123 10458 net.cpp:91] Creating Layer pool6
I0512 18:43:18.827131 10458 net.cpp:425] pool6 <- conv8_2_conv8_2_relu_0_split_0
I0512 18:43:18.827142 10458 net.cpp:399] pool6 -> pool6
I0512 18:43:18.827520 10458 net.cpp:141] Setting up pool6
I0512 18:43:18.827539 10458 net.cpp:148] Top shape: 8 256 1 1 (2048)
I0512 18:43:18.827544 10458 net.cpp:156] Memory required for data: 3136766144
I0512 18:43:18.827548 10458 layer_factory.hpp:77] Creating layer pool6_pool6_0_split
I0512 18:43:18.827556 10458 net.cpp:91] Creating Layer pool6_pool6_0_split
I0512 18:43:18.827560 10458 net.cpp:425] pool6_pool6_0_split <- pool6
I0512 18:43:18.827567 10458 net.cpp:399] pool6_pool6_0_split -> pool6_pool6_0_split_0
I0512 18:43:18.827576 10458 net.cpp:399] pool6_pool6_0_split -> pool6_pool6_0_split_1
I0512 18:43:18.827585 10458 net.cpp:399] pool6_pool6_0_split -> pool6_pool6_0_split_2
I0512 18:43:18.827667 10458 net.cpp:141] Setting up pool6_pool6_0_split
I0512 18:43:18.827677 10458 net.cpp:148] Top shape: 8 256 1 1 (2048)
I0512 18:43:18.827682 10458 net.cpp:148] Top shape: 8 256 1 1 (2048)
I0512 18:43:18.827687 10458 net.cpp:148] Top shape: 8 256 1 1 (2048)
I0512 18:43:18.827692 10458 net.cpp:156] Memory required for data: 3136790720
I0512 18:43:18.827695 10458 layer_factory.hpp:77] Creating layer conv4_3_norm
I0512 18:43:18.827708 10458 net.cpp:91] Creating Layer conv4_3_norm
I0512 18:43:18.827716 10458 net.cpp:425] conv4_3_norm <- conv4_3_relu4_3_0_split_1
I0512 18:43:18.827725 10458 net.cpp:399] conv4_3_norm -> conv4_3_norm
I0512 18:43:18.827940 10458 net.cpp:141] Setting up conv4_3_norm
I0512 18:43:18.827951 10458 net.cpp:148] Top shape: 8 512 38 63 (9805824)
I0512 18:43:18.827955 10458 net.cpp:156] Memory required for data: 3176014016
I0512 18:43:18.827962 10458 layer_factory.hpp:77] Creating layer conv4_3_norm_conv4_3_norm_0_split
I0512 18:43:18.827972 10458 net.cpp:91] Creating Layer conv4_3_norm_conv4_3_norm_0_split
I0512 18:43:18.827977 10458 net.cpp:425] conv4_3_norm_conv4_3_norm_0_split <- conv4_3_norm
I0512 18:43:18.827983 10458 net.cpp:399] conv4_3_norm_conv4_3_norm_0_split -> conv4_3_norm_conv4_3_norm_0_split_0
I0512 18:43:18.827993 10458 net.cpp:399] conv4_3_norm_conv4_3_norm_0_split -> conv4_3_norm_conv4_3_norm_0_split_1
I0512 18:43:18.828001 10458 net.cpp:399] conv4_3_norm_conv4_3_norm_0_split -> conv4_3_norm_conv4_3_norm_0_split_2
I0512 18:43:18.828057 10458 net.cpp:141] Setting up conv4_3_norm_conv4_3_norm_0_split
I0512 18:43:18.828065 10458 net.cpp:148] Top shape: 8 512 38 63 (9805824)
I0512 18:43:18.828070 10458 net.cpp:148] Top shape: 8 512 38 63 (9805824)
I0512 18:43:18.828075 10458 net.cpp:148] Top shape: 8 512 38 63 (9805824)
I0512 18:43:18.828079 10458 net.cpp:156] Memory required for data: 3293683904
I0512 18:43:18.828084 10458 layer_factory.hpp:77] Creating layer conv4_3_norm_mbox_loc
I0512 18:43:18.828096 10458 net.cpp:91] Creating Layer conv4_3_norm_mbox_loc
I0512 18:43:18.828104 10458 net.cpp:425] conv4_3_norm_mbox_loc <- conv4_3_norm_conv4_3_norm_0_split_0
I0512 18:43:18.828114 10458 net.cpp:399] conv4_3_norm_mbox_loc -> conv4_3_norm_mbox_loc
I0512 18:43:18.830492 10458 net.cpp:141] Setting up conv4_3_norm_mbox_loc
I0512 18:43:18.830510 10458 net.cpp:148] Top shape: 8 12 38 63 (229824)
I0512 18:43:18.830518 10458 net.cpp:156] Memory required for data: 3294603200
I0512 18:43:18.830526 10458 layer_factory.hpp:77] Creating layer conv4_3_norm_mbox_loc_perm
I0512 18:43:18.830538 10458 net.cpp:91] Creating Layer conv4_3_norm_mbox_loc_perm
I0512 18:43:18.830543 10458 net.cpp:425] conv4_3_norm_mbox_loc_perm <- conv4_3_norm_mbox_loc
I0512 18:43:18.830550 10458 net.cpp:399] conv4_3_norm_mbox_loc_perm -> conv4_3_norm_mbox_loc_perm
I0512 18:43:18.830685 10458 net.cpp:141] Setting up conv4_3_norm_mbox_loc_perm
I0512 18:43:18.830696 10458 net.cpp:148] Top shape: 8 38 63 12 (229824)
I0512 18:43:18.830700 10458 net.cpp:156] Memory required for data: 3295522496
I0512 18:43:18.830704 10458 layer_factory.hpp:77] Creating layer conv4_3_norm_mbox_loc_flat
I0512 18:43:18.830720 10458 net.cpp:91] Creating Layer conv4_3_norm_mbox_loc_flat
I0512 18:43:18.830727 10458 net.cpp:425] conv4_3_norm_mbox_loc_flat <- conv4_3_norm_mbox_loc_perm
I0512 18:43:18.830736 10458 net.cpp:399] conv4_3_norm_mbox_loc_flat -> conv4_3_norm_mbox_loc_flat
I0512 18:43:18.830772 10458 net.cpp:141] Setting up conv4_3_norm_mbox_loc_flat
I0512 18:43:18.830780 10458 net.cpp:148] Top shape: 8 28728 (229824)
I0512 18:43:18.830783 10458 net.cpp:156] Memory required for data: 3296441792
I0512 18:43:18.830790 10458 layer_factory.hpp:77] Creating layer conv4_3_norm_mbox_conf
I0512 18:43:18.830803 10458 net.cpp:91] Creating Layer conv4_3_norm_mbox_conf
I0512 18:43:18.830811 10458 net.cpp:425] conv4_3_norm_mbox_conf <- conv4_3_norm_conv4_3_norm_0_split_1
I0512 18:43:18.830821 10458 net.cpp:399] conv4_3_norm_mbox_conf -> conv4_3_norm_mbox_conf
I0512 18:43:18.832691 10458 net.cpp:141] Setting up conv4_3_norm_mbox_conf
I0512 18:43:18.832723 10458 net.cpp:148] Top shape: 8 15 38 63 (287280)
I0512 18:43:18.832728 10458 net.cpp:156] Memory required for data: 3297590912
I0512 18:43:18.832737 10458 layer_factory.hpp:77] Creating layer conv4_3_norm_mbox_conf_perm
I0512 18:43:18.832753 10458 net.cpp:91] Creating Layer conv4_3_norm_mbox_conf_perm
I0512 18:43:18.832758 10458 net.cpp:425] conv4_3_norm_mbox_conf_perm <- conv4_3_norm_mbox_conf
I0512 18:43:18.832765 10458 net.cpp:399] conv4_3_norm_mbox_conf_perm -> conv4_3_norm_mbox_conf_perm
I0512 18:43:18.832900 10458 net.cpp:141] Setting up conv4_3_norm_mbox_conf_perm
I0512 18:43:18.832911 10458 net.cpp:148] Top shape: 8 38 63 15 (287280)
I0512 18:43:18.832914 10458 net.cpp:156] Memory required for data: 3298740032
I0512 18:43:18.832918 10458 layer_factory.hpp:77] Creating layer conv4_3_norm_mbox_conf_flat
I0512 18:43:18.832926 10458 net.cpp:91] Creating Layer conv4_3_norm_mbox_conf_flat
I0512 18:43:18.832934 10458 net.cpp:425] conv4_3_norm_mbox_conf_flat <- conv4_3_norm_mbox_conf_perm
I0512 18:43:18.832942 10458 net.cpp:399] conv4_3_norm_mbox_conf_flat -> conv4_3_norm_mbox_conf_flat
I0512 18:43:18.832979 10458 net.cpp:141] Setting up conv4_3_norm_mbox_conf_flat
I0512 18:43:18.832986 10458 net.cpp:148] Top shape: 8 35910 (287280)
I0512 18:43:18.832990 10458 net.cpp:156] Memory required for data: 3299889152
I0512 18:43:18.832994 10458 layer_factory.hpp:77] Creating layer conv4_3_norm_mbox_priorbox
I0512 18:43:18.833024 10458 net.cpp:91] Creating Layer conv4_3_norm_mbox_priorbox
I0512 18:43:18.833029 10458 net.cpp:425] conv4_3_norm_mbox_priorbox <- conv4_3_norm_conv4_3_norm_0_split_2
I0512 18:43:18.833035 10458 net.cpp:425] conv4_3_norm_mbox_priorbox <- data_data_0_split_1
I0512 18:43:18.833045 10458 net.cpp:399] conv4_3_norm_mbox_priorbox -> conv4_3_norm_mbox_priorbox
I0512 18:43:18.833081 10458 net.cpp:141] Setting up conv4_3_norm_mbox_priorbox
I0512 18:43:18.833091 10458 net.cpp:148] Top shape: 1 2 28728 (57456)
I0512 18:43:18.833096 10458 net.cpp:156] Memory required for data: 3300118976
I0512 18:43:18.833101 10458 layer_factory.hpp:77] Creating layer fc7_mbox_loc
I0512 18:43:18.833117 10458 net.cpp:91] Creating Layer fc7_mbox_loc
I0512 18:43:18.833122 10458 net.cpp:425] fc7_mbox_loc <- fc7_relu7_0_split_1
I0512 18:43:18.833130 10458 net.cpp:399] fc7_mbox_loc -> fc7_mbox_loc
I0512 18:43:18.836575 10458 net.cpp:141] Setting up fc7_mbox_loc
I0512 18:43:18.836594 10458 net.cpp:148] Top shape: 8 24 19 32 (116736)
I0512 18:43:18.836599 10458 net.cpp:156] Memory required for data: 3300585920
I0512 18:43:18.836608 10458 layer_factory.hpp:77] Creating layer fc7_mbox_loc_perm
I0512 18:43:18.836619 10458 net.cpp:91] Creating Layer fc7_mbox_loc_perm
I0512 18:43:18.836626 10458 net.cpp:425] fc7_mbox_loc_perm <- fc7_mbox_loc
I0512 18:43:18.836632 10458 net.cpp:399] fc7_mbox_loc_perm -> fc7_mbox_loc_perm
I0512 18:43:18.836771 10458 net.cpp:141] Setting up fc7_mbox_loc_perm
I0512 18:43:18.836782 10458 net.cpp:148] Top shape: 8 19 32 24 (116736)
I0512 18:43:18.836786 10458 net.cpp:156] Memory required for data: 3301052864
I0512 18:43:18.836791 10458 layer_factory.hpp:77] Creating layer fc7_mbox_loc_flat
I0512 18:43:18.836797 10458 net.cpp:91] Creating Layer fc7_mbox_loc_flat
I0512 18:43:18.836802 10458 net.cpp:425] fc7_mbox_loc_flat <- fc7_mbox_loc_perm
I0512 18:43:18.836828 10458 net.cpp:399] fc7_mbox_loc_flat -> fc7_mbox_loc_flat
I0512 18:43:18.836863 10458 net.cpp:141] Setting up fc7_mbox_loc_flat
I0512 18:43:18.836870 10458 net.cpp:148] Top shape: 8 14592 (116736)
I0512 18:43:18.836874 10458 net.cpp:156] Memory required for data: 3301519808
I0512 18:43:18.836879 10458 layer_factory.hpp:77] Creating layer fc7_mbox_conf
I0512 18:43:18.836894 10458 net.cpp:91] Creating Layer fc7_mbox_conf
I0512 18:43:18.836899 10458 net.cpp:425] fc7_mbox_conf <- fc7_relu7_0_split_2
I0512 18:43:18.836907 10458 net.cpp:399] fc7_mbox_conf -> fc7_mbox_conf
I0512 18:43:18.840961 10458 net.cpp:141] Setting up fc7_mbox_conf
I0512 18:43:18.840983 10458 net.cpp:148] Top shape: 8 30 19 32 (145920)
I0512 18:43:18.840988 10458 net.cpp:156] Memory required for data: 3302103488
I0512 18:43:18.841011 10458 layer_factory.hpp:77] Creating layer fc7_mbox_conf_perm
I0512 18:43:18.841020 10458 net.cpp:91] Creating Layer fc7_mbox_conf_perm
I0512 18:43:18.841025 10458 net.cpp:425] fc7_mbox_conf_perm <- fc7_mbox_conf
I0512 18:43:18.841032 10458 net.cpp:399] fc7_mbox_conf_perm -> fc7_mbox_conf_perm
I0512 18:43:18.841167 10458 net.cpp:141] Setting up fc7_mbox_conf_perm
I0512 18:43:18.841178 10458 net.cpp:148] Top shape: 8 19 32 30 (145920)
I0512 18:43:18.841182 10458 net.cpp:156] Memory required for data: 3302687168
I0512 18:43:18.841187 10458 layer_factory.hpp:77] Creating layer fc7_mbox_conf_flat
I0512 18:43:18.841195 10458 net.cpp:91] Creating Layer fc7_mbox_conf_flat
I0512 18:43:18.841200 10458 net.cpp:425] fc7_mbox_conf_flat <- fc7_mbox_conf_perm
I0512 18:43:18.841208 10458 net.cpp:399] fc7_mbox_conf_flat -> fc7_mbox_conf_flat
I0512 18:43:18.841243 10458 net.cpp:141] Setting up fc7_mbox_conf_flat
I0512 18:43:18.841251 10458 net.cpp:148] Top shape: 8 18240 (145920)
I0512 18:43:18.841255 10458 net.cpp:156] Memory required for data: 3303270848
I0512 18:43:18.841259 10458 layer_factory.hpp:77] Creating layer fc7_mbox_priorbox
I0512 18:43:18.841267 10458 net.cpp:91] Creating Layer fc7_mbox_priorbox
I0512 18:43:18.841272 10458 net.cpp:425] fc7_mbox_priorbox <- fc7_relu7_0_split_3
I0512 18:43:18.841279 10458 net.cpp:425] fc7_mbox_priorbox <- data_data_0_split_2
I0512 18:43:18.841287 10458 net.cpp:399] fc7_mbox_priorbox -> fc7_mbox_priorbox
I0512 18:43:18.841321 10458 net.cpp:141] Setting up fc7_mbox_priorbox
I0512 18:43:18.841331 10458 net.cpp:148] Top shape: 1 2 14592 (29184)
I0512 18:43:18.841334 10458 net.cpp:156] Memory required for data: 3303387584
I0512 18:43:18.841339 10458 layer_factory.hpp:77] Creating layer conv6_2_mbox_loc
I0512 18:43:18.841356 10458 net.cpp:91] Creating Layer conv6_2_mbox_loc
I0512 18:43:18.841361 10458 net.cpp:425] conv6_2_mbox_loc <- conv6_2_conv6_2_relu_0_split_1
I0512 18:43:18.841372 10458 net.cpp:399] conv6_2_mbox_loc -> conv6_2_mbox_loc
I0512 18:43:18.843571 10458 net.cpp:141] Setting up conv6_2_mbox_loc
I0512 18:43:18.843590 10458 net.cpp:148] Top shape: 8 24 10 16 (30720)
I0512 18:43:18.843595 10458 net.cpp:156] Memory required for data: 3303510464
I0512 18:43:18.843602 10458 layer_factory.hpp:77] Creating layer conv6_2_mbox_loc_perm
I0512 18:43:18.843614 10458 net.cpp:91] Creating Layer conv6_2_mbox_loc_perm
I0512 18:43:18.843619 10458 net.cpp:425] conv6_2_mbox_loc_perm <- conv6_2_mbox_loc
I0512 18:43:18.843628 10458 net.cpp:399] conv6_2_mbox_loc_perm -> conv6_2_mbox_loc_perm
I0512 18:43:18.843757 10458 net.cpp:141] Setting up conv6_2_mbox_loc_perm
I0512 18:43:18.843771 10458 net.cpp:148] Top shape: 8 10 16 24 (30720)
I0512 18:43:18.843775 10458 net.cpp:156] Memory required for data: 3303633344
I0512 18:43:18.843780 10458 layer_factory.hpp:77] Creating layer conv6_2_mbox_loc_flat
I0512 18:43:18.843788 10458 net.cpp:91] Creating Layer conv6_2_mbox_loc_flat
I0512 18:43:18.843793 10458 net.cpp:425] conv6_2_mbox_loc_flat <- conv6_2_mbox_loc_perm
I0512 18:43:18.843799 10458 net.cpp:399] conv6_2_mbox_loc_flat -> conv6_2_mbox_loc_flat
I0512 18:43:18.843832 10458 net.cpp:141] Setting up conv6_2_mbox_loc_flat
I0512 18:43:18.843842 10458 net.cpp:148] Top shape: 8 3840 (30720)
I0512 18:43:18.843845 10458 net.cpp:156] Memory required for data: 3303756224
I0512 18:43:18.843849 10458 layer_factory.hpp:77] Creating layer conv6_2_mbox_conf
I0512 18:43:18.843865 10458 net.cpp:91] Creating Layer conv6_2_mbox_conf
I0512 18:43:18.843870 10458 net.cpp:425] conv6_2_mbox_conf <- conv6_2_conv6_2_relu_0_split_2
I0512 18:43:18.843880 10458 net.cpp:399] conv6_2_mbox_conf -> conv6_2_mbox_conf
I0512 18:43:18.846830 10458 net.cpp:141] Setting up conv6_2_mbox_conf
I0512 18:43:18.846850 10458 net.cpp:148] Top shape: 8 30 10 16 (38400)
I0512 18:43:18.846855 10458 net.cpp:156] Memory required for data: 3303909824
I0512 18:43:18.846865 10458 layer_factory.hpp:77] Creating layer conv6_2_mbox_conf_perm
I0512 18:43:18.846876 10458 net.cpp:91] Creating Layer conv6_2_mbox_conf_perm
I0512 18:43:18.846894 10458 net.cpp:425] conv6_2_mbox_conf_perm <- conv6_2_mbox_conf
I0512 18:43:18.846904 10458 net.cpp:399] conv6_2_mbox_conf_perm -> conv6_2_mbox_conf_perm
I0512 18:43:18.847039 10458 net.cpp:141] Setting up conv6_2_mbox_conf_perm
I0512 18:43:18.847050 10458 net.cpp:148] Top shape: 8 10 16 30 (38400)
I0512 18:43:18.847054 10458 net.cpp:156] Memory required for data: 3304063424
I0512 18:43:18.847059 10458 layer_factory.hpp:77] Creating layer conv6_2_mbox_conf_flat
I0512 18:43:18.847069 10458 net.cpp:91] Creating Layer conv6_2_mbox_conf_flat
I0512 18:43:18.847074 10458 net.cpp:425] conv6_2_mbox_conf_flat <- conv6_2_mbox_conf_perm
I0512 18:43:18.847082 10458 net.cpp:399] conv6_2_mbox_conf_flat -> conv6_2_mbox_conf_flat
I0512 18:43:18.847113 10458 net.cpp:141] Setting up conv6_2_mbox_conf_flat
I0512 18:43:18.847126 10458 net.cpp:148] Top shape: 8 4800 (38400)
I0512 18:43:18.847129 10458 net.cpp:156] Memory required for data: 3304217024
I0512 18:43:18.847133 10458 layer_factory.hpp:77] Creating layer conv6_2_mbox_priorbox
I0512 18:43:18.847141 10458 net.cpp:91] Creating Layer conv6_2_mbox_priorbox
I0512 18:43:18.847146 10458 net.cpp:425] conv6_2_mbox_priorbox <- conv6_2_conv6_2_relu_0_split_3
I0512 18:43:18.847151 10458 net.cpp:425] conv6_2_mbox_priorbox <- data_data_0_split_3
I0512 18:43:18.847158 10458 net.cpp:399] conv6_2_mbox_priorbox -> conv6_2_mbox_priorbox
I0512 18:43:18.847195 10458 net.cpp:141] Setting up conv6_2_mbox_priorbox
I0512 18:43:18.847204 10458 net.cpp:148] Top shape: 1 2 3840 (7680)
I0512 18:43:18.847208 10458 net.cpp:156] Memory required for data: 3304247744
I0512 18:43:18.847213 10458 layer_factory.hpp:77] Creating layer conv7_2_mbox_loc
I0512 18:43:18.847229 10458 net.cpp:91] Creating Layer conv7_2_mbox_loc
I0512 18:43:18.847234 10458 net.cpp:425] conv7_2_mbox_loc <- conv7_2_conv7_2_relu_0_split_1
I0512 18:43:18.847245 10458 net.cpp:399] conv7_2_mbox_loc -> conv7_2_mbox_loc
I0512 18:43:18.848947 10458 net.cpp:141] Setting up conv7_2_mbox_loc
I0512 18:43:18.848964 10458 net.cpp:148] Top shape: 8 24 5 8 (7680)
I0512 18:43:18.848969 10458 net.cpp:156] Memory required for data: 3304278464
I0512 18:43:18.848978 10458 layer_factory.hpp:77] Creating layer conv7_2_mbox_loc_perm
I0512 18:43:18.848992 10458 net.cpp:91] Creating Layer conv7_2_mbox_loc_perm
I0512 18:43:18.848997 10458 net.cpp:425] conv7_2_mbox_loc_perm <- conv7_2_mbox_loc
I0512 18:43:18.849004 10458 net.cpp:399] conv7_2_mbox_loc_perm -> conv7_2_mbox_loc_perm
I0512 18:43:18.849141 10458 net.cpp:141] Setting up conv7_2_mbox_loc_perm
I0512 18:43:18.849153 10458 net.cpp:148] Top shape: 8 5 8 24 (7680)
I0512 18:43:18.849156 10458 net.cpp:156] Memory required for data: 3304309184
I0512 18:43:18.849161 10458 layer_factory.hpp:77] Creating layer conv7_2_mbox_loc_flat
I0512 18:43:18.849169 10458 net.cpp:91] Creating Layer conv7_2_mbox_loc_flat
I0512 18:43:18.849172 10458 net.cpp:425] conv7_2_mbox_loc_flat <- conv7_2_mbox_loc_perm
I0512 18:43:18.849182 10458 net.cpp:399] conv7_2_mbox_loc_flat -> conv7_2_mbox_loc_flat
I0512 18:43:18.849213 10458 net.cpp:141] Setting up conv7_2_mbox_loc_flat
I0512 18:43:18.849222 10458 net.cpp:148] Top shape: 8 960 (7680)
I0512 18:43:18.849226 10458 net.cpp:156] Memory required for data: 3304339904
I0512 18:43:18.849231 10458 layer_factory.hpp:77] Creating layer conv7_2_mbox_conf
I0512 18:43:18.849248 10458 net.cpp:91] Creating Layer conv7_2_mbox_conf
I0512 18:43:18.849253 10458 net.cpp:425] conv7_2_mbox_conf <- conv7_2_conv7_2_relu_0_split_2
I0512 18:43:18.849261 10458 net.cpp:399] conv7_2_mbox_conf -> conv7_2_mbox_conf
I0512 18:43:18.850914 10458 net.cpp:141] Setting up conv7_2_mbox_conf
I0512 18:43:18.850931 10458 net.cpp:148] Top shape: 8 30 5 8 (9600)
I0512 18:43:18.850936 10458 net.cpp:156] Memory required for data: 3304378304
I0512 18:43:18.850946 10458 layer_factory.hpp:77] Creating layer conv7_2_mbox_conf_perm
I0512 18:43:18.850958 10458 net.cpp:91] Creating Layer conv7_2_mbox_conf_perm
I0512 18:43:18.850965 10458 net.cpp:425] conv7_2_mbox_conf_perm <- conv7_2_mbox_conf
I0512 18:43:18.850973 10458 net.cpp:399] conv7_2_mbox_conf_perm -> conv7_2_mbox_conf_perm
I0512 18:43:18.851125 10458 net.cpp:141] Setting up conv7_2_mbox_conf_perm
I0512 18:43:18.851136 10458 net.cpp:148] Top shape: 8 5 8 30 (9600)
I0512 18:43:18.851140 10458 net.cpp:156] Memory required for data: 3304416704
I0512 18:43:18.851145 10458 layer_factory.hpp:77] Creating layer conv7_2_mbox_conf_flat
I0512 18:43:18.851155 10458 net.cpp:91] Creating Layer conv7_2_mbox_conf_flat
I0512 18:43:18.851160 10458 net.cpp:425] conv7_2_mbox_conf_flat <- conv7_2_mbox_conf_perm
I0512 18:43:18.851166 10458 net.cpp:399] conv7_2_mbox_conf_flat -> conv7_2_mbox_conf_flat
I0512 18:43:18.851202 10458 net.cpp:141] Setting up conv7_2_mbox_conf_flat
I0512 18:43:18.851217 10458 net.cpp:148] Top shape: 8 1200 (9600)
I0512 18:43:18.851222 10458 net.cpp:156] Memory required for data: 3304455104
I0512 18:43:18.851225 10458 layer_factory.hpp:77] Creating layer conv7_2_mbox_priorbox
I0512 18:43:18.851233 10458 net.cpp:91] Creating Layer conv7_2_mbox_priorbox
I0512 18:43:18.851241 10458 net.cpp:425] conv7_2_mbox_priorbox <- conv7_2_conv7_2_relu_0_split_3
I0512 18:43:18.851248 10458 net.cpp:425] conv7_2_mbox_priorbox <- data_data_0_split_4
I0512 18:43:18.851253 10458 net.cpp:399] conv7_2_mbox_priorbox -> conv7_2_mbox_priorbox
I0512 18:43:18.851286 10458 net.cpp:141] Setting up conv7_2_mbox_priorbox
I0512 18:43:18.851294 10458 net.cpp:148] Top shape: 1 2 960 (1920)
I0512 18:43:18.851297 10458 net.cpp:156] Memory required for data: 3304462784
I0512 18:43:18.851301 10458 layer_factory.hpp:77] Creating layer conv8_2_mbox_loc
I0512 18:43:18.851320 10458 net.cpp:91] Creating Layer conv8_2_mbox_loc
I0512 18:43:18.851325 10458 net.cpp:425] conv8_2_mbox_loc <- conv8_2_conv8_2_relu_0_split_1
I0512 18:43:18.851333 10458 net.cpp:399] conv8_2_mbox_loc -> conv8_2_mbox_loc
I0512 18:43:18.853142 10458 net.cpp:141] Setting up conv8_2_mbox_loc
I0512 18:43:18.853162 10458 net.cpp:148] Top shape: 8 24 3 4 (2304)
I0512 18:43:18.853166 10458 net.cpp:156] Memory required for data: 3304472000
I0512 18:43:18.853176 10458 layer_factory.hpp:77] Creating layer conv8_2_mbox_loc_perm
I0512 18:43:18.853188 10458 net.cpp:91] Creating Layer conv8_2_mbox_loc_perm
I0512 18:43:18.853193 10458 net.cpp:425] conv8_2_mbox_loc_perm <- conv8_2_mbox_loc
I0512 18:43:18.853200 10458 net.cpp:399] conv8_2_mbox_loc_perm -> conv8_2_mbox_loc_perm
I0512 18:43:18.853340 10458 net.cpp:141] Setting up conv8_2_mbox_loc_perm
I0512 18:43:18.853350 10458 net.cpp:148] Top shape: 8 3 4 24 (2304)
I0512 18:43:18.853354 10458 net.cpp:156] Memory required for data: 3304481216
I0512 18:43:18.853358 10458 layer_factory.hpp:77] Creating layer conv8_2_mbox_loc_flat
I0512 18:43:18.853369 10458 net.cpp:91] Creating Layer conv8_2_mbox_loc_flat
I0512 18:43:18.853374 10458 net.cpp:425] conv8_2_mbox_loc_flat <- conv8_2_mbox_loc_perm
I0512 18:43:18.853380 10458 net.cpp:399] conv8_2_mbox_loc_flat -> conv8_2_mbox_loc_flat
I0512 18:43:18.853418 10458 net.cpp:141] Setting up conv8_2_mbox_loc_flat
I0512 18:43:18.853428 10458 net.cpp:148] Top shape: 8 288 (2304)
I0512 18:43:18.853432 10458 net.cpp:156] Memory required for data: 3304490432
I0512 18:43:18.853436 10458 layer_factory.hpp:77] Creating layer conv8_2_mbox_conf
I0512 18:43:18.853451 10458 net.cpp:91] Creating Layer conv8_2_mbox_conf
I0512 18:43:18.853456 10458 net.cpp:425] conv8_2_mbox_conf <- conv8_2_conv8_2_relu_0_split_2
I0512 18:43:18.853466 10458 net.cpp:399] conv8_2_mbox_conf -> conv8_2_mbox_conf
I0512 18:43:18.856214 10458 net.cpp:141] Setting up conv8_2_mbox_conf
I0512 18:43:18.856232 10458 net.cpp:148] Top shape: 8 30 3 4 (2880)
I0512 18:43:18.856237 10458 net.cpp:156] Memory required for data: 3304501952
I0512 18:43:18.856246 10458 layer_factory.hpp:77] Creating layer conv8_2_mbox_conf_perm
I0512 18:43:18.856256 10458 net.cpp:91] Creating Layer conv8_2_mbox_conf_perm
I0512 18:43:18.856261 10458 net.cpp:425] conv8_2_mbox_conf_perm <- conv8_2_mbox_conf
I0512 18:43:18.856272 10458 net.cpp:399] conv8_2_mbox_conf_perm -> conv8_2_mbox_conf_perm
I0512 18:43:18.856413 10458 net.cpp:141] Setting up conv8_2_mbox_conf_perm
I0512 18:43:18.856438 10458 net.cpp:148] Top shape: 8 3 4 30 (2880)
I0512 18:43:18.856443 10458 net.cpp:156] Memory required for data: 3304513472
I0512 18:43:18.856448 10458 layer_factory.hpp:77] Creating layer conv8_2_mbox_conf_flat
I0512 18:43:18.856458 10458 net.cpp:91] Creating Layer conv8_2_mbox_conf_flat
I0512 18:43:18.856463 10458 net.cpp:425] conv8_2_mbox_conf_flat <- conv8_2_mbox_conf_perm
I0512 18:43:18.856473 10458 net.cpp:399] conv8_2_mbox_conf_flat -> conv8_2_mbox_conf_flat
I0512 18:43:18.856508 10458 net.cpp:141] Setting up conv8_2_mbox_conf_flat
I0512 18:43:18.856515 10458 net.cpp:148] Top shape: 8 360 (2880)
I0512 18:43:18.856518 10458 net.cpp:156] Memory required for data: 3304524992
I0512 18:43:18.856523 10458 layer_factory.hpp:77] Creating layer conv8_2_mbox_priorbox
I0512 18:43:18.856536 10458 net.cpp:91] Creating Layer conv8_2_mbox_priorbox
I0512 18:43:18.856541 10458 net.cpp:425] conv8_2_mbox_priorbox <- conv8_2_conv8_2_relu_0_split_3
I0512 18:43:18.856547 10458 net.cpp:425] conv8_2_mbox_priorbox <- data_data_0_split_5
I0512 18:43:18.856554 10458 net.cpp:399] conv8_2_mbox_priorbox -> conv8_2_mbox_priorbox
I0512 18:43:18.856590 10458 net.cpp:141] Setting up conv8_2_mbox_priorbox
I0512 18:43:18.856601 10458 net.cpp:148] Top shape: 1 2 288 (576)
I0512 18:43:18.856606 10458 net.cpp:156] Memory required for data: 3304527296
I0512 18:43:18.856609 10458 layer_factory.hpp:77] Creating layer pool6_mbox_loc
I0512 18:43:18.856623 10458 net.cpp:91] Creating Layer pool6_mbox_loc
I0512 18:43:18.856628 10458 net.cpp:425] pool6_mbox_loc <- pool6_pool6_0_split_0
I0512 18:43:18.856638 10458 net.cpp:399] pool6_mbox_loc -> pool6_mbox_loc
I0512 18:43:18.858364 10458 net.cpp:141] Setting up pool6_mbox_loc
I0512 18:43:18.858384 10458 net.cpp:148] Top shape: 8 24 1 1 (192)
I0512 18:43:18.858388 10458 net.cpp:156] Memory required for data: 3304528064
I0512 18:43:18.858414 10458 layer_factory.hpp:77] Creating layer pool6_mbox_loc_perm
I0512 18:43:18.858428 10458 net.cpp:91] Creating Layer pool6_mbox_loc_perm
I0512 18:43:18.858433 10458 net.cpp:425] pool6_mbox_loc_perm <- pool6_mbox_loc
I0512 18:43:18.858440 10458 net.cpp:399] pool6_mbox_loc_perm -> pool6_mbox_loc_perm
I0512 18:43:18.858584 10458 net.cpp:141] Setting up pool6_mbox_loc_perm
I0512 18:43:18.858597 10458 net.cpp:148] Top shape: 8 1 1 24 (192)
I0512 18:43:18.858602 10458 net.cpp:156] Memory required for data: 3304528832
I0512 18:43:18.858606 10458 layer_factory.hpp:77] Creating layer pool6_mbox_loc_flat
I0512 18:43:18.858613 10458 net.cpp:91] Creating Layer pool6_mbox_loc_flat
I0512 18:43:18.858618 10458 net.cpp:425] pool6_mbox_loc_flat <- pool6_mbox_loc_perm
I0512 18:43:18.858625 10458 net.cpp:399] pool6_mbox_loc_flat -> pool6_mbox_loc_flat
I0512 18:43:18.858662 10458 net.cpp:141] Setting up pool6_mbox_loc_flat
I0512 18:43:18.858669 10458 net.cpp:148] Top shape: 8 24 (192)
I0512 18:43:18.858674 10458 net.cpp:156] Memory required for data: 3304529600
I0512 18:43:18.858680 10458 layer_factory.hpp:77] Creating layer pool6_mbox_conf
I0512 18:43:18.858693 10458 net.cpp:91] Creating Layer pool6_mbox_conf
I0512 18:43:18.858698 10458 net.cpp:425] pool6_mbox_conf <- pool6_pool6_0_split_1
I0512 18:43:18.858708 10458 net.cpp:399] pool6_mbox_conf -> pool6_mbox_conf
I0512 18:43:18.860528 10458 net.cpp:141] Setting up pool6_mbox_conf
I0512 18:43:18.860548 10458 net.cpp:148] Top shape: 8 30 1 1 (240)
I0512 18:43:18.860553 10458 net.cpp:156] Memory required for data: 3304530560
I0512 18:43:18.860560 10458 layer_factory.hpp:77] Creating layer pool6_mbox_conf_perm
I0512 18:43:18.860570 10458 net.cpp:91] Creating Layer pool6_mbox_conf_perm
I0512 18:43:18.860575 10458 net.cpp:425] pool6_mbox_conf_perm <- pool6_mbox_conf
I0512 18:43:18.860585 10458 net.cpp:399] pool6_mbox_conf_perm -> pool6_mbox_conf_perm
I0512 18:43:18.860736 10458 net.cpp:141] Setting up pool6_mbox_conf_perm
I0512 18:43:18.860748 10458 net.cpp:148] Top shape: 8 1 1 30 (240)
I0512 18:43:18.860752 10458 net.cpp:156] Memory required for data: 3304531520
I0512 18:43:18.860757 10458 layer_factory.hpp:77] Creating layer pool6_mbox_conf_flat
I0512 18:43:18.860779 10458 net.cpp:91] Creating Layer pool6_mbox_conf_flat
I0512 18:43:18.860783 10458 net.cpp:425] pool6_mbox_conf_flat <- pool6_mbox_conf_perm
I0512 18:43:18.860792 10458 net.cpp:399] pool6_mbox_conf_flat -> pool6_mbox_conf_flat
I0512 18:43:18.860828 10458 net.cpp:141] Setting up pool6_mbox_conf_flat
I0512 18:43:18.860838 10458 net.cpp:148] Top shape: 8 30 (240)
I0512 18:43:18.860842 10458 net.cpp:156] Memory required for data: 3304532480
I0512 18:43:18.860846 10458 layer_factory.hpp:77] Creating layer pool6_mbox_priorbox
I0512 18:43:18.860858 10458 net.cpp:91] Creating Layer pool6_mbox_priorbox
I0512 18:43:18.860862 10458 net.cpp:425] pool6_mbox_priorbox <- pool6_pool6_0_split_2
I0512 18:43:18.860868 10458 net.cpp:425] pool6_mbox_priorbox <- data_data_0_split_6
I0512 18:43:18.860875 10458 net.cpp:399] pool6_mbox_priorbox -> pool6_mbox_priorbox
I0512 18:43:18.860911 10458 net.cpp:141] Setting up pool6_mbox_priorbox
I0512 18:43:18.860920 10458 net.cpp:148] Top shape: 1 2 24 (48)
I0512 18:43:18.860924 10458 net.cpp:156] Memory required for data: 3304532672
I0512 18:43:18.860929 10458 layer_factory.hpp:77] Creating layer mbox_loc
I0512 18:43:18.860946 10458 net.cpp:91] Creating Layer mbox_loc
I0512 18:43:18.860951 10458 net.cpp:425] mbox_loc <- conv4_3_norm_mbox_loc_flat
I0512 18:43:18.860960 10458 net.cpp:425] mbox_loc <- fc7_mbox_loc_flat
I0512 18:43:18.860967 10458 net.cpp:425] mbox_loc <- conv6_2_mbox_loc_flat
I0512 18:43:18.860973 10458 net.cpp:425] mbox_loc <- conv7_2_mbox_loc_flat
I0512 18:43:18.860978 10458 net.cpp:425] mbox_loc <- conv8_2_mbox_loc_flat
I0512 18:43:18.860983 10458 net.cpp:425] mbox_loc <- pool6_mbox_loc_flat
I0512 18:43:18.860990 10458 net.cpp:399] mbox_loc -> mbox_loc
I0512 18:43:18.861030 10458 net.cpp:141] Setting up mbox_loc
I0512 18:43:18.861038 10458 net.cpp:148] Top shape: 8 48432 (387456)
I0512 18:43:18.861042 10458 net.cpp:156] Memory required for data: 3306082496
I0512 18:43:18.861047 10458 layer_factory.hpp:77] Creating layer mbox_conf
I0512 18:43:18.861053 10458 net.cpp:91] Creating Layer mbox_conf
I0512 18:43:18.861058 10458 net.cpp:425] mbox_conf <- conv4_3_norm_mbox_conf_flat
I0512 18:43:18.861063 10458 net.cpp:425] mbox_conf <- fc7_mbox_conf_flat
I0512 18:43:18.861069 10458 net.cpp:425] mbox_conf <- conv6_2_mbox_conf_flat
I0512 18:43:18.861074 10458 net.cpp:425] mbox_conf <- conv7_2_mbox_conf_flat
I0512 18:43:18.861079 10458 net.cpp:425] mbox_conf <- conv8_2_mbox_conf_flat
I0512 18:43:18.861084 10458 net.cpp:425] mbox_conf <- pool6_mbox_conf_flat
I0512 18:43:18.861093 10458 net.cpp:399] mbox_conf -> mbox_conf
I0512 18:43:18.861125 10458 net.cpp:141] Setting up mbox_conf
I0512 18:43:18.861132 10458 net.cpp:148] Top shape: 8 60540 (484320)
I0512 18:43:18.861136 10458 net.cpp:156] Memory required for data: 3308019776
I0512 18:43:18.861140 10458 layer_factory.hpp:77] Creating layer mbox_priorbox
I0512 18:43:18.861147 10458 net.cpp:91] Creating Layer mbox_priorbox
I0512 18:43:18.861151 10458 net.cpp:425] mbox_priorbox <- conv4_3_norm_mbox_priorbox
I0512 18:43:18.861157 10458 net.cpp:425] mbox_priorbox <- fc7_mbox_priorbox
I0512 18:43:18.861162 10458 net.cpp:425] mbox_priorbox <- conv6_2_mbox_priorbox
I0512 18:43:18.861167 10458 net.cpp:425] mbox_priorbox <- conv7_2_mbox_priorbox
I0512 18:43:18.861172 10458 net.cpp:425] mbox_priorbox <- conv8_2_mbox_priorbox
I0512 18:43:18.861176 10458 net.cpp:425] mbox_priorbox <- pool6_mbox_priorbox
I0512 18:43:18.861182 10458 net.cpp:399] mbox_priorbox -> mbox_priorbox
I0512 18:43:18.861214 10458 net.cpp:141] Setting up mbox_priorbox
I0512 18:43:18.861222 10458 net.cpp:148] Top shape: 1 2 48432 (96864)
I0512 18:43:18.861225 10458 net.cpp:156] Memory required for data: 3308407232
I0512 18:43:18.861229 10458 layer_factory.hpp:77] Creating layer mbox_loss
I0512 18:43:18.861240 10458 net.cpp:91] Creating Layer mbox_loss
I0512 18:43:18.861245 10458 net.cpp:425] mbox_loss <- mbox_loc
I0512 18:43:18.861250 10458 net.cpp:425] mbox_loss <- mbox_conf
I0512 18:43:18.861255 10458 net.cpp:425] mbox_loss <- mbox_priorbox
…
  name: "data"
  type: "AnnotatedData"
  top: "data"
  top: "label"
  include {
    phase: TEST
  }
  transform_param {
    mean_value: 104
    mean_value: 117
    mean_value: 123
    resize_param {
      prob: 1
      resize_mode: WARP
      height: 300
      width: 500
      interp_mode: LINEAR
    }
  }
  data_param {
    source: "examples/deepv_car_person/deepv_car_person_test_lmdb"
    batch_size: 1
    backend: LMDB
  }
  annotated_data_param {
    batch_sampler {
    }
    label_map_file: "data/deepv_car_person/labelmap_voc.prototxt"
  }
}
layer {
  name: "conv1_1"
  type: "Convolution"
  bottom: "data"
  top: "conv1_1"
  param {
    lr_mult: 0
    decay_mult: 0
  }
  param {
    lr_mult: 0
    decay_mult: 0
  }
  convolution_param {
    num_output: 64
    pad: 1
    kernel_size: 3
    weight_filler {
      type: "xavier"
    }
    bias_filler {
      type: "constant"
      value: 0
    }
  }
}
layer {
  name: "relu1_1"
  type: "ReLU"
  bottom: "conv1_1"
  top: "conv1_1"
}
layer {
  name: "conv1_2"
  type: "Convolution"
  bottom: "conv1_1"
  top: "conv1_2"
  param {
    lr_mult: 0
    decay_mult: 0
  }
  param {
    lr_mult: 0
    decay_mult: 0
  }
  convolution_param {
    num_output: 64
    pad: 1
    kernel_size: 3
    weight_filler {
      type: "xavier"
    }
    bias_filler {
      type: "constant"
      value: 0
    }
  }
}
layer {
  name: "relu1_2"
  type: "ReLU"
  bottom: "conv1_2"
  top: "conv1_2"
}
layer {
  name: "pool1"
  type: "Pooling"
  bottom: "conv1_2"
  top: "pool1"
  pooling_param {
    pool: MAX
    kernel_size: 2
    stride: 2
  }
}
layer {
  name: "conv2_1"
  type: "Convolution"
  bottom: "pool1"
  top: "conv2_1"
  param {
    lr_mult: 0
    decay_mult: 0
  }
  param {
    lr_mult: 0
    decay_mult: 0
  }
  convolution_param {
    num_output: 128
    pad: 1
    kernel_size: 3
    weight_filler {
      type: "xavier"
    }
    bias_filler {
      type: "constant"
      value: 0
    }
  }
}
layer {
  name: "relu2_1"
  type: "ReLU"
  bottom: "conv2_1"
  top: "conv2_1"
}
layer {
  name: "conv2_2"
  type: "Convolution"
  bottom: "conv2_1"
  top: "conv2_2"
  param {
    lr_mult: 0
    decay_mult: 0
  }
  param {
    lr_mult: 0
    decay_mult: 0
  }
  convolution_param {
    num_output: 128
    pad: 1
    kernel_size: 3
    weight_filler {
      type: "xavier"
    }
    bias_filler {
      type: "constant"
      value: 0
    }
  }
}
layer {
  name: "relu2_2"
  type: "ReLU"
  bottom: "conv2_2"
  top: "conv2_2"
}
layer {
  name: "pool2"
  type: "Pooling"
  bottom: "conv2_2"
  top: "pool2"
  pooling_param {
    pool: MAX
    kernel_size: 2
    stride: 2
  }
}
layer {
  name: "conv3_1"
  type: "Convolution"
  bottom: "pool2"
  top: "conv3_1"
  param {
    lr_mult: 1
    decay_mult: 1
  }
  param {
    lr_mult: 2
    decay_mult: 0
  }
  convolution_param {
    num_output: 256
    pad: 1
    kernel_size: 3
    weight_filler {
      type: "xavier"
    }
    bias_filler {
      type: "constant"
      value: 0
    }
  }
}
layer {
  name: "relu3_1"
  type: "ReLU"
  bottom: "conv3_1"
  top: "conv3_1"
}
layer {
  name: "conv3_2"
  type: "Convolution"
  bottom: "conv3_1"
  top: "conv3_2"
  param {
    lr_mult: 1
    decay_mult: 1
  }
  param {
    lr_mult: 2
    decay_mult: 0
  }
  convolution_param {
    num_output: 256
    pad: 1
    kernel_size: 3
    weight_filler {
      type: "xavier"
    }
    bias_filler {
      type: "constant"
      value: 0
    }
  }
}
layer {
  name: "relu3_2"
  type: "ReLU"
  bottom: "conv3_2"
  top: "conv3_2"
}
layer {
  name: "conv3_3"
  type: "Convolution"
  bottom: "conv3_2"
  top: "conv3_3"
  param {
    lr_mult: 1
    decay_mult: 1
  }
  param {
    lr_mult: 2
    decay_mult: 0
  }
  convolution_param {
    num_output: 256
    pad: 1
    kernel_size: 3
    weight_filler {
      type: "xavier"
    }
    bias_filler {
      type: "constant"
      value: 0
    }
  }
}
layer {
  name: "relu3_3"
  type: "ReLU"
  bottom: "conv3_3"
  top: "conv3_3"
}
layer {
  name: "pool3"
  type: "Pooling"
  bottom: "conv3_3"
  top: "pool3"
  pooling_param {
    pool: MAX
    kernel_size: 2
    stride: 2
  }
}
layer {
  name: "conv4_1"
  type: "Convolution"
  bottom: "pool3"
  top: "conv4_1"
  param {
    lr_mult: 1
    decay_mult: 1
  }
  param {
    lr_mult: 2
    decay_mult: 0
  }
  convolution_param {
    num_output: 512
    pad: 1
    kernel_size: 3
    weight_filler {
      type: "xavier"
    }
    bias_filler {
      type: "constant"
      value: 0
    }
  }
}
layer {
  name: "relu4_1"
  type: "ReLU"
  bottom: "conv4_1"
  top: "conv4_1"
}
layer {
  name: "conv4_2"
  type: "Convolution"
  bottom: "conv4_1"
  top: "conv4_2"
  param {
    lr_mult: 1
    decay_mult: 1
  }
  param {
    lr_mult: 2
    decay_mult: 0
  }
  convolution_param {
    num_output: 512
    pad: 1
    kernel_size: 3
    weight_filler {
      type: "xavier"
    }
    bias_filler {
      type: "constant"
      value: 0
    }
  }
}
layer {
  name: "relu4_2"
  type: "ReLU"
  bottom: "conv4_2"
  top: "conv4_2"
}
layer {
  name: "conv4_3"
  type: "Convolution"
  bottom: "conv4_2"
  top: "conv4_3"
  param {
    lr_mult: 1
    decay_mult: 1
  }
  param {
    lr_mult: 2
    decay_mult: 0
  }
  convolution_param {
    num_output: 512
    pad: 1
    kernel_size: 3
    weight_filler {
      type: "xavier"
    }
    bias_filler {
      type: "constant"
      value: 0
    }
  }
}
layer {
  name: "relu4_3"
  type: "ReLU"
  bottom: "conv4_3"
  top: "conv4_3"
}
layer {
  name: "pool4"
  type: "Pooling"
  bottom: "conv4_3"
  top: "pool4"
  pooling_param {
    pool: MAX
    kernel_size: 2
    stride: 2
  }
}
layer {
  name: "conv5_1"
  type: "Convolution"
  bottom: "pool4"
  top: "conv5_1"
  param {
    lr_mult: 1
    decay_mult: 1
  }
  param {
    lr_mult: 2
    decay_mult: 0
  }
  convolution_param {
    num_output: 512
    pad: 1
    kernel_size: 3
    weight_filler {
      type: "xavier"
    }
    bias_filler {
      type: "constant"
      value: 0
    }
  }
}
layer {
  name: "relu5_1"
  type: "ReLU"
  bottom: "conv5_1"
  top: "conv5_1"
}
layer {
  name: "conv5_2"
  type: "Convolution"
  bottom: "conv5_1"
  top: "conv5_2"
  param {
    lr_mult: 1
    decay_mult: 1
  }
  param {
    lr_mult: 2
    decay_mult: 0
  }
  convolution_param {
    num_output: 512
    pad: 1
    kernel_size: 3
    weight_filler {
      type: "xavier"
    }
    bias_filler {
      type: "constant"
      value: 0
    }
  }
}
layer {
  name: "relu5_2"
  type: "ReLU"
  bottom: "conv5_2"
  top: "conv5_2"
}
layer {
  name: "conv5_3"
  type: "Convolution"
  bottom: "conv5_2"
  top: "conv5_3"
  param {
    lr_mult: 1
    decay_mult: 1
  }
  param {
    lr_mult: 2
    decay_mult: 0
  }
  convolution_param {
    num_output: 512
    pad: 1
    kernel_size: 3
    weight_filler {
      type: "xavier"
    }
    bias_filler {
      type: "constant"
      value: 0
    }
  }
}
layer {
  name: "relu5_3"
  type: "ReLU"
  bottom: "conv5_3"
  top: "conv5_3"
}
layer {
  name: "pool5"
  type: "Pooling"
  bottom: "conv5_3"
  top: "pool5"
  pooling_param {
    pool: MAX
    kernel_size: 3
    stride: 1
    pad: 1
  }
}
layer {
  name: "fc6"
  type: "Convolution"
  bottom: "pool5"
  top: "fc6"
  param {
    lr_mult: 1
    decay_mult: 1
  }
  param {
    lr_mult: 2
    decay_mult: 0
  }
  convolution_param {
    num_output: 1024
    pad: 6
    kernel_size: 3
    weight_filler {
      type: "xavier"
    }
    bias_filler {
      type: "constant"
      value: 0
    }
    dilation: 6
  }
}
layer {
  name: "relu6"
  type: "ReLU"
  bottom: "fc6"
  top: "fc6"
}
layer {
  name: "fc7"
  type: "Convolution"
  bottom: "fc6"
  top: "fc7"
  param {
    lr_mult: 1
    decay_mult: 1
  }
  param {
    lr_mult: 2
    decay_mult: 0
  }
  convolution_param {
    num_output: 1024
    kernel_size: 1
    weight_filler {
      type: "xavier"
    }
    bias_filler {
      type: "constant"
      value: 0
    }
  }
}
layer {
  name: "relu7"
  type: "ReLU"
  bottom: "fc7"
  top: "fc7"
}
layer {
  name: "conv6_1"
  type: "Convolution"
  bottom: "fc7"
  top: "conv6_1"
  param {
    lr_mult: 1
    decay_mult: 1
  }
  param {
    lr_mult: 2
    decay_mult: 0
  }
  convolution_param {
    num_output: 256
    pad: 0
    kernel_size: 1
    stride: 1
    weight_filler {
      type: "xavier"
    }
    bias_filler {
      type: "constant"
      value: 0
    }
  }
}
layer {
  name: "conv6_1_relu"
  type: "ReLU"
  bottom: "conv6_1"
  top: "conv6_1"
}
layer {
  name: "conv6_2"
  type: "Convolution"
  bottom: "conv6_1"
  top: "conv6_2"
  param {
    lr_mult: 1
    decay_mult: 1
  }
  param {
    lr_mult: 2
    decay_mult: 0
  }
  convolution_param {
    num_output: 512
    pad: 1
    kernel_size: 3
    stride: 2
    weight_filler {
      type: "xavier"
    }
    bias_filler {
      type: "constant"
      value: 0
    }
  }
}
layer {
  name: "conv6_2_relu"
  type: "ReLU"
  bottom: "conv6_2"
  top: "conv6_2"
}
layer {
  name: "conv7_1"
  type: "Convolution"
  bottom: "conv6_2"
  top: "conv7_1"
  param {
    lr_mult: 1
    decay_mult: 1
  }
  param {
    lr_mult: 2
    decay_mult: 0
  }
  convolution_param {
    num_output: 128
    pad: 0
    kernel_size: 1
    stride: 1
    weight_filler {
      type: "xavier"
    }
    bias_filler {
      type: "constant"
      value: 0
    }
  }
}
layer {
  name: "conv7_1_relu"
  type: "ReLU"
  bottom: "conv7_1"
  top: "conv7_1"
}
layer {
  name: "conv7_2"
  type: "Convolution"
  bottom: "conv7_1"
  top: "conv7_2"
  param {
    lr_mult: 1
    decay_mult: 1
  }
  param {
    lr_mult: 2
    decay_mult: 0
  }
  convolution_param {
    num_output: 256
    pad: 1
    kernel_size: 3
    stride: 2
    weight_filler {
      type: "xavier"
    }
    bias_filler {
      type: "constant"
      value: 0
    }
  }
}
layer {
  name: "conv7_2_relu"
  type: "ReLU"
  bottom: "conv7_2"
  top: "conv7_2"
}
layer {
  name: "conv8_1"
  type: "Convolution"
  bottom: "conv7_2"
  top: "conv8_1"
  param {
    lr_mult: 1
    decay_mult: 1
  }
  param {
    lr_mult: 2
    decay_mult: 0
  }
  convolution_param {
    num_output: 128
    pad: 0
    kernel_size: 1
    stride: 1
    weight_filler {
      type: "xavier"
    }
    bias_filler {
      type: "constant"
      value: 0
    }
  }
}
layer {
  name: "conv8_1_relu"
  type: "ReLU"
  bottom: "conv8_1"
  top: "conv8_1"
}
layer {
  name: "conv8_2"
  type: "Convolution"
  bottom: "conv8_1"
  top: "conv8_2"
  param {
    lr_mult: 1
    decay_mult: 1
  }
  param {
    lr_mult: 2
    decay_mult: 0
  }
  convolution_param {
    num_output: 256
    pad: 1
    kernel_size: 3
    stride: 2
    weight_filler {
      type: "xavier"
    }
    bias_filler {
      type: "constant"
      value: 0
    }
  }
}
layer {
  name: "conv8_2_relu"
  type: "ReLU"
  bottom: "conv8_2"
  top: "conv8_2"
}
layer {
  name: "pool6"
  type: "Pooling"
  bottom: "conv8_2"
  top: "pool6"
  pooling_param {
    pool: AVE
    global_pooling: true
  }
}
layer {
  name: "conv4_3_norm"
  type: "Normalize"
  bottom: "conv4_3"
  top: "conv4_3_norm"
  norm_param {
    across_spatial: false
    scale_filler {
      type: "constant"
      value: 20
    }
    channel_shared: false
  }
}
layer {
  name: "conv4_3_norm_mbox_loc"
  type: "Convolution"
  bottom: "conv4_3_norm"
  top: "conv4_3_norm_mbox_loc"
  param {
    lr_mult: 1
    decay_mult: 1
  }
  param {
    lr_mult: 2
    decay_mult: 0
  }
  convolution_param {
    num_output: 12
    pad: 1
    kernel_size: 3
    stride: 1
    weight_filler {
      type: "xavier"
    }
    bias_filler {
      type: "constant"
      value: 0
    }
  }
}
layer {
  name: "conv4_3_norm_mbox_loc_perm"
  type: "Permute"
  bottom: "conv4_3_norm_mbox_loc"
  top: "conv4_3_norm_mbox_loc_perm"
  permute_param {
    order: 0
    order: 2
    order: 3
    order: 1
  }
}
layer {
  name: "conv4_3_norm_mbox_loc_flat"
  type: "Flatten"
  bottom: "conv4_3_norm_mbox_loc_perm"
  top: "conv4_3_norm_mbox_loc_flat"
  flatten_param {
    axis: 1
  }
}
layer {
  name: "conv4_3_norm_mbox_conf"
  type: "Convolution"
  bottom: "conv4_3_norm"
  top: "conv4_3_norm_mbox_conf"
  param {
    lr_mult: 1
    decay_mult: 1
  }
  param {
    lr_mult: 2
    decay_mult: 0
  }
  convolution_param {
    num_output: 15
    pad: 1
    kernel_size: 3
    stride: 1
    weight_filler {
      type: "xavier"
    }
    bias_filler {
      type: "constant"
      value: 0
    }
  }
}
layer {
  name: "conv4_3_norm_mbox_conf_perm"
  type: "Permute"
  bottom: "conv4_3_norm_mbox_conf"
  top: "conv4_3_norm_mbox_conf_perm"
  permute_param {
    order: 0
    order: 2
    order: 3
    order: 1
  }
}
layer {
  name: "conv4_3_norm_mbox_conf_flat"
  type: "Flatten"
  bottom: "conv4_3_norm_mbox_conf_perm"
  top: "conv4_3_norm_mbox_conf_flat"
  flatten_param {
    axis: 1
  }
}
layer {
  name: "conv4_3_norm_mbox_priorbox"
  type: "PriorBox"
  bottom: "conv4_3_norm"
  bottom: "data"
  top: "conv4_3_norm_mbox_priorbox"
  prior_box_param {
    min_size: 30
    aspect_ratio: 2
    flip: true
    clip: true
    variance: 0.1
    variance: 0.1
    variance: 0.2
    variance: 0.2
  }
}
layer {
  name: "fc7_mbox_loc"
  type: "Convolution"
  bottom: "fc7"
  top: "fc7_mbox_loc"
  param {
    lr_mult: 1
    decay_mult: 1
  }
  param {
    lr_mult: 2
    decay_mult: 0
  }
  convolution_param {
    num_output: 24
    pad: 1
    kernel_size: 3
    stride: 1
    weight_filler {
      type: "xavier"
    }
    bias_filler {
      type: "constant"
      value: 0
    }
  }
}
layer {
  name: "fc7_mbox_loc_perm"
  type: "Permute"
  bottom: "fc7_mbox_loc"
  top: "fc7_mbox_loc_perm"
  permute_param {
    order: 0
    order: 2
    order: 3
    order: 1
  }
}
layer {
  name: "fc7_mbox_loc_flat"
  type: "Flatten"
  bottom: "fc7_mbox_loc_perm"
  top: "fc7_mbox_loc_flat"
  flatten_param {
    axis: 1
  }
}
layer {
  name: "fc7_mbox_conf"
  type: "Convolution"
  bottom: "fc7"
  top: "fc7_mbox_conf"
  param {
    lr_mult: 1
    decay_mult: 1
  }
  param {
    lr_mult: 2
    decay_mult: 0
  }
  convolution_param {
    num_output: 30
    pad: 1
    kernel_size: 3
    stride: 1
    weight_filler {
      type: "xavier"
    }
    bias_filler {
      type: "constant"
      value: 0
    }
  }
}
layer {
  name: "fc7_mbox_conf_perm"
  type: "Permute"
  bottom: "fc7_mbox_conf"
  top: "fc7_mbox_conf_perm"
  permute_param {
    order: 0
    order: 2
    order: 3
    order: 1
  }
}
layer {
  name: "fc7_mbox_conf_flat"
  type: "Flatten"
  bottom: "fc7_mbox_conf_perm"
  top: "fc7_mbox_conf_flat"
  flatten_param {
    axis: 1
  }
}
layer {
  name: "fc7_mbox_priorbox"
  type: "PriorBox"
  bottom: "fc7"
  bottom: "data"
  top: "fc7_mbox_priorbox"
  prior_box_param {
    min_size: 60
    max_size: 114
    aspect_ratio: 2
    aspect_ratio: 3
    flip: true
    clip: true
    variance: 0.1
    variance: 0.1
    variance: 0.2
    variance: 0.2
  }
}
layer {
  name: "conv6_2_mbox_loc"
  type: "Convolution"
  bottom: "conv6_2"
  top: "conv6_2_mbox_loc"
  param {
    lr_mult: 1
    decay_mult: 1
  }
  param {
    lr_mult: 2
    decay_mult: 0
  }
  convolution_param {
    num_output: 24
    pad: 1
    kernel_size: 3
    stride: 1
    weight_filler {
      type: "xavier"
    }
    bias_filler {
      type: "constant"
      value: 0
    }
  }
}
layer {
  name: "conv6_2_mbox_loc_perm"
  type: "Permute"
  bottom: "conv6_2_mbox_loc"
  top: "conv6_2_mbox_loc_perm"
  permute_param {
    order: 0
    order: 2
    order: 3
    order: 1
  }
}
layer {
  name: "conv6_2_mbox_loc_flat"
  type: "Flatten"
  bottom: "conv6_2_mbox_loc_perm"
  top: "conv6_2_mbox_loc_flat"
  flatten_param {
    axis: 1
  }
}
layer {
  name: "conv6_2_mbox_conf"
  type: "Convolution"
  bottom: "conv6_2"
  top: "conv6_2_mbox_conf"
  param {
    lr_mult: 1
    decay_mult: 1
  }
  param {
    lr_mult: 2
    decay_mult: 0
  }
  convolution_param {
    num_output: 30
    pad: 1
    kernel_size: 3
    stride: 1
    weight_filler {
      type: "xavier"
    }
    bias_filler {
      type: "constant"
      value: 0
    }
  }
}
layer {
  name: "conv6_2_mbox_conf_perm"
  type: "Permute"
  bottom: "conv6_2_mbox_conf"
  top: "conv6_2_mbox_conf_perm"
  permute_param {
    order: 0
    order: 2
    order: 3
    order: 1
  }
}
layer {
  name: "conv6_2_mbox_conf_flat"
  type: "Flatten"
  bottom: "conv6_2_mbox_conf_perm"
  top: "conv6_2_mbox_conf_flat"
  flatten_param {
    axis: 1
  }
}
layer {
  name: "conv6_2_mbox_priorbox"
  type: "PriorBox"
  bottom: "conv6_2"
  bottom: "data"
  top: "conv6_2_mbox_priorbox"
  prior_box_param {
    min_size: 114
    max_size: 168
    aspect_ratio: 2
    aspect_ratio: 3
    flip: true
    clip: true
    variance: 0.1
    variance: 0.1
    variance: 0.2
    variance: 0.2
  }
}
layer {
  name: "conv7_2_mbox_loc"
  type: "Convolution"
  bottom: "conv7_2"
  top: "conv7_2_mbox_loc"
  param {
    lr_mult: 1
    decay_mult: 1
  }
  param {
    lr_mult: 2
    decay_mult: 0
  }
  convolution_param {
    num_output: 24
    pad: 1
    kernel_size: 3
    stride: 1
    weight_filler {
      type: "xavier"
    }
    bias_filler {
      type: "constant"
      value: 0
    }
  }
}
layer {
  name: "conv7_2_mbox_loc_perm"
  type: "Permute"
  bottom: "conv7_2_mbox_loc"
  top: "conv7_2_mbox_loc_perm"
  permute_param {
    order: 0
    order: 2
    order: 3
    order: 1
  }
}
layer {
  name: "conv7_2_mbox_loc_flat"
  type: "Flatten"
  bottom: "conv7_2_mbox_loc_perm"
  top: "conv7_2_mbox_loc_flat"
  flatten_param {
    axis: 1
  }
}
layer {
  name: "conv7_2_mbox_conf"
  type: "Convolution"
  bottom: "conv7_2"
  top: "conv7_2_mbox_conf"
  param {
    lr_mult: 1
    decay_mult: 1
  }
  param {
    lr_mult: 2
    decay_mult: 0
  }
  convolution_param {
    num_output: 30
    pad: 1
    kernel_size: 3
    stride: 1
    weight_filler {
      type: "xavier"
    }
    bias_filler {
      type: "constant"
      value: 0
    }
  }
}
layer {
  name: "conv7_2_mbox_conf_perm"
  type: "Permute"
  bottom: "conv7_2_mbox_conf"
  top: "conv7_2_mbox_conf_perm"
  permute_param {
    order: 0
    order: 2
    order: 3
    order: 1
  }
}
layer {
  name: "conv7_2_mbox_conf_flat"
  type: "Flatten"
  bottom: "conv7_2_mbox_conf_perm"
  top: "conv7_2_mbox_conf_flat"
  flatten_param {
    axis: 1
  }
}
layer {
  name: "conv7_2_mbox_priorbox"
  type: "PriorBox"
  bottom: "conv7_2"
  bottom: "data"
  top: "conv7_2_mbox_priorbox"
  prior_box_param {
    min_size: 168
    max_size: 222
    aspect_ratio: 2
    aspect_ratio: 3
    flip: true
    clip: true
    variance: 0.1
    variance: 0.1
    variance: 0.2
    variance: 0.2
  }
}
layer {
  name: "conv8_2_mbox_loc"
  type: "Convolution"
  bottom: "conv8_2"
  top: "conv8_2_mbox_loc"
  param {
    lr_mult: 1
    decay_mult: 1
  }
  param {
    lr_mult: 2
    decay_mult: 0
  }
  convolution_param {
    num_output: 24
    pad: 1
    kernel_size: 3
    stride: 1
    weight_filler {
      type: "xavier"
    }
    bias_filler {
      type: "constant"
      value: 0
    }
  }
}
layer {
  name: "conv8_2_mbox_loc_perm"
  type: "Permute"
  bottom: "conv8_2_mbox_loc"
  top: "conv8_2_mbox_loc_perm"
  permute_param {
    order: 0
    order: 2
    order: 3
    order: 1
  }
}
layer {
  name: "conv8_2_mbox_loc_flat"
  type: "Flatten"
  bottom: "conv8_2_mbox_loc_perm"
  top: "conv8_2_mbox_loc_flat"
  flatten_param {
    axis: 1
  }
}
layer {
  name: "conv8_2_mbox_conf"
  type: "Convolution"
  bottom: "conv8_2"
  top: "conv8_2_mbox_conf"
  param {
    lr_mult: 1
    decay_mult: 1
  }
  param {
    lr_mult: 2
    decay_mult: 0
  }
  convolution_param {
    num_output: 30
    pad: 1
    kernel_size: 3
    stride: 1
    weight_filler {
      type: "xavier"
    }
    bias_filler {
      type: "constant"
      value: 0
    }
  }
}
layer {
  name: "conv8_2_mbox_conf_perm"
  type: "Permute"
  bottom: "conv8_2_mbox_conf"
  top: "conv8_2_mbox_conf_perm"
  permute_param {
    order: 0
    order: 2
    order: 3
    order: 1
  }
}
layer {
  name: "conv8_2_mbox_conf_flat"
  type: "Flatten"
  bottom: "conv8_2_mbox_conf_perm"
  top: "conv8_2_mbox_conf_flat"
  flatten_param {
    axis: 1
  }
}
layer {
  name: "conv8_2_mbox_priorbox"
  type: "PriorBox"
  bottom: "conv8_2"
  bottom: "data"
  top: "conv8_2_mbox_priorbox"
  prior_box_param {
    min_size: 222
    max_size: 276
    aspect_ratio: 2
    aspect_ratio: 3
    flip: true
    clip: true
    variance: 0.1
    variance: 0.1
    variance: 0.2
    variance: 0.2
  }
}
layer {
  name: "pool6_mbox_loc"
  type: "Convolution"
  bottom: "pool6"
  top: "pool6_mbox_loc"
  param {
    lr_mult: 1
    decay_mult: 1
  }
  param {
    lr_mult: 2
    decay_mult: 0
  }
  convolution_param {
    num_output: 24
    pad: 1
    kernel_size: 3
    stride: 1
    weight_filler {
      type: "xavier"
    }
    bias_filler {
      type: "constant"
      value: 0
    }
  }
}
layer {
  name: "pool6_mbox_loc_perm"
  type: "Permute"
  bottom: "pool6_mbox_loc"
  top: "pool6_mbox_loc_perm"
  permute_param {
    order: 0
    order: 2
    order: 3
    order: 1
  }
}
layer {
  name: "pool6_mbox_loc_flat"
  type: "Flatten"
  bottom: "pool6_mbox_loc_perm"
  top: "pool6_mbox_loc_flat"
  flatten_param {
    axis: 1
  }
}
layer {
  name: "pool6_mbox_conf"
  type: "Convolution"
  bottom: "pool6"
  top: "pool6_mbox_conf"
  param {
    lr_mult: 1
    decay_mult: 1
  }
  param {
    lr_mult: 2
    decay_mult: 0
  }
  convolution_param {
    num_output: 30
    pad: 1
    kernel_size: 3
    stride: 1
    weight_filler {
      type: "xavier"
    }
    bias_filler {
      type: "constant"
      value: 0
    }
  }
}
layer {
  name: "pool6_mbox_conf_perm"
  type: "Permute"
  bottom: "pool6_mbox_conf"
  top: "pool6_mbox_conf_perm"
  permute_param {
    order: 0
    order: 2
    order: 3
    order: 1
  }
}
layer {
  name: "pool6_mbox_conf_flat"
  type: "Flatten"
  bottom: "pool6_mbox_conf_perm"
  top: "pool6_mbox_conf_flat"
  flatten_param {
    axis: 1
  }
}
layer {
  name: "pool6_mbox_priorbox"
  type: "PriorBox"
  bottom: "pool6"
  bottom: "data"
  top: "pool6_mbox_priorbox"
  prior_box_param {
    min_size: 276
    max_size: 330
    aspect_ratio: 2
    aspect_ratio: 3
    flip: true
    clip: true
    variance: 0.1
    variance: 0.1
    variance: 0.2
    variance: 0.2
  }
}
layer {
  name: "mbox_loc"
  type: "Concat"
  bottom: "conv4_3_norm_mbox_loc_flat"
  bottom: "fc7_mbox_loc_flat"
  bottom: "conv6_2_mbox_loc_flat"
  bottom: "conv7_2_mbox_loc_flat"
  bottom: "conv8_2_mbox_loc_flat"
  bottom: "pool6_mbox_loc_flat"
  top: "mbox_loc"
  concat_param {
    axis: 1
  }
}
layer {
  name: "mbox_conf"
  type: "Concat"
  bottom: "conv4_3_norm_mbox_conf_flat"
  bottom: "fc7_mbox_conf_flat"
  bottom: "conv6_2_mbox_conf_flat"
  bottom: "conv7_2_mbox_conf_flat"
  bottom: "conv8_2_mbox_conf_flat"
  bottom: "pool6_mbox_conf_flat"
  top: "mbox_conf"
  concat_param {
    axis: 1
  }
}
layer {
  name: "mbox_priorbox"
  type: "Concat"
  bottom: "conv4_3_norm_mbox_priorbox"
  bottom: "fc7_mbox_priorbox"
  bottom: "conv6_2_mbox_priorbox"
  bottom: "conv7_2_mbox_priorbox"
  bottom: "conv8_2_mbox_priorbox"
  bottom: "pool6_mbox_priorbox"
  top: "mbox_priorbox"
  concat_param {
    axis: 2
  }
}
layer {
  name: "mbox_conf_reshape"
  type: "Reshape"
  bottom: "mbox_conf"
  top: "mbox_conf_reshape"
  reshape_param {
    shape {
      dim: 0
      dim: -1
      dim: 5
    }
  }
}
layer {
  name: "mbox_conf_softmax"
  type: "Softmax"
  bottom: "mbox_conf_reshape"
  top: "mbox_conf_softmax"
  softmax_param {
    axis: 2
  }
}
layer {
  name: "mbox_conf_flatten"
  type: "Flatten"
  bottom: "mbox_conf_softmax"
  top: "mbox_conf_flatten"
  flatten_param {
    axis: 1
  }
}
layer {
  name: "detection_out"
  type: "DetectionOutput"
  bottom: "mbox_loc"
  bottom: "mbox_conf_flatten"
  bottom: "mbox_priorbox"
  top: "detection_out"
  include {
    phase: TEST
  }
  detection_output_param {
    num_classes: 5
    share_location: true
    background_label_id: 0
    nms_param {
      nms_threshold: 0.45
      top_k: 400
    }
    save_output_param {
      output_directory: "/home/zdb/data/VOCdevkit/results/deepv_car_person/SSD_500x300/Main"
      output_name_prefix: "comp4_det_test_"
      output_format: "VOC"
      label_map_file: "data/deepv_car_person/labelmap_voc.prototxt"
      name_size_file: "data/deepv_car_person/test_name_size.txt"
      num_test_image: 4367
    }
    code_type: CENTER_SIZE
    keep_top_k: 200
    confidence_threshold: 0.01
  }
}
layer {
  name: "detection_eval"
  type: "DetectionEvaluate"
  bottom: "detection_out"
  bottom: "label"
  top: "detection_eval"
  include {
    phase: TEST
  }
  detection_evaluate_param {
    num_classes: 5
    background_label_id: 0
    overlap_threshold: 0.5
    evaluate_difficult_gt: false
    name_size_file: "data/deepv_car_person/test_name_size.txt"
  }
}
I0512 18:43:18.867437 10458 layer_factory.hpp:77] Creating layer data
I0512 18:43:18.867534 10458 net.cpp:91] Creating Layer data
I0512 18:43:18.867549 10458 net.cpp:399] data -> data
I0512 18:43:18.867563 10458 net.cpp:399] data -> label
I0512 18:43:18.868697 10503 db_lmdb.cpp:35] Opened lmdb examples/deepv_car_person/deepv_car_person_test_lmdb
I0512 18:43:18.882213 10458 annotated_data_layer.cpp:52] output data size: 1,3,300,500
I0512 18:43:18.887197 10458 net.cpp:141] Setting up data
I0512 18:43:18.887219 10458 net.cpp:148] Top shape: 1 3 300 500 (450000)
I0512 18:43:18.887226 10458 net.cpp:148] Top shape: 1 1 4 8 (32)
I0512 18:43:18.887230 10458 net.cpp:156] Memory required for data: 1800128
I0512 18:43:18.887238 10458 layer_factory.hpp:77] Creating layer data_data_0_split
I0512 18:43:18.887250 10458 net.cpp:91] Creating Layer data_data_0_split
I0512 18:43:18.887254 10458 net.cpp:425] data_data_0_split <- data
I0512 18:43:18.887264 10458 net.cpp:399] data_data_0_split -> data_data_0_split_0
I0512 18:43:18.887274 10458 net.cpp:399] data_data_0_split -> data_data_0_split_1
I0512 18:43:18.887286 10458 net.cpp:399] data_data_0_split -> data_data_0_split_2
I0512 18:43:18.887295 10458 net.cpp:399] data_data_0_split -> data_data_0_split_3
I0512 18:43:18.887301 10458 net.cpp:399] data_data_0_split -> data_data_0_split_4
I0512 18:43:18.887311 10458 net.cpp:399] data_data_0_split -> data_data_0_split_5
I0512 18:43:18.887318 10458 net.cpp:399] data_data_0_split -> data_data_0_split_6
I0512 18:43:18.887523 10458 net.cpp:141] Setting up data_data_0_split
I0512 18:43:18.887537 10458 net.cpp:148] Top shape: 1 3 300 500 (450000)
I0512 18:43:18.887542 10458 net.cpp:148] Top shape: 1 3 300 500 (450000)
I0512 18:43:18.887547 10458 net.cpp:148] Top shape: 1 3 300 500 (450000)
I0512 18:43:18.887552 10458 net.cpp:148] Top shape: 1 3 300 500 (450000)
I0512 18:43:18.887557 10458 net.cpp:148] Top shape: 1 3 300 500 (450000)
I0512 18:43:18.887562 10458 net.cpp:148] Top shape: 1 3 300 500 (450000)
I0512 18:43:18.887567 10458 net.cpp:148] Top shape: 1 3 300 500 (450000)
I0512 18:43:18.887570 10458 net.cpp:156] Memory required for data: 14400128
I0512 18:43:18.887575 10458 layer_factory.hpp:77] Creating layer conv1_1
I0512 18:43:18.887590 10458 net.cpp:91] Creating Layer conv1_1
I0512 18:43:18.887614 10458 net.cpp:425] conv1_1 <- data_data_0_split_0
I0512 18:43:18.887624 10458 net.cpp:399] conv1_1 -> conv1_1
I0512 18:43:18.889991 10458 net.cpp:141] Setting up conv1_1
I0512 18:43:18.890010 10458 net.cpp:148] Top shape: 1 64 300 500 (9600000)
I0512 18:43:18.890015 10458 net.cpp:156] Memory required for data: 52800128
I0512 18:43:18.890029 10458 layer_factory.hpp:77] Creating layer relu1_1
I0512 18:43:18.890039 10458 net.cpp:91] Creating Layer relu1_1
I0512 18:43:18.890044 10458 net.cpp:425] relu1_1 <- conv1_1
I0512 18:43:18.890050 10458 net.cpp:386] relu1_1 -> conv1_1 (in-place)
I0512 18:43:18.890420 10458 net.cpp:141] Setting up relu1_1
I0512 18:43:18.890439 10458 net.cpp:148] Top shape: 1 64 300 500 (9600000)
I0512 18:43:18.890444 10458 net.cpp:156] Memory required for data: 91200128
I0512 18:43:18.890449 10458 layer_factory.hpp:77] Creating layer conv1_2
I0512 18:43:18.890462 10458 net.cpp:91] Creating Layer conv1_2
I0512 18:43:18.890467 10458 net.cpp:425] conv1_2 <- conv1_1
I0512 18:43:18.890476 10458 net.cpp:399] conv1_2 -> conv1_2
I0512 18:43:18.892906 10458 net.cpp:141] Setting up conv1_2
I0512 18:43:18.892926 10458 net.cpp:148] Top shape: 1 64 300 500 (9600000)
I0512 18:43:18.892931 10458 net.cpp:156] Memory required for data: 129600128
I0512 18:43:18.892943 10458 layer_factory.hpp:77] Creating layer relu1_2
I0512 18:43:18.892952 10458 net.cpp:91] Creating Layer relu1_2
I0512 18:43:18.892956 10458 net.cpp:425] relu1_2 <- conv1_2
I0512 18:43:18.892963 10458 net.cpp:386] relu1_2 -> conv1_2 (in-place)
I0512 18:43:18.893355 10458 net.cpp:141] Setting up relu1_2
I0512 18:43:18.893373 10458 net.cpp:148] Top shape: 1 64 300 500 (9600000)
I0512 18:43:18.893378 10458 net.cpp:156] Memory required for data: 168000128
I0512 18:43:18.893383 10458 layer_factory.hpp:77] Creating layer pool1
I0512 18:43:18.893393 10458 net.cpp:91] Creating Layer pool1
I0512 18:43:18.893399 10458 net.cpp:425] pool1 <- conv1_2
I0512 18:43:18.893405 10458 net.cpp:399] pool1 -> pool1
I0512 18:43:18.893473 10458 net.cpp:141] Setting up pool1
I0512 18:43:18.893483 10458 net.cpp:148] Top shape: 1 64 150 250 (2400000)
I0512 18:43:18.893487 10458 net.cpp:156] Memory required for data: 177600128
I0512 18:43:18.893491 10458 layer_factory.hpp:77] Creating layer conv2_1
I0512 18:43:18.893504 10458 net.cpp:91] Creating Layer conv2_1
I0512 18:43:18.893512 10458 net.cpp:425] conv2_1 <- pool1
I0512 18:43:18.893518 10458 net.cpp:399] conv2_1 -> conv2_1
I0512 18:43:18.895551 10458 net.cpp:141] Setting up conv2_1
I0512 18:43:18.895570 10458 net.cpp:148] Top shape: 1 128 150 250 (4800000)
I0512 18:43:18.895575 10458 net.cpp:156] Memory required for data: 196800128
I0512 18:43:18.895587 10458 layer_factory.hpp:77] Creating layer relu2_1
I0512 18:43:18.895598 10458 net.cpp:91] Creating Layer relu2_1
I0512 18:43:18.895603 10458 net.cpp:425] relu2_1 <- conv2_1
I0512 18:43:18.895613 10458 net.cpp:386] relu2_1 -> conv2_1 (in-place)
I0512 18:43:18.895823 10458 net.cpp:141] Setting up relu2_1
I0512 18:43:18.895835 10458 net.cpp:148] Top shape: 1 128 150 250 (4800000)
I0512 18:43:18.895840 10458 net.cpp:156] Memory required for data: 216000128
I0512 18:43:18.895844 10458 layer_factory.hpp:77] Creating layer conv2_2
I0512 18:43:18.895856 10458 net.cpp:91] Creating Layer conv2_2
I0512 18:43:18.895862 10458 net.cpp:425] conv2_2 <- conv2_1
I0512 18:43:18.895876 10458 net.cpp:399] conv2_2 -> conv2_2
I0512 18:43:18.899938 10458 net.cpp:141] Setting up conv2_2
I0512 18:43:18.899958 10458 net.cpp:148] Top shape: 1 128 150 250 (4800000)
I0512 18:43:18.899963 10458 net.cpp:156] Memory required for data: 235200128
I0512 18:43:18.899972 10458 layer_factory.hpp:77] Creating layer relu2_2
I0512 18:43:18.899981 10458 net.cpp:91] Creating Layer relu2_2
I0512 18:43:18.899986 10458 net.cpp:425] relu2_2 <- conv2_2
I0512 18:43:18.899996 10458 net.cpp:386] relu2_2 -> conv2_2 (in-place)
I0512 18:43:18.900359 10458 net.cpp:141] Setting up relu2_2
I0512 18:43:18.900377 10458 net.cpp:148] Top shape: 1 128 150 250 (4800000)
I0512 18:43:18.900382 10458 net.cpp:156] Memory required for data: 254400128
I0512 18:43:18.900403 10458 layer_factory.hpp:77] Creating layer pool2
I0512 18:43:18.900413 10458 net.cpp:91] Creating Layer pool2
I0512 18:43:18.900418 10458 net.cpp:425] pool2 <- conv2_2
I0512 18:43:18.900429 10458 net.cpp:399] pool2 -> pool2
I0512 18:43:18.900496 10458 net.cpp:141] Setting up pool2
I0512 18:43:18.900506 10458 net.cpp:148] Top shape: 1 128 75 125 (1200000)
I0512 18:43:18.900511 10458 net.cpp:156] Memory required for data: 259200128
I0512 18:43:18.900514 10458 layer_factory.hpp:77] Creating layer conv3_1
I0512 18:43:18.900527 10458 net.cpp:91] Creating Layer conv3_1
I0512 18:43:18.900533 10458 net.cpp:425] conv3_1 <- pool2
I0512 18:43:18.900542 10458 net.cpp:399] conv3_1 -> conv3_1
I0512 18:43:18.905036 10458 net.cpp:141] Setting up conv3_1
I0512 18:43:18.905056 10458 net.cpp:148] Top shape: 1 256 75 125 (2400000)
I0512 18:43:18.905062 10458 net.cpp:156] Memory required for data: 268800128
I0512 18:43:18.905076 10458 layer_factory.hpp:77] Creating layer relu3_1
I0512 18:43:18.905084 10458 net.cpp:91] Creating Layer relu3_1
I0512 18:43:18.905089 10458 net.cpp:425] relu3_1 <- conv3_1
I0512 18:43:18.905097 10458 net.cpp:386] relu3_1 -> conv3_1 (in-place)
I0512 18:43:18.905460 10458 net.cpp:141] Setting up relu3_1
I0512 18:43:18.905478 10458 net.cpp:148] Top shape: 1 256 75 125 (2400000)
I0512 18:43:18.905481 10458 net.cpp:156] Memory required for data: 278400128
I0512 18:43:18.905486 10458 layer_factory.hpp:77] Creating layer conv3_2
I0512 18:43:18.905500 10458 net.cpp:91] Creating Layer conv3_2
I0512 18:43:18.905505 10458 net.cpp:425] conv3_2 <- conv3_1
I0512 18:43:18.905514 10458 net.cpp:399] conv3_2 -> conv3_2
I0512 18:43:18.913139 10458 net.cpp:141] Setting up conv3_2
I0512 18:43:18.913159 10458 net.cpp:148] Top shape: 1 256 75 125 (2400000)
I0512 18:43:18.913166 10458 net.cpp:156] Memory required for data: 288000128
I0512 18:43:18.913173 10458 layer_factory.hpp:77] Creating layer relu3_2
I0512 18:43:18.913183 10458 net.cpp:91] Creating Layer relu3_2
I0512 18:43:18.913188 10458 net.cpp:425] relu3_2 <- conv3_2
I0512 18:43:18.913197 10458 net.cpp:386] relu3_2 -> conv3_2 (in-place)
I0512 18:43:18.913422 10458 net.cpp:141] Setting up relu3_2
I0512 18:43:18.913436 10458 net.cpp:148] Top shape: 1 256 75 125 (2400000)
I0512 18:43:18.913442 10458 net.cpp:156] Memory required for data: 297600128
I0512 18:43:18.913446 10458 layer_factory.hpp:77] Creating layer conv3_3
I0512 18:43:18.913467 10458 net.cpp:91] Creating Layer conv3_3
I0512 18:43:18.913472 10458 net.cpp:425] conv3_3 <- conv3_2
I0512 18:43:18.913481 10458 net.cpp:399] conv3_3 -> conv3_3
I0512 18:43:18.920385 10458 net.cpp:141] Setting up conv3_3
I0512 18:43:18.920405 10458 net.cpp:148] Top shape: 1 256 75 125 (2400000)
I0512 18:43:18.920411 10458 net.cpp:156] Memory required for data: 307200128
I0512 18:43:18.920419 10458 layer_factory.hpp:77] Creating layer relu3_3
I0512 18:43:18.920429 10458 net.cpp:91] Creating Layer relu3_3
I0512 18:43:18.920433 10458 net.cpp:425] relu3_3 <- conv3_3
I0512 18:43:18.920442 10458 net.cpp:386] relu3_3 -> conv3_3 (in-place)
I0512 18:43:18.920944 10458 net.cpp:141] Setting up relu3_3
I0512 18:43:18.920985 10458 net.cpp:148] Top shape: 1 256 75 125 (2400000)
I0512 18:43:18.920996 10458 net.cpp:156] Memory required for data: 316800128
I0512 18:43:18.921006 10458 layer_factory.hpp:77] Creating layer pool3
I0512 18:43:18.921026 10458 net.cpp:91] Creating Layer pool3
I0512 18:43:18.921037 10458 net.cpp:425] pool3 <- conv3_3
I0512 18:43:18.921054 10458 net.cpp:399] pool3 -> pool3
I0512 18:43:18.921197 10458 net.cpp:141] Setting up pool3
I0512 18:43:18.921219 10458 net.cpp:148] Top shape: 1 256 38 63 (612864)
I0512 18:43:18.921227 10458 net.cpp:156] Memory required for data: 319251584
I0512 18:43:18.921236 10458 layer_factory.hpp:77] Creating layer conv4_1
I0512 18:43:18.921262 10458 net.cpp:91] Creating Layer conv4_1
I0512 18:43:18.921273 10458 net.cpp:425] conv4_1 <- pool3
I0512 18:43:18.921290 10458 net.cpp:399] conv4_1 -> conv4_1
I0512 18:43:18.945107 10458 net.cpp:141] Setting up conv4_1
I0512 18:43:18.945189 10458 net.cpp:148] Top shape: 1 512 38 63 (1225728)
I0512 18:43:18.945200 10458 net.cpp:156] Memory required for data: 324154496
I0512 18:43:18.945217 10458 layer_factory.hpp:77] Creating layer relu4_1
I0512 18:43:18.945243 10458 net.cpp:91] Creating Layer relu4_1
I0512 18:43:18.945253 10458 net.cpp:425] relu4_1 <- conv4_1
I0512 18:43:18.945268 10458 net.cpp:386] relu4_1 -> conv4_1 (in-place)
I0512 18:43:18.945850 10458 net.cpp:141] Setting up relu4_1
I0512 18:43:18.945879 10458 net.cpp:148] Top shape: 1 512 38 63 (1225728)
I0512 18:43:18.945888 10458 net.cpp:156] Memory required for data: 329057408
I0512 18:43:18.945896 10458 layer_factory.hpp:77] Creating layer conv4_2
I0512 18:43:18.945920 10458 net.cpp:91] Creating Layer conv4_2
I0512 18:43:18.945930 10458 net.cpp:425] conv4_2 <- conv4_1
I0512 18:43:18.945946 10458 net.cpp:399] conv4_2 -> conv4_2
I0512 18:43:18.984083 10458 net.cpp:141] Setting up conv4_2
I0512 18:43:18.984129 10458 net.cpp:148] Top shape: 1 512 38 63 (1225728)
I0512 18:43:18.984136 10458 net.cpp:156] Memory required for data: 333960320
I0512 18:43:18.984160 10458 layer_factory.hpp:77] Creating layer relu4_2
I0512 18:43:18.984180 10458 net.cpp:91] Creating Layer relu4_2
I0512 18:43:18.984189 10458 net.cpp:425] relu4_2 <- conv4_2
I0512 18:43:18.984200 10458 net.cpp:386] relu4_2 -> conv4_2 (in-place)
I0512 18:43:18.986369 10458 net.cpp:141] Setting up relu4_2
I0512 18:43:18.986393 10458 net.cpp:148] Top shape: 1 512 38 63 (1225728)
I0512 18:43:18.986402 10458 net.cpp:156] Memory required for data: 338863232
I0512 18:43:18.986408 10458 layer_factory.hpp:77] Creating layer conv4_3
I0512 18:43:18.986429 10458 net.cpp:91] Creating Layer conv4_3
I0512 18:43:18.986436 10458 net.cpp:425] conv4_3 <- conv4_2
I0512 18:43:18.986449 10458 net.cpp:399] conv4_3 -> conv4_3
I0512 18:43:19.014048 10458 net.cpp:141] Setting up conv4_3
I0512 18:43:19.014101 10458 net.cpp:148] Top shape: 1 512 38 63 (1225728)
I0512 18:43:19.014107 10458 net.cpp:156] Memory required for data: 343766144
I0512 18:43:19.014122 10458 layer_factory.hpp:77] Creating layer relu4_3
I0512 18:43:19.014140 10458 net.cpp:91] Creating Layer relu4_3
I0512 18:43:19.014148 10458 net.cpp:425] relu4_3 <- conv4_3
I0512 18:43:19.014159 10458 net.cpp:386] relu4_3 -> conv4_3 (in-place)
I0512 18:43:19.015053 10458 net.cpp:141] Setting up relu4_3
I0512 18:43:19.015074 10458 net.cpp:148] Top shape: 1 512 38 63 (1225728)
I0512 18:43:19.015079 10458 net.cpp:156] Memory required for data: 348669056
I0512 18:43:19.015084 10458 layer_factory.hpp:77] Creating layer conv4_3_relu4_3_0_split
I0512 18:43:19.015095 10458 net.cpp:91] Creating Layer conv4_3_relu4_3_0_split
I0512 18:43:19.015100 10458 net.cpp:425] conv4_3_relu4_3_0_split <- conv4_3
I0512 18:43:19.015110 10458 net.cpp:399] conv4_3_relu4_3_0_split -> conv4_3_relu4_3_0_split_0
I0512 18:43:19.015121 10458 net.cpp:399] conv4_3_relu4_3_0_split -> conv4_3_relu4_3_0_split_1
I0512 18:43:19.015192 10458 net.cpp:141] Setting up conv4_3_relu4_3_0_split
I0512 18:43:19.015204 10458 net.cpp:148] Top shape: 1 512 38 63 (1225728)
I0512 18:43:19.015209 10458 net.cpp:148] Top shape: 1 512 38 63 (1225728)
I0512 18:43:19.015213 10458 net.cpp:156] Memory required for data: 358474880
I0512 18:43:19.015218 10458 layer_factory.hpp:77] Creating layer pool4
I0512 18:43:19.015230 10458 net.cpp:91] Creating Layer pool4
I0512 18:43:19.015235 10458 net.cpp:425] pool4 <- conv4_3_relu4_3_0_split_0
I0512 18:43:19.015245 10458 net.cpp:399] pool4 -> pool4
I0512 18:43:19.015305 10458 net.cpp:141] Setting up pool4
I0512 18:43:19.015316 10458 net.cpp:148] Top shape: 1 512 19 32 (311296)
I0512 18:43:19.015321 10458 net.cpp:156] Memory required for data: 359720064
I0512 18:43:19.015324 10458 layer_factory.hpp:77] Creating layer conv5_1
I0512 18:43:19.015341 10458 net.cpp:91] Creating Layer conv5_1
I0512 18:43:19.015347 10458 net.cpp:425] conv5_1 <- pool4
I0512 18:43:19.015357 10458 net.cpp:399] conv5_1 -> conv5_1
I0512 18:43:19.044318 10458 net.cpp:141] Setting up conv5_1
I0512 18:43:19.044368 10458 net.cpp:148] Top shape: 1 512 19 32 (311296)
I0512 18:43:19.044417 10458 net.cpp:156] Memory required for data: 360965248
I0512 18:43:19.044432 10458 layer_factory.hpp:77] Creating layer relu5_1
I0512 18:43:19.044450 10458 net.cpp:91] Creating Layer relu5_1
I0512 18:43:19.044459 10458 net.cpp:425] relu5_1 <- conv5_1
I0512 18:43:19.044471 10458 net.cpp:386] relu5_1 -> conv5_1 (in-place)
I0512 18:43:19.045449 10458 net.cpp:141] Setting up relu5_1
I0512 18:43:19.045469 10458 net.cpp:148] Top shape: 1 512 19 32 (311296)
I0512 18:43:19.045474 10458 net.cpp:156] Memory required for data: 362210432
I0512 18:43:19.045480 10458 layer_factory.hpp:77] Creating layer conv5_2
I0512 18:43:19.045498 10458 net.cpp:91] Creating Layer conv5_2
I0512 18:43:19.045505 10458 net.cpp:425] conv5_2 <- conv5_1
I0512 18:43:19.045516 10458 net.cpp:399] conv5_2 -> conv5_2
I0512 18:43:19.076764 10458 net.cpp:141] Setting up conv5_2
I0512 18:43:19.076807 10458 net.cpp:148] Top shape: 1 512 19 32 (311296)
I0512 18:43:19.076813 10458 net.cpp:156] Memory required for data: 363455616
I0512 18:43:19.076827 10458 layer_factory.hpp:77] Creating layer relu5_2
I0512 18:43:19.076843 10458 net.cpp:91] Creating Layer relu5_2
I0512 18:43:19.076851 10458 net.cpp:425] relu5_2 <- conv5_2
I0512 18:43:19.076863 10458 net.cpp:386] relu5_2 -> conv5_2 (in-place)
I0512 18:43:19.077754 10458 net.cpp:141] Setting up relu5_2
I0512 18:43:19.077769 10458 net.cpp:148] Top shape: 1 512 19 32 (311296)
I0512 18:43:19.077774 10458 net.cpp:156] Memory required for data: 364700800
I0512 18:43:19.077778 10458 layer_factory.hpp:77] Creating layer conv5_3
I0512 18:43:19.077797 10458 net.cpp:91] Creating Layer conv5_3
I0512 18:43:19.077803 10458 net.cpp:425] conv5_3 <- conv5_2
I0512 18:43:19.077813 10458 net.cpp:399] conv5_3 -> conv5_3
I0512 18:43:19.104699 10458 net.cpp:141] Setting up conv5_3
I0512 18:43:19.104732 10458 net.cpp:148] Top shape: 1 512 19 32 (311296)
I0512 18:43:19.104738 10458 net.cpp:156] Memory required for data: 365945984
I0512 18:43:19.104748 10458 layer_factory.hpp:77] Creating layer relu5_3
I0512 18:43:19.104770 10458 net.cpp:91] Creating Layer relu5_3
I0512 18:43:19.104776 10458 net.cpp:425] relu5_3 <- conv5_3
I0512 18:43:19.104785 10458 net.cpp:386] relu5_3 -> conv5_3 (in-place)
I0512 18:43:19.105729 10458 net.cpp:141] Setting up relu5_3
I0512 18:43:19.105747 10458 net.cpp:148] Top shape: 1 512 19 32 (311296)
I0512 18:43:19.105752 10458 net.cpp:156] Memory required for data: 367191168
I0512 18:43:19.105757 10458 layer_factory.hpp:77] Creating layer pool5
I0512 18:43:19.105772 10458 net.cpp:91] Creating Layer pool5
I0512 18:43:19.105777 10458 net.cpp:425] pool5 <- conv5_3
I0512 18:43:19.105787 10458 net.cpp:399] pool5 -> pool5
I0512 18:43:19.105860 10458 net.cpp:141] Setting up pool5
I0512 18:43:19.105872 10458 net.cpp:148] Top shape: 1 512 19 32 (311296)
I0512 18:43:19.105876 10458 net.cpp:156] Memory required for data: 368436352
I0512 18:43:19.105881 10458 layer_factory.hpp:77] Creating layer fc6
I0512 18:43:19.105897 10458 net.cpp:91] Creating Layer fc6
I0512 18:43:19.105903 10458 net.cpp:425] fc6 <- pool5
I0512 18:43:19.105913 10458 net.cpp:399] fc6 -> fc6
I0512 18:43:19.158145 10458 net.cpp:141] Setting up fc6
I0512 18:43:19.158207 10458 net.cpp:148] Top shape: 1 1024 19 32 (622592)
I0512 18:43:19.158215 10458 net.cpp:156] Memory required for data: 370926720
I0512 18:43:19.158229 10458 layer_factory.hpp:77] Creating layer relu6
I0512 18:43:19.158248 10458 net.cpp:91] Creating Layer relu6
I0512 18:43:19.158257 10458 net.cpp:425] relu6 <- fc6
I0512 18:43:19.158267 10458 net.cpp:386] relu6 -> fc6 (in-place)
I0512 18:43:19.158635 10458 net.cpp:141] Setting up relu6
I0512 18:43:19.158649 10458 net.cpp:148] Top shape: 1 1024 19 32 (622592)
I0512 18:43:19.158654 10458 net.cpp:156] Memory required for data: 373417088
I0512 18:43:19.158659 10458 layer_factory.hpp:77] Creating layer fc7
I0512 18:43:19.158679 10458 net.cpp:91] Creating Layer fc7
I0512 18:43:19.158684 10458 net.cpp:425] fc7 <- fc6
I0512 18:43:19.158694 10458 net.cpp:399] fc7 -> fc7
I0512 18:43:19.173012 10458 net.cpp:141] Setting up fc7
I0512 18:43:19.173056 10458 net.cpp:148] Top shape: 1 1024 19 32 (622592)
I0512 18:43:19.173063 10458 net.cpp:156] Memory required for data: 375907456
I0512 18:43:19.173072 10458 layer_factory.hpp:77] Creating layer relu7
I0512 18:43:19.173084 10458 net.cpp:91] Creating Layer relu7
I0512 18:43:19.173089 10458 net.cpp:425] relu7 <- fc7
I0512 18:43:19.173097 10458 net.cpp:386] relu7 -> fc7 (in-place)
I0512 18:43:19.173941 10458 net.cpp:141] Setting up relu7
I0512 18:43:19.173957 10458 net.cpp:148] Top shape: 1 1024 19 32 (622592)
I0512 18:43:19.173962 10458 net.cpp:156] Memory required for data: 378397824
I0512 18:43:19.173966 10458 layer_factory.hpp:77] Creating layer fc7_relu7_0_split
I0512 18:43:19.173977 10458 net.cpp:91] Creating Layer fc7_relu7_0_split
I0512 18:43:19.173982 10458 net.cpp:425] fc7_relu7_0_split <- fc7
I0512 18:43:19.173991 10458 net.cpp:399] fc7_relu7_0_split -> fc7_relu7_0_split_0
I0512 18:43:19.174001 10458 net.cpp:399] fc7_relu7_0_split -> fc7_relu7_0_split_1
I0512 18:43:19.174018 10458 net.cpp:399] fc7_relu7_0_split -> fc7_relu7_0_split_2
I0512 18:43:19.174027 10458 net.cpp:399] fc7_relu7_0_split -> fc7_relu7_0_split_3
I0512 18:43:19.174132 10458 net.cpp:141] Setting up fc7_relu7_0_split
I0512 18:43:19.174144 10458 net.cpp:148] Top shape: 1 1024 19 32 (622592)
I0512 18:43:19.174151 10458 net.cpp:148] Top shape: 1 1024 19 32 (622592)
I0512 18:43:19.174156 10458 net.cpp:148] Top shape: 1 1024 19 32 (622592)
I0512 18:43:19.174161 10458 net.cpp:148] Top shape: 1 1024 19 32 (622592)
I0512 18:43:19.174165 10458 net.cpp:156] Memory required for data: 388359296
I0512 18:43:19.174170 10458 layer_factory.hpp:77] Creating layer conv6_1
I0512 18:43:19.174185 10458 net.cpp:91] Creating Layer conv6_1
I0512 18:43:19.174190 10458 net.cpp:425] conv6_1 <- fc7_relu7_0_split_0
I0512 18:43:19.174201 10458 net.cpp:399] conv6_1 -> conv6_1
I0512 18:43:19.180078 10458 net.cpp:141] Setting up conv6_1
I0512 18:43:19.180099 10458 net.cpp:148] Top shape: 1 256 19 32 (155648)
I0512 18:43:19.180104 10458 net.cpp:156] Memory required for data: 388981888
I0512 18:43:19.180114 10458 layer_factory.hpp:77] Creating layer conv6_1_relu
I0512 18:43:19.180125 10458 net.cpp:91] Creating Layer conv6_1_relu
I0512 18:43:19.180130 10458 net.cpp:425] conv6_1_relu <- conv6_1
I0512 18:43:19.180140 10458 net.cpp:386] conv6_1_relu -> conv6_1 (in-place)
I0512 18:43:19.181046 10458 net.cpp:141] Setting up conv6_1_relu
I0512 18:43:19.181064 10458 net.cpp:148] Top shape: 1 256 19 32 (155648)
I0512 18:43:19.181071 10458 net.cpp:156] Memory required for data: 389604480
I0512 18:43:19.181076 10458 layer_factory.hpp:77] Creating layer conv6_2
I0512 18:43:19.181092 10458 net.cpp:91] Creating Layer conv6_2
I0512 18:43:19.181097 10458 net.cpp:425] conv6_2 <- conv6_1
I0512 18:43:19.181108 10458 net.cpp:399] conv6_2 -> conv6_2
I0512 18:43:19.198885 10458 net.cpp:141] Setting up conv6_2
I0512 18:43:19.198910 10458 net.cpp:148] Top shape: 1 512 10 16 (81920)
I0512 18:43:19.198916 10458 net.cpp:156] Memory required for data: 389932160
I0512 18:43:19.198942 10458 layer_factory.hpp:77] Creating layer conv6_2_relu
I0512 18:43:19.198952 10458 net.cpp:91] Creating Layer conv6_2_relu
I0512 18:43:19.198961 10458 net.cpp:425] conv6_2_relu <- conv6_2
I0512 18:43:19.198968 10458 net.cpp:386] conv6_2_relu -> conv6_2 (in-place)
I0512 18:43:19.199775 10458 net.cpp:141] Setting up conv6_2_relu
I0512 18:43:19.199791 10458 net.cpp:148] Top shape: 1 512 10 16 (81920)
I0512 18:43:19.199796 10458 net.cpp:156] Memory required for data: 390259840
I0512 18:43:19.199801 10458 layer_factory.hpp:77] Creating layer conv6_2_conv6_2_relu_0_split
I0512 18:43:19.199813 10458 net.cpp:91] Creating Layer conv6_2_conv6_2_relu_0_split
I0512 18:43:19.199818 10458 net.cpp:425] conv6_2_conv6_2_relu_0_split <- conv6_2
I0512 18:43:19.199826 10458 net.cpp:399] conv6_2_conv6_2_relu_0_split -> conv6_2_conv6_2_relu_0_split_0
I0512 18:43:19.199838 10458 net.cpp:399] conv6_2_conv6_2_relu_0_split -> conv6_2_conv6_2_relu_0_split_1
I0512 18:43:19.199847 10458 net.cpp:399] conv6_2_conv6_2_relu_0_split -> conv6_2_conv6_2_relu_0_split_2
I0512 18:43:19.199873 10458 net.cpp:399] conv6_2_conv6_2_relu_0_split -> conv6_2_conv6_2_relu_0_split_3
I0512 18:43:19.199990 10458 net.cpp:141] Setting up conv6_2_conv6_2_relu_0_split
I0512 18:43:19.200003 10458 net.cpp:148] Top shape: 1 512 10 16 (81920)
I0512 18:43:19.200008 10458 net.cpp:148] Top shape: 1 512 10 16 (81920)
I0512 18:43:19.200013 10458 net.cpp:148] Top shape: 1 512 10 16 (81920)
I0512 18:43:19.200018 10458 net.cpp:148] Top shape: 1 512 10 16 (81920)
I0512 18:43:19.200023 10458 net.cpp:156] Memory required for data: 391570560
I0512 18:43:19.200027 10458 layer_factory.hpp:77] Creating layer conv7_1
I0512 18:43:19.200044 10458 net.cpp:91] Creating Layer conv7_1
I0512 18:43:19.200050 10458 net.cpp:425] conv7_1 <- conv6_2_conv6_2_relu_0_split_0
I0512 18:43:19.200062 10458 net.cpp:399] conv7_1 -> conv7_1
I0512 18:43:19.204879 10458 net.cpp:141] Setting up conv7_1
I0512 18:43:19.204900 10458 net.cpp:148] Top shape: 1 128 10 16 (20480)
I0512 18:43:19.204906 10458 net.cpp:156] Memory required for data: 391652480
I0512 18:43:19.204916 10458 layer_factory.hpp:77] Creating layer conv7_1_relu
I0512 18:43:19.204924 10458 net.cpp:91] Creating Layer conv7_1_relu
I0512 18:43:19.204931 10458 net.cpp:425] conv7_1_relu <- conv7_1
I0512 18:43:19.204941 10458 net.cpp:386] conv7_1_relu -> conv7_1 (in-place)
I0512 18:43:19.206074 10458 net.cpp:141] Setting up conv7_1_relu
I0512 18:43:19.206089 10458 net.cpp:148] Top shape: 1 128 10 16 (20480)
I0512 18:43:19.206094 10458 net.cpp:156] Memory required for data: 391734400
I0512 18:43:19.206099 10458 layer_factory.hpp:77] Creating layer conv7_2
I0512 18:43:19.206115 10458 net.cpp:91] Creating Layer conv7_2
I0512 18:43:19.206120 10458 net.cpp:425] conv7_2 <- conv7_1
I0512 18:43:19.206132 10458 net.cpp:399] conv7_2 -> conv7_2
I0512 18:43:19.213045 10458 net.cpp:141] Setting up conv7_2
I0512 18:43:19.213066 10458 net.cpp:148] Top shape: 1 256 5 8 (10240)
I0512 18:43:19.213073 10458 net.cpp:156] Memory required for data: 391775360
I0512 18:43:19.213084 10458 layer_factory.hpp:77] Creating layer conv7_2_relu
I0512 18:43:19.213094 10458 net.cpp:91] Creating Layer conv7_2_relu
I0512 18:43:19.213099 10458 net.cpp:425] conv7_2_relu <- conv7_2
I0512 18:43:19.213107 10458 net.cpp:386] conv7_2_relu -> conv7_2 (in-place)
I0512 18:43:19.214134 10458 net.cpp:141] Setting up conv7_2_relu
I0512 18:43:19.214154 10458 net.cpp:148] Top shape: 1 256 5 8 (10240)
I0512 18:43:19.214160 10458 net.cpp:156] Memory required for data: 391816320
I0512 18:43:19.214165 10458 layer_factory.hpp:77] Creating layer conv7_2_conv7_2_relu_0_split
I0512 18:43:19.214175 10458 net.cpp:91] Creating Layer conv7_2_conv7_2_relu_0_split
I0512 18:43:19.214180 10458 net.cpp:425] conv7_2_conv7_2_relu_0_split <- conv7_2
I0512 18:43:19.214189 10458 net.cpp:399] conv7_2_conv7_2_relu_0_split -> conv7_2_conv7_2_relu_0_split_0
I0512 18:43:19.214198 10458 net.cpp:399] conv7_2_conv7_2_relu_0_split -> conv7_2_conv7_2_relu_0_split_1
I0512 18:43:19.214206 10458 net.cpp:399] conv7_2_conv7_2_relu_0_split -> conv7_2_conv7_2_relu_0_split_2
I0512 18:43:19.214218 10458 net.cpp:399] conv7_2_conv7_2_relu_0_split -> conv7_2_conv7_2_relu_0_split_3
I0512 18:43:19.214334 10458 net.cpp:141] Setting up conv7_2_conv7_2_relu_0_split
I0512 18:43:19.214346 10458 net.cpp:148] Top shape: 1 256 5 8 (10240)
I0512 18:43:19.214351 10458 net.cpp:148] Top shape: 1 256 5 8 (10240)
I0512 18:43:19.214356 10458 net.cpp:148] Top shape: 1 256 5 8 (10240)
I0512 18:43:19.214361 10458 net.cpp:148] Top shape: 1 256 5 8 (10240)
I0512 18:43:19.214365 10458 net.cpp:156] Memory required for data: 391980160
I0512 18:43:19.214370 10458 layer_factory.hpp:77] Creating layer conv8_1
I0512 18:43:19.214386 10458 net.cpp:91] Creating Layer conv8_1
I0512 18:43:19.214391 10458 net.cpp:425] conv8_1 <- conv7_2_conv7_2_relu_0_split_0
I0512 18:43:19.214402 10458 net.cpp:399] conv8_1 -> conv8_1
I0512 18:43:19.219709 10458 net.cpp:141] Setting up conv8_1
I0512 18:43:19.219729 10458 net.cpp:148] Top shape: 1 128 5 8 (5120)
I0512 18:43:19.219734 10458 net.cpp:156] Memory required for data: 392000640
I0512 18:43:19.219759 10458 layer_factory.hpp:77] Creating layer conv8_1_relu
I0512 18:43:19.219772 10458 net.cpp:91] Creating Layer conv8_1_relu
I0512 18:43:19.219779 10458 net.cpp:425] conv8_1_relu <- conv8_1
I0512 18:43:19.219785 10458 net.cpp:386] conv8_1_relu -> conv8_1 (in-place)
I0512 18:43:19.220917 10458 net.cpp:141] Setting up conv8_1_relu
I0512 18:43:19.220933 10458 net.cpp:148] Top shape: 1 128 5 8 (5120)
I0512 18:43:19.220938 10458 net.cpp:156] Memory required for data: 392021120
I0512 18:43:19.220942 10458 layer_factory.hpp:77] Creating layer conv8_2
I0512 18:43:19.220959 10458 net.cpp:91] Creating Layer conv8_2
I0512 18:43:19.220965 10458 net.cpp:425] conv8_2 <- conv8_1
I0512 18:43:19.220976 10458 net.cpp:399] conv8_2 -> conv8_2
I0512 18:43:19.227895 10458 net.cpp:141] Setting up conv8_2
I0512 18:43:19.227917 10458 net.cpp:148] Top shape: 1 256 3 4 (3072)
I0512 18:43:19.227922 10458 net.cpp:156] Memory required for data: 392033408
I0512 18:43:19.227931 10458 layer_factory.hpp:77] Creating layer conv8_2_relu
I0512 18:43:19.227944 10458 net.cpp:91] Creating Layer conv8_2_relu
I0512 18:43:19.227954 10458 net.cpp:425] conv8_2_relu <- conv8_2
I0512 18:43:19.227962 10458 net.cpp:386] conv8_2_relu -> conv8_2 (in-place)
I0512 18:43:19.228947 10458 net.cpp:141] Setting up conv8_2_relu
I0512 18:43:19.228963 10458 net.cpp:148] Top shape: 1 256 3 4 (3072)
I0512 18:43:19.228967 10458 net.cpp:156] Memory required for data: 392045696
I0512 18:43:19.228972 10458 layer_factory.hpp:77] Creating layer conv8_2_conv8_2_relu_0_split
I0512 18:43:19.228984 10458 net.cpp:91] Creating Layer conv8_2_conv8_2_relu_0_split
I0512 18:43:19.228991 10458 net.cpp:425] conv8_2_conv8_2_relu_0_split <- conv8_2
I0512 18:43:19.228998 10458 net.cpp:399] conv8_2_conv8_2_relu_0_split -> conv8_2_conv8_2_relu_0_split_0
I0512 18:43:19.229007 10458 net.cpp:399] conv8_2_conv8_2_relu_0_split -> conv8_2_conv8_2_relu_0_split_1
I0512 18:43:19.229018 10458 net.cpp:399] conv8_2_conv8_2_relu_0_split -> conv8_2_conv8_2_relu_0_split_2
I0512 18:43:19.229027 10458 net.cpp:399] conv8_2_conv8_2_relu_0_split -> conv8_2_conv8_2_relu_0_split_3
I0512 18:43:19.229137 10458 net.cpp:141] Setting up conv8_2_conv8_2_relu_0_split
I0512 18:43:19.229149 10458 net.cpp:148] Top shape: 1 256 3 4 (3072)
I0512 18:43:19.229154 10458 net.cpp:148] Top shape: 1 256 3 4 (3072)
I0512 18:43:19.229159 10458 net.cpp:148] Top shape: 1 256 3 4 (3072)
I0512 18:43:19.229164 10458 net.cpp:148] Top shape: 1 256 3 4 (3072)
I0512 18:43:19.229168 10458 net.cpp:156] Memory required for data: 392094848
I0512 18:43:19.229172 10458 layer_factory.hpp:77] Creating layer pool6
I0512 18:43:19.229185 10458 net.cpp:91] Creating Layer pool6
I0512 18:43:19.229190 10458 net.cpp:425] pool6 <- conv8_2_conv8_2_relu_0_split_0
I0512 18:43:19.229198 10458 net.cpp:399] pool6 -> pool6
I0512 18:43:19.230306 10458 net.cpp:141] Setting up pool6
I0512 18:43:19.230325 10458 net.cpp:148] Top shape: 1 256 1 1 (256)
I0512 18:43:19.230330 10458 net.cpp:156] Memory required for data: 392095872
I0512 18:43:19.230335 10458 layer_factory.hpp:77] Creating layer pool6_pool6_0_split
I0512 18:43:19.230347 10458 net.cpp:91] Creating Layer pool6_pool6_0_split
I0512 18:43:19.230353 10458 net.cpp:425] pool6_pool6_0_split <- pool6
I0512 18:43:19.230360 10458 net.cpp:399] pool6_pool6_0_split -> pool6_pool6_0_split_0
I0512 18:43:19.230370 10458 net.cpp:399] pool6_pool6_0_split -> pool6_pool6_0_split_1
I0512 18:43:19.230378 10458 net.cpp:399] pool6_pool6_0_split -> pool6_pool6_0_split_2
I0512 18:43:19.230463 10458 net.cpp:141] Setting up pool6_pool6_0_split
I0512 18:43:19.230474 10458 net.cpp:148] Top shape: 1 256 1 1 (256)
I0512 18:43:19.230480 10458 net.cpp:148] Top shape: 1 256 1 1 (256)
I0512 18:43:19.230485 10458 net.cpp:148] Top shape: 1 256 1 1 (256)
I0512 18:43:19.230489 10458 net.cpp:156] Memory required for data: 392098944
I0512 18:43:19.230494 10458 layer_factory.hpp:77] Creating layer conv4_3_norm
I0512 18:43:19.230506 10458 net.cpp:91] Creating Layer conv4_3_norm
I0512 18:43:19.230512 10458 net.cpp:425] conv4_3_norm <- conv4_3_relu4_3_0_split_1
I0512 18:43:19.230535 10458 net.cpp:399] conv4_3_norm -> conv4_3_norm
I0512 18:43:19.230799 10458 net.cpp:141] Setting up conv4_3_norm
I0512 18:43:19.230813 10458 net.cpp:148] Top shape: 1 512 38 63 (1225728)
I0512 18:43:19.230818 10458 net.cpp:156] Memory required for data: 397001856
I0512 18:43:19.230824 10458 layer_factory.hpp:77] Creating layer conv4_3_norm_conv4_3_norm_0_split
I0512 18:43:19.230834 10458 net.cpp:91] Creating Layer conv4_3_norm_conv4_3_norm_0_split
I0512 18:43:19.230839 10458 net.cpp:425] conv4_3_norm_conv4_3_norm_0_split <- conv4_3_norm
I0512 18:43:19.230845 10458 net.cpp:399] conv4_3_norm_conv4_3_norm_0_split -> conv4_3_norm_conv4_3_norm_0_split_0
I0512 18:43:19.230854 10458 net.cpp:399] conv4_3_norm_conv4_3_norm_0_split -> conv4_3_norm_conv4_3_norm_0_split_1
I0512 18:43:19.230862 10458 net.cpp:399] conv4_3_norm_conv4_3_norm_0_split -> conv4_3_norm_conv4_3_norm_0_split_2
I0512 18:43:19.230943 10458 net.cpp:141] Setting up conv4_3_norm_conv4_3_norm_0_split
I0512 18:43:19.230954 10458 net.cpp:148] Top shape: 1 512 38 63 (1225728)
I0512 18:43:19.230960 10458 net.cpp:148] Top shape: 1 512 38 63 (1225728)
I0512 18:43:19.230965 10458 net.cpp:148] Top shape: 1 512 38 63 (1225728)
I0512 18:43:19.230969 10458 net.cpp:156] Memory required for data: 411710592
I0512 18:43:19.230974 10458 layer_factory.hpp:77] Creating layer conv4_3_norm_mbox_loc
I0512 18:43:19.230988 10458 net.cpp:91] Creating Layer conv4_3_norm_mbox_loc
I0512 18:43:19.230993 10458 net.cpp:425] conv4_3_norm_mbox_loc <- conv4_3_norm_conv4_3_norm_0_split_0
I0512 18:43:19.231004 10458 net.cpp:399] conv4_3_norm_mbox_loc -> conv4_3_norm_mbox_loc
I0512 18:43:19.234501 10458 net.cpp:141] Setting up conv4_3_norm_mbox_loc
I0512 18:43:19.234529 10458 net.cpp:148] Top shape: 1 12 38 63 (28728)
I0512 18:43:19.234534 10458 net.cpp:156] Memory required for data: 411825504
I0512 18:43:19.234544 10458 layer_factory.hpp:77] Creating layer conv4_3_norm_mbox_loc_perm
I0512 18:43:19.234555 10458 net.cpp:91] Creating Layer conv4_3_norm_mbox_loc_perm
I0512 18:43:19.234560 10458 net.cpp:425] conv4_3_norm_mbox_loc_perm <- conv4_3_norm_mbox_loc
I0512 18:43:19.234568 10458 net.cpp:399] conv4_3_norm_mbox_loc_perm -> conv4_3_norm_mbox_loc_perm
I0512 18:43:19.234740 10458 net.cpp:141] Setting up conv4_3_norm_mbox_loc_perm
I0512 18:43:19.234753 10458 net.cpp:148] Top shape: 1 38 63 12 (28728)
I0512 18:43:19.234757 10458 net.cpp:156] Memory required for data: 411940416
I0512 18:43:19.234762 10458 layer_factory.hpp:77] Creating layer conv4_3_norm_mbox_loc_flat
I0512 18:43:19.234774 10458 net.cpp:91] Creating Layer conv4_3_norm_mbox_loc_flat
I0512 18:43:19.234781 10458 net.cpp:425] conv4_3_norm_mbox_loc_flat <- conv4_3_norm_mbox_loc_perm
I0512 18:43:19.234787 10458 net.cpp:399] conv4_3_norm_mbox_loc_flat -> conv4_3_norm_mbox_loc_flat
I0512 18:43:19.234832 10458 net.cpp:141] Setting up conv4_3_norm_mbox_loc_flat
I0512 18:43:19.234843 10458 net.cpp:148] Top shape: 1 28728 (28728)
I0512 18:43:19.234846 10458 net.cpp:156] Memory required for data: 412055328
I0512 18:43:19.234851 10458 layer_factory.hpp:77] Creating layer conv4_3_norm_mbox_conf
I0512 18:43:19.234866 10458 net.cpp:91] Creating Layer conv4_3_norm_mbox_conf
I0512 18:43:19.234872 10458 net.cpp:425] conv4_3_norm_mbox_conf <- conv4_3_norm_conv4_3_norm_0_split_1
I0512 18:43:19.234884 10458 net.cpp:399] conv4_3_norm_mbox_conf -> conv4_3_norm_mbox_conf
I0512 18:43:19.239905 10458 net.cpp:141] Setting up conv4_3_norm_mbox_conf
I0512 18:43:19.239929 10458 net.cpp:148] Top shape: 1 15 38 63 (35910)
I0512 18:43:19.239934 10458 net.cpp:156] Memory required for data: 412198968
I0512 18:43:19.239944 10458 layer_factory.hpp:77] Creating layer conv4_3_norm_mbox_conf_perm
I0512 18:43:19.239954 10458 net.cpp:91] Creating Layer conv4_3_norm_mbox_conf_perm
I0512 18:43:19.239961 10458 net.cpp:425] conv4_3_norm_mbox_conf_perm <- conv4_3_norm_mbox_conf
I0512 18:43:19.239969 10458 net.cpp:399] conv4_3_norm_mbox_conf_perm -> conv4_3_norm_mbox_conf_perm
I0512 18:43:19.240140 10458 net.cpp:141] Setting up conv4_3_norm_mbox_conf_perm
I0512 18:43:19.240165 10458 net.cpp:148] Top shape: 1 38 63 15 (35910)
I0512 18:43:19.240171 10458 net.cpp:156] Memory required for data: 412342608
I0512 18:43:19.240175 10458 layer_factory.hpp:77] Creating layer conv4_3_norm_mbox_conf_flat
I0512 18:43:19.240188 10458 net.cpp:91] Creating Layer conv4_3_norm_mbox_conf_flat
I0512 18:43:19.240193 10458 net.cpp:425] conv4_3_norm_mbox_conf_flat <- conv4_3_norm_mbox_conf_perm
I0512 18:43:19.240201 10458 net.cpp:399] conv4_3_norm_mbox_conf_flat -> conv4_3_norm_mbox_conf_flat
I0512 18:43:19.240248 10458 net.cpp:141] Setting up conv4_3_norm_mbox_conf_flat
I0512 18:43:19.240259 10458 net.cpp:148] Top shape: 1 35910 (35910)
I0512 18:43:19.240264 10458 net.cpp:156] Memory required for data: 412486248
I0512 18:43:19.240268 10458 layer_factory.hpp:77] Creating layer conv4_3_norm_mbox_priorbox
I0512 18:43:19.240293 10458 net.cpp:91] Creating Layer conv4_3_norm_mbox_priorbox
I0512 18:43:19.240301 10458 net.cpp:425] conv4_3_norm_mbox_priorbox <- conv4_3_norm_conv4_3_norm_0_split_2
I0512 18:43:19.240309 10458 net.cpp:425] conv4_3_norm_mbox_priorbox <- data_data_0_split_1
I0512 18:43:19.240319 10458 net.cpp:399] conv4_3_norm_mbox_priorbox -> conv4_3_norm_mbox_priorbox
I0512 18:43:19.240363 10458 net.cpp:141] Setting up conv4_3_norm_mbox_priorbox
I0512 18:43:19.240375 10458 net.cpp:148] Top shape: 1 2 28728 (57456)
I0512 18:43:19.240378 10458 net.cpp:156] Memory required for data: 412716072
I0512 18:43:19.240383 10458 layer_factory.hpp:77] Creating layer fc7_mbox_loc
I0512 18:43:19.240401 10458 net.cpp:91] Creating Layer fc7_mbox_loc
I0512 18:43:19.240406 10458 net.cpp:425] fc7_mbox_loc <- fc7_relu7_0_split_1
I0512 18:43:19.240416 10458 net.cpp:399] fc7_mbox_loc -> fc7_mbox_loc
I0512 18:43:19.246393 10458 net.cpp:141] Setting up fc7_mbox_loc
I0512 18:43:19.246414 10458 net.cpp:148] Top shape: 1 24 19 32 (14592)
I0512 18:43:19.246420 10458 net.cpp:156] Memory required for data: 412774440
I0512 18:43:19.246429 10458 layer_factory.hpp:77] Creating layer fc7_mbox_loc_perm
I0512 18:43:19.246446 10458 net.cpp:91] Creating Layer fc7_mbox_loc_perm
I0512 18:43:19.246453 10458 net.cpp:425] fc7_mbox_loc_perm <- fc7_mbox_loc
I0512 18:43:19.246460 10458 net.cpp:399] fc7_mbox_loc_perm -> fc7_mbox_loc_perm
I0512 18:43:19.246629 10458 net.cpp:141] Setting up fc7_mbox_loc_perm
I0512 18:43:19.246642 10458 net.cpp:148] Top shape: 1 19 32 24 (14592)
I0512 18:43:19.246646 10458 net.cpp:156] Memory required for data: 412832808
I0512 18:43:19.246651 10458 layer_factory.hpp:77] Creating layer fc7_mbox_loc_flat
I0512 18:43:19.246659 10458 net.cpp:91] Creating Layer fc7_mbox_loc_flat
I0512 18:43:19.246665 10458 net.cpp:425] fc7_mbox_loc_flat <- fc7_mbox_loc_perm
I0512 18:43:19.246675 10458 net.cpp:399] fc7_mbox_loc_flat -> fc7_mbox_loc_flat
I0512 18:43:19.246721 10458 net.cpp:141] Setting up fc7_mbox_loc_flat
I0512 18:43:19.246731 10458 net.cpp:148] Top shape: 1 14592 (14592)
I0512 18:43:19.246736 10458 net.cpp:156] Memory required for data: 412891176
I0512 18:43:19.246739 10458 layer_factory.hpp:77] Creating layer fc7_mbox_conf
I0512 18:43:19.246755 10458 net.cpp:91] Creating Layer fc7_mbox_conf
I0512 18:43:19.246760 10458 net.cpp:425] fc7_mbox_conf <- fc7_relu7_0_split_2
I0512 18:43:19.246772 10458 net.cpp:399] fc7_mbox_conf -> fc7_mbox_conf
I0512 18:43:19.253370 10458 net.cpp:141] Setting up fc7_mbox_conf
I0512 18:43:19.253393 10458 net.cpp:148] Top shape: 1 30 19 32 (18240)
I0512 18:43:19.253398 10458 net.cpp:156] Memory required for data: 412964136
I0512 18:43:19.253408 10458 layer_factory.hpp:77] Creating layer fc7_mbox_conf_perm
I0512 18:43:19.253417 10458 net.cpp:91] Creating Layer fc7_mbox_conf_perm
I0512 18:43:19.253423 10458 net.cpp:425] fc7_mbox_conf_perm <- fc7_mbox_conf
I0512 18:43:19.253432 10458 net.cpp:399] fc7_mbox_conf_perm -> fc7_mbox_conf_perm
I0512 18:43:19.253602 10458 net.cpp:141] Setting up fc7_mbox_conf_perm
I0512 18:43:19.253614 10458 net.cpp:148] Top shape: 1 19 32 30 (18240)
I0512 18:43:19.253618 10458 net.cpp:156] Memory required for data: 413037096
I0512 18:43:19.253638 10458 layer_factory.hpp:77] Creating layer fc7_mbox_conf_flat
I0512 18:43:19.253649 10458 net.cpp:91] Creating Layer fc7_mbox_conf_flat
I0512 18:43:19.253654 10458 net.cpp:425] fc7_mbox_conf_flat <- fc7_mbox_conf_perm
I0512 18:43:19.253662 10458 net.cpp:399] fc7_mbox_conf_flat -> fc7_mbox_conf_flat
I0512 18:43:19.253710 10458 net.cpp:141] Setting up fc7_mbox_conf_flat
I0512 18:43:19.253721 10458 net.cpp:148] Top shape: 1 18240 (18240)
I0512 18:43:19.253726 10458 net.cpp:156] Memory required for data: 413110056
I0512 18:43:19.253729 10458 layer_factory.hpp:77] Creating layer fc7_mbox_priorbox
I0512 18:43:19.253738 10458 net.cpp:91] Creating Layer fc7_mbox_priorbox
I0512 18:43:19.253743 10458 net.cpp:425] fc7_mbox_priorbox <- fc7_relu7_0_split_3
I0512 18:43:19.253751 10458 net.cpp:425] fc7_mbox_priorbox <- data_data_0_split_2
I0512 18:43:19.253760 10458 net.cpp:399] fc7_mbox_priorbox -> fc7_mbox_priorbox
I0512 18:43:19.253806 10458 net.cpp:141] Setting up fc7_mbox_priorbox
I0512 18:43:19.253816 10458 net.cpp:148] Top shape: 1 2 14592 (29184)
I0512 18:43:19.253820 10458 net.cpp:156] Memory required for data: 413226792
I0512 18:43:19.253825 10458 layer_factory.hpp:77] Creating layer conv6_2_mbox_loc
I0512 18:43:19.253841 10458 net.cpp:91] Creating Layer conv6_2_mbox_loc
I0512 18:43:19.253846 10458 net.cpp:425] conv6_2_mbox_loc <- conv6_2_conv6_2_relu_0_split_1
I0512 18:43:19.253859 10458 net.cpp:399] conv6_2_mbox_loc -> conv6_2_mbox_loc
I0512 18:43:19.259209 10458 net.cpp:141] Setting up conv6_2_mbox_loc
I0512 18:43:19.259230 10458 net.cpp:148] Top shape: 1 24 10 16 (3840)
I0512 18:43:19.259235 10458 net.cpp:156] Memory required for data: 413242152
I0512 18:43:19.259248 10458 layer_factory.hpp:77] Creating layer conv6_2_mbox_loc_perm
I0512 18:43:19.259258 10458 net.cpp:91] Creating Layer conv6_2_mbox_loc_perm
I0512 18:43:19.259263 10458 net.cpp:425] conv6_2_mbox_loc_perm <- conv6_2_mbox_loc
I0512 18:43:19.259271 10458 net.cpp:399] conv6_2_mbox_loc_perm -> conv6_2_mbox_loc_perm
I0512 18:43:19.259448 10458 net.cpp:141] Setting up conv6_2_mbox_loc_perm
I0512 18:43:19.259460 10458 net.cpp:148] Top shape: 1 10 16 24 (3840)
I0512 18:43:19.259465 10458 net.cpp:156] Memory required for data: 413257512
I0512 18:43:19.259470 10458 layer_factory.hpp:77] Creating layer conv6_2_mbox_loc_flat
I0512 18:43:19.259479 10458 net.cpp:91] Creating Layer conv6_2_mbox_loc_flat
I0512 18:43:19.259484 10458 net.cpp:425] conv6_2_mbox_loc_flat <- conv6_2_mbox_loc_perm
I0512 18:43:19.259495 10458 net.cpp:399] conv6_2_mbox_loc_flat -> conv6_2_mbox_loc_flat
I0512 18:43:19.259538 10458 net.cpp:141] Setting up conv6_2_mbox_loc_flat
I0512 18:43:19.259551 10458 net.cpp:148] Top shape: 1 3840 (3840)
I0512 18:43:19.259554 10458 net.cpp:156] Memory required for data: 413272872
I0512 18:43:19.259558 10458 layer_factory.hpp:77] Creating layer conv6_2_mbox_conf
I0512 18:43:19.259574 10458 net.cpp:91] Creating Layer conv6_2_mbox_conf
I0512 18:43:19.259580 10458 net.cpp:425] conv6_2_mbox_conf <- conv6_2_conv6_2_relu_0_split_2
I0512 18:43:19.259591 10458 net.cpp:399] conv6_2_mbox_conf -> conv6_2_mbox_conf
I0512 18:43:19.263803 10458 net.cpp:141] Setting up conv6_2_mbox_conf
I0512 18:43:19.263824 10458 net.cpp:148] Top shape: 1 30 10 16 (4800)
I0512 18:43:19.263829 10458 net.cpp:156] Memory required for data: 413292072
I0512 18:43:19.263839 10458 layer_factory.hpp:77] Creating layer conv6_2_mbox_conf_perm
I0512 18:43:19.263852 10458 net.cpp:91] Creating Layer conv6_2_mbox_conf_perm
I0512 18:43:19.263859 10458 net.cpp:425] conv6_2_mbox_conf_perm <- conv6_2_mbox_conf
I0512 18:43:19.263867 10458 net.cpp:399] conv6_2_mbox_conf_perm -> conv6_2_mbox_conf_perm
I0512 18:43:19.264045 10458 net.cpp:141] Setting up conv6_2_mbox_conf_perm
I0512 18:43:19.264056 10458 net.cpp:148] Top shape: 1 10 16 30 (4800)
I0512 18:43:19.264061 10458 net.cpp:156] Memory required for data: 413311272
I0512 18:43:19.264065 10458 layer_factory.hpp:77] Creating layer conv6_2_mbox_conf_flat
I0512 18:43:19.264076 10458 net.cpp:91] Creating Layer conv6_2_mbox_conf_flat
I0512 18:43:19.264098 10458 net.cpp:425] conv6_2_mbox_conf_flat <- conv6_2_mbox_conf_perm
I0512 18:43:19.264107 10458 net.cpp:399] conv6_2_mbox_conf_flat -> conv6_2_mbox_conf_flat
I0512 18:43:19.264152 10458 net.cpp:141] Setting up conv6_2_mbox_conf_flat
I0512 18:43:19.264168 10458 net.cpp:148] Top shape: 1 4800 (4800)
I0512 18:43:19.264176 10458 net.cpp:156] Memory required for data: 413330472
I0512 18:43:19.264180 10458 layer_factory.hpp:77] Creating layer conv6_2_mbox_priorbox
I0512 18:43:19.264190 10458 net.cpp:91] Creating Layer conv6_2_mbox_priorbox
I0512 18:43:19.264195 10458 net.cpp:425] conv6_2_mbox_priorbox <- conv6_2_conv6_2_relu_0_split_3
I0512 18:43:19.264202 10458 net.cpp:425] conv6_2_mbox_priorbox <- data_data_0_split_3
I0512 18:43:19.264214 10458 net.cpp:399] conv6_2_mbox_priorbox -> conv6_2_mbox_priorbox
I0512 18:43:19.264256 10458 net.cpp:141] Setting up conv6_2_mbox_priorbox
I0512 18:43:19.264267 10458 net.cpp:148] Top shape: 1 2 3840 (7680)
I0512 18:43:19.264271 10458 net.cpp:156] Memory required for data: 413361192
I0512 18:43:19.264276 10458 layer_factory.hpp:77] Creating layer conv7_2_mbox_loc
I0512 18:43:19.264294 10458 net.cpp:91] Creating Layer conv7_2_mbox_loc
I0512 18:43:19.264302 10458 net.cpp:425] conv7_2_mbox_loc <- conv7_2_conv7_2_relu_0_split_1
I0512 18:43:19.264312 10458 net.cpp:399] conv7_2_mbox_loc -> conv7_2_mbox_loc
I0512 18:43:19.267997 10458 net.cpp:141] Setting up conv7_2_mbox_loc
I0512 18:43:19.268055 10458 net.cpp:148] Top shape: 1 24 5 8 (960)
I0512 18:43:19.268064 10458 net.cpp:156] Memory required for data: 413365032
I0512 18:43:19.268081 10458 layer_factory.hpp:77] Creating layer conv7_2_mbox_loc_perm
I0512 18:43:19.268101 10458 net.cpp:91] Creating Layer conv7_2_mbox_loc_perm
I0512 18:43:19.268112 10458 net.cpp:425] conv7_2_mbox_loc_perm <- conv7_2_mbox_loc
I0512 18:43:19.268132 10458 net.cpp:399] conv7_2_mbox_loc_perm -> conv7_2_mbox_loc_perm
I0512 18:43:19.268502 10458 net.cpp:141] Setting up conv7_2_mbox_loc_perm
I0512 18:43:19.268518 10458 net.cpp:148] Top shape: 1 5 8 24 (960)
I0512 18:43:19.268525 10458 net.cpp:156] Memory required for data: 413368872
I0512 18:43:19.268532 10458 layer_factory.hpp:77] Creating layer conv7_2_mbox_loc_flat
I0512 18:43:19.268548 10458 net.cpp:91] Creating Layer conv7_2_mbox_loc_flat
I0512 18:43:19.268555 10458 net.cpp:425] conv7_2_mbox_loc_flat <- conv7_2_mbox_loc_perm
I0512 18:43:19.268568 10458 net.cpp:399] conv7_2_mbox_loc_flat -> conv7_2_mbox_loc_flat
I0512 18:43:19.268625 10458 net.cpp:141] Setting up conv7_2_mbox_loc_flat
I0512 18:43:19.268640 10458 net.cpp:148] Top shape: 1 960 (960)
I0512 18:43:19.268656 10458 net.cpp:156] Memory required for data: 413372712
I0512 18:43:19.268663 10458 layer_factory.hpp:77] Creating layer conv7_2_mbox_conf
I0512 18:43:19.268692 10458 net.cpp:91] Creating Layer conv7_2_mbox_conf
I0512 18:43:19.268702 10458 net.cpp:425] conv7_2_mbox_conf <- conv7_2_conv7_2_relu_0_split_2
I0512 18:43:19.268720 10458 net.cpp:399] conv7_2_mbox_conf -> conv7_2_mbox_conf
I0512 18:43:19.272974 10458 net.cpp:141] Setting up conv7_2_mbox_conf
I0512 18:43:19.272999 10458 net.cpp:148] Top shape: 1 30 5 8 (1200)
I0512 18:43:19.273006 10458 net.cpp:156] Memory required for data: 413377512
I0512 18:43:19.273020 10458 layer_factory.hpp:77] Creating layer conv7_2_mbox_conf_perm
I0512 18:43:19.273036 10458 net.cpp:91] Creating Layer conv7_2_mbox_conf_perm
I0512 18:43:19.273043 10458 net.cpp:425] conv7_2_mbox_conf_perm <- conv7_2_mbox_conf
I0512 18:43:19.273061 10458 net.cpp:399] conv7_2_mbox_conf_perm -> conv7_2_mbox_conf_perm
I0512 18:43:19.273313 10458 net.cpp:141] Setting up conv7_2_mbox_conf_perm
I0512 18:43:19.273329 10458 net.cpp:148] Top shape: 1 5 8 30 (1200)
I0512 18:43:19.273337 10458 net.cpp:156] Memory required for data: 413382312
I0512 18:43:19.273346 10458 layer_factory.hpp:77] Creating layer conv7_2_mbox_conf_flat
I0512 18:43:19.273357 10458 net.cpp:91] Creating Layer conv7_2_mbox_conf_flat
I0512 18:43:19.273365 10458 net.cpp:425] conv7_2_mbox_conf_flat <- conv7_2_mbox_conf_perm
I0512 18:43:19.273377 10458 net.cpp:399] conv7_2_mbox_conf_flat -> conv7_2_mbox_conf_flat
I0512 18:43:19.273458 10458 net.cpp:141] Setting up conv7_2_mbox_conf_flat
I0512 18:43:19.273474 10458 net.cpp:148] Top shape: 1 1200 (1200)
I0512 18:43:19.273481 10458 net.cpp:156] Memory required for data: 413387112
I0512 18:43:19.273493 10458 layer_factory.hpp:77] Creating layer conv7_2_mbox_priorbox
I0512 18:43:19.273505 10458 net.cpp:91] Creating Layer conv7_2_mbox_priorbox
I0512 18:43:19.273515 10458 net.cpp:425] conv7_2_mbox_priorbox <- conv7_2_conv7_2_relu_0_split_3
I0512 18:43:19.273527 10458 net.cpp:425] conv7_2_mbox_priorbox <- data_data_0_split_4
I0512 18:43:19.273538 10458 net.cpp:399] conv7_2_mbox_priorbox -> conv7_2_mbox_priorbox
I0512 18:43:19.273600 10458 net.cpp:141] Setting up conv7_2_mbox_priorbox
I0512 18:43:19.273614 10458 net.cpp:148] Top shape: 1 2 960 (1920)
I0512 18:43:19.273622 10458 net.cpp:156] Memory required for data: 413394792
I0512 18:43:19.273630 10458 layer_factory.hpp:77] Creating layer conv8_2_mbox_loc
I0512 18:43:19.273651 10458 net.cpp:91] Creating Layer conv8_2_mbox_loc
I0512 18:43:19.273660 10458 net.cpp:425] conv8_2_mbox_loc <- conv8_2_conv8_2_relu_0_split_1
I0512 18:43:19.273679 10458 net.cpp:399] conv8_2_mbox_loc -> conv8_2_mbox_loc
I0512 18:43:19.278712 10458 net.cpp:141] Setting up conv8_2_mbox_loc
I0512 18:43:19.278736 10458 net.cpp:148] Top shape: 1 24 3 4 (288)
I0512 18:43:19.278745 10458 net.cpp:156] Memory required for data: 413395944
I0512 18:43:19.278764 10458 layer_factory.hpp:77] Creating layer conv8_2_mbox_loc_perm
I0512 18:43:19.278779 10458 net.cpp:91] Creating Layer conv8_2_mbox_loc_perm
I0512 18:43:19.278786 10458 net.cpp:425] conv8_2_mbox_loc_perm <- conv8_2_mbox_loc
I0512 18:43:19.278798 10458 net.cpp:399] conv8_2_mbox_loc_perm -> conv8_2_mbox_loc_perm
I0512 18:43:19.279047 10458 net.cpp:141] Setting up conv8_2_mbox_loc_perm
I0512 18:43:19.279062 10458 net.cpp:148] Top shape: 1 3 4 24 (288)
I0512 18:43:19.279069 10458 net.cpp:156] Memory required for data: 413397096
I0512 18:43:19.279081 10458 layer_factory.hpp:77] Creating layer conv8_2_mbox_loc_flat
I0512 18:43:19.279101 10458 net.cpp:91] Creating Layer conv8_2_mbox_loc_flat
I0512 18:43:19.279109 10458 net.cpp:425] conv8_2_mbox_loc_flat <- conv8_2_mbox_loc_perm
I0512 18:43:19.279124 10458 net.cpp:399] conv8_2_mbox_loc_flat -> conv8_2_mbox_loc_flat
I0512 18:43:19.279181 10458 net.cpp:141] Setting up conv8_2_mbox_loc_flat
I0512 18:43:19.279196 10458 net.cpp:148] Top shape: 1 288 (288)
I0512 18:43:19.279204 10458 net.cpp:156] Memory required for data: 413398248
I0512 18:43:19.279212 10458 layer_factory.hpp:77] Creating layer conv8_2_mbox_conf
I0512 18:43:19.279232 10458 net.cpp:91] Creating Layer conv8_2_mbox_conf
I0512 18:43:19.279242 10458 net.cpp:425] conv8_2_mbox_conf <- conv8_2_conv8_2_relu_0_split_2
I0512 18:43:19.279256 10458 net.cpp:399] conv8_2_mbox_conf -> conv8_2_mbox_conf
I0512 18:43:19.283735 10458 net.cpp:141] Setting up conv8_2_mbox_conf
I0512 18:43:19.283757 10458 net.cpp:148] Top shape: 1 30 3 4 (360)
I0512 18:43:19.283766 10458 net.cpp:156] Memory required for data: 413399688
I0512 18:43:19.283782 10458 layer_factory.hpp:77] Creating layer conv8_2_mbox_conf_perm
I0512 18:43:19.283794 10458 net.cpp:91] Creating Layer conv8_2_mbox_conf_perm
I0512 18:43:19.283804 10458 net.cpp:425] conv8_2_mbox_conf_perm <- conv8_2_mbox_conf
I0512 18:43:19.283818 10458 net.cpp:399] conv8_2_mbox_conf_perm -> conv8_2_mbox_conf_perm
I0512 18:43:19.284063 10458 net.cpp:141] Setting up conv8_2_mbox_conf_perm
I0512 18:43:19.284078 10458 net.cpp:148] Top shape: 1 3 4 30 (360)
I0512 18:43:19.284085 10458 net.cpp:156] Memory required for data: 413401128
I0512 18:43:19.284096 10458 layer_factory.hpp:77] Creating layer conv8_2_mbox_conf_flat
I0512 18:43:19.284109 10458 net.cpp:91] Creating Layer conv8_2_mbox_conf_flat
I0512 18:43:19.284117 10458 net.cpp:425] conv8_2_mbox_conf_flat <- conv8_2_mbox_conf_perm
I0512 18:43:19.284129 10458 net.cpp:399] conv8_2_mbox_conf_flat -> conv8_2_mbox_conf_flat
I0512 18:43:19.284188 10458 net.cpp:141] Setting up conv8_2_mbox_conf_flat
I0512 18:43:19.284219 10458 net.cpp:148] Top shape: 1 360 (360)
I0512 18:43:19.284229 10458 net.cpp:156] Memory required for data: 413402568
I0512 18:43:19.284237 10458 layer_factory.hpp:77] Creating layer conv8_2_mbox_priorbox
I0512 18:43:19.284253 10458 net.cpp:91] Creating Layer conv8_2_mbox_priorbox
I0512 18:43:19.284263 10458 net.cpp:425] conv8_2_mbox_priorbox <- conv8_2_conv8_2_relu_0_split_3
I0512 18:43:19.284274 10458 net.cpp:425] conv8_2_mbox_priorbox <- data_data_0_split_5
I0512 18:43:19.284287 10458 net.cpp:399] conv8_2_mbox_priorbox -> conv8_2_mbox_priorbox
I0512 18:43:19.284349 10458 net.cpp:141] Setting up conv8_2_mbox_priorbox
I0512 18:43:19.284363 10458 net.cpp:148] Top shape: 1 2 288 (576)
I0512 18:43:19.284371 10458 net.cpp:156] Memory required for data: 413404872
I0512 18:43:19.284379 10458 layer_factory.hpp:77] Creating layer pool6_mbox_loc
I0512 18:43:19.284399 10458 net.cpp:91] Creating Layer pool6_mbox_loc
I0512 18:43:19.284409 10458 net.cpp:425] pool6_mbox_loc <- pool6_pool6_0_split_0
I0512 18:43:19.284426 10458 net.cpp:399] pool6_mbox_loc -> pool6_mbox_loc
I0512 18:43:19.288755 10458 net.cpp:141] Setting up pool6_mbox_loc
I0512 18:43:19.288779 10458 net.cpp:148] Top shape: 1 24 1 1 (24)
I0512 18:43:19.288787 10458 net.cpp:156] Memory required for data: 413404968
I0512 18:43:19.288825 10458 layer_factory.hpp:77] Creating layer pool6_mbox_loc_perm
I0512 18:43:19.288841 10458 net.cpp:91] Creating Layer pool6_mbox_loc_perm
I0512 18:43:19.288849 10458 net.cpp:425] pool6_mbox_loc_perm <- pool6_mbox_loc
I0512 18:43:19.288866 10458 net.cpp:399] pool6_mbox_loc_perm -> pool6_mbox_loc_perm
I0512 18:43:19.289115 10458 net.cpp:141] Setting up pool6_mbox_loc_perm
I0512 18:43:19.289130 10458 net.cpp:148] Top shape: 1 1 1 24 (24)
I0512 18:43:19.289139 10458 net.cpp:156] Memory required for data: 413405064
I0512 18:43:19.289147 10458 layer_factory.hpp:77] Creating layer pool6_mbox_loc_flat
I0512 18:43:19.289161 10458 net.cpp:91] Creating Layer pool6_mbox_loc_flat
I0512 18:43:19.289170 10458 net.cpp:425] pool6_mbox_loc_flat <- pool6_mbox_loc_perm
I0512 18:43:19.289182 10458 net.cpp:399] pool6_mbox_loc_flat -> pool6_mbox_loc_flat
I0512 18:43:19.289239 10458 net.cpp:141] Setting up pool6_mbox_loc_flat
I0512 18:43:19.289252 10458 net.cpp:148] Top shape: 1 24 (24)
I0512 18:43:19.289260 10458 net.cpp:156] Memory required for data: 413405160
I0512 18:43:19.289269 10458 layer_factory.hpp:77] Creating layer pool6_mbox_conf
I0512 18:43:19.289289 10458 net.cpp:91] Creating Layer pool6_mbox_conf
I0512 18:43:19.289299 10458 net.cpp:425] pool6_mbox_conf <- pool6_pool6_0_split_1
I0512 18:43:19.289319 10458 net.cpp:399] pool6_mbox_conf -> pool6_mbox_conf
I0512 18:43:19.293736 10458 net.cpp:141] Setting up pool6_mbox_conf
I0512 18:43:19.293757 10458 net.cpp:148] Top shape: 1 30 1 1 (30)
I0512 18:43:19.293766 10458 net.cpp:156] Memory required for data: 413405280
I0512 18:43:19.293789 10458 layer_factory.hpp:77] Creating layer pool6_mbox_conf_perm
I0512 18:43:19.293800 10458 net.cpp:91] Creating Layer pool6_mbox_conf_perm
I0512 18:43:19.293807 10458 net.cpp:425] pool6_mbox_conf_perm <- pool6_mbox_conf
I0512 18:43:19.293820 10458 net.cpp:399] pool6_mbox_conf_perm -> pool6_mbox_conf_perm
I0512 18:43:19.294041 10458 net.cpp:141] Setting up pool6_mbox_conf_perm
I0512 18:43:19.294055 10458 net.cpp:148] Top shape: 1 1 1 30 (30)
I0512 18:43:19.294061 10458 net.cpp:156] Memory required for data: 413405400
I0512 18:43:19.294067 10458 layer_factory.hpp:77] Creating layer pool6_mbox_conf_flat
I0512 18:43:19.294080 10458 net.cpp:91] Creating Layer pool6_mbox_conf_flat
I0512 18:43:19.294088 10458 net.cpp:425] pool6_mbox_conf_flat <- pool6_mbox_conf_perm
I0512 18:43:19.294098 10458 net.cpp:399] pool6_mbox_conf_flat -> pool6_mbox_conf_flat
I0512 18:43:19.294150 10458 net.cpp:141] Setting up pool6_mbox_conf_flat
I0512 18:43:19.294162 10458 net.cpp:148] Top shape: 1 30 (30)
I0512 18:43:19.294169 10458 net.cpp:156] Memory required for data: 413405520
I0512 18:43:19.294178 10458 layer_factory.hpp:77] Creating layer pool6_mbox_priorbox
I0512 18:43:19.294205 10458 net.cpp:91] Creating Layer pool6_mbox_priorbox
I0512 18:43:19.294214 10458 net.cpp:425] pool6_mbox_priorbox <- pool6_pool6_0_split_2
I0512 18:43:19.294224 10458 net.cpp:425] pool6_mbox_priorbox <- data_data_0_split_6
I0512 18:43:19.294236 10458 net.cpp:399] pool6_mbox_priorbox -> pool6_mbox_priorbox
I0512 18:43:19.294293 10458 net.cpp:141] Setting up pool6_mbox_priorbox
I0512 18:43:19.294306 10458 net.cpp:148] Top shape: 1 2 24 (48)
I0512 18:43:19.294313 10458 net.cpp:156] Memory required for data: 413405712
I0512 18:43:19.294320 10458 layer_factory.hpp:77] Creating layer mbox_loc
I0512 18:43:19.294333 10458 net.cpp:91] Creating Layer mbox_loc
I0512 18:43:19.294343 10458 net.cpp:425] mbox_loc <- conv4_3_norm_mbox_loc_flat
I0512 18:43:19.294353 10458 net.cpp:425] mbox_loc <- fc7_mbox_loc_flat
I0512 18:43:19.294375 10458 net.cpp:425] mbox_loc <- conv6_2_mbox_loc_flat
I0512 18:43:19.294384 10458 net.cpp:425] mbox_loc <- conv7_2_mbox_loc_flat
I0512 18:43:19.294392 10458 net.cpp:425] mbox_loc <- conv8_2_mbox_loc_flat
I0512 18:43:19.294402 10458 net.cpp:425] mbox_loc <- pool6_mbox_loc_flat
I0512 18:43:19.294415 10458 net.cpp:399] mbox_loc -> mbox_loc
I0512 18:43:19.294471 10458 net.cpp:141] Setting up mbox_loc
I0512 18:43:19.294481 10458 net.cpp:148] Top shape: 1 48432 (48432)
I0512 18:43:19.294488 10458 net.cpp:156] Memory required for data: 413599440
I0512 18:43:19.294495 10458 layer_factory.hpp:77] Creating layer mbox_conf
I0512 18:43:19.294507 10458 net.cpp:91] Creating Layer mbox_conf
I0512 18:43:19.294515 10458 net.cpp:425] mbox_conf <- conv4_3_norm_mbox_conf_flat
I0512 18:43:19.294525 10458 net.cpp:425] mbox_conf <- fc7_mbox_conf_flat
I0512 18:43:19.294535 10458 net.cpp:425] mbox_conf <- conv6_2_mbox_conf_flat
I0512 18:43:19.294544 10458 net.cpp:425] mbox_conf <- conv7_2_mbox_conf_flat
I0512 18:43:19.294553 10458 net.cpp:425] mbox_conf <- conv8_2_mbox_conf_flat
I0512 18:43:19.294561 10458 net.cpp:425] mbox_conf <- pool6_mbox_conf_flat
I0512 18:43:19.294571 10458 net.cpp:399] mbox_conf -> mbox_conf
I0512 18:43:19.294625 10458 net.cpp:141] Setting up mbox_conf
I0512 18:43:19.294637 10458 net.cpp:148] Top shape: 1 60540 (60540)
I0512 18:43:19.294644 10458 net.cpp:156] Memory required for data: 413841600
I0512 18:43:19.294652 10458 layer_factory.hpp:77] Creating layer mbox_priorbox
I0512 18:43:19.294663 10458 net.cpp:91] Creating Layer mbox_priorbox
I0512 18:43:19.294672 10458 net.cpp:425] mbox_priorbox <- conv4_3_norm_mbox_priorbox
I0512 18:43:19.294680 10458 net.cpp:425] mbox_priorbox <- fc7_mbox_priorbox
I0512 18:43:19.294689 10458 net.cpp:425] mbox_priorbox <- conv6_2_mbox_priorbox
I0512 18:43:19.294698 10458 net.cpp:425] mbox_priorbox <- conv7_2_mbox_priorbox
I0512 18:43:19.294708 10458 net.cpp:425] mbox_priorbox <- conv8_2_mbox_priorbox
I0512 18:43:19.294715 10458 net.cpp:425] mbox_priorbox <- pool6_mbox_priorbox
I0512 18:43:19.294725 10458 net.cpp:399] mbox_priorbox -> mbox_priorbox
I0512 18:43:19.294777 10458 net.cpp:141] Setting up mbox_priorbox
I0512 18:43:19.294790 10458 net.cpp:148] Top shape: 1 2 48432 (96864)
I0512 18:43:19.294796 10458 net.cpp:156] Memory required for data: 414229056
I0512 18:43:19.294803 10458 layer_factory.hpp:77] Creating layer mbox_conf_reshape
I0512 18:43:19.294817 10458 net.cpp:91] Creating Layer mbox_conf_reshape
I0512 18:43:19.294824 10458 net.cpp:425] mbox_conf_reshape <- mbox_conf
I0512 18:43:19.294836 10458 net.cpp:399] mbox_conf_reshape -> mbox_conf_reshape
I0512 18:43:19.294898 10458 net.cpp:141] Setting up mbox_conf_reshape
I0512 18:43:19.294909 10458 net.cpp:148] Top shape: 1 12108 5 (60540)
I0512 18:43:19.294916 10458 net.cpp:156] Memory required for data: 414471216
I0512 18:43:19.294924 10458 layer_factory.hpp:77] Creating layer mbox_conf_softmax
I0512 18:43:19.294939 10458 net.cpp:91] Creating Layer mbox_conf_softmax
I0512 18:43:19.294945 10458 net.cpp:425] mbox_conf_softmax <- mbox_conf_reshape
I0512 18:43:19.294957 10458 net.cpp:399] mbox_conf_softmax -> mbox_conf_softmax
I0512 18:43:19.295352 10458 net.cpp:141] Setting up mbox_conf_softmax
I0512 18:43:19.295367 10458 net.cpp:148] Top shape: 1 12108 5 (60540)
I0512 18:43:19.295385 10458 net.cpp:156] Memory required for data: 414713376
I0512 18:43:19.295393 10458 layer_factory.hpp:77] Creating layer mbox_conf_flatten
I0512 18:43:19.295404 10458 net.cpp:91] Creating Layer mbox_conf_flatten
I0512 18:43:19.295413 10458 net.cpp:425] mbox_conf_flatten <- mbox_conf_softmax
I0512 18:43:19.295423 10458 net.cpp:399] mbox_conf_flatten -> mbox_conf_flatten
I0512 18:43:19.295476 10458 net.cpp:141] Setting up mbox_conf_flatten
I0512 18:43:19.295487 10458 net.cpp:148] Top shape: 1 60540 (60540)
I0512 18:43:19.295501 10458 net.cpp:156] Memory required for data: 414955536
I0512 18:43:19.295508 10458 layer_factory.hpp:77] Creating layer detection_out
I0512 18:43:19.295528 10458 net.cpp:91] Creating Layer detection_out
I0512 18:43:19.295536 10458 net.cpp:425] detection_out <- mbox_loc
I0512 18:43:19.295545 10458 net.cpp:425] detection_out <- mbox_conf_flatten
I0512 18:43:19.295554 10458 net.cpp:425] detection_out <- mbox_priorbox
…
